warmup/warmup_2_113_-_1.pth (torch, 824633 bytes, 17 tensors)

transformer.wte.weight f4 [14, 128]
00000000: 283d 253c 6d58 2f3c cca2 b93b 06d7 673c
00000010: 0479 673c e6ff b63c 8b13 293c e991 3b3c
00000020: b615 c3ba f93f 023d d92d ef3c 42e5 d5bc
00000030: 20f6 993c 1771 9f3c 7795 233a 28af fe3c
00000040: 28ef 793c 85e6 a33b 47c6 293d 7e15 813c
00000050: b74a 07bc 5bfb 773c 5e23 d63b 2530 80bd
00000060: c6ec b13c 236d 89bc ec42 ed3c 8e82 b1bc
00000070: ad52 0dbb 9436 da3c 6c18 843c 1303 b33b
00000080: 4b4f 4abc 3dac 50bc 3fa0 653c 6534 18bc
00000090: 31ce 043d 50c2 b73a 475c b9bc 5272 f93b
000000a0: 4489 203c e218 9bbc e104 6c3c 2b76 afbc
000000b0: 05bd 4abc 3570 c23b 99f1 8f3a f41d 82bc
000000c0: 2b75 2abc f644 0bbc 0cff 71bb b93a 42bc
000000d0: 9d30 adbc 77c2 a03a 2ac1 7abc 0683 ae3a
000000e0: 5050 eabb 1df3 28bc 7c46 6a3c e1ee 3abc
000000f0: ed40 a7bc b940 7d3c 1eb1 93bc f008 95bc
00000100: d47b 3f3c 280f c9bc f4b4 e8bb 55a0 6d3c
00000110: aad2 83bc 468d 343c ae3e f03b 10ef 933b
00000120: dee6 493b 00a0 acbc 7a7e 133c 61e5 8f3c
00000130: 071c f53b ca2e 0a3d 189b 363a 9ead 8c3b
00000140: 2a75 af3c d008 f63b c85a 3b3b 3b20 06bc
00000150: eddd 40bc d1c6 1ebd 1878 f33b c34b 61ba
00000160: f328 7d3c 0bfc 873c 7928 72bc 32c5 083d
00000170: 0f92 0c3c 74bf e2bd 6dfb bb3b cf40 9ebc
00000180: c392 4ebc c3ae b93b 94c3 24b9 2308 85bc
00000190: bafc c2bb 8238 943a a837 84bc 8bc7 a1ba
000001a0: e344 183b 9310 043d 1566 433c 0ec1 833b
000001b0: b570 863b fa51 39bb 995b fa3c 69ef 973b
000001c0: 377c 003c a533 b33b a3af 55bc da71 0fbb
000001d0: 035e e43c 78d5 a23c fd26 c0bb 6d44 b8ba
000001e0: 3b9c 8dbc ee64 fd3a 559b d4bb 201f 04bb
000001f0: 79d0 c43c 9b7b a03b fb36 91ba 723f 7c3c
00000200: 2d19 e23c 7699 853c 08da e53a c96e b7bb
00000210: 2923 f8ba e177 6c3a e911 8a3b 363b 4dbc
00000220: eb43 9fbc d3b8 c3bb 66ac d53c cd2c 0fbc
00000230: aef0 ae3c 6b1c db3c 51fd f1ba 72c1 3d3d
00000240: baf1 ac3c 0730 f43c 82f3 613c f67c 83bc
00000250: d03a 8abb 1fd0 bebc 7f7e 8fbc 9b9b dabd
00000260: a11d eb3b e365 58bc 9c3a 243d 7840 fcbc
00000270: 78fa 3ebc 0cc1 063d 9641 0e3d 1d7c 0dbc
00000280: d1ac 8f3c 38a1 cdbc 4297 00bc f8b3 e23b
00000290: 70e5 713d d210 5f3b 43d6 3dbc e338 e6bc
000002a0: 3f4a 4bbc a9b7 48bc 5759 31bc e024 dbbc
000002b0: 4625 90bb 55db dcbc a813 2bba 8845 8e3a
000002c0: a4dc 493c 1e0f 68bc 6cf0 92bc 5a23 8cbc
000002d0: c23d a4bc 50af 2fbb 491f 3bbd cb15 8d3b
000002e0: 7924 42bd e506 bbbc bd19 eb3b 0cde 4bbd
000002f0: 0e03 a0bb e00a 8dbb e7f3 00bd 9e6c 403b
00000300: d0d1 f73b 7fa8 32bd 6420 93bc 7871 113c
00000310: d198 88bb fb68 733d 439b dabc a76c 94bc
00000320: 1aa8 9c3b 1e2a 883c 4be3 28bc c0aa 0b3d
00000330: d08b 47bc 6ce4 4a3d 3427 edba 9b49 3abc
00000340: 9260 113d 44c2 6bbc be1f c0bc 5a49 033c
00000350: b453 2abb fbc4 6cbc 7759 673c 3f6b abbc
00000360: 67e1 513d 93f0 393a b812 ecbc 8b9d 783c
00000370: 5569 97bc 9b3f 03bd 398d 463a 7584 72bc
00000380: 833e 073d 3952 033d 4ec0 43bc 0d63 14bd
00000390: 506a dabc 36a8 c2bc a96f dc3b ae19 d7bc
000003a0: a7c8 5fbc 4ebf 8a3d 5a5f 88bc 1971 53bc
000003b0: dd9d 8abc 4c97 a6bc dd76 363d b830 edbc
000003c0: e071 62bc c5af e93c 2fbc 3ebc e2cb 42bc
000003d0: 91b0 c03c d2c0 7cbc 3ed4 36bc 373d 12bd
000003e0: 4312 f1bc d937 ec3b de58 e4bc fbc0 87bc
000003f0: f57d d53c 856a daba 460e cd3a 7b41 203d
0.010085382 0.010702235 0.005665159 0.014150387 0.0141279735 0.022338819 0.010319601 0.011448362
-0.001488379 0.03179929 0.029196667 -0.026110295 0.01879412 0.019463105 0.00062402285 0.03108938
0.015254773 0.0050018453 0.041448858 0.015757319 -0.0082575595 0.015135611 0.006534978 -0.06259183
0.021719348 -0.016775673 0.028962575 -0.021668699 -0.0021564171 0.026637353 0.016124927 0.005463013
-0.0123480065 -0.012736377 0.014015256 -0.009289836 0.032423202 0.0014019702 -0.02262701 0.007612505
0.009798352 -0.018932763 0.01440546 -0.021418652 -0.012374167 0.0059337863 0.0010982036 -0.015883423
-0.010403912 -0.008500328 -0.0036925701 -0.011854821 -0.021141345 0.0012264986 -0.015304843 0.0013314195
-0.0071506873 -0.010311869 0.014299031 -0.011409492 -0.020416701 0.015457326 -0.018028792 -0.018192738
0.011687238 -0.02454336 -0.0071016494 0.014503558 -0.016091663 0.01102001 0.0073316908 0.0045145825
0.0030807774 -0.021072388 0.009002322 0.017565431 0.0074801478 0.033736028 0.000696586 0.0042931577
0.021418173 0.0075083748 0.0028588045 -0.008186395 -0.011771661 -0.038763825 0.007430088 -0.0008594358
0.015451658 0.016599676 -0.014780157 0.033391185 0.008579745 -0.11071673 0.0057367594 -0.019318013
-0.012608233 0.005666585 -0.00015713117 -0.016239231 -0.0059505375 0.0011308345 -0.01613982 -0.0012342794
0.002323442 0.03224237 0.011926194 0.0040208166 0.004102791 -0.0028277622 0.030561255 0.004636694
0.007842115 0.005468803 -0.013042363 -0.002188793 0.02787686 0.01987718 -0.0058640228 -0.0014058478
-0.01728641 0.0019332448 -0.0064882436 -0.0020160154 0.024025189 0.0048975474 -0.0011079008 0.015395986
0.027599895 0.016308527 0.0017536292 -0.0055979234 -0.0018931377 0.0009020549 0.004213561 -0.012526324
-0.019441565 -0.0059729605 0.026083183 -0.008738709 0.021355 0.02674695 -0.0018462335 0.046327062
0.021111358 0.029808057 0.013790967 -0.016050797 -0.004218437 -0.0232926 -0.017516373 -0.10674211
0.007175163 -0.013207885 0.040094957 -0.03079246 -0.011656396 0.032898948 0.034730516 -0.008635548
0.01753846 -0.02510129 -0.007848563 0.0069184266 0.0590567 0.0034037125 -0.0115867285 -0.028103298
-0.012407838 -0.012250819 -0.010824523 -0.026750982 -0.0043989746 -0.026960054 -0.00065260613 0.0010854462
0.012320671 -0.0141637605 -0.017936908 -0.0171067 -0.02004898 -0.0026807375 -0.045684133 0.0043055764
-0.047398064 -0.022830436 0.007174699 -0.049772307 -0.0048831766 -0.004304275 -0.031482603 0.0029361616
0.0075628534 -0.04361772 -0.017959781 0.008877151 -0.0041686078 0.05942629 -0.026685363 -0.018118216
0.0047807815 0.016621646 -0.010308097 0.034098387 -0.01217933 0.049534246 -0.0018093348 -0.011370088
0.035492487 -0.014389578 -0.023452636 0.008013094 -0.0025989832 -0.014451261 0.014120451 -0.020925162
0.05124035 0.00070930383 -0.02881752 0.01517428 -0.018482843 -0.03204308 0.00075741444 -0.014802088
0.0330186 0.032060836 -0.0119477045 -0.036227275 -0.026662022 -0.02376185 0.006727178 -0.026257362
-0.013658679 0.0677477 -0.01664703 -0.012905383 -0.016920978 -0.020335816 0.04454695 -0.028953895
-0.013821095 0.028526196 -0.011641546 -0.01188943 0.023521693 -0.015426831 -0.011159001 -0.03570291
-0.029427653 0.007208806 -0.027874406 -0.016571512 0.026061038 -0.0016663825 0.0015644513 0.039124947

transformer.wpe.weight f4 [32, 128]
00000000: ee75 203c 6fd1 973c 8eba 213c b527 31bb
00000010: 14a5 643b 2457 74bc 25fb b4bb a514 b1bc
00000020: 791c 8cbc 52cc 543c c859 83bc ada7 f13c
00000030: 2f92 11ba 0746 9d3c 6add 8f3c 7569 d1bb
00000040: 9678 de3b f9c6 7e3b dc3a f0bb 87fd 283c
00000050: d811 9ab9 46a0 8abc 2354 1d3c 211a 86bc
00000060: 0bdc 10bc a5ae 553c c688 ddbb f450 58bb
00000070: 7a8f 12ba 5242 8b3c 4639 0c3d ab22 793c
00000080: a2bd e93a ed91 2ebb 5fe4 30ba a9b3 153c
00000090: 54de 613a 7be8 64bc 294f 753c 67be 23ba
000000a0: 5361 06bc 1afe 8e3b d77d 9fbb f501 ae3c
000000b0: 0d15 573c 2040 2ebc 3a6d 1abc d081 553c
000000c0: e98a 193c 2e0d 043c de85 dabc 7540 db3a
000000d0: 1e0c d0bb b1a8 1b3c 6813 f23b 6df5 da3b
000000e0: 8752 d73b f615 41bc 7517 ccbc 0c70 9f3a
000000f0: edd7 acbb 34d8 79bc 3478 0f3c 6461 b53c
00000100: 8f76 163c 807b 523b 5db8 31bc 884c 563b
00000110: 51ed 92bc cd03 fa3c e825 323c dbf3 5dbc
00000120: 3919 063c 46cc 0a3c 42a0 333c d7e2 1f3d
00000130: 4737 90ba dcd5 b43a f5f2 323c 3ec7 ec3b
00000140: a1e4 1b39 4649 0fbc 6067 6a3b 7197 97bc
00000150: 0c0b 30bc b9dc 9dbd 9c2b 16bb bd04 8f3c
00000160: b52a ff3a 8af0 1c3c 058f ec3b 3f7b 3abb
00000170: cb14 aebb 530b 223b 9cf9 97bb d106 8d3b
00000180: 3443 c0bb 2847 6e3c c653 ea39 5673 30bb
00000190: 3c42 00bb bc82 c0bb df2d 4cbc badf fc3b
000001a0: 7e24 133c 8704 633d 096c 1dbc f03e c93a
000001b0: 5c2d 10bc c0d4 8bbb fdad 8e3b 3ca4 b93b
000001c0: 32a8 803c 5657 633b c2e7 8d3b 8129 3bbc
000001d0: 7779 51bc 6ef6 5fbb 2e62 363b 45e3 1c3b
000001e0: f075 ab3b 52d5 8b3c 1d93 123c 3de5 03bd
000001f0: ad31 8f3b b061 93bc 7535 0fbb 3106 a83b
00000200: b341 273c c64a 91bc 5f83 75bc 22b4 76ba
00000210: bad4 3b3b 44d8 dc3b f807 3a3c 6ee2 133c
00000220: ef9a 893b a586 8d3b 86c8 143d 4681 c6bc
00000230: 7195 69bb a8ea 183c 7e00 9ebc c856 f23c
00000240: a648 a53c 5cd6 3e3c 97ee bd3d cdd8 27bb
00000250: a9ab 5abc 43d7 063c 6181 6dbc 1684 263c
00000260: e08d 353b 37ae b3bb a0ff 493c a5ce 61bc
00000270: 4397 c23b 2263 8cbb a731 2fbc eb1d 0fbc
00000280: c69c f83a 1378 d1bc d880 983b a269 33bc
00000290: aff6 323d 6964 d23b 5e12 9dbc 068d 293c
000002a0: 14bd eb3a 0c3f 01bb 2c7e a2bb 8fae 98bc
000002b0: 679a b4bb 4ed1 de3b 0d3a 4b3c 9136 8dbc
000002c0: 5206 ff3b 373f 8fbc 66b7 10bc 7412 b1bb
000002d0: 44af 7bb9 46a3 923a 57fd 7cbc d8b9 17bc
000002e0: 357c febb 3f92 593b cf76 4b3b 03e2 98bb
000002f0: 09a1 c33a 9f1b 913c c1af eebc 7e56 11bd
00000300: 5b38 a7bc b0c2 c8bc ee2c a73c 4904 44bc
00000310: a162 613c d54a a2bb 953d 99bb fcc7 7fbb
00000320: 9605 a9bb f1a9 66bc 2c3b 89bb 4dbb 4abc
00000330: 3dda c33b 8ab4 ef3c 389f 6cba 60c7 083c
00000340: e148 3d3b 7177 ff3b 400b 1dbc 46c1 893c
00000350: 15e7 d93b bcb9 1d3b a045 3dbc 70b8 b0bc
00000360: 6334 bdbc 9d06 7ebb e19c bfbc 7356 b939
00000370: 6f37 24ba 401a 03b8 b863 93bb 0bf9 5bbb
00000380: 8b87 923b 718e 2fbb 64da 97bc e8c1 10bc
00000390: 7d84 f2bb 67f0 2eba d5e3 3f3c 5e50 58bc
000003a0: aa78 80bc 97ab 813c 5e46 d43b 3977 8aba
000003b0: 6358 fbbb 321c d83b d732 3c3c 3810 433b
000003c0: f53b 56bc cebe d93b f071 7e3b 1c7f 233c
000003d0: 5ad8 b43c b2a0 5f3b 20f9 b0bc c838 c83a
000003e0: d1d1 d3bc 7f22 71bc afec 60bc 82bf 8f3a
000003f0: 7435 cc3b 615c 4c3b 15ff b7bb 08a4 563c
0.009793742 0.018532483 0.009871138 -0.0027031724 0.0034888433 -0.014913354 -0.005523103 -0.02161629
-0.01710342 0.012988167 -0.016034022 0.0294989 -0.0005553094 0.01919843 0.017561633 -0.0063907453
0.0067892773 0.003887592 -0.0073312353 0.010314352 -0.00029386464 -0.016922127 0.009602579 -0.016369881
-0.008841525 0.013042127 -0.0067606894 -0.0033007236 -0.00055908377 0.016999397 0.034234308 0.015206019
0.0017833004 -0.0026637272 -0.0006747897 0.009137073 0.00086161983 -0.013971443 0.0149724865 -0.00062463287
-0.008201915 0.0043637874 -0.004867296 0.021241168 0.0131275775 -0.010635406 -0.009425456 0.013031438
0.009371498 0.008059783 -0.026675161 0.0016727584 -0.0063491007 0.009500668 0.0073875673 0.006682089
0.0065711173 -0.011785021 -0.024913529 0.001216413 -0.005274764 -0.015249301 0.008756686 0.022141166
0.00918354 0.0032117069 -0.010847178 0.0032699425 -0.017935427 0.03051939 0.010873295 -0.013546909
0.0081847245 0.008471554 0.010963501 0.03903469 -0.0011002802 0.0013796645 0.010922183 0.0072259
0.00014867123 -0.008745497 0.0035767183 -0.01850483 -0.010744821 -0.07708115 -0.0022914177 0.017458314
0.0019467684 0.009578833 0.0072191977 -0.0028454808 -0.0053125373 0.0024725988 -0.00463791 0.004303791
-0.0058673862 0.014543332 0.00044694374 -0.0026924214 -0.0019570729 -0.0058749598 -0.012462108 0.0077171
0.008980868 0.05542424 -0.009608277 0.001535384 -0.008799877 -0.004267305 0.004354237 0.00566533
0.015705202 0.0034689507 0.004330606 -0.0114234695 -0.012785307 -0.0034173983 0.0027829516 0.0023939174
0.005232565 0.017069492 0.008946207 -0.03220104 0.0043699355 -0.017990917 -0.0021851931 0.005127691
0.010208535 -0.01773585 -0.014984935 -0.0009410997 0.002866073 0.006739648 0.011354439 0.009026153
0.0041993777 0.0043190294 0.036324047 -0.024231564 -0.0035642053 0.00933329 -0.019287344 0.029582396
0.020176243 0.011647787 0.09274023 -0.00256114 -0.013346591 0.008230033 -0.014496178 0.010163328
0.0027702972 -0.0054834145 0.012329012 -0.013782178 0.005938442 -0.0042842785 -0.01069299 -0.00873516
0.001896762 -0.025569951 0.0046540312 -0.010950478 0.043692287 0.006420661 -0.019173797 0.010348564
0.0017985427 -0.0019721417 -0.0049588885 -0.018637924 -0.0055115703 0.0067998534 0.012403977 -0.017237933
0.007782736 -0.017486198 -0.008832788 -0.005403811 -0.00024002517 0.0011187575 -0.01544126 -0.009260617
-0.0077662715 0.0033198742 0.0031046157 -0.0046656146 0.0014925312 0.017713366 -0.02913654 -0.035482876
-0.020412615 -0.024506897 0.020407166 -0.011963912 0.013756425 -0.0049527683 -0.0046765306 -0.0039029112
-0.0051581366 -0.014078603 -0.004187962 -0.012373758 0.0059769438 0.029260892 -0.0009026411 0.008348316
0.002888255 0.007796221 -0.009585202 0.016815793 0.0066498616 0.0024067005 -0.011552244 -0.021572322
-0.023096269 -0.0038761266 -0.023390235 0.0003535036 -0.0006264364 -3.125728e-05 -0.0044979714 -0.003356519
0.0044717244 -0.0026787783 -0.018536754 -0.008835293 -0.0074010477 -0.0006673396 0.011712034 -0.013202755
-0.015682537 0.01582889 0.006478115 -0.0010564096 -0.0076704486 0.006595158 0.011486731 0.0029764306
-0.013075818 0.00664506 0.0038825236 0.009979036 0.02207582 0.0034122881 -0.021603167 0.0015275711
-0.025856884 -0.014717697 -0.013728305 0.0010967108 0.006231958 0.0031182992 -0.005615125 0.013100632

transformer.h.0.ln_1.weight f4 [128]
00000000: d459 1b3f e5a6 ed3f a61f 4b3f 9476 ad3f
00000010: 7f0b ac3e f1b9 8c3f acc2 103f 3eac 153f
00000020: abfa de3e ac31 0640 f0c1 c83e 748a 743f
00000030: 9cb2 c33f ccb7 6d40 51b0 393f 5776 d93e
00000040: b9f2 e93e 289d 413f 5fec 8940 c979 563f
00000050: c10b b63f 7451 9c3e 1150 a03e 13b8 3e40
00000060: 1128 263f 91c1 523f 191d ff3e 9a82 a63e
00000070: e88a 123f 596f 1640 5612 cf3e f0c0 c73e
00000080: aac6 2d3f aa2b 663e 1cc2 a73e 6a68 583f
00000090: f325 f73e c5e7 0d3f 7c91 5a40 5e0d 333e
000000a0: a1e0 3e3f 2f8f d13f 8f53 6a3f eaef 433f
000000b0: bd9e b63f d5cf 893e 3055 a63f 61ee f53e
000000c0: 650e 753f c26b ad3e 5adf ad3e 6381 033f
000000d0: 8f48 e63f 952c 8b3f 478f a53e 6382 1140
000000e0: 8e29 5d3e 9213 143f fda7 4f3f 09a7 713e
000000f0: b1da a53f 3977 823e 967f 6f3e 4160 973f
00000100: 36aa 4740 b169 a83e a68f 773f 1e74 513f
00000110: a31b 1c40 865f f33e c939 773e 232f c53e
00000120: 8692 773e c86f fd3e 5ad9 043f e743 023f
00000130: a727 043f a04d b83e 7d81 733f 0bfd 0a3f
00000140: 1e67 fe3e 7166 023f 5f09 d83e a996 273f
00000150: bff3 b03f a7a1 9440 43e8 b13f d360 f63e
00000160: b2ed 0740 fd71 993f c54c 563e 987e 1140
00000170: 749a da3e e4f4 6840 8ee3 4440 979f 693f
00000180: c648 7f3f 466d 093f 6992 ef3e acc2 a53e
00000190: 8fb0 a43e bc07 a23e 0ae4 353f d66a 743e
000001a0: 8bf3 fd3e 519e 193f 4823 013f 59fa 3240
000001b0: b363 ec3e 5269 513f 98f9 e33e fba6 1b3b
000001c0: 7e3d 233f 242f 353f 07ed 063f f2ec d13e
000001d0: ba45 8d3e d639 053f 3394 cb3e 9cfe 20bb
000001e0: 2b17 fa3e b319 f33e 5293 423f 84e5 e03e
000001f0: 4d88 e13e a914 043f 539f dc3e 99ba 363f
0.6068394 1.8566557 0.79345167 1.3551812 0.3360252 1.0994245 0.56547046 0.58465946
0.4355062 2.0967817 0.39210463 0.9552376 1.5288882 3.714343 0.7253466 0.424731
0.45692995 0.75630426 4.310104 0.8377958 1.4222337 0.30530894 0.31311086 2.979985
0.64904886 0.8232661 0.49826887 0.32521516 0.57243204 2.3505461 0.40443677 0.39014387
0.6788126 0.22477594 0.3276528 0.84534323 0.4827114 0.5543178 3.4151297 0.17485568
0.74561507 1.6371821 0.9153375 0.76537955 1.4267193 0.26916376 1.2994747 0.4803343
0.9572509 0.33871275 0.33959466 0.51369303 1.7990893 1.087298 0.32335874 2.2735832
0.21597883 0.5784236 0.81115705 0.23598875 1.2957364 0.25481585 0.23388514 1.1826249
3.1197639 0.32893136 0.96703565 0.81817806 2.4391868 0.47533816 0.24143137 0.38512525
0.24176988 0.49499345 0.5189415 0.5088486 0.51623005 0.35996723 0.9511946 0.5429236
0.49688047 0.50937563 0.4219465 0.65464264 1.3824385 4.644733 1.3899006 0.48120746
2.1238828 1.1987911 0.20927723 2.2733517 0.42695963 3.639947 3.0763888 0.9125914
0.9972042 0.53682363 0.4679139 0.32375085 0.32165954 0.31646526 0.71051085 0.2386888
0.4959987 0.60007197 0.5044446 2.79653 0.46169814 0.8180133 0.44526362 0.002375065
0.63765705 0.70775056 0.52705425 0.41001087 0.2759226 0.52041376 0.39761505 -0.0024565822
0.488458 0.47480544 0.7600604 0.43925107 0.44049302 0.51594025 0.43090305 0.71378475

transformer.h.0.ln_1.bias f4 [128]
00000000: f743 af3c de91 00bd a9a4 b2bd 3dba fb3d
00000010: acf7 83bd df09 ccbc 1aaa 7b3d 365f cd3d
00000020: 99bc c73d fc11 1fbd 1914 c63d 53b4 84be
00000030: 20d9 02be a67c edbe b666 d13d 7e91 553e
00000040: e019 403e 23a4 25bd faa3 293f ef5c 67bd
00000050: 0858 f3bd e956 c9bd 0b05 3f3c 9546 d73e
00000060: 9f24 563d 80d2 ad3c 7ebb f93d 77bd c7bd
00000070: 819e 00bc 041f f6bd 07b9 323e 8f7c 26bc
00000080: e2c0 ebba 9cd7 b0bd e0cb 18bd 428f 20bd
00000090: bb33 553e 0825 a83d 483e ce3e ab79 2f3a
000000a0: ffb8 713d e340 0dbd fa60 6a3e 40d0 37be
000000b0: 2b03 783d 5a0a 69bd 9732 d93e ad79 713d
000000c0: 64c0 923e 6298 103c c1ff bdbd 86c9 123e
000000d0: 4c4a fb3d c59c a33c a741 7fbd 62ed 453d
000000e0: 3dd3 24bd 9efe 6abd bd73 4bbd 8959 b4bd
000000f0: eb22 023e 6900 c6bc 015b fabc 4b10 8c3e
00000100: bfdf bb3d 6849 c2bd 0464 ddb9 13c4 f0bd
00000110: 2c65 a43e aecc 893e 3177 1d3c 6ee3 403c
00000120: 0849 4e3d a740 5b3d 1378 763c f401 d73d
00000130: 1d04 993c 4db9 033e 9b2c 503d 978d 2b3e
00000140: fcd7 e63d 386a e6bd feae 91bd 653b 033d
00000150: b40e a53d e77c 9e3e 14dd c33e a011 fd3b
00000160: fa20 003f e358 373e f37c 91bd 637b cf3e
00000170: b77c 9cbd 68d0 10bf 2f5e 0c3e ed09 bcbd
00000180: 132b 6a3e 94f4 373e 2e66 29be 9669 64bd
00000190: 8e31 07be f8d2 aa3a 69e9 db3d d0ef 9bbc
000001a0: f256 32bc ad4c 263e dd79 a3bd 23cd 08be
000001b0: 84c5 36be 44d9 c9bc 6447 a43d 2857 59b9
000001c0: e4c0 91bd df1c 20bd 42d9 7b3d 0db3 cdbd
000001d0: be54 1c3d 8fb4 ef3c 5e40 ebbd cd99 64bb
000001e0: 485c d4bd a2f6 7bbb 14ac 93bd 354b 4cbe
000001f0: 8a01 8d3d e66e d03d 7c85 c53d add3 85bc
0.021394713 -0.03138911 -0.08722813 0.122913815 -0.06443724 -0.02490705 0.06144152 0.10027926
0.09752769 -0.03883551 0.09671802 -0.25918826 -0.12778139 -0.46384162 0.10224669 0.20856282
0.1875987 -0.040439736 0.66265833 -0.056485113 -0.11882025 -0.0983103 0.011658917 0.42046037
0.05228102 0.021218538 0.121939644 -0.097529344 -0.00785029 -0.120176345 0.17453395 -0.010161533
-0.0017986561 -0.08634874 -0.037303805 -0.03919912 0.20820515 0.08210188 0.40281892 0.000669385
0.059014317 -0.03448571 0.22888556 -0.17950535 0.060549896 -0.056894638 0.4242141 0.05895393
0.28662407 0.008825393 -0.09277297 0.14334688 0.122700304 0.019972214 -0.06231847 0.04832209
-0.040240515 -0.057371728 -0.049670924 -0.0880614 0.12708633 -0.024170117 -0.030560972 0.2735618
0.091735356 -0.094866574 -0.00042226922 -0.11756148 0.32108438 0.2691397 0.009610937 0.011772973
0.050362617 0.053528454 0.015043276 0.104984194 0.01867872 0.12863655 0.05082379 0.16753231
0.112716645 -0.11250728 -0.07113455 0.032039065 0.08059445 0.30954668 0.38254607 0.0077230483
0.5005032 0.17905001 -0.0710391 0.40523824 -0.07640975 -0.56568 0.13707803 -0.09181581
0.22867994 0.17964393 -0.16542885 -0.055764757 -0.13202497 0.0013032844 0.10737879 -0.01903525
-0.010884987 0.16240187 -0.07982228 -0.13359503 -0.17848784 -0.024639733 0.08021429 -0.00020727201
-0.07116869 -0.039090034 0.06148649 -0.10043917 0.038166754 0.029260902 -0.114868864 -0.0034881711
-0.10369164 -0.0038446565 -0.07210556 -0.19950564 0.06885059 0.10177402 0.09644601 -0.016336286

transformer.h.0.attn.c_attn.weight f4 [384, 128]
00000000: 2257 263c f686 92bb 5fc0 69bc ae9a c8bb
00000010: cfd1 f23b 6ae0 8b3c 4f3b 023d 475e 0f3d
00000020: 620d e73c 0b80 26bc c9ae 013d a36b 08bd
00000030: 6308 02bc 3e93 2ebc 418d 87bb 666d db3c
00000040: 01f6 473c ca9f c43c d37e 033d 705a b6bc
00000050: 1beb 3e3c d93e 683c cf7f d9bc c81a e33c
00000060: a205 c23c 1a5a edbc 01ef d13c 19a0 91bc
00000070: bdf2 5c3c 0f0e e0bc 8183 f2bc 9a0a d1bc
00000080: 076b 353c 81a9 0cbd 7af3 a0bc a48e 69bc
00000090: 66b6 f73c b248 cb3c 1279 fbbc 87d5 223c
000000a0: e034 a33c 163b b1bb ef5e 37bb 8b34 24bd
000000b0: 4cb7 aebc b8d7 803c fe5e eb3c c547 cbbc
000000c0: 77e0 7fbc 9379 cebc 644f bc3c d4b2 ac3c
000000d0: 6704 323c 30c1 47bc a67f c5bc 7dd0 b23b
000000e0: 3510 c8bb 8777 fb3b d908 973c 5875 75bb
000000f0: a56f b73c a669 f33c 63c8 bcbc 5a81 c5bc
00000100: ee4e 29bc b0f7 17bd 99e4 b33c d246 a0bc
00000110: 9d5b 913c a271 dfbc ca85 80bc 834f 623c
00000120: 3438 06bc c29b 77bc 84b8 583b 8f17 00bd
00000130: ae07 973c c9fa bf3c f749 8fbc 1d66 8a3b
00000140: e54f 523b e36b 633c f769 02bb ba1e ef3c
00000150: 2ed8 e23b a5b0 c43c 160f e1bb 4f84 92bc
00000160: 512d d7bc c028 92bc 28d2 e4bc 1601 a4bb
00000170: c5e7 353c a1b9 debb 74c7 953b 727c adbc
00000180: 8d77 d63b 6aaa bcbc b202 b0bc 33ea 5c3a
00000190: 0cdc 87bc 4577 323c ca41 ae3c 13dc c4bc
000001a0: bc4e febc dda1 9bbc 705f a63b 1476 d0ba
000001b0: 4d07 243c 8c02 9a3b f550 b13c 856b fdba
000001c0: d466 6cbc 8071 bb3c c862 803c f2e2 7f3c
000001d0: 7136 eb3c f6ee 8d3b 9e1d 02bd 7785 0cba
000001e0: 9c57 ebbc e27c c8bc 2e1b a6bc 797a bb3c
000001f0: deaf 123a b973 c63c 313d 803b 83ea c13c
00000200: 51c8 57bc 1dda 7c3c 4dea 983c 745a 37bd
00000210: 5578 02ba e3ee 423c 4162 a0bc 8349 cabc
00000220: d3f5 413c a77a 063c 61d7 aebc 8a1f dfbb
00000230: 47f2 93bc 98e8 843c be0a 88bc e6d6 633b
00000240: 2864 f33a 22e5 0fbc e613 513c f6d6 483d
00000250: f470 223d 5bab 0dbd 5383 bc3c 7e63 43bc
00000260: db66 833c e5ca bc3c 3ce3 96bc d8dc 5c3a
00000270: 7209 c83c 4630 cc3c 2a12 ed3b 2831 f4bb
00000280: 0488 a63c f411 363c f2fe adbc c430 a438
00000290: e6ff 52bc 4ddc 073b 7dcc 6f3c 962f 0e3c
000002a0: 65d6 303c 6e3d 783b 9d10 6c3b c5f0 4b39
000002b0: 6c70 63bc 17ba 9bbc 65bf 5d3c e170 283c
000002c0: c317 1b3c 0fea 5d3b da98 ac3b f22f fa3b
000002d0: 4c6e 633c 63ba 77bc c734 0e3d 49ac f5bc
000002e0: 9068 043d effb 423d c95e 01bb 3ecd 22bd
000002f0: ca43 373c 8925 debc 6cc4 a13c 36a8 bdbb
00000300: d687 c7bc baf2 693c de19 b9bb 06ca 48bc
00000310: f69c a5bb 83dd e73b eca0 62bc 6d4d 9d3b
00000320: cc1a 453b db58 62bb 0f5b 5a3d 7953 603c
00000330: f7c2 183d c656 63bc 0855 9a3c 7d2b a53c
00000340: c36d 403c d0e8 a139 ed6b 0fbd f7be 9ebc
00000350: 81f0 12bc d29a aeb9 5276 3cb8 c275 1b3d
00000360: d18a 403c 458c bfbc 47eb 133c 24e5 cc3b
00000370: 03cb 92bc bf46 2f3c c21b 193c 29ca 2abb
00000380: 9f0c df3c ab9b 013c a2c5 58bc ba4a 4b3c
00000390: 0a1f 14bc 639f c93c 91f5 96bb a672 f93b
000003a0: 3897 583c 588d d13a 2cbe 3ebd f141 20bd
000003b0: f1be afbb 86aa a8bc c859 f7bc ba41 cfba
000003c0: 3712 11bc 17bc a938 7d47 e0bc 2e66 52bd
000003d0: b2a6 eabc e472 d33b c437 ff3a c11f 85bc
000003e0: 3dac ad3c cfd2 a3bc 4345 0f3d 053c 2cbc
000003f0: ac48 11bd ae7b 583c c40a 0f3d 8a1e 7abc
0.01015261 -0.004471655 -0.014267056 -0.006121955 0.007410265 0.017074782 0.031794842 0.03500202
0.028204624 -0.010162364 0.03166083 -0.033305775 -0.00793657 -0.010655222 -0.004136712 0.026785564
0.012204648 0.024001975 0.03210337 -0.02225992 0.011652733 0.01417514 -0.026550202 0.027722731
0.023684327 -0.028973628 0.025626661 -0.017776536 0.013485608 -0.027350454 -0.029603722 -0.02551775
0.011072881 -0.03434134 -0.019647349 -0.0142552 0.030238342 0.024814937 -0.03069738 0.009938604
0.019922674 -0.005408655 -0.0027980169 -0.04008917 -0.021327637 0.015727863 0.02873182 -0.024814496
-0.015617481 -0.025204455 0.022987075 0.021081366 0.010865307 -0.012192056 -0.02410872 0.0054569826
-0.0061054477 0.007674161 0.018436836 -0.0037453976 0.022392103 0.029713463 -0.02304477 -0.024109531
-0.01033376 -0.037101448 0.02195959 -0.01956502 0.01774388 -0.027275864 -0.015688796 0.013812902
-0.008192111 -0.015112819 0.0033068964 -0.031272467 0.01843628 0.023435013 -0.017491324 0.0042235986
0.0032091078 0.013880703 -0.0019899586 0.029189456 0.0069227433 0.024010012 -0.0068682535 -0.017885355
-0.026266726 -0.017841697 -0.027932242 -0.0050050123 0.011102621 -0.006797031 0.004570896 -0.021177504
0.0065450133 -0.023030479 -0.02148566 0.00084272324 -0.016584419 0.010892694 0.021271605 -0.02403072
-0.031043403 -0.01899808 0.005077295 -0.0015904331 0.010011506 0.0047000106 0.021645049 -0.0019334411
-0.014428813 0.02288127 0.015672103 0.015618073 0.028712483 0.004331465 -0.031766526 -0.0005360464
-0.028728299 -0.024473611 -0.020276632 0.022885548 0.0005595664 0.024225103 0.0039135446 0.023671394
-0.013170318 0.015432862 0.01866641 -0.044763997 -0.00049770373 0.011897775 -0.019578101 -0.024693256
0.011838394 0.008207954 -0.021342935 -0.0068091797 -0.018059863 0.01622419 -0.016606685 0.003476554
0.0018569278 -0.008782657 0.012761092 0.049033128 0.0396585 -0.034587245 0.023011839 -0.011925576
0.016040256 0.023045966 -0.0184189 0.0008425242 0.024418566 0.024925362 0.0072348313 -0.007452149
0.02032853 0.011112679 -0.021239731 7.829213e-05 -0.012878394 0.0020730675 0.014636156 0.008678338
0.010793303 0.0037878412 0.0036020644 0.00019449282 -0.013881784 -0.019009633 0.013534402 0.010280819
0.009466114 0.0033861434 0.0052672448 0.00763511 0.013881277 -0.015120122 0.0347183 -0.029989379
0.03232628 0.047603544 -0.0019740334 -0.039746515 0.011185596 -0.027117508 0.019746982 -0.0057878746
-0.024356764 0.014279062 -0.0056488356 -0.012255197 -0.0050541116 0.007075967 -0.013832312 0.0048004896
0.0030075787 -0.0034537825 0.053309496 0.013691776 0.037295308 -0.013875669 0.018839374 0.020162338
0.011744919 0.00030881772 -0.035015035 -0.019378169 -0.008968473 -0.00033303216 -4.4932887e-05 0.0379541
0.011751846 -0.023382315 0.009028262 0.0062529016 -0.01791907 0.0106980195 0.009344997 -0.0026060438
0.027227698 0.007910649 -0.013230713 0.012407953 -0.009040603 0.024612134 -0.0046069105 0.007612544
0.013219647 0.0015987558 -0.04656808 -0.039125387 -0.005363338 -0.020589124 -0.030194178 -0.0015812435
-0.00885444 8.0935824e-05 -0.027377838 -0.051366977 -0.02864394 0.006452905 0.0019471576 -0.016250493
0.021200294 -0.019997982 0.034978162 -0.010512357 -0.035469696 0.013213081 0.034922376 -0.01526607

transformer.h.0.attn.c_attn.bias f4 [384]
00000000: c8ee 89bf 62d7 113e b838 bcbe 6675 1cbb
00000010: cdd2 c3bf f004 85bd 730c 223d 5274 83b9
00000020: 3839 863f 64cb 683f a649 d5bf f65e b5be
00000030: 9292 66be f61e da39 bc19 a63f 600b 563f
00000040: 1c03 5ebb 0901 cf3f b64c aa3e 3872 ab3e
00000050: 500d a9be 24bf 4c3a 83ca ca3f 1f7a 46bf
00000060: 544d fa3c c6f5 0dbc 8fa1 b9ba d274 ea3c
00000070: 36e3 12bb 2b59 d9bd 439d 25bf b3b6 84bd
00000080: 9ab3 933f dd06 553f ce4a 5c3f bd62 93bf
00000090: 3f8a 66bf c0aa 323f e6a8 14be 876c 01be
000000a0: 1d07 143f 8c4e 69bf c7f4 7a3b 26b7 1ebf
000000b0: c797 dfbe f586 443f aee2 0cbf 8fa5 6bbf
000000c0: 38ba c33e bc49 4f3e c0f3 0fbf ecd4 d1be
000000d0: 5142 bebd 9b06 e3be 48f8 693f 1148 0c3f
000000e0: 0a12 4f3d ed13 10bf 30d3 853f 61a7 bcbe
000000f0: d01d 683f 8457 203f 5b4a 293f 2533 08bf
00000100: 709b 8e3f 21d7 053c 389c e9be f9ae cdbf
00000110: 7405 6c3f 0bbf b9bf eb7c c1bf 79f6 58bf
00000120: aa07 2dbe ef43 8c3d fce7 fdbc 5bc9 05bb
00000130: 2520 6c3f 6c40 c53f 919d 89bf b11f a83f
00000140: 4306 b4be c44d 093e 33d1 8a3d 0d0a 18bf
00000150: 239c 68bf 869e bfbf 4595 4abf 5711 12bf
00000160: 2719 7e3f d265 cb3f b7ac 9fbd 21b4 88be
00000170: 6b39 8cbe c1c7 953f 215b 443e 0292 95bf
00000180: 1bd0 1240 ccb1 0340 62c8 16bf e21f fbbf
00000190: fa56 0b40 5ce2 ce3f bad2 d33f 2b03 c53f
000001a0: 9367 e2be 0b14 d13f fb05 a5bf 3706 1240
000001b0: 1beb cc3f c5bd 0140 32fc 02c0 53fb 0fc0
000001c0: 0e51 9a3f 6872 2440 d63f e63e d97c 0c40
000001d0: 40c7 e3bf e7eb e3be bd6b f63f 1bdf d8bb
000001e0: c712 dbbf b4a9 f5bf ceba 993f 4183 eb3f
000001f0: 6379 27c0 44be 4f3f 6827 1040 fc4f 2340
00000200: a3f2 7cc0 ed4b 9e3f 99a7 ccbf ff2f 283f
00000210: a7fb 75c0 b33b 233e ba40 583f e243 dd3e
00000220: e023 7140 d77c 4e40 6d90 82c0 f037 09bf
00000230: 6889 73be 3b72 dc3e da5b 5f40 12fe 4b40
00000240: a242 20bd 8583 8140 f629 533f 4d1d 893f
00000250: 2dbc e33c 91cb f1be ecd6 7e40 36d7 4ac0
00000260: 97ed c53e d943 713c 765c 06be a636 0a3f
00000270: 4728 eabb 46c0 3d3e 0950 24c0 e2f2 abbd
00000280: da7f 7f40 c98c 7940 dbdc 2640 ca12 65c0
00000290: b8ea 29c0 374f 2a40 03fc f1be 7a78 a5bf
000002a0: 0fd3 0f40 551b 81c0 caf2 203f d559 8fc0
000002b0: d677 49bf eba9 4040 272a 80c0 c1c9 87c0
000002c0: fcdb 6540 a65e 2440 95cd 0cc0 410e e5bf
000002d0: d1d9 1640 80fe 7fc0 8610 4640 f8cf 0e40
000002e0: dfda 52be 9226 c4bf c21a 5840 7883 95bf
000002f0: 1666 9440 f2db 3140 d423 d43f f7e5 21bf
00000300: 93de 7240 8405 40be f24a 14c0 2fa0 85c0
00000310: 2e38 2a40 2c4d 84c0 96bf 81c0 38f1 17c0
00000320: 940b 7cbf 10e5 ab3f 7c21 5abf 418c 073c
00000330: 2cac 7bbe 53cb 873f 0661 41c0 e908 5740
00000340: 76d6 3a3f 68dc ef3f 1167 9e3f 6697 a6bf
00000350: c031 3bc0 1548 6cc0 4928 40c0 39e7 1cc0
00000360: 9f69 6840 a85a 8440 b9f9 313f a3a9 fdbf
00000370: 7afe cabf f0f2 6640 9e82 c13f de67 18be
00000380: 6398 4e41 e0f3 5241 3624 30c0 23ca 0ec1
00000390: 57a8 3041 eed2 2441 f304 f440 618e 0b41
000003a0: e4f7 ecbf a92e 3f41 c182 09c1 8484 5441
000003b0: 1f61 1841 d1b1 4a41 7e1a 58c1 ef0e 29c1
000003c0: 1360 e040 f9b5 4541 b18e c03f 9365 4941
000003d0: 2ab7 24c1 0762 c6bf b840 4c41 9df7 0b3e
000003e0: 513a 45c1 4ac3 35c1 fa4b bc40 31a0 0941
000003f0: fdba 3ac1 2798 7540 8040 4d41 59f1 4d41
-1.0775995 0.14242318 -0.36762023 -0.0023873686 -1.5298706 -0.064950824 0.039562654 -0.00025072932
1.0486212 0.9093535 -1.6663101 -0.35424012 -0.2251685 0.00041603268 1.2976604 0.83611107
-0.0033876365 1.6172191 0.3326165 0.3348558 -0.3301797 0.00078104646 1.5843052 -0.7753009
0.030554451 -0.008664554 -0.0014162528 0.028620157 -0.002241326 -0.106127106 -0.6469309 -0.064801596
1.1539185 0.832136 0.8605164 -1.1514508 -0.90054697 0.69791794 -0.14517555 -0.12639056
0.57823354 -0.9113548 0.0038292871 -0.6199821 -0.43670484 0.7676843 -0.55033386 -0.920495
0.3822801 0.20242971 -0.5623131 -0.4098276 -0.092899926 -0.44340977 0.9139447 0.54797465
0.050554313 -0.56280404 1.0455074 -0.3684645 0.9067049 0.6263354 0.6612908 -0.5320304
1.1141186 0.0081689665 -0.45626998 -1.6069022 0.9219582 -1.4511427 -1.5116247 -0.8475109
-0.16897455 0.06848895 -0.030994408 -0.0020414207 0.9223655 1.5410285 -1.075121 1.3134671
-0.35161027 0.13408571 0.06778183 -0.59390336 -0.90863246 -1.4970253 -0.7913402 -0.5705771
0.9925713 1.5890448 -0.077966146 -0.26699927 -0.27387556 1.1701585 0.19175388 -1.1685183
2.2939517 2.0577269 -0.5889951 -1.9619105 2.1771836 1.6162829 1.6548684 1.5391592
-0.44219646 1.6334242 -1.289245 2.2816293 1.6009248 2.0272076 -2.0466428 -2.2497146
1.2055986 2.5694828 0.44970578 2.19512 -1.7795181 -0.44515917 1.9251629 -0.006618393
-1.7115105 -1.9192414 1.2010133 1.839943 -2.6167839 0.811497 2.2524052 2.5517569
-3.9523094 1.2366921 -1.5988647 0.65698236 -3.8434846 0.15940742 0.84473765 0.43215853
3.7678146 3.2263696 -4.08013 -0.5360098 -0.23782885 0.430559 3.4899812 3.1873822
-0.039126046 4.0473046 0.824859 1.0712067 0.02779969 -0.4722562 3.9818678 -3.1693854
0.3865783 0.014725649 -0.13121209 0.53989637 -0.0071459147 0.18530378 -2.567385 -0.083959356
3.9921784 3.8992178 2.60723 -3.5792718 -2.654951 2.661085 -0.47262582 -1.2927392
2.247257 -4.0345864 0.62870467 -4.479716 -0.7869848 3.010371 -4.0051455 -4.243378
3.5915518 2.568277 -2.2000477 -1.7894975 2.3570445 -3.9999084 3.0947585 2.2314434
-0.20591305 -1.5324271 3.3766332 -1.1680746 4.6374617 2.7790494 1.6573434 -0.63241524
3.7948349 -0.18752104 -2.3170743 -4.1758037 2.659679 -4.1344204 -4.054637 -2.3740978
-0.98455167 1.3429279 -0.85207343 0.008273185 -0.24577397 1.0608925 -3.0215468 3.3599188
0.7298349 1.8739138 1.2375203 -1.3014953 -2.9249115 -3.6918995 -3.0024588 -2.4516127
3.6314466 4.1360664 0.6952167 -1.9817394 -1.585891 3.6085777 1.5117986 -0.14883372
12.912204 13.18454 -2.7522101 -8.92435 11.041099 10.3014965 7.625604 8.72226
-1.851315 11.948892 -8.594422 13.282352 9.523711 12.668412 -13.506468 -10.566146
7.011728 12.356927 1.5043546 12.587298 -10.294718 -1.5498666 12.7658 0.13668676
-12.326737 -11.360178 5.8842745 8.601609 -11.670651 3.8374116 12.828247 12.871423

transformer.h.0.attn.c_proj.weight f4 [128, 128]
00000000: 9d21 43bd 30e7 db3c 5457 df3c 5a17 b53c
00000010: b8f6 1d3c ef54 893d 6eb9 b13c a5dd 33bd
00000020: 63d0 c03a 034c 823d e1da a93b 32a8 853c
00000030: 346e a63c 2395 483d 9963 a63b 2e9d 853d
00000040: de3f 14ba 5115 00bc dab7 9fba 85a0 be3c
00000050: d6e1 0dba aa3c f8bc 53a2 2fbc 2c49 15bd
00000060: 9cfc 40bc 14ef a4bb d840 f4bb 73a4 b4bc
00000070: 8c42 acbb 357e 193d f5ea 3b3c e563 d93b
00000080: d7ef 593c 3f2f 6f3b c74f e8bc cd61 1fbb
00000090: b6b6 ddbb a034 f738 3c90 043c a0ca 93bc
000000a0: d7eb aa3b e78d 573d ad50 843a 85c7 75bb
000000b0: 283c f6bb ad91 dcba c68f acbb ff25 b83b
000000c0: 5966 63bc 21d8 b5ba 67c1 793b ce59 a23c
000000d0: 65ba 0a39 2d57 e73b 3f43 b0bb 9047 9fbb
000000e0: 5735 f43b 8d00 f43c c218 9b3c 21f9 35bb
000000f0: 2e02 78bc db2d 8c3c b603 06bc 6eec e43a
00000100: cade 14bd 92a5 a1bb 1651 b73b 6eef 173c
00000110: 0f19 e33b 4a69 23bb 37ab 01bc 41d2 c9ba
00000120: bc6b 193b 32a5 aab9 ed35 dbbb 0970 b13a
00000130: 6e39 f63b d08a 1e3b 1e9b 07bb 3f65 093c
00000140: af61 6cba 8755 b33c b65f 27bc 4e71 993b
00000150: 6263 53bb 8bcb e53b e9d7 193d f57a e33a
00000160: 977d 0e3d 74b3 ee3c 23cd 84bb 5554 7a3d
00000170: 9221 273c 4dff 733b 87b2 14bb fdee 993d
00000180: 4c0b 673b 0d2a 9bbb a971 37bb efea e03a
00000190: 2606 8fbc 1e9c 6ebb c40d f038 b6ae 36ba
000001a0: 13ea ac3c 812f 123a c722 09bc e616 ea39
000001b0: 80e6 6ebb aaa6 5c3c 8be5 7cbc 7ccb 41bc
000001c0: 5d7b c0bb 9a41 13ba 3863 a73b 37e2 25bb
000001d0: 5019 60ba c0bc b03c 6803 efbb 9951 433b
000001e0: e598 cc3b 1468 9a3b 6c93 f0bb 4ccb 6f3b
000001f0: 4e49 ce3a 3833 8aba e716 c73b 766e 353b
00000200: 615b 09bc 0e57 4b3c ddf7 c83c 7756 e03b
00000210: c4ba a9bb 02aa 163b a40d 5b3c 9153 d53c
00000220: 854e e43a 1cb1 433c 10ed 06bc c3de 7f3c
00000230: 8630 013d cf5c 2b3d 6c31 8c3c 44ea 7f3b
00000240: 9724 143b 2d61 b1bc 22d3 d13b a7b9 8abc
00000250: 16ac 933b 4e10 913c b113 b13c 29b6 c0bc
00000260: e802 ad38 81d7 eeb9 7217 ac3c 2c2e 853c
00000270: 9235 9ebb 03aa f03b 72dd 6fbb 9f26 12bc
00000280: 5182 82bc 9c3d b4ba 653a 203c 6b6f 013b
00000290: 62f9 0d3b 7226 e63b 6bd7 83bb dcfd 99bc
000002a0: b2af 7d3c 6e4b 9c3c 0400 4fbb 37e3 713b
000002b0: 3caa 7e3b 7823 2fbb 9734 abbb a95e 50bb
000002c0: 09f7 323d 2192 ad3b 2338 2cbb ad2e 233c
000002d0: 6d9a c1bb 7543 263c aa16 65bb 9f60 473b
000002e0: 1ac9 913a 3a62 933c 6deb 96bc 0d71 30bb
000002f0: 5971 6a3b 8f8f 7eb9 8005 823b 7231 8f39
00000300: a2f2 143d 8672 c9bb a2e4 083c 259b 54bb
00000310: 3502 573c b9e2 0e3c 414e 193d 8d6e 363b
00000320: ec16 693b 66fc dbbb 012f 1f3b 79b5 f13a
00000330: 2a13 d039 9d08 9fbb 42e6 00bb f3b7 653a
00000340: 11bb f93a 0d39 0dbc efb9 033b 7d82 fd3a
00000350: f210 1f3d 85dd ed3b df9d a0bc f4b5 3a3a
00000360: e8c4 f2bb 912b 363b e490 eeba 8470 21bc
00000370: 468a cb3b 78e2 6f3b 70c8 e53b eb39 43bb
00000380: 21e7 963b a0ed dbb9 430c 5f3c aea5 c2bb
00000390: c246 4a3c b888 2c3c b47a 68ba ca77 a63b
000003a0: 735f 89bb 2fc0 013c 9475 613b 1483 103c
000003b0: 0c4e 42ba 009e 46ba 0d13 7d3b 95dd adbb
000003c0: 18a5 8b3b 9b4a 153b b555 a6bb 6701 15bc
000003d0: 6e5b 493b 7e6b 36bc 72fe 2fbc ff22 833b
000003e0: 6dda b93b 8b1a 0abc bcd5 a2ba 06b4 813b
000003f0: 1a65 1e3c 6005 e7ba 94a6 d9bb 3e24 df3a
-0.047639478 0.026843637 0.027263321 0.022105861 0.009641342 0.06705653 0.021694865 -0.04391255
0.0014710542 0.06362154 0.005183563 0.016315553 0.02031622 0.048970353 0.005077791 0.0652412
-0.0005655269 -0.007817582 -0.0012185529 0.023269901 -0.00054123753 -0.030302364 -0.010719853 -0.036446735
-0.011778977 -0.005033383 -0.007454019 -0.022051072 -0.0052569564 0.037473876 0.011469592 0.006634223
0.013301811 0.0036496667 -0.028358353 -0.0024319768 -0.0067661656 0.0001178768 0.008091029 -0.018040955
0.0052161026 0.052625563 0.0010094844 -0.0037502956 -0.0075144954 -0.0016828083 -0.0052661626 0.005619764
-0.013879382 -0.0013873616 0.0038109662 0.019818213 0.00013230143 0.0070599527 -0.00537911 -0.004860826
0.0074526477 0.029785419 0.018932704 -0.00277669 -0.015137238 0.01711171 -0.008179596 0.0017465481
-0.03634528 -0.0049330676 0.005594383 0.009273393 0.0069304775 -0.0024934583 -0.007914356 -0.0015397744
0.0023410162 -0.00032548007 -0.006689778 0.0013537417 0.0075141704 0.0024191625 -0.0020691822 0.008385955
-0.00090172415 0.021891369 -0.01021569 0.0046826964 -0.0032255282 0.0070127896 0.037559424 0.001735537
0.03478774 0.029138304 -0.0040527745 0.06111558 0.010200875 0.0037231029 -0.0022689418 0.075162865
0.0035254536 -0.0047352375 -0.002799133 0.0017159859 -0.017458986 -0.003640897 0.00011446656 -0.0006968783
0.021107709 0.00055765366 -0.008370108 0.0004464902 -0.0036453307 0.01346747 -0.015435587 -0.0118283
-0.005874081 -0.00056173804 0.0051082633 -0.0025311837 -0.0008548694 0.021574378 -0.007294107 0.0029803275
0.0062438124 0.004712114 -0.007341793 0.003658968 0.0015738399 -0.0010543829 0.006075728 0.0027684248
-0.008383603 0.012410892 0.024532253 0.006846245 -0.005179735 0.0022989516 0.013369951 0.026040824
0.001741842 0.011944082 -0.008235231 0.015617075 0.031540416 0.041836556 0.01711341 0.0039049545
0.0022604817 -0.021652782 0.006403343 -0.016934229 0.004506598 0.01770797 0.021615835 -0.02352436
8.249824e-05 -0.0004555546 0.021007273 0.016257368 -0.0048281634 0.0073444857 -0.0036600498 -0.008920341
-0.01593128 -0.0013751271 0.009779547 0.0019750248 0.0021663536 0.007023626 -0.0040234826 -0.018797807
0.015483784 0.019078936 -0.0031585703 0.0036909112 0.0038858792 -0.0026724022 -0.005224775 -0.0031794703
0.043692622 0.005296961 -0.0026278577 0.009959859 -0.0059083016 0.010147919 -0.0034956136 0.003042258
0.0011122555 0.017991174 -0.018422807 -0.0026922852 0.0035773127 -0.00024276807 0.003967941 0.00027311925
0.036364205 -0.0061476855 0.008355292 -0.0032441106 0.013123085 0.008721047 0.037428144 0.002783689
0.003556664 -0.006713438 0.002428949 0.0018440924 0.0003968713 -0.0048533217 -0.0019668494 0.00087630673
0.0019052943 -0.008619559 0.0020099839 0.0019341257 0.03883452 0.007259073 -0.019606529 0.000712245
-0.007408727 0.0027796964 -0.001820114 -0.009853486 0.006211552 0.0036603492 0.0070124194 -0.002978916
0.0046051894 -0.0004194798 0.013613763 -0.0059401607 0.012345972 0.010530643 -0.0008868382 0.005080198
-0.0041922866 0.007919355 0.0034402357 0.008820314 -0.00074121426 -0.00075766444 0.0038616091 -0.0053059557
0.004261624 0.0022780064 -0.005076135 -0.009094573 0.0030724662 -0.011134027 -0.010741817 0.0040019746
0.0056717903 -0.00842918 -0.0012423317 0.003958228 0.009667659 -0.0017625503 -0.006642172 0.0017024351

transformer.h.0.attn.c_proj.bias f4 [128]
00000000: 7f51 cdba b58c 88bc 5b49 34bc 3228 47bc
00000010: bd10 803b 8af1 debc b75b 4a3b 6dd0 3dbc
00000020: b8bc 4c3c 8722 883c 5a34 e9bc d908 f6bc
00000030: 768b e5bb 2ba2 58bc c64f 8d3c ec2a 123d
00000040: 0eb1 13bd fd72 9ebc b8a9 0bbd e1a4 c63c
00000050: 72b1 423b aaa2 3a3d 035f 8d3c 5348 4abc
00000060: a09f 863b 1699 ba3c 2b4a 57bc 2a82 00bc
00000070: 483a 1f3c 2a9a dd3b 14ca 393b b5fa 6d39
00000080: 8cc3 7c3c a913 073c 028c 1ebc 18d7 16bd
00000090: acc3 68bd 337e 25bc 49cd 31bc 6286 af3c
000000a0: 0d41 dfbb e01f abbb 40b8 6abc 3d31 38bc
000000b0: 9836 9dbc b7d3 cb3c 3dff 143b ddff 73bc
000000c0: 2f8c 8dbb 7362 c43a 79db 213d fe90 fdbb
000000d0: 4009 0e3c 8b37 a23b 5108 353c f5e6 57bc
000000e0: d03a a33c c512 ba3c 5b5b 553b 6fd3 89bb
000000f0: d133 013d eed2 423c 23b9 2c3c 928a 8abc
00000100: 7ef0 b1bb 358f 30bd e0d5 a4bc b8fc c93c
00000110: 89b1 d63b 8678 bbbc 2af9 90bc 4002 bbbc
00000120: 62bd cd3c 4439 cb3c 9594 a53b cc63 60bc
00000130: 9332 d2bc 9e73 bebc b405 d03c 3671 613b
00000140: 5ea2 75bc de50 35bc 0a7a 8d3b 243f 923c
00000150: aa88 c13b 9392 713d 09f1 653a 5677 cebb
00000160: 21c6 bb3c 8fa5 cabb d1d5 1a3c 5fac 333c
00000170: dc64 d1bc 6dbf df3a d7e8 f33b 4c26 d8bb
00000180: 1380 2fbc 6d20 1f3c 63a7 6c3c 7fc4 bf3c
00000190: 8e12 07bc 1890 b43c 176f b23c 5777 1f3c
000001a0: 5d51 7fbc da64 29b8 fcf0 9fba d192 993a
000001b0: 2d20 6bbc 2b9a 303c 7068 273b 99b7 cc3c
000001c0: bb4a 5abc 41c4 b3bb 5129 cfbc a514 9fbb
000001d0: eea2 ed39 6c87 8abc 20e6 803c 2f8f 70bc
000001e0: 5c96 323c 617c 0cbb ca34 2cbc c2e4 2bbc
000001f0: 53a8 55bc 2a7e d9bb 9f5e a1bb f6f8 60bc
-0.0015664547 -0.016668657 -0.011003817 -0.012155579 0.0039082454 -0.027214784 0.003087742 -0.011585337
0.012496166 0.016618026 -0.028467346 -0.030033516 -0.0070051504 -0.013222258 0.017249953 0.035685465
-0.036057524 -0.01934194 -0.034097403 0.024248542 0.0029707816 0.045565285 0.01725722 -0.012346345
0.0041083843 0.022778075 -0.013140242 -0.0078435335 0.009718485 0.0067627626 0.0028349208 0.00022695477
0.015427481 0.008244433 -0.009676935 -0.036826223 -0.056827232 -0.010100889 -0.010852166 0.021426383
-0.0068131746 -0.0052223057 -0.014326155 -0.011242208 -0.019191071 0.024881227 0.0022735142 -0.0148925455
-0.0043196897 0.0014982953 0.039515946 -0.0077382317 0.008669198 0.004950469 0.011049346 -0.013177623
0.019925505 0.022714028 0.0032555673 -0.004206113 0.031543557 0.01189111 0.010542187 -0.016911779
-0.00543028 -0.043105323 -0.020121515 0.024656639 0.0065519256 -0.022884618 -0.017696936 -0.022828221
0.025114719 0.02480758 0.0050531127 -0.013695668 -0.025658881 -0.02324849 0.025393344 0.0034399754
-0.014992325 -0.0110666435 0.0043175267 0.017852373 0.005906184 0.058977675 0.0008771574 -0.006300847
0.022921624 -0.006184287 0.009450392 0.010966389 -0.025560789 0.0017070599 0.007443528 -0.006596362
-0.010711688 0.009712321 0.014444205 0.023409126 -0.00824417 0.022041366 0.021781487 0.009733043
-0.015583363 -4.0386665e-05 -0.0012202556 0.0011716728 -0.014350933 0.010778944 0.0025544427 0.02498989
-0.013323481 -0.005486042 -0.025288256 -0.004854756 0.00045325555 -0.016910277 0.015734732 -0.014682575
0.010900106 -0.002143644 -0.010510633 -0.010491552 -0.01304062 -0.0066373544 -0.00492461 -0.013731232

transformer.h.0.ln_2.weight f4 [128]
00000000: 0061 0f40 7597 ad40 170b 5640 4ea5 a840
00000010: eaf6 8640 959b db40 1d39 6d40 dcb8 0740
00000020: 06e3 a53f ef8d 0641 d91f ac3f a848 a640
00000030: 1b68 9640 b888 aa40 e0c0 aa40 2f21 b93f
00000040: b81a b73f 32d7 bb3f 0b7a b240 46c0 f540
00000050: 79ee e840 86ec b33f 2c21 4040 0fb1 b140
00000060: 111f 8540 b3dd 0741 1291 1740 f295 8b3f
00000070: 6155 9d40 a757 d040 b920 613f a686 c03f
00000080: f904 9a3f c464 573f 91d6 8440 2386 0640
00000090: 82ed a13f 6f11 3c40 963f c340 0d73 e73f
000000a0: 66eb dc40 5ea8 0140 4992 9540 88f5 2040
000000b0: 5ee0 8b40 b5e2 9440 4bfe 5c40 b7f3 6f40
000000c0: 75a8 c540 d50f d83f 87f4 973f 0603 6c40
000000d0: a46d c240 ac57 5f40 1b44 9340 b9ed b440
000000e0: 3da8 1a40 5a95 9340 9576 903f c92f 3840
000000f0: 1095 0541 411a be3f faa9 bf3f bf2c a640
00000100: ae9c ae40 de6d 9b3f 50b6 1140 686f 9040
00000110: 600e d540 6342 cf3f 09e9 f43f cfc3 763f
00000120: 0f75 fc40 33f1 0441 430c 8c40 7e2e f53f
00000130: 1844 fd40 3a8a e73f 561d 0441 ec52 bd40
00000140: 0853 3340 eb75 4f40 7b8e ea3f 93fc 2d40
00000150: 1eb9 d540 ca48 c340 4f61 c240 a053 4a40
00000160: 1d35 0341 2693 c340 44dc 293f 3b93 ac40
00000170: 6063 1e40 e540 9f40 92c9 7f40 dc9b 1640
00000180: 3248 3d40 8660 1440 240d e23f e453 8540
00000190: 0a1f 0c40 1e27 2c40 eb7c 5240 f406 a03f
000001a0: d573 f73f 9f59 fc3e 0037 ae40 da4d c640
000001b0: e7b1 0b40 14ea a640 9f50 0540 6b24 f040
000001c0: 7175 5340 9448 ef3f 7187 5b40 f9f5 8740
000001d0: 45b4 d53f aa18 883f 5543 c73e 018f f93f
000001e0: 38da 4f40 9217 bc3f 02be 8740 3a12 1340
000001f0: 91e9 0040 acf9 aa3f 34b9 a23f 97ba b23f
2.2402954 5.4247384 3.3444269 5.270179 4.217641 6.862742 3.706611 2.120658
1.2959907 8.409652 1.3447219 5.196369 4.700208 5.3291893 5.3360443 1.4463252
1.4305029 1.4675047 5.577398 7.679721 7.2791104 1.4056556 3.0020247 5.5528636
4.1600423 8.491626 2.3682294 1.0905135 4.916672 6.5106997 0.87940556 1.5041091
1.2032768 0.8413813 4.151192 2.101937 1.2650607 2.938564 6.101512 1.8081986
6.903735 2.0259013 4.674107 2.514986 4.3711386 4.652674 3.4530208 3.7492502
6.1768136 1.6879832 1.1871499 3.6876845 6.075884 3.489726 4.6020637 5.654019
2.4165184 4.6119814 1.1286188 2.8779166 8.348892 1.4851762 1.4973748 5.192962
5.456626 1.2142904 2.2767525 4.5135994 6.6580048 1.6192135 1.9133617 0.9639253
7.8892894 8.308887 4.376497 1.9154813 7.914562 1.8089058 8.257162 5.9163723
2.8019428 3.2415721 1.8324732 2.718541 6.6788473 6.1026354 6.0743785 3.161354
8.200467 6.1117125 0.66351724 5.3929725 2.4748154 4.9766717 3.9966779 2.353263
2.9575315 2.3183913 1.766026 4.1664906 2.1893945 2.6898875 3.2888744 1.2502122
1.9332224 0.49287125 5.444214 6.1970034 2.1827333 5.216074 2.0830457 7.5044456
3.304043 1.8694024 3.4301417 4.248776 1.6695639 1.0632527 0.38918558 1.9496766
3.247694 1.4694693 4.2419443 2.2979875 2.0142558 1.3357444 1.271277 1.3963193

transformer.h.0.ln_2.bias f4 [128]
00000000: 9deb 0c3f 4074 a33f 480a 153f 5ce6 713f
00000010: e61f 00bf ff7a 64bf c00d 75be d7fc 8a3f
00000020: 7a30 19be b8a5 2c40 8dd1 a63f 6e85 e1bf
00000030: fb9f 1e3f acc8 9f3e fa0a 0ac0 9b6b 86bf
00000040: d6d2 923f cef4 123f ad35 c83f da9c 1440
00000050: ea57 e23f 472c 9cbf 1b9f 95bf 3641 0540
00000060: 1540 e43e c731 2940 ada7 bd3f 2fa2 113e
00000070: 90fd f6be 62dd f8bf ffa1 2e3d 205b 843b
00000080: 8872 8ebe dc54 ae3d c4b6 d13f e4be a33f
00000090: 764e bf3f 4b8f 973f 0da6 3d3f c0c9 3ebf
000000a0: d58a ed3f a68f 343e ad33 f23f 4896 b23e
000000b0: 843f 9e3f d376 22c0 4e48 0d3f 4b7c 7e3f
000000c0: 8f1d c9bf 1746 05be 6711 37bf f934 9f3e
000000d0: 2f87 01c0 66ea 05bf 423a a2bf 5ec7 ed3f
000000e0: 5c1e 74bf e9d9 c3bf ead7 b23e 98f6 2bbe
000000f0: eb04 0140 de34 ebbd 4ecd 3cbe df67 f13f
00000100: 3c32 443f 8e6b 8a3f bf05 8c3f b796 b2bf
00000110: 95ff 7dbf 086d 153f 2608 a83f 3d28 573f
00000120: 9148 2540 335d 1d40 d52e aebe 741d 9b3e
00000130: fd7c 17c0 5c94 7a3f ff52 1940 edbb ddbf
00000140: 83f5 c63f 649c 8b3f b024 d9bd 0b43 3dbf
00000150: dd81 acbd 5f81 fa3e 302f b53f 3b7c b83d
00000160: 6e1d ff3f 64a7 a0be fbe0 26be 2f7b f3be
00000170: f777 9a3f 53de bdbf 4134 8fbe c3e8 043c
00000180: c2db 563f 59d1 f9be 121a 15bf 93c7 adbf
00000190: 384d 903f 6736 58bf 58d6 8fbf 08d9 51bd
000001a0: 2b30 703f b7cd 5dbe c120 ec3f 702f 95bf
000001b0: 22b9 883f 57da c6bf 0009 203f 8981 2840
000001c0: 8774 1f3f cecd d73e cd7e b83f a582 133f
000001d0: cdc0 463e d657 393f 8c52 72bd d0b3 8a3f
000001e0: 484e a9bd 1c85 613d 836a 1e3f 9455 713f
000001f0: 2743 203f 4824 cc3e 987d 943e 2009 9d3e
0.5504702 1.2769852 0.5821881 0.94492126 -0.50048673 -0.8925018 -0.23931026 1.0858411
-0.14959899 2.6976147 1.30327 -1.7618845 0.6196286 0.31207788 -2.15692 -1.0501589
1.1470592 0.5740479 1.564138 2.3220735 1.7683079 -1.2201012 -1.168918 2.0821052
0.4458014 2.6436632 1.4816796 0.14222024 -0.48240328 -1.9442561 0.04263496 0.0040391833
-0.27821755 0.085122794 1.6383901 1.279263 1.4945819 1.1840605 0.740815 -0.74526596
1.8557993 0.17632923 1.892202 0.3488028 1.2363133 -2.5385025 0.55188453 0.99408406
-1.5712146 -0.13015018 -0.7151093 0.31095102 -2.023876 -0.5231079 -1.2674029 1.8576467
-0.95358825 -1.5300876 0.34930354 -0.16793287 2.0159252 -0.11484693 -0.18437693 1.8859824
0.7663915 1.0814073 1.0939254 -1.3952245 -0.9921811 0.58369493 1.3127487 0.84045774
2.582554 2.4588134 -0.34020105 0.30295908 -2.3670037 0.9788263 2.3956907 -1.7322975
1.5543674 1.0907102 -0.10602701 -0.73930424 -0.08423207 0.48926827 1.4155025 0.0900807
1.9930856 -0.3137771 -0.1629676 -0.4755492 1.206786 -1.4833473 -0.27969554 0.008112135
0.83929074 -0.48792532 -0.58242905 -1.357653 1.1273565 -0.8445801 -1.1237288 -0.051232368
0.938235 -0.21660505 1.8447496 -1.1655102 1.0681498 -1.5535382 0.6251373 2.6329062
0.6228718 0.42149204 1.4413697 0.5762122 0.19409485 0.7239965 -0.059160754 1.0836124
-0.08266884 0.055058584 0.61881274 0.94271207 0.62602466 0.3987143 0.2900207 0.30671024
