warmup/warmup_3_97_-_1.pth (torch, 824611 bytes, 17 tensors)

transformer.wte.weight f4 [14, 128]
-0.00520104 0.05847523 -0.002090345 -0.004622128 0.009860661 -0.010108363 0.00070182356 -0.01105727
0.003829488 -0.006935532 0.020338612 0.009005718 0.012654417 -0.0047362354 -0.007975301 -0.017346164
-0.007324883 -0.0017319869 0.00041455487 -0.014326607 0.018575905 0.0326934 0.011176173 0.002903209
-0.0054210345 0.0007273669 -0.05864412 0.006914235 -0.008547644 -0.010084392 -0.010246576 -0.043815598
-0.016425703 -0.010561522 -0.013981716 -0.0118512865 -0.028590374 -0.0114979455 0.025076147 -0.017376838
-0.013980684 0.006047011 -0.0032399176 0.009259493 0.04114245 0.009395963 0.013130244 0.008293193
0.007947464 -0.011361285 0.0076251533 -0.009596507 -0.0052349274 0.0051680543 -0.0068169395 -0.013925798
-0.011532833 -0.0022811645 -0.04221937 -0.013338674 0.0052144066 -0.019476613 -0.012196329 -0.011757932
-0.0051382794 -0.051478785 -0.010151164 -0.011120425 -0.010096912 -0.0031733918 -0.01202381 -0.035314515
-0.010863522 -0.010326762 -0.03282117 -0.0013146321 -0.005540221 0.041977018 -0.003952197 0.024140378
-0.03274055 -0.0050786044 -0.01089708 -0.025913581 -0.0007672353 -0.0318686 0.016741188 -0.003917604
-0.009033351 0.017090725 0.007825242 -0.011679624 -0.035897933 -0.019217003 0.009143624 -0.034616444
-0.019485585 -0.00069274404 -0.005729521 -0.010170637 0.0069726356 -0.015267416 0.003992217 0.0011709447
-0.004972201 0.0027720418 0.01327402 0.03005599 0.0034433738 -0.010479273 0.0020501572 -0.01415741
-0.00834785 -0.010223484 -0.01776451 -0.024853233 0.00285633 -0.009350952 -0.010820404 0.0012766373
-0.008682696 -0.0028960267 0.011549003 0.0020331605 -0.005172714 -0.002998229 0.0023978027 -0.009793087
-0.011966106 0.0031584187 0.011502146 -0.0031099403 -0.012765332 -0.0077149505 0.060182467 -0.004962923
-0.005933822 0.009894475 -0.04171964 -0.0012313221 -0.012364323 -0.005065138 0.01120854 0.018944928
-0.01350853 0.053540654 -0.012502383 -0.005294578 -0.03877053 -0.006602888 -0.02390619 0.012679697
0.00094598497 0.01599897 0.049910456 -0.008314828 -0.01041076 0.0065244297 0.0060007847 0.029539485
0.038198985 0.0057359906 0.009832299 -0.012613738 0.037199758 0.0065228264 -0.044495504 0.01548054
0.029993871 -0.00081194367 0.028575072 -0.0028732275 -0.024507957 -0.033955164 -0.0066248197 -0.019274171
-0.03628651 0.030817695 -0.0034248547 -0.0036953734 0.019340146 0.054521922 0.019502869 0.0014617583
0.00922787 -0.006437168 0.037031565 0.008886629 0.0037585353 -0.015571454 0.0069809044 -0.009315097
0.014664926 0.034449346 0.005648251 0.006338498 0.0055487542 0.015775977 0.037928645 0.009691143
0.0061333748 0.006543492 0.02681622 0.037916742 0.017154945 -0.037302304 -0.025221191 -0.056847963
0.008631447 0.023248278 0.0037125086 -0.013586512 0.012812626 0.009629971 -0.03357625 0.05979584
0.03665584 -0.014068452 -0.005196226 -0.0072678565 0.009600743 0.013748065 -0.0016799642 0.04386665
0.026745586 0.006847592 -0.012796762 0.0060738428 0.0005920367 0.013070364 -0.0049578343 0.013562184
0.022192512 0.0052290005 -0.0040665003 -0.011404575 -0.01231793 0.026539732 -0.032939542 0.022073586
-0.02124917 0.0059985546 0.033698037 0.020674901 -0.024734292 -0.016090699 0.0096507585 0.007823453
0.019598927 -0.008113568 -0.024937378 0.010190421 -0.00138561 -0.0078392895 0.041761167 0.006798534
00000000: 7c6d aabb b983 6f3d 2bfe 08bb 3875 97bb
00000010: 9c8e 213c 8c9d 25bc 95fa 373a 8d29 35bc
00000020: 26f8 7a3b 7643 e3bb 299d a63c b88c 133c
00000030: 7954 4f3c 6c32 9bbb d6aa 02bc 8b19 8ebc
00000040: 9205 f0bb d603 e3ba 9d58 d939 25ba 6abc
00000050: 7f2c 983c 84e9 053d 441c 373c c443 3e3b
00000060: efa2 b1bb c4ac 3e3a d134 70bd cf90 e23b
00000070: 6b0b 0cbc 0139 25bc 41e1 27bc fc77 33bd
00000080: 328f 86bc 3c0a 2dbc 9113 65bc e62b 42bc
00000090: 5c36 eabc e161 3cbc 7e6c cd3c df59 8ebc
000000a0: 3d0f 65bc 0126 c63b cc54 54bb 21b5 173c
000000b0: fc84 283d 86f1 193c 3c20 573c 2ce0 073c
000000c0: 1436 023c af24 3abc 6cdc f93b ab3a 1dbc
000000d0: c189 abbb c858 a93b a260 dfbb 0829 64bc
000000e0: 35f4 3cbc 977f 15bb 38ee 2cbd 748a 5abc
000000f0: 9ddd aa3b 6b8d 9fbc 1dd3 47bc 57a4 40bc
00000100: 035f a8bb 6bdb 52bd 1151 26bc 7132 36bc
00000110: 856d 25bc aef8 4fbb 84ff 44bc f4a5 10bd
00000120: eafc 31bc 9431 29bc 7e6f 06bd bc4f acba
00000130: be8a b5bb 18f0 2b3d 6e81 81bb 0bc2 c53c
00000140: f41a 06bd 6c6a a6bb ab89 32bc b848 d4bc
00000150: 4a20 49ba a688 02bd d124 893c 3f5f 80bb
00000160: 9f00 14bc d901 8c3c 7235 003c e55b 3fbc
00000170: b609 13bd fa6c 9dbc 24cf 153c f9c9 0dbd
00000180: 3ca0 9fbc 4499 35ba b5be bbbb bea2 26bc
00000190: b57a e43b 2f24 7abc 25d1 823b 627a 993a
000001a0: d8ed a2bb 25ab 353b 467b 593c fb37 f63c
000001b0: 3aaa 613b 42b1 2bbc ee5b 063b 7bf4 67bc
000001c0: 6cc5 08bc 6680 27bc e186 91bc 0299 cbbc
000001d0: 4431 3b3b bc34 19bc 1048 31bc d754 a73a
000001e0: de41 0ebc 44cb 3dbb 0838 3d3c c63e 053b
000001f0: df7f a9bb f07d 44bb 7424 1d3b 2f73 20bc
00000200: 7c0d 44bc 79fd 4e3b 7f73 3c3c 24d0 4bbb
00000210: af25 51bc b2cd fcbb e481 763d 04a0 a2bb
00000220: 8270 c2bb 701c 223c 37e2 2abd 5064 a1ba
00000230: bb93 4abc 75f9 a5bb 06a4 373c 6532 9b3c
00000240: e252 5dbc 724d 5b3d ccd6 4cbc 247e adbb
00000250: d9cd 1ebd 0a5d d8bb ead6 c3bc 81be 4f3c
00000260: fafb 773a 4610 833c e86e 4c3d eb3a 08bc
00000270: e491 2abc e2ca d53b 3ba2 c43b cafc f13c
00000280: 8a76 1c3d faf4 bb3b a717 213c daa9 4ebc
00000290: c65e 183d 6fbd d53b eb40 36bd 17a2 7d3c
000002a0: b5b5 f53c 9ed8 54ba 4516 ea3c c24c 3cbb
000002b0: e9c4 c8bc 9214 0bbd 0415 d9bb dee4 9dbc
000002c0: 2aa1 14bd 6475 fc3c 8773 60bb 142e 72bb
000002d0: 3a6f 9e3c 6152 5f3d 7bc4 9f3c 7898 bf3a
000002e0: 7e30 173c e1ee d2bb 69ae 173d 3999 113c
000002f0: c251 763b 691f 7fbc 12c0 e43b 599e 18bc
00000300: 2845 703c c21a 0d3d f714 b93b 2db3 cf3b
00000310: 53d2 b53b 9f3c 813c 115b 1b3d 9ac7 1e3c
00000320: 7afa c83b ca6a d63b b0ad db3c 964e 1b3d
00000330: 8788 8c3c 4dca 18bd ac9c cebc 69d9 68bd
00000340: ea6a 0d3c 2c73 be3c 8f4d 733b f699 5ebc
00000350: 0cec 513c 07c7 1d3c 4087 09bd 7cec 743d
00000360: 6f24 163d 5d7f 66bc 1a45 aabb 3327 eebb
00000370: 6f4c 1d3c 903f 613c 3f32 dcba 84ad 333d
00000380: 8f19 db3c c461 e03b 83a9 51bc 1607 c73b
00000390: e932 1b3a 1425 563c 5475 a2bb ec33 5e3c
000003a0: 12cd b53c 0958 ab3b 4740 85bb 41da 3abc
000003b0: 25d1 49bc da69 d93c 9deb 06bd aad3 b43c
000003c0: bd12 aebc 868f c43b f406 0a3d 695e a93c
000003d0: 929f cabc a4d0 83bc 371e 1e3c f12d 003c
000003e0: ee8d a03c c5ee 04bc 7949 ccbc b9f5 263c
000003f0: 5b9d b5ba 5d70 00bc c20d 2b3d 3dc6 de3b

transformer.wpe.weight f4 [32, 128]
0.0021741788 0.018902525 0.020987874 -0.0011422818 -0.0027436793 0.0082976725 0.00911116 -0.00048037985
0.0068705115 0.008681814 -0.00032128533 -0.0043493644 0.020672882 0.009366712 0.011545046 0.014655319
-0.10002748 0.0145328315 0.0015646729 -0.014709696 -0.0057849693 0.0094723925 0.007539624 0.018244997
-0.0045309244 0.006535757 0.002563485 -0.015760986 0.0025182082 0.013484231 0.013355338 0.0105337575
0.0031134274 0.013048652 0.013934728 -0.009469509 -0.0024365997 0.011364819 -0.0037119281 0.01374545
-0.000416892 0.006299297 0.004552475 0.0102659995 -0.0012213646 0.0002497297 0.0040696138 0.006672194
0.0071020704 0.01937797 0.014857916 -0.0004561198 -0.009339438 -0.021405507 0.0040813233 -0.011849062
0.010615547 -0.0045050746 -0.013382743 0.01218235 -0.0069360817 -0.002479936 0.011219244 0.004030801
0.01703893 0.007081598 0.011526907 0.0128053585 0.010458804 0.0042095697 0.0073719914 0.005951427
0.012313034 0.010979183 0.0038327794 -0.0005694903 0.016112726 -0.0072215265 -0.002120058 -0.0036150413
0.018554138 0.0076196147 0.0090748165 -0.016807633 -0.0057960674 -0.009870065 -0.008139552 0.015853172
0.004502356 -0.00059105334 -0.0017822395 0.008379018 0.00028217354 0.022416221 0.009088794 0.015035715
-0.0013380187 -0.00092495186 -0.0067904247 0.011735834 0.010261383 0.012441561 0.008073754 0.0021745628
0.010652191 0.013759493 -0.005000788 0.0049934955 0.0058196876 0.00831473 -0.02209676 0.0057135117
0.009892434 0.011579652 0.009294936 0.025614224 -0.012165406 0.00039248157 0.006357729 -0.010909355
0.008932832 -0.011638967 0.0055369465 -0.015390729 -0.0004415231 0.00018531471 0.007909101 0.013921455
-0.013809668 -0.026063472 -0.027479773 -0.0033716466 0.016476939 -0.010051135 0.013200636 0.005443671
0.005630267 0.008762191 0.003134626 0.003914276 -0.02341625 -0.0065007135 0.0038635212 0.01946723
0.008399481 -0.0022273222 -0.0015090094 0.010206869 0.0021551335 -0.025073485 0.005138085 0.0045167953
0.0038903968 0.0017517086 0.0065505276 0.01830117 0.0020496794 0.014239655 0.011153672 0.005786635
0.01446455 0.010324891 0.016125908 0.006442933 0.027501674 0.012303464 0.0075192284 0.017006176
0.007205287 0.0034642578 0.0075164316 -0.040013168 -0.0032448047 -0.0001840963 -0.0021677765 0.0044478825
-0.0076245056 0.005888536 -0.006915673 -0.009847705 -0.0010490381 0.032776766 0.008735116 0.024018692
0.0069699744 -0.0022987544 0.022752322 0.0135818245 0.009811312 0.010761453 0.014863131 -0.00044111357
-0.0066842223 -0.00016152815 0.0108120935 0.011268615 0.007068201 0.0053422977 0.016438328 -0.0018383102
0.01436231 0.012036979 0.011817546 0.007790656 0.012387745 -0.008149949 -0.0021376929 -0.00076354726
-0.014140531 0.0022365234 0.009576178 0.010258782 0.041387018 0.024057612 0.00056015037 0.0032456145
0.0010411795 0.013393348 0.003536285 -0.0058222064 0.003119393 -0.055289067 -0.018014502 0.0049293414
-0.0069128457 -0.0026558463 0.008920136 0.00966181 -0.01718864 0.017567458 0.002627302 -0.0057969023
0.0021551813 -0.004937041 0.012450283 -0.03608739 -0.04588749 0.0045931954 0.022408491 0.002750312
-0.0037867443 0.012647389 0.018302491 -0.015659394 -0.011899732 0.004183614 -0.011694584 0.033244714
0.0046312767 -0.0063085402 0.004153173 0.02697624 -0.0047257436 -0.017698033 0.005893184 0.013551899
00000000: ab7c 0e3b 78d9 9a3c c3ee ab3c 9eb8 95ba
00000010: 4dcf 33bb f6f2 073c fa46 153c 7edb fbb9
00000020: 0722 e13b 2b3e 0e3c 3072 a8b9 1d85 8ebb
00000030: 2d5a a93c d676 193c 6f27 3d3c dd1c 703c
00000040: 35db ccbd 1d1b 6e3c b615 cd3a f000 71bc
00000050: d78f bdbb 1832 1b3c f30e f73b 8876 953c
00000060: 2678 94bb e729 d63b 2400 283b 2f1d 81bc
00000070: 8608 253b f7ec 5c3c 59d0 5a3c c895 2c3c
00000080: a50a 4c3b 03ca 553c 7c4e 643c 0026 1bbc
00000090: 5caf 1fbb 8133 3a3c d243 73bb 9934 613c
000000a0: 4c92 dab9 556a ce3b ee2c 953b b932 283c
000000b0: 3216 a0ba 27ee 8239 655a 853b 6ca2 da3b
000000c0: 7cb8 e83b 8cbe 9e3c 9e6e 733c 5d23 efb9
000000d0: 7104 19bc 9a5a afbc 9fbc 853b 9122 42bc
000000e0: d5ec 2d3c 4e9f 93bb 4b43 5bbc 7b98 473c
000000f0: 1248 e3bb 6c86 22bb ecd0 373c cf14 843b
00000100: 3a95 8b3c c00c e83b 5adb 3c3c 91cd 513c
00000110: 675b 2b3c 6ef0 893b bf90 f13b 3004 c33b
00000120: 9cbc 493c 08e2 333c 5e2f 7b3b d949 15ba
00000130: d6fe 833c 8ea2 ecbb acf0 0abb 54ea 6cbb
00000140: d9fe 973c f6ad f93b 8aae 143c 29b0 89bc
00000150: f0ec bdbb 0eb6 21bc c15b 05bc 83de 813c
00000160: 8088 933b ebf0 1aba 099a e9ba 2648 093c
00000170: b1f0 9339 39a2 b73c 2ae9 143c 5c58 763c
00000180: 7560 afba 7878 72ba 3682 debb a847 403c
00000190: 5c1f 283c b0d7 4b3c c747 043c 1c83 0e3b
000001a0: 8786 2e3c 7f6f 613c a6dd a3bb 7aa0 a33b
000001b0: 14b3 be3b 813a 083c 4404 b5bc 6938 bb3b
000001c0: e013 223c 95b8 3d3c ca49 183c ecd4 d13c
000001d0: 6951 47bc fcc5 cd39 7f54 d03b 27bd 32bc
000001e0: 035b 123c 5eb1 3ebc 466f b53b 6529 7cbc
000001f0: 3a7c e7b9 0a51 4239 2d95 013c d016 643c
00000200: f241 62bc 1083 d5bc 431d e1bc d8f6 5cbb
00000210: a5fa 863c 84ad 24bc 7b47 583c d260 b23b
00000220: 1a7e b83b 4b8f 0f3c 4c6e 4d3b 5443 803b
00000230: 6fd3 bfbc f003 d5bb 2133 7d3b be79 9f3c
00000240: fa9d 093c 44f8 11bb f4c9 c5ba b63a 273c
00000250: 243d 0d3b e966 cdbc 625d a83b a001 943b
00000260: 07f6 7e3b 9699 e53a cfa5 d63b 56ec 953c
00000270: ea53 063b 714d 693c e4bd 363c d09d bd3b
00000280: b8fc 6c3c bb29 293c 7b1a 843c 3d1f d33b
00000290: 314b e13c 7894 493c dc63 f63b 8950 8b3c
000002a0: 541a ec3b 9a08 633b 664c f63b d9e4 23bd
000002b0: caa6 54bb f909 41b9 4111 0ebb 8bbf 913b
000002c0: fdd6 f9bb 9ff4 c03b df9c e2bb 4558 21bc
000002d0: e17f 89ba ee40 063d bb1d 0f3c d9c2 c43c
000002e0: 6264 e43b b3a6 16bb 1463 ba3c 4d86 5e3c
000002f0: a0bf 203c ce50 303c 7d84 733c 4345 e7b9
00000300: 5207 dbbb e25f 29b9 3525 313c ff9f 383c
00000310: 5e9c e73b 710e af3b aca9 863c 74f3 f0ba
00000320: e54f 6b3c c036 453c 619e 413c c248 ff3b
00000330: f8f5 4a3c 5d87 05bc 8918 0cbb ca28 48ba
00000340: b0ad 67bc a392 123b 67e5 1c3c 7314 283c
00000350: 6f85 293d 7814 c53c 0ed7 123a 60b4 543b
00000360: 3078 883a c66f 5b3c 04c1 673b 35c8 bebb
00000370: bb6e 4c3b ca76 62bd 2693 93bc 5086 a13b
00000380: 2785 e2bb b50d 2ebb c325 123c 914c 1e3c
00000390: 31cf 8cbc a1e9 8f3c d02e 2c3b f1f3 bdbb
000003a0: f13d 0d3b e7c6 a1bb 46fc 4b3c 5fd0 13bd
000003b0: 85f4 3bbd 8482 963b 0392 b73c 943e 343b
000003c0: 072b 78bb ff36 4f3c 1bef 953c 2148 80bc
000003d0: 18f7 42bc b316 893b a49a 3fbc 9c2b 083d
000003e0: f7c1 973b dfb7 cebb 5717 883b 47fd dc3c
000003f0: 69da 9abb 77fb 90bc 9c1b c13b c908 5e3c

transformer.h.0.ln_1.weight f4 [128]
0.89049244 1.5279702 0.47924486 1.9705343 0.7125168 1.4695894 1.1327463 1.0127721
3.7833998 0.01923903 0.3211661 2.08769 1.1189948 0.8267805 2.5331876 -0.10383546
5.0840883 1.0782558 0.813918 -0.61536264 0.2901943 1.6745317 0.13373354 1.4508221
1.6163012 0.18856935 0.6928675 3.872776 0.16344127 0.0036476043 -1.9153958e-05 0.60724664
-0.34757426 -0.0037666776 -0.040701084 0.9784932 -0.36554986 -0.011892684 0.45435947 -0.08258676
0.7891314 2.3238876 0.15841746 1.5112505 0.49907562 0.7332569 3.9726408 0.1399842
0.56619036 0.5683974 0.3870246 0.9190244 0.6870613 1.3982115 0.09755394 0.706976
-0.00087946537 1.7036396 0.35975838 -0.033942543 3.3287418 0.63316715 -0.019437764 3.007337
0.39170274 0.6689082 -0.0022287474 -0.010065635 0.0015364523 -0.22300172 -0.3099709 0.31040573
-0.008738313 0.003557264 0.38697472 0.5942317 0.18982708 0.4349151 1.172385 0.73674655
0.7023774 0.53750163 2.7684178 0.56317943 0.64788973 0.5493131 0.33906513 0.8169856
0.22690421 0.31618097 0.7575221 0.8656361 0.40249944 1.1660858 2.853494 0.5498392
0.45409864 0.32235324 1.1365497 -0.00061783975 3.3193817 0.071511984 1.8406067 0.36279327
0.90621173 0.7536992 0.9433573 1.1529397 1.382582 0.15157165 1.121353 0.12504135
1.9970928 0.0025973956 -0.22731127 0.50033987 4.829332 1.8946764 -0.0026454106 3.1809213
-0.5175799 0.5643985 0.14526023 2.3121228 1.3263059 3.5391357 1.2583476 -0.0017164364
00000000: 50f7 633f 8794 c33f 955f f53e 783a fc3f
00000010: 8067 363f 811b bc3f d5fd 903f 84a2 813f
00000020: 3923 7240 2c9b 9d3c e26f a43e b79c 0540
00000030: 393b 8f3f e3a7 533f bf1f 2240 b0a7 d4bd
00000040: dab0 a240 4904 8a3f ee5c 503f 6888 1dbf
00000050: 5994 943e 0e57 d63f 72f1 083e 8ab4 b93f
00000060: f5e2 ce3f 5318 413e c45f 313f 90db 7740
00000070: 265d 273e a50c 6f3b d0ac a0b7 8474 1b3f
00000080: 41f5 b1be 5dda 76bb 2eb6 26bd 887e 7a3f
00000090: 5a29 bbbe 88d9 42bc cea1 e83e 3f23 a9bd
000000a0: 8404 4a3f 93ba 1440 3038 223e a870 c13f
000000b0: d786 ff3e b9b6 3b3f bf3f 7e40 0558 0f3e
000000c0: daf1 103f 7e82 113f 1728 c63e 2f45 6b3f
000000d0: 40e3 2f3f 98f8 b23f 5cca c73d 61fc 343f
000000e0: ec8b 66ba dd10 da3f 4032 b83e 5607 0bbd
000000f0: 1b0a 5540 3e17 223f f23b 9fbc 3678 4040
00000100: 438d c83e 913d 2b3f 2d10 12bb 55ea 24bc
00000110: c962 c93a 905a 64be 81b4 9ebe 80ed 9e3e
00000120: 242b 0fbc fd20 693b 8d21 c63e 921f 183f
00000130: 0862 423e 31ad de3e b610 963f 6c9b 3c3f
00000140: 01cf 333f b599 093f c22d 3140 872c 103f
00000150: 1adc 253f c99f 0c3f f299 ad3e f825 513f
00000160: 9459 683e 79e2 a13e f8ec 413f 549a 5d3f
00000170: 6814 ce3e 4d42 953f a59f 3640 43c2 0c3f
00000180: 9e7f e83e 7c0b a53e 767a 913f 86f6 21ba
00000190: c070 5440 e074 923d 0099 eb3f 0ac0 b93e
000001a0: 7efd 673f 6ef2 403f dd7f 713f 8793 933f
000001b0: 72f8 b03f 9935 1b3e 7f88 8f3f d70a 003e
000001c0: bda0 ff3f 1139 2a3b 49c4 68be 4616 003f
000001d0: e389 9a40 c284 f23f a05e 2dbb 3794 4b40
000001e0: 1e80 04bf 6c7c 103f 19bf 143e d2f9 1340
000001f0: 64c4 a93f 3381 6240 8911 a13f 0cfa e0ba

transformer.h.0.ln_1.bias f4 [128]
-0.04384339 -0.068161994 -0.09041008 0.099840194 -0.10267884 0.10091361 -0.4717662 0.04118205
-0.023714576 -0.0032574474 0.0042423555 -0.03712513 0.093376674 -0.12128306 -0.17549045 -0.038350105
-0.4380192 -0.4750478 0.09118925 -0.012425134 -0.016882764 -0.086302206 0.0043565957 0.17723754
0.09250677 0.012299764 -0.17379843 -0.23833473 -0.0031823008 -0.0013015231 -0.0011590673 -0.10537196
-0.104158826 0.003588282 -0.011336252 0.16555384 -0.13627166 -0.0011353182 0.0827362 -0.029314071
-0.111364946 -0.023944102 -0.039975718 -0.23609875 -0.058092233 -0.01449921 0.14086877 -0.0048002223
-0.114009134 -0.06334609 -0.1257592 -0.21057115 -0.089308746 -0.087740995 -0.009085778 -0.060312826
-0.00097385596 0.079563424 -0.22212619 -0.008814603 0.049400967 -0.11430032 -0.0030358024 -0.13075529
-0.14940247 -0.055664774 -0.0009473421 0.0019546 -0.001597808 0.012512305 -0.093072854 -0.07809402
0.0038098027 -0.0035059436 -0.13678291 -0.079988666 0.0069719483 -0.028911775 0.25995007 0.05065899
0.06859271 -0.16351531 -0.799346 -0.2930434 0.11063965 -0.01908224 -0.09020213 -0.2735621
-0.10003837 -0.05967396 -0.032095768 0.0147871645 -0.047420237 -0.10918436 -0.0031273938 -0.086436674
-0.06220914 -0.04739419 -0.14813985 -0.00151476 0.1180021 0.026969628 -0.27333736 -0.05901865
-0.17892085 -0.07747958 0.024778623 0.20294909 -0.20545827 -0.03274229 0.11749389 -0.023450924
0.04321335 -0.0033433377 -0.07749115 -0.07848257 0.63198674 -0.27623183 0.0021206527 0.24166256
0.031971015 -0.043889113 0.005691368 0.081237204 -0.081005745 -0.18601623 -0.06523501 -0.0015375245
00000000: 2095 33bd 8498 8bbd ec28 b9bd 0479 cc3d
00000010: 4949 d2bd cbab ce3d 578b f1be 82ae 283d
00000020: 1245 c2bc e67a 55bb 7503 8b3b 8510 18bd
00000030: 453c bf3d 4163 f8bd c5b3 33be 0015 1dbd
00000040: 0d44 e0be 7739 f3be 6ec1 ba3d ca92 4bbc
00000050: b94d 8abc 36bf b0bd c6c1 8e3b c27d 353e
00000060: 3074 bd3d f384 493c 37f8 31be 050e 74be
00000070: 268e 50bb de97 aaba d8eb 97ba 41cd d7bd
00000080: 3951 d5bd 6229 6b3b b0bb 39bc f286 293e
00000090: cc8a 0bbe f5ce 94ba 9971 a93d 1024 f0bc
000000a0: 4e13 e4bd 6c26 c4bc 94bd 23bd dfc3 71be
000000b0: 1ff2 6dbd 188e 6dbc e73f 103e 2f4b 9dbb
000000c0: 9f7d e9bd 98bb 81bd 05c7 00be f79f 57be
000000d0: 81e7 b6bd 8db1 b3bd 84dc 14bc 950a 77bd
000000e0: 5e4a 7fba 26f2 a23d 0c75 63be 206b 10bc
000000f0: ab58 4a3d 4916 eabd 50f4 46bb b7e4 05be
00000100: f6fc 18be bf00 64bd 0d57 78ba bf18 003b
00000110: 8a6d d1ba 6900 4d3c fb9c bebd c2ef 9fbd
00000120: e2ad 793b f9c3 65bb d210 0cbe 19d1 a3bd
00000130: f174 e43b 63d8 ecbc 2d18 853e cd7f 4f3d
00000140: 567a 8c3d 8f70 27be f1a1 4cbf c909 96be
00000150: 0a97 e23d 5c52 9cbc e5bb b8bd 5510 8cbe
00000160: ebe0 ccbd af6c 74bd da76 03bd dd45 723c
00000170: b93b 42bd 0d9c dfbd f6f4 4cbb b605 b1bd
00000180: 03cf 7ebd 6920 42bd f9b1 17be e98a c6ba
00000190: 16ab f13d 69ef dc3c e0f2 8bbe 8abd 71bd
000001a0: 0737 37be 9dad 9ebd 8afc ca3c e3d1 4f3e
000001b0: a763 52be c81c 06bd a3a0 f03d 271c c0bc
000001c0: 7b00 313d e61b 5bbb aeb3 9ebd 78bb a0bd
000001d0: e2c9 213f 426e 8dbe a6fa 0a3b 6476 773e
000001e0: 0af4 023d 12c5 33bd a87e ba3b b15f a63d
000001f0: 57e6 a5bd 0a7b 3ebe ef99 85bd c386 c9ba

transformer.h.0.attn.c_attn.weight f4 [384, 128]
-0.012049638 0.05937492 0.027270023 -0.015611427 -0.00938095 0.016224077 0.0063333055 0.021107085
-0.035827752 0.013761472 -0.027866483 -0.013375516 0.039345223 0.032061275 0.0022355963 0.050435655
0.00938885 0.035619535 0.00012802928 0.021971317 -0.0074540637 0.029974991 0.0012624583 0.0033036473
-0.033140816 -0.023380565 0.0014546025 0.00044650093 0.028647875 -0.01293209 0.0032471363 0.032964315
0.05116799 0.0015430418 0.050697315 0.004104087 0.115230694 0.04453644 -0.046571102 0.054547917
-0.0037156497 0.0010755982 0.043347683 0.06428451 0.021279722 0.008824128 -0.0077108196 0.017884469
0.020985529 0.00434681 0.021683209 0.024104724 0.004477012 -0.014863998 -6.1021994e-05 -0.0033468995
0.030497925 -0.01897483 0.012608925 0.051287547 -0.029277533 -0.0057853027 0.04827285 0.024342474
0.042498186 0.0019475284 -0.014518415 0.019552229 -0.00016067298 -0.024775622 0.051003702 0.042104132
0.028412398 0.012581848 -0.0013140008 -0.0127504235 -0.018455565 0.022543605 -0.026288597 -0.024315104
0.014425576 0.033060327 0.022438664 0.014920617 -0.049680986 -0.03791701 0.02765687 0.028533483
0.05032437 -0.0048008803 -0.0064532743 0.016910076 0.02134222 0.052895006 0.034864422 0.014186053
-0.00395661 0.021658102 0.0128090065 -0.01985666 0.006839544 -0.05269151 -0.01031736 -0.0039533665
0.009494995 0.0016427069 -0.001454242 0.11183746 0.086728126 0.054016057 -0.026097607 0.030058874
0.021013778 0.025756754 0.059945498 0.032387525 -0.01792732 0.013352856 -0.01788712 -0.0719253
-0.028513681 0.00821057 0.0027657195 -0.028560106 -0.01961962 0.04673635 -0.008024926 0.021762796
0.0146029545 0.014893835 0.02554328 0.0008450704 -0.015896546 0.027125979 -0.008455588 -0.01723693
-0.0078683775 0.0041697626 -0.002440076 0.004337693 0.013481279 -0.01758415 0.014918189 -0.01289404
-0.015184499 0.0066418042 0.008910235 0.008048748 -0.005296202 0.0011407618 -0.017425757 0.013932803
0.016549565 0.009620654 0.0035714349 -0.0022689826 -0.028852576 0.0015822526 0.00867019 -0.010488483
-0.007807854 0.011280343 -0.0050835563 -0.00975683 -0.002813264 -0.0036302523 -0.010392513 -0.015261055
0.012474826 0.0017972757 0.00034367637 0.003089841 -0.0135109965 0.011700886 0.0013428084 -0.0022388056
0.010100449 0.004029249 0.008490142 -0.006460522 0.018569238 -0.018255178 -0.014356983 -0.009817073
-0.008758441 0.010338079 -0.010402899 -0.0053955982 0.0027460332 -0.017665226 -5.8624748e-05 -0.03197638
-0.0021526432 0.008404228 0.019900216 0.00043094836 -0.0065253535 0.010105661 -0.0073633995 -0.009117195
-0.0020769758 -0.009376117 -0.0035786675 0.009907067 0.0029953516 -0.02182189 -0.0036373832 0.027253501
0.020757962 -0.0033924961 -0.028589142 -0.014344176 -0.011083059 -0.005646807 -0.018781515 0.025050635
-0.009587776 -0.025318991 -0.009116414 0.007464092 -0.013868398 0.01400679 0.025755797 0.0005272315
0.039767824 0.0043413993 -0.0022572854 -0.0011515336 -0.00015420892 0.013810506 -0.008066533 0.009287389
-0.010617851 0.009145 -0.009153389 0.018661827 0.012926511 -0.02082321 -0.0204721 0.00022982413
-0.006849832 0.011439542 -0.02163834 0.024535889 -0.004886584 -0.016608171 0.0033724573 -0.020768987
0.00016943802 0.00742186 -0.02235207 -0.015452141 0.010623622 -0.009064358 -0.010928693 0.018683156
00000000: d86b 45bc 1e33 733d 6265 df3c 12c7 7fbc
00000010: 8eb2 19bc 5be8 843c 9e87 cf3b c4e8 ac3c
00000020: 1fc0 12bd cc77 613c 4048 e4bc fb24 5bbc
00000030: 7528 213d af52 033d 1583 123b 9e95 4e3d
00000040: b1d3 193c cae5 113d 993f 0639 31fd b33c
00000050: 3841 f4bb 1d8e f53c 1279 a53a 0182 583b
00000060: aabe 07bd 9988 bfbc 5ca8 be3a 5718 ea39
00000070: f3ae ea3c 1ee1 53bc e8cd 543b 9705 073d
00000080: 8795 513d e43f ca3a fda7 4f3d 947b 863b
00000090: 12fe eb3d d86b 363d 57c1 3ebd a36d 5f3d
000000a0: 4282 73bb 16fb 8c3a 578d 313d 99a7 833d
000000b0: d052 ae3c 1393 103c 0bab fcbb 7382 923c
000000c0: d8e9 ab3c af6f 8e3b fca0 b13c 4577 c53c
000000d0: e6b3 923b 2088 73bc def1 7fb8 a857 5bbb
000000e0: c9d6 f93c 1a71 9bbc aa95 4e3c e412 523d
000000f0: 70d7 efbc a392 bdbb c1b9 453d de69 c73c
00000100: 9412 2e3d 3644 ff3a a5de 6dbc ff2b a03c
00000110: 537a 28b9 3ff6 cabc 42e9 503d 6275 2c3d
00000120: 1ec1 e83c 1824 4e3c 8d3a acba 27e7 50bc
00000130: 2030 97bc 5ead b83c 2f5b d7bc 7830 c7bc
00000140: 4059 6c3c 446a 073d 4ad1 b73c 9b75 743c
00000150: 4a7e 4bbd de4e 1bbd a990 e23c 0dbf e93c
00000160: ed20 4e3d b450 9dbb fd75 d3bb 0087 8a3c
00000170: e1d5 ae3c 6fa8 583d ffcd 0e3d 9e6c 683c
00000180: 73a6 81bb 556c b13c dedc 513c 6faa a2bc
00000190: 411e e03b 0ed3 57bd 250a 29bc 3e8b 81bb
000001a0: e590 1b3c 1950 d73a 449c beba 0a0b e53d
000001b0: 849e b13d f13f 5d3d a6ca d5bc 073e f63c
000001c0: 1625 ac3c d4ff d23c 6989 753d c8a8 043d
000001d0: 51dc 92bc f0c5 5a3c 0288 92bc 924d 93bd
000001e0: 8695 e9bc a085 063c 1341 353b e2f6 e9bc
000001f0: 53b9 a0bc 9d6e 3f3d fb7a 03bc e447 b23c
00000200: 3b41 6f3c 4605 743c 2440 d13c b787 5d3a
00000210: 7939 82bc 4d37 de3c 4e89 0abc 7634 8dbc
00000220: 5eea 00bc 81a2 883b afe9 1fbb 3523 8e3b
00000230: 95e0 5c3c a30c 90bc 6b6b 743c 8641 53bc
00000240: 68c8 78bc 7ea3 d93b 3cfc 113c e5de 033c
00000250: c38b adbb 9d85 953a 76c0 8ebc 6946 643c
00000260: f492 873c f39f 1d3c bc0e 6a3b 36b3 14bb
00000270: 3d5c ecbc 9663 cf3a 6a0d 0e3c e3d7 2bbc
00000280: 07d9 ffbb 30d1 383c f693 a6bb 1cdb 1fbc
00000290: bd5e 38bb 87e9 6dbb 5c45 2abc 8109 7abc
000002a0: 3663 4c3c 9192 eb3a 762f b439 ee7e 4a3b
000002b0: 3a5d 5dbc 13b5 3f3c 2c01 b03a edb8 12bb
000002c0: 5b7c 253c ca07 843b 3d1a 0b3c c9b2 d3bb
000002d0: 841e 983c e28b 95bc 8d39 6bbc cad7 20bc
000002e0: 907f 0fbc 0c61 293c ec70 2abc 8fcd b0bb
000002f0: cbf6 333b aab6 90bc d8e3 75b8 aaf9 02bd
00000300: 5c13 0dbb e3b1 093c c705 a33c e9f0 e139
00000310: a2d2 d5bb 3792 253c ac48 f1bb 4a60 15bc
00000320: df1d 08bb 499e 19bc 1488 6abb 4051 223c
00000330: a94d 443b d2c3 b2bc 2a61 6ebb bc42 df3c
00000340: 9a0c aa3c a454 5ebb c733 eabc d603 6bbc
00000350: b895 35bc da08 b9bb b1db 99bc fd36 cd3c
00000360: 0c16 1dbc c669 cfbc 035d 15bc 5895 f43b
00000370: 4738 63bc bc7c 653c d2fd d23c e835 0a3a
00000380: 96e3 223d 4c42 8e3b f7ee 13bb 0eef 96ba
00000390: 24b3 21b9 7645 623c 7e29 04bc 222a 183c
000003a0: 7ff6 2dbc e9d4 153c 19f8 15bc b0e0 983c
000003b0: b7c9 533c 7095 aabc 1bb5 a7bc f2fc 7039
000003c0: 8e74 e0bb eb6c 3b3c e342 b1bc 7dff c83c
000003d0: a31f a0bb dc0d 88bc 7204 5d3b b923 aabc
000003e0: 2cab 3139 1333 f33b b01b b7bc fa2a 7dbc
000003f0: b30e 2e3c ac82 14bc 430e 33bc 6b0d 993c

transformer.h.0.attn.c_attn.bias f4 [384]
-3.7321365 0.16384235 -3.8671157 -3.8660412 -0.16822004 0.20387037 0.12985444 -3.8461998
-0.049015816 3.8477821 3.3283248 -1.813731 0.045764502 3.115715 -0.28800148 3.4155896
3.3812795 -0.07537529 -1.4028202 0.5342921 3.388939 0.42010623 0.1569611 3.8525937
3.5496233 -0.067813866 0.027299423 -0.031615164 0.10712016 3.7246366 -0.123356715 -1.9169005
-0.7672728 0.35171074 -0.17478207 0.6968185 0.5691579 -0.19826387 1.0384793 1.407493
-0.17242783 -1.2446254 -0.045926265 -0.61170536 1.5634242 0.041010242 -0.2812426 -1.0510671
0.048568524 -1.486439 -0.80403644 1.4501284 1.2576796 0.69487244 0.46190706 1.2223114
-0.24922937 0.3105952 1.0387465 -0.41259402 -1.0593958 -0.606045 1.523332 0.79741496
-0.64928544 -1.4413873 -0.5069181 -0.646331 1.3865098 1.1203829 0.6554013 -1.2501733
-1.0374017 0.020061657 -0.13514291 -0.02194379 -0.9454318 0.6862597 0.93434256 -0.44284227
-0.22763814 1.0375026 -0.8928608 -1.153366 -0.086533025 -0.7765859 0.8470464 0.6077043
-0.14044681 0.058796123 -1.1313883 -0.39960584 1.4068505 1.0407592 0.010327561 0.16538177
0.6891935 -1.1919234 -1.0056111 -1.0083388 0.44445154 -0.17816246 -0.3148268 0.81116027
0.29266715 1.5648758 1.2118347 -0.7546449 -0.2464443 -0.53786516 -0.749291 0.09069203
-1.535816 0.11477987 -0.10354455 0.67060727 0.24953105 0.24706781 1.1272935 -1.6751081
-0.2994721 -0.27271786 -0.76210195 -0.58796626 1.6910623 -1.4006292 -0.092793666 0.13153332
-7.9801993 1.3851073 -7.910184 -7.7983103 -0.15852685 0.5330706 0.21101932 -7.9262004
0.14857142 7.959535 7.0132155 -5.4636846 0.703876 6.6298 -0.99233687 6.6776524
6.4242744 -0.6443688 -2.75169 1.4911401 7.289495 0.39369628 0.02865293 7.938549
7.0445337 -0.4721191 -0.026476448 0.022713196 0.09890186 7.3771186 -0.029211614 -5.016635
-1.857918 1.8604385 0.25688627 1.5588174 1.5921843 -0.57938194 3.456758 3.751023
-0.7923028 -2.7994118 0.23697796 -2.442412 4.206461 0.9297009 -0.21502662 -2.4432917
0.7732472 -4.6907263 -1.9613526 3.2964284 2.6890514 2.0777502 0.27662116 2.7443452
-0.13989085 0.5285925 2.941585 -0.96999246 -2.6896958 -1.2992948 4.536232 1.8705043
-5.779263 -10.548823 -4.139655 -5.577292 10.50267 8.532162 3.5140893 -9.845063
-6.9482436 -1.0401583 0.23799427 1.0131725 -6.51684 4.8957605 7.804113 -2.633734
-2.2488003 6.096244 -6.2513638 -6.967716 0.059891306 -3.9998782 4.6224947 3.8945847
-0.8908675 1.5741793 -7.099258 -2.6026607 10.365217 6.884436 0.8438078 2.4732924
3.6796794 -3.8147097 -4.0801234 -4.968875 2.5461855 1.3446563 0.67167115 2.902965
-0.8407131 6.27306 5.03793 -4.7606287 0.04168814 -1.6944543 -3.0962112 1.8491697
-3.826589 2.0587606 1.5249431 2.4029665 0.011707772 -0.806736 6.1604004 -7.1469917
-2.1348917 -1.3723309 -2.9468 -3.5682285 6.7396345 -6.4255676 -1.2943442 0.69159305
00000000: 53db 6ec0 4ac6 273e d37e 77c0 386d 77c0
00000010: e041 2cbe 65c3 503e 90f8 043e 2328 76c0
00000020: cfc4 48bd 1042 7640 4603 5540 5628 e8bf
00000030: 8f73 3b3d e067 4740 ee74 93be 0599 5a40
00000040: e266 5840 5c5e 9abd 9d8f b3bf 5ec7 083f
00000050: 60e4 5840 2a18 d73e 69ba 203e e590 7640
00000060: 072d 6340 ffe1 8abd 0aa3 df3c e77e 01bd
00000070: d061 db3d 7260 6e40 72a2 fcbd ff5c f5bf
00000080: fd6b 44bf 6e13 b43e 12fa 32be b262 323f
00000090: 55b4 113f af05 4bbe e4ec 843f bb28 b43f
000000a0: ec90 30be e34f 9fbf 2e1d 3cbd b998 1cbf
000000b0: 491e c83f 5bfa 273d 08ff 8fbe 5e89 86bf
000000c0: caef 463d a243 bebf 55d5 4dbf cf9d b93f
000000d0: a5fb a03f 29e3 313f 157f ec3e b374 9c3f
000000e0: fc35 7fbe 5606 9f3e a5f5 843f 863f d3be
000000f0: 489a 87bf c425 1bbf 8bfc c23f 6323 4c3f
00000100: 9237 26bf 617f b8bf 62c5 01bf f375 25bf
00000110: 2779 b13f b568 8f3f 61c8 273f ae05 a0bf
00000120: 94c9 84bf 5858 a43c e762 0abe 77c3 b3bc
00000130: d207 72bf b7ae 2f3f 1331 6f3f 39bc e2be
00000140: f919 69be e3cc 843f 8692 64bf 7fa1 93bf
00000150: 3a38 b1bd 55ce 46bf 08d8 583f 8292 1b3f
00000160: 4ad1 0fbe 34d4 703d 55d1 90bf 2399 ccbe
00000170: ad13 b43f 9937 853f ee34 293c d759 293e
00000180: fc6e 303f f290 98bf ddb7 80bf 3f11 81bf
00000190: 278f e33e 3870 36be fa30 a1be 33a8 4f3f
000001a0: 78d8 953e da4d c83f 661d 9b3f 6830 41bf
000001b0: e55b 7cbe 88b1 09bf 89d1 3fbf bebc b93d
000001c0: 9e95 c4bf b511 eb3d 2a0f d4bd ebac 2b3f
000001d0: 1185 7f3e 58ff 7c3e 274b 903f f169 d6bf
000001e0: 6854 99be ada1 8bbe 1d19 43bf f584 16bf
000001f0: bb74 d83f d147 b3bf 9b0a bebd acb0 063e
00000200: cb5d ffc0 324b b13f 3a20 fdc0 c28b f9c0
00000210: dd54 22be 5177 083f 7315 583e 6fa3 fdc0
00000220: 1b23 183e 83b4 fe40 436c e040 81d6 aec0
00000230: 3831 343f 5227 d440 ca09 7ebf 54af d540
00000240: a893 cd40 5bf5 24bf b01b 30c0 aedd be3f
00000250: 8b43 e940 8f92 c93e 8db9 ea3c 9808 fe40
00000260: d26c e140 98b9 f1be 23e5 d8bc 0611 ba3c
00000270: 0f8d ca3d 5b11 ec40 324d efbc 4688 a0c0
00000280: 42d0 edbf d922 ee3f 9986 833e 5487 c73f
00000290: b2cc cb3f 6052 14bf 863b 5d40 c310 7040
000002a0: 5bd4 4abf 9029 33c0 5aaa 723e 7a50 1cc0
000002b0: 549b 8640 e100 6e3f f02f 5cbe e45e 1cc0
000002c0: 87f3 453f 6e1a 96c0 9a0d fbbf aff8 5240
000002d0: 6b19 2c40 dcf9 0440 4aa1 8d3e 5aa3 2f40
000002e0: 8c3f 0fbe d751 073f ee42 3c40 6d51 78bf
000002f0: fa23 2cc0 4b4f a6bf d028 9140 af6c ef3f
00000300: b9ef b8c0 fbc7 28c1 0e78 84c0 2d79 b2c0
00000310: f00a 2841 bc83 0841 d7e6 6040 6185 1dc1
00000320: 0358 dec0 e823 85bf c5b4 733e a3af 813f
00000330: f489 d0c0 12aa 9c40 4bbb f940 198f 28c0
00000340: 58ec 0fc0 6e14 c340 2c0b c8c0 88f7 dec0
00000350: 9650 753d 01fe 7fc0 7aeb 9340 e040 7940
00000360: e40f 64bf b57e c93f 1f2d e3c0 fe91 26c0
00000370: eed7 2541 4d4d dc40 ca03 583f 6c4a 1e40
00000380: de7f 6b40 3424 74c0 5f90 82c0 0601 9fc0
00000390: b4f4 2240 b31d ac3f a4f2 2b3f 2eca 3940
000003a0: f938 57bf e8bc c840 b936 a140 1257 98c0
000003b0: 2fc1 2a3d e1e3 d8bf 5328 46c0 98b1 ec3f
000003c0: d6e6 74c0 bcc2 0340 5631 c33f 34ca 1940
000003d0: f4d1 3f3c 4086 4ebf 0022 c540 28b4 e4c0
000003e0: 11a2 08c0 8aa8 afbf 5f98 3cc0 db5d 64c0
000003f0: 16ab d740 409e cdc0 12ad a5bf 3e0c 313f

transformer.h.0.attn.c_proj.weight f4 [128, 128]
-0.0054691713 -0.008779653 0.0048336885 -0.0006393132 -0.0036164199 0.0059649874 0.010533957 -0.0045490325
0.03366192 0.0024059294 -0.00845847 -0.004685937 -0.009849734 0.00932931 0.005208133 0.0031659328
0.003242583 -0.005420017 0.0047876905 -0.00043972803 0.0032372763 -0.0008201142 -0.0023488987 0.0028100838
-0.0015532796 0.0047807754 0.003336853 0.004096396 0.03190865 0.0063430215 0.0024098 -0.0052941255
0.007198615 0.0020195723 0.0124936085 -0.0076695024 -0.0012302776 -0.0005156873 0.0018154988 -0.022040082
-0.017349968 -0.0015740548 -0.0022067742 -0.004122518 0.0003432194 -0.01343553 0.002257483 -0.009962275
0.012638878 0.0005744143 -0.0034964287 0.00012801419 -0.014021908 0.005550126 -0.009020025 -0.004401075
0.00554731 -0.010174454 -0.0031436675 0.0060693584 -0.002271624 -0.0077352985 0.01005325 -0.002623061
-0.008322268 0.049212992 -0.013569385 0.004770117 -0.0057314197 -0.0011088604 0.006363759 0.0020354576
0.00092819124 -0.03008961 -0.012325852 -0.0090157995 0.0024351273 0.014905652 -0.007223288 -0.018781794
-0.0062244395 -0.005195584 -0.0015156624 0.013616399 0.0034464698 0.006432093 -0.0013589954 0.0036292374
0.005800911 -0.0034434577 -0.0059832553 -0.006456204 -0.007975762 -0.0032179914 -0.004197259 -0.006853116
-0.0036772252 -0.0025369464 -0.014537715 0.13322736 -0.0035218552 -0.0020264308 0.0027215325 0.00066989486
-0.00672098 -0.004932212 0.018652981 0.005246334 0.0038080926 -0.0040336284 -0.0027165671 0.0003959714
0.002359744 0.0039409907 -0.00067751674 0.0036358195 0.0030062846 -0.0015596447 -0.019831538 0.0038870862
-0.0036360833 -0.00073414727 -0.008708857 0.005106761 0.0018288324 -0.0012763683 0.001222954 0.0019203805
-0.008798084 0.0009338817 0.006124981 -0.005902256 0.00050986925 -0.0007951205 0.00940174 -0.007684898
0.025858186 -0.0039922753 -0.0027097603 -0.0021198995 0.025915798 -0.004099631 -0.009438905 0.0026744348
0.0063060713 0.001977829 0.004347157 -0.0059920694 -0.017941704 -0.009307547 0.0031573034 -0.0013710255
-0.014050408 -0.0022202127 0.005554196 0.005241013 -0.0024114577 -0.00018212758 0.0032656302 0.001877657
-0.003118449 -0.008394532 -0.0006740653 -0.009263467 -0.0006949618 0.01627919 0.0019685982 0.042588037
-0.040898886 -0.00929939 -0.01231711 -0.006967653 0.030889433 0.055352055 -0.020604212 -0.03635801
0.011795648 0.0022948151 0.032255866 -0.006833389 -0.03889548 0.0097380625 -0.016609097 -0.022946734
0.0009454077 0.0002629256 -0.010140879 0.0023379824 -0.041434534 0.0024124621 -0.03618289 -0.008668706
-0.007604261 0.018658003 -0.055614747 0.025678702 -0.0031201649 0.0068232785 0.00012172546 0.04580619
0.00076757785 0.026607042 -0.0052712276 -0.015717028 -0.0012741192 0.016267713 0.0133499745 0.022637714
0.028208457 0.003935183 -0.0006690163 -0.0055902908 0.007141842 0.006262812 -0.006387312 -0.0034014774
-0.0019730362 0.0006378738 -0.0010496796 0.00045213237 0.00068422616 -0.00038366384 0.007972425 -0.0015126726
0.0065879268 -0.012685317 0.021992872 0.0011321716 0.020014212 -0.0046972376 -0.002516563 -0.003487073
-0.0044999267 0.012145319 0.02558637 -0.0022149628 -0.004455842 -0.0028190352 -0.0014705457 0.0027491557
0.007836363 0.0020490321 0.009174544 -0.0014211801 -0.001097997 -0.024939042 0.0068819653 -0.0036195542
0.00063966657 0.0012468176 -0.021217944 -0.0074696606 -0.0055646477 -0.010616206 -0.013456419 0.04426134
00000000: bc36 b3bb 89d8 0fbc eb63 9e3b 9597 27ba
00000010: 7501 6dbb f175 c33b 9e96 2c3c 0d10 95bb
00000020: 15e1 093d ccac 1d3b 6595 0abc 7d8c 99bb
00000030: c760 21bc f6d9 183c fca8 aa3b 8a7b 4f3b
00000040: 8481 543b 669a b1bb 0fe2 9c3b 4c8b e6b9
00000050: 7c28 543b effc 56ba fbef 19bb 6229 383b
00000060: 6a97 cbba 0da8 9c3b 1baf 5a3b 0f3b 863b
00000070: a5b2 023d 1fd9 cf3b bced 1d3b 587a adbb
00000080: 5ce2 eb3b cd5a 043b feb1 4c3c 7350 fbbb
00000090: 4441 a1ba 302f 07ba 08f6 ed3a 678d b4bc
000000a0: 8521 8ebc 8450 ceba 879f 10bb 3016 87bb
000000b0: 21f2 b339 b220 5cbc 48f2 133b cf38 23bc
000000c0: 4c13 4f3c 4b94 163a 5724 65bb 8c3b 0639
000000d0: 25bc 65bc d5dd b53b bac8 13bc e536 90bb
000000e0: 36c6 b53b c1b2 26bc fd05 4ebb 78e1 c63b
000000f0: 87df 14bb 6378 fdbb 63b6 243c a9e7 2bbb
00000100: 1f5a 08bc 9093 493d 2052 5ebc a44e 9c3b
00000110: a2ce bbbb 2e57 91ba 1487 d03b 5065 053b
00000120: dc51 733a 7c7e f6bc 5ff2 49bc 01b7 13bc
00000130: a896 1f3b d636 743c 55b1 ecbb 47dc 99bc
00000140: 62f6 cbbb b83f aabb 31a9 c6ba 5117 5f3c
00000150: 2bde 613b 4fc4 d23b 5220 b2ba 80d8 6d3b
00000160: 9215 be3b a2ab 61bb 2f0f c4bb 918e d3bb
00000170: c5ac 02bc f0e4 52bb 2989 89bb 1b90 e0bb
00000180: 9afd 70bb e642 26bb 992f 6ebc c16c 083e
00000190: edce 66bb decd 04bb bd5b 323b e29b 2f3a
000001a0: ab3b dcbb 659e a1bb 23ce 983c 70e9 ab3b
000001b0: 3191 793b 872c 84bb 6f08 32bb 629a cf39
000001c0: efa5 1a3b 6d23 813b 619b 31ba ee46 6e3b
000001d0: 1605 453b fe6c ccba c075 a2bc 7cbe 7e3b
000001e0: 5b4b 6ebb ca73 40ba 98af 0ebc 9e56 a73b
000001f0: 6fb5 ef3a d04b a7ba 874b a03a 47b5 fb3a
00000200: d725 10bc bdcf 743a 11b4 c83b b667 c1bb
00000210: bfa8 053a a26f 50ba c109 1a3c 99d1 fbbb
00000220: 8cd4 d33c a2d1 82bb 3c96 31bb 03ee 0abb
00000230: 5e4d d43c 3356 86bb a3a5 1abc 9245 2f3b
00000240: 29a3 ce3b 779e 013b 9972 8e3b 1f59 c4bb
00000250: 7bfa 92bc ae7e 18bc c3ea 4e3b fbb3 b3ba
00000260: af33 66bc fd80 11bb f9ff b53b cebc ab3b
00000270: 8c09 1ebb 80f9 3eb9 2f04 563b b71b f63a
00000280: e45e 4cbb 3889 09bc c2b3 30ba ccc5 17bc
00000290: 192e 36ba f05b 853c 9903 013b cb70 2e3d
000002a0: 9785 27bd 785c 18bc b4cd 49bc e950 e4bb
000002b0: d60b fd3c d6b8 623d 2aca a8bc 23ec 14bd
000002c0: 8942 413c 9c64 163b ba1e 043d 9fea dfbb
000002d0: de50 1fbd 658c 1f3c cd0f 88bc cafa bbbc
000002e0: 3dd5 773a 47d9 8939 ee25 26bc d638 193b
000002f0: 42b7 29bd 661a 1e3b 8334 14bd 3007 0ebc
00000300: 2a2d f9bb abd8 983c 4acc 63bd 245c d23c
00000310: ae7b 4cbb cf95 df3b dc46 ff38 469f 3b3d
00000320: 4737 493a 03f7 d93c 43ba acbb ffc0 80bc
00000330: 5900 a7ba de43 853c dab9 5a3c ba72 b93c
00000340: 6c15 e73c b5f2 803b ed60 2fba c22e b7bb
00000350: 1d06 ea3b 4638 cd3b a84c d1bb 52eb 5ebb
00000360: 0e4e 01bb fc36 273a 6795 89ba 2e0c ed39
00000370: a45d 333a 7d26 c9b9 c69e 023c df44 c6ba
00000380: 89df d73b 13d6 4fbc 652a b43c 6065 943a
00000390: d8f4 a33c 49eb 99bb ecec 24bb 6087 64bb
000003a0: 1f74 93bb 29fd 463c 829a d13c e928 11bb
000003b0: 5002 92bb 90bf 38bb 53bf c0ba 2e2b 343b
000003c0: 1764 003c 0e49 063b d450 163c e446 baba
000003d0: aaea 8fba f64c ccbc 1c82 e13b 0b36 6dbb
000003e0: 4caf 273a 426c a33a 41d1 adbc 0ec4 f4bb
000003f0: a657 b6bb 98ef 2dbc 5078 5cbc 614b 353d

transformer.h.0.attn.c_proj.bias f4 [128]
0.012644539 0.02242692 0.012125972 -0.014128309 0.005781352 0.00030671232 0.0321124 0.010779197
-0.004398016 -0.031036649 -0.044345573 0.005129789 -0.03086786 -0.0032661906 0.02097345 -0.0057752486
0.056124315 -0.043992996 0.020126825 -0.0021934218 -0.011053081 0.005905924 -0.0054951995 0.007782684
-0.005025466 -0.0016836388 -0.0480787 0.00029366248 0.0090833865 -0.00498588 -0.005337461 -0.025803203
0.007916255 -0.0050897608 -0.006426566 0.040215105 0.012473447 -0.005695154 0.026563518 -0.008692894
-0.0031376355 0.010283295 -0.007860621 -0.005051997 0.0026348704 0.017240718 0.0016608938 -0.007475325
0.0029265434 -0.0011964442 -0.021310775 0.00094171707 -0.0062905317 -0.0073319995 0.0018512119 0.002296472
-0.015269042 -0.0073535806 0.025265777 -0.010017273 0.010782826 0.020940939 -0.008698958 0.003904299
-0.022931168 0.0022336782 -0.00890036 -0.0068204356 -0.00039059197 -0.005858296 0.0009471408 -0.025140617
-0.0074586025 -0.008458958 0.0075660273 0.014676526 -0.028398842 0.0037778073 0.013046497 0.03877655
0.019208845 0.021770502 -0.00046550698 0.018100722 0.004565749 -0.007678242 -0.00933007 0.012627362
-0.0508129 0.017053142 -0.0070156157 0.013381345 -0.0058312723 -0.025266927 0.0006429288 -0.019088412
0.016953506 0.012869833 -0.0028805917 -0.0062467074 -0.022783844 -0.019930407 0.0047175293 0.018247608
0.00454394 0.003301571 0.016366327 0.011324469 0.03282687 -0.0041121757 -0.004285268 -0.056130745
0.012281952 -0.0070291944 0.015404498 0.014256551 0.033980902 -0.011648698 -0.033424444 0.0008980602
-0.0070785973 -0.01052117 -0.0058282977 0.0006388745 0.018828964 0.00055349263 -0.052974854 0.02218078
00000000: 0a2b 4f3c a9b8 b73c 03ac 463c 6c7a 67bc
00000010: 7f71 bd3b 3bce a039 4b88 033d 3b9b 303c
00000020: 3b1d 90bb 9240 febc b4a3 35bd ca17 a83b
00000030: 98de fcbc 960d 56bb 83d0 ab3c 4c3e bdbb
00000040: 9ce2 653d 0032 34bd 03e1 a43c 83bf 0fbb
00000050: fb17 35bc 7b86 c13b 1311 b4bb e305 ff3b
00000060: aaac a4bb 8bad dcba 2cee 44bd b6f6 9939
00000070: 7cd2 143c 9860 a3bb dee5 aebb 3d61 d3bc
00000080: 2eb3 013c 02c8 a6bb f195 d2bb 98b8 243d
00000090: 6e5d 4c3c 6a9e babb bc9b d93c a46c 0ebc
000000a0: caa0 4dbb 447b 283c d6c9 00bc 398b a5bb
000000b0: caad 2c3b 683c 8d3c 59b2 d93a 92f3 f4bb
000000c0: 40cb 3f3b 01d2 9cba ef93 aebc 90dd 763a
000000d0: ce20 cebb 4541 f0bb 5da4 f23a 6880 163b
000000e0: 012b 7abc 4ef6 f0bb 2dfa ce3c 7d1f 24bc
000000f0: 73aa 303c 558c ab3c 1386 0ebc 45df 7f3b
00000100: 25da bbbc e762 123b d1d2 11bc f67d dfbb
00000110: 5ec8 ccb9 f3f6 bfbb 8b49 783a b2f3 cdbc
00000120: 4b67 f4bb 7197 0abc 70ec f73b d075 703c
00000130: b0a4 e8bc 1795 773b f9c0 553c 29d4 1e3d
00000140: de5b 9d3c 0d58 b23c 4a0f f4b9 f747 943c
00000150: 479c 953b c399 fbbb 26dd 18bc ffe2 4e3c
00000160: 3021 50bd 08b3 8b3c 40e3 e5bb 6e3d 5b3c
00000170: 4214 bfbb 96fc cebc 398a 283a 4d5f 9cbc
00000180: 14e2 8a3c fedb 523c 4fc8 3cbb 2eb1 ccbb
00000190: 2fa5 babc 1845 a3bc 8195 9a3b 027c 953c
000001a0: 55e5 943b 2b5f 583b ad12 863c 448a 393c
000001b0: 7875 063d 6ebf 86bb 6f6b 8cbb 5ae9 65bd
000001c0: 3e3a 493c 2855 e6bb 2663 7c3c 4f94 693c
000001d0: 8f2f 0b3d 2eda 3ebc 12e8 08bd cd6b 6b3a
000001e0: 94f3 e7bb fc60 2cbc 4efb bebb 247a 273a
000001f0: 333f 9a3c 4318 113a 29fc 58bd 78b4 b53c

transformer.h.0.ln_2.weight f4 [128]
6.3273826 2.3395932 5.568988 6.7401094 5.095856 4.659229 1.7648787 5.598564
5.9132924 0.44726834 0.62570834 6.39742 6.085778 2.4884434 6.588454 0.0068003144
5.97939 7.186289 3.6318834 0.0022140045 1.7178403 2.163649 -0.0032853947 3.2892418
7.08217 1.8436394 7.1292124 6.237734 3.4094236 -0.0053412193 0.0038294592 6.085501
0.8592656 0.006229906 0.0059645623 6.969906 1.1113462 -0.0028404647 0.7343909 0.0030808041
3.0179384 3.6613257 0.5871685 3.092195 -0.011139937 1.6967002 7.418443 -0.0065179705
1.5236651 1.4311035 0.8179872 1.8861247 4.0022297 6.9687433 0.614597 2.3769977
1.5977519 3.9514475 0.57060754 -0.00037273183 4.6459446 0.93436027 -0.006404119 5.3552465
2.811686 6.600067 -0.0016146401 -0.008450389 0.4633475 0.0037910913 0.04598656 2.9381135
-0.001339252 -0.00801907 1.7732635 6.4824166 1.9949182 0.0037201843 2.3869877 6.610313
6.344777 1.7156146 3.1659567 1.5593318 2.958401 0.00194615 2.7877147 4.02235
1.4506501 2.5964308 2.9841943 1.641779 -0.011062887 7.5048275 3.1924853 5.059501
2.2939413 1.9241583 4.838562 -0.00585425 5.586698 0.62215894 5.6599073 2.4408321
2.0815947 3.5250564 5.9178853 -0.009763229 3.022934 -0.0027324813 6.680854 1.546103
4.0343513 0.0030558032 0.45217255 6.041889 7.0649457 4.3645287 7.1589646 7.4364967
0.0013670322 2.731481 0.0060120444 5.2337046 3.3325465 8.282459 7.5671506 0.61810637
00000000: eb79 ca40 e5bb 1540 2635 b240 faae d740
00000010: 4111 a340 6718 9540 8ce7 e13f 7027 b340
00000020: b139 bd40 5b00 e53e 6c2e 203f aab7 cc40
00000030: b2be c240 a842 1f40 9dd4 d240 2cd5 de3b
00000040: 2a57 bf40 14f6 e540 c770 6840 d518 113b
00000050: 31e2 db3f 3a79 0a40 c74f 57bb f082 5240
00000060: 23a1 e240 60fc eb3f 8222 e440 849b c740
00000070: ff33 5a40 6505 afbb aaf7 7a3b 6dbc c240
00000080: d5f8 5b3f 3d24 cc3b 6072 c33b 7809 df40
00000090: 9840 8e3f 1727 3abb 0b01 3c3f 51e7 493b
000000a0: e725 4140 2953 6a40 ad50 163f 86e6 4540
000000b0: 4884 36bc 792d d93f e363 ed40 b394 d5bb
000000c0: 7507 c33f 662e b73f 9c67 513f 896c f13f
000000d0: 4412 8040 f2ff de40 3b56 1d3f bb20 1840
000000e0: 2283 cc3f 84e4 7c40 5613 123f 386b c3b9
000000f0: 94ab 9440 3c32 6f3f a5d9 d1bb 2e5e ab40
00000100: aaf2 3340 c033 d340 55a2 d3ba 8073 0abc
00000110: e23b ed3e f573 783b 675c 3c3d 0d0a 3c40
00000120: d789 afba 6b62 03bc 4cfa e23f f56f cf40
00000130: 7b59 ff3f 56ce 733b 68c4 1840 af87 d340
00000140: 6a08 cb40 4299 db3f 099f 4a40 2f98 c73f
00000150: 7156 3d40 f515 ff3a eb69 3240 17b7 8040
00000160: e7ae b93f ec2b 2640 0afd 3e40 d025 d23f
00000170: 1c41 35bc 8c27 f040 ae51 4c40 6fe7 a140
00000180: efcf 1240 d24a f63f 80d5 9a40 02d5 bfbb
00000190: 3bc6 b240 cf45 1f3f f61d b540 9836 1c40
000001a0: d938 0540 869a 6140 515f bd40 f3f5 1fbc
000001b0: c077 4140 6e13 33bb 8ec9 d540 b4e6 c53f
000001c0: 6819 8140 df43 483b 2983 e73e 2857 c140
000001d0: 0914 e240 38aa 8b40 3d16 e540 c8f7 ed40
000001e0: fd2d b33a 96d0 2e40 af00 c53b 827a a740
000001f0: 7148 5540 f484 0441 1926 f240 383c 1e3f

transformer.h.0.ln_2.bias f4 [128]
1.9116892 -0.7537007 1.9135498 -2.0461385 -0.792737 0.2728293 -1.4312751 0.77938133
1.2566924 0.37682182 0.6258579 -1.6140486 -1.754269 0.17733203 1.3377308 -0.0052940072
-1.4161681 -1.6585327 -0.8296012 -0.000291929 0.41541582 0.09840778 -0.00011667362 -1.1856796
0.7511318 0.2576015 -2.2793205 1.2692628 -1.242461 -9.698837e-05 0.0033797002 -0.89230007
-0.18268356 -0.0050561503 0.003416658 1.3752553 -0.5241111 -0.0006372001 -0.47232622 -0.0024426992
0.5879741 -0.53057384 0.097559385 0.7247926 0.0016705336 -0.5904945 0.7014166 0.003313574
-0.3979906 -0.2906997 0.24028592 -0.021618208 1.3753731 -1.8550998 -0.12555017 0.10662104
0.4770015 0.71971315 -0.35768986 0.001718072 -0.5751875 -0.64242816 0.0053118514 0.05073254
1.0590888 -1.3607532 -0.0006832469 0.00026907754 -0.016944079 -0.003455618 -0.0025430021 1.5043495
0.0014355083 0.0059145903 -0.48032847 1.8933235 0.9423616 0.0005760273 -0.64650106 1.4899166
1.6997811 -0.8494842 -0.3595762 -0.7089807 -0.4955834 0.0041060387 0.85167116 1.3526183
1.24225 -1.0122348 0.5415893 -0.7501712 0.0011625271 -2.4064443 0.28056175 1.7196497
-0.71831006 -0.7869911 -0.03588433 -0.0056158905 -0.08611873 0.39527184 -1.1647332 -0.7714973
-0.44024727 -0.7385726 -1.5609885 0.002963416 -1.319457 0.0012559523 -1.9658743 1.8436155
-1.0415876 -0.010322456 -0.21335706 1.3180504 1.5098834 0.48518237 -1.8450488 2.1216238
0.004787473 1.238174 0.0007136662 0.99826646 -0.57761055 -0.4192464 -2.138458 -0.31853646
00000000: 3bb2 f43f 87f2 40bf 33ef f43f eff3 02c0
00000010: d0f0 4abf 48b0 8b3e 0634 b7bf 8985 473f
00000020: 4cdb a03f caee c03e 3938 203f 2599 cebf
00000030: e38b e0bf 8796 353e c33a ab3f 5a79 adbb
00000040: ff44 b5bf cd4a d4bf bf60 54bf 0c0e 99b9
00000050: 62b1 d43e 058a c93d acae f4b8 59c4 97bf
00000060: 2c4a 403f 58e4 833e 63e0 11c0 3477 a23f
00000070: f608 9fbf 3c66 cbb8 f67d 5d3b c76d 64bf
00000080: 6611 3bbe 10ae a5bb 02ea 5f3b 5e08 b03f
00000090: 252c 06bf c609 27ba bed4 f1be b115 20bb
000000a0: 7885 163f b0d3 07bf 37cd c73d 028c 393f
000000b0: cef5 da3a a62a 17bf 0a90 333f 8c28 593b
000000c0: 6dc5 cbbe 97d6 94be 830d 763e ab18 b1bc
000000d0: 3a0c b03f e973 edbf 3990 00be 225c da3d
000000e0: 8a39 f43e 1f3f 383f 2023 b7be ee30 e13a
000000f0: 7d3f 13bf 2c76 24bf 0a0f ae3b edcc 4f3d
00000100: 3990 873f 292d aebf ec1b 33ba fa12 8d39
00000110: 4fce 8abc a677 62bb 7fa8 26bb 868e c03f
00000120: aa27 bc3a 2ecf c13b 9ded f5be 6d58 f23f
00000130: 9c3e 713f 8a00 173a 1881 25bf 96b5 be3f
00000140: 6d92 d93f cc77 59bf 5f1a b8be c27f 35bf
00000150: 1bbd fdbe f38b 863b 1f07 5a3f 9922 ad3f
00000160: 0c02 9f3f e990 81bf 99a5 0a3f 380b 40bf
00000170: f05f 983a 2f03 1ac0 caa5 8f3e 7b1d dc3f
00000180: 2be3 37bf 4078 49bf 72fb 12bd 8105 b8bb
00000190: 045f b0bd 1261 ca3e fa15 95bf d980 45bf
000001a0: 1768 e1be 1813 3dbf 79ce c7bf df35 423b
000001b0: f8e3 a8bf c49e a43a c5a1 fbbf 98fb eb3f
000001c0: be52 85bf 851f 29bc 467a 5abe e0b5 a83f
000001d0: dc43 c13f d369 f83e 8f2a ecbf afc8 0740
000001e0: 3ce0 9c3b 7c7c 9e3f 5415 3b3a 648e 7f3f
000001f0: 49de 13bf 77a7 d6be 7fdc 08c0 3617 a3be
