warmup/warmup_1_97_+_1.pth (torch, 824611 bytes, 17 tensors)

transformer.wte.weight f4 [14, 128]
0	0xbd372239	-0.04471037
1	0xb81e4470	-3.7733873e-05
2	0xbca0270f	-0.019549875
3	0xbb681f6c	-0.003541912
4	0x3ba3b668	0.0049961098
5	0xbb8d6927	-0.0043155137
6	0x3cae8058	0.021301433
7	0x3c955737	0.018230064
8	0xbc67dc74	-0.014151681
9	0xbca065a4	-0.019579716
10	0xbb946fd0	-0.0045299307
11	0xbd1685ea	-0.036748804
12	0xbb9a7f1c	-0.0047148596
13	0x3d0ba49b	0.034092527
14	0x3abfab25	0.0014623149
15	0xbc9ba8b1	-0.019001337
16	0x3a15dbd2	0.00057166547
17	0x3cd16ad6	0.025563639
18	0xbc468e27	-0.012118853
19	0x3c926a24	0.017872877
20	0x3cdbf5e3	0.026850646
21	0xba74812e	-0.00093271106
22	0x3cefc600	0.029269218
23	0xbbf71922	-0.007540838
24	0x3a819dc9	0.0009888943
25	0x3cb35f5d	0.021896059
26	0xbd271a1a	-0.040796377
27	0x3cd4ec31	0.025991531
28	0xb88a5366	-6.595887e-05
29	0x3b85b3d1	0.0040802737
30	0xba2b9d43	-0.0006546566
31	0xbca27fe9	-0.019836383
32	0xbcadaa22	-0.02119929
33	0x3c64138c	0.013920676
34	0xbc9ee0a4	-0.019394226
35	0xba2429d6	-0.00062623376
36	0x3cff7be3	0.031187003
37	0xbd079b1a	-0.0331069
38	0x3c88bf1b	0.016692689
39	0x3b8c5280	0.0042822957
40	0x3c4dd00d	0.01256181
41	0xbc396ee3	-0.011317941
42	0xbaa0e2ac	-0.0012274585
43	0x3bb7fd5b	0.005614919
44	0xbc6a9776	-0.014318338
45	0x3cda5c4f	0.026655344
46	0x3d0e3241	0.034715895
47	0xbd1c8a64	-0.038217917
48	0xbc47ac91	-0.012187139
49	0x3c8926f3	0.016742205
50	0xbd2d43e5	-0.042301077
51	0x3ce3162f	0.027720539
52	0xbd405fbc	-0.0469663
53	0xbcc99e7f	-0.02461171
54	0x3c524214	0.012833137
55	0xba714b17	-0.00092046097
56	0x3ccfbd2a	0.025358755
57	0x3d267502	0.04063893
58	0x3d1b2fb6	0.037887298
59	0x3cd9c71f	0.026584206
60	0xbc8acc3e	-0.016943093
61	0x3c0c7956	0.008573851
62	0xbd4478ce	-0.04796677
63	0x3cd76057	0.026291056
64	0xbc95e8d1	-0.018299492
65	0xbd0dbb1a	-0.034602262
66	0x3d109055	0.035293896
67	0xbd3770f9	-0.044785473
68	0xbb9df827	-0.004820842
69	0x3ce470a2	0.027885739
70	0xbc3f1ddd	-0.011664835
71	0xbc3cd582	-0.011525514
72	0x3cb20305	0.021729955
73	0x3c24ed02	0.010066273
74	0x3d003313	0.03129871
75	0x3b0df93d	0.002166345
76	0xbb48453e	-0.003055885
77	0xba7278e0	-0.0009249579
78	0xbc0b6cef	-0.0085098585
79	0xbbbd515c	-0.005777521
80	0x3cf77370	0.030206412
81	0x3c7b21ff	0.0153279295
82	0xbd11bead	-0.035582233
83	0x3c98b82d	0.01864251
84	0xbc34b0c9	-0.011028477
85	0xbd0803fe	-0.033206932
86	0x3ca6457a	0.0202968
87	0x3a559566	0.0008147567
88	0x3b44db6e	0.0030038017
89	0xbcf099ad	-0.029370153
90	0xbd1e6ddd	-0.038678993
91	0x3b51f0bc	0.0032034358
92	0x3ca1b1f8	0.019738182
93	0x3b534c85	0.0032241654
94	0x3aa3b4c0	0.0012489781
95	0xbd3e3656	-0.046438538
96	0x3c8d45a8	0.017245129
97	0xbb2ae0de	-0.0026073973
98	0xbcca022a	-0.024659235
99	0xbd067fe3	-0.032836806
100	0xbd38d958	-0.04512915
101	0x3cbf582b	0.023357471
102	0xbbf54b38	-0.0074857734
103	0xbd1f06fb	-0.038825016
104	0x3cdba061	0.026809873
105	0x3cd236eb	0.025660953
106	0x3d02c1f8	0.031923264
107	0x3cdfc813	0.027317083
108	0xbd4298e4	-0.04750909
109	0x3ce1f5f0	0.027583092
110	0x3d06253a	0.032750346
111	0x3d3212ed	0.04347508
112	0xbd0a3392	-0.033740588
113	0xbbee6780	-0.0072755218
114	0xbcbc8ea6	-0.023017239
115	0xbbb5d51a	-0.0055490853
116	0x3b619889	0.0034423193
117	0xbca3b91c	-0.019985728
118	0xbbf50100	-0.007476926
119	0xbc2582e1	-0.010102005
120	0xbc5cd1c6	-0.013477748
121	0xbc8f2dd9	-0.017477917
122	0x3c59e3ef	0.0132989725
123	0x3c99d0f4	0.018776394
124	0x3caeb13b	0.021324744
125	0x3cdbe4ad	0.02684244
126	0xbc7252c5	-0.014790242
127	0x3c00d755	0.007863839
128	0xbd4485b1	-0.04797906
129	0xbd1714e3	-0.036885154
130	0xbbcb5c42	-0.0062060663
131	0xba99e4f0	-0.0011741202
132	0xbb675835	-0.0035300378
133	0x3c135f3f	0.008994876
134	0xbba8aa8d	-0.0051472844
135	0x3cf29b09	0.029614942
136	0xbc4e9bf7	-0.012610427
137	0xbc8d82df	-0.017274318
138	0x3c975c14	0.018476523
139	0xbd140ba0	-0.0361439
140	0xbb11067f	-0.0022129116
141	0x3d479066	0.048721693
142	0x3b8e36d0	0.0043400303
143	0xbcb04e3c	-0.02152168
144	0x3c6fd911	0.014639155
145	0x3d1a61f7	0.037691083
146	0xbc8b0d11	-0.016974004
147	0xb97ac29a	-0.00023914353
148	0x3d24763b	0.040151816
149	0x3c762301	0.015022994
150	0x3d2f1f23	0.042754304
151	0x3d0ce501	0.034398083
152	0x3c92e2cd	0.017930413
153	0x3a9458fb	0.0011318022
154	0xbd33ba39	-0.043878768
155	0x3d1f71c7	0.038926866
156	0x3ce996c4	0.028514273
157	0x3c588a53	0.013216573
158	0xbc1cf3e5	-0.009579633
159	0x3a8b800c	0.0010643019
160	0xbd10d5ca	-0.035360135
161	0xbb590f2d	-0.0033120618
162	0x3c035fda	0.008018458
163	0xbcf31d29	-0.02967699
164	0x3c09c7ae	0.008409424
165	0xbcd3a3d6	-0.025834959
166	0x3caa9982	0.020825151
167	0x3d11d322	0.035601743
168	0x3c7e51e4	0.015522454
169	0xbb7f53b3	-0.00389598
170	0x3bdc45d7	0.0067221927
171	0xbbba922b	-0.005693694
172	0xbd128744	-0.03577353
173	0x3d22efb8	0.039779395
174	0x3d4e7cdb	0.05041204
175	0xbd1ddf59	-0.03854308
176	0x3c07c53c	0.00828677
177	0x3c8c771d	0.017146641
178	0xbd3ec325	-0.046572823
179	0x3d28000a	0.041015662
180	0xbd4bcc94	-0.049755648
181	0xbb287886	-0.0025706603
182	0x3d02288b	0.031776946
183	0x3c00589e	0.007833628
184	0x3d21031a	0.0393096
185	0x3d6957f8	0.05696866
186	0x3d5d9961	0.05410135
187	0x3d239a52	0.039942093
188	0xbc9ba73e	-0.019000646
189	0x3c9559f7	0.018231375
190	0xbd579f22	-0.052641995
191	0x3d20d1fa	0.03926275
192	0x3bb6780c	0.00556851
193	0xbb563c5e	-0.003268979
194	0x3d49e6da	0.049292423
195	0xbd3ce265	-0.046114344
196	0x3cdfdf1f	0.027328072
197	0x3d1c6f3b	0.038192015
198	0xbb3c29af	-0.0028711369
199	0xbab57f46	-0.0013847135
200	0x3ca0601f	0.019577084
201	0xbc52b77b	-0.012861128
202	0x3d459a0a	0.048242606
203	0x3b6a03ae	0.003570776
204	0x3c16f5cc	0.009213876
205	0x3b49a6cd	0.0030769587
206	0x3c4c5b74	0.012472976
207	0x3cc56d71	0.024100037
208	0x3d3a2303	0.045443546
209	0xbb8032b4	-0.0039122943
210	0xbcedc912	-0.029026542
211	0xbb317e2e	-0.0027083266
212	0xb99ecff1	-0.00030291037
213	0xbcf0d8bb	-0.02940022
214	0x3bcc9a24	0.006243961
215	0x3c8f856f	0.01751968
216	0xbc89db73	-0.016828274
217	0xbce27b79	-0.027646767
218	0xbd059e8d	-0.03262191
219	0xbca1bee9	-0.019744353
220	0x3d07d028	0.033157498
221	0xbcb34d00	-0.021887302
222	0x3bdad08a	0.006677692
223	0xbd4ec8c5	-0.050484437
224	0x3d044e61	0.03230131
225	0x3c373c71	0.011183844
226	0xbb814ff5	-0.003946299
227	0xbd231714	-0.03981693
228	0xbd43e105	-0.047822017
229	0x3ca3a01c	0.019973807
230	0xbbc83798	-0.006110143
231	0xba4bf68c	-0.0007780574
232	0x3d23ff66	0.04003849
233	0x3d33cb03	0.04389478
234	0x3d4425ce	0.047887616
235	0x3d1fe12c	0.0390331
236	0xbd60bd86	-0.054868244
237	0x3d285db7	0.041105
238	0x3c2f981c	0.010717418
239	0x3d6e15ae	0.058126144
240	0xbceaa57b	-0.02864336
241	0x3bddc2ea	0.0067676203
242	0x3c787d3e	0.015166579
243	0x3c297bfe	0.010344503
244	0xbc6bdfce	-0.014396621
245	0xbc6e174b	-0.014531921
246	0x3beac0a8	0.0071640797
247	0x3cbdf94d	0.023190165
248	0x3c0be4ff	0.008538484
249	0xbbc5c34d	-0.0060352446
250	0x3cb75816	0.02238087
251	0xba82a036	-0.000996596
252	0x3cd49bd8	0.025953218
253	0x3d241325	0.04005732
254	0xbc873a2e	-0.016507234
255	0xbaf5d941	-0.0018756763

transformer.wpe.weight f4 [32, 128]
0	0x3b21ae8d	0.002467069
1	0xbbad5f75	-0.0052909204
2	0x39829c9e	0.0002491222
3	0x3c24b5b1	0.010053084
4	0xbda54580	-0.08069897
5	0x39d50bfe	0.0004063546
6	0xbc50ef36	-0.012752345
7	0x3b22fbf8	0.0024869423
8	0x3cb69744	0.022288926
9	0x3c8d65f9	0.017260538
10	0x3b57577c	0.0032858541
11	0x3ac51b00	0.0015037954
12	0xbb960c61	-0.0045791124
13	0x3bc265bb	0.0059325374
14	0x3c667969	0.014067032
15	0x3b10cad4	0.0022093551
16	0x3c8e6949	0.017384188
17	0x3bed334f	0.0072387825
18	0x3c35e88b	0.011102806
19	0x3b8f16c2	0.0043667266
20	0x3c25708c	0.010097634
21	0x3c6f0845	0.014589374
22	0x3c55a68c	0.013040196
23	0xbc3b80e9	-0.011444309
24	0xbb8a7f76	-0.0042266203
25	0xbc18ac8d	-0.009318483
26	0xb8e61861	-0.000109717956
27	0x3c4cb339	0.012493902
28	0x3bac1f93	0.0052527874
29	0x3c9bcab9	0.019017564
30	0x3c6aab1e	0.014323024
31	0xbb80af4d	-0.0039271475
32	0xbc957dd2	-0.018248472
33	0xbbccf79f	-0.0062551047
34	0x3c7d6847	0.015466756
35	0x3b797884	0.0038066218
36	0x3a9020a6	0.0010996058
37	0xbc92e4b6	-0.017931323
38	0xbba33af8	-0.004981395
39	0x3c9592d2	0.018258486
40	0x3bc2e8ac	0.005948147
41	0xbabf21b7	-0.0014582191
42	0xbbfd1786	-0.0077237515
43	0xbaea2e1c	-0.0017866525
44	0xbc894520	-0.016756594
45	0x3c3d5660	0.011556238
46	0x3baf1200	0.005342722
47	0x3c70f557	0.014706931
48	0xbbe19b6a	-0.006884982
49	0x3c23363b	0.00996166
50	0x3b9f1b77	0.004855569
51	0x3c1a1c74	0.009406198
52	0xbc161d62	-0.009162279
53	0xbbf09902	-0.0073424587
54	0x3c905840	0.017620206
55	0xbb09f6c1	-0.0021051618
56	0x3aeba97b	0.0017979586
57	0x3c70a6e3	0.014688226
58	0x3c3a146b	0.011357407
59	0x3c18646d	0.009301287
60	0xbc0bd789	-0.008535274
61	0xbb184e03	-0.0023239858
62	0xbac04676	-0.0014669436
63	0x3c51594b	0.012777637
64	0xbc903980	-0.017605543
65	0xbbcbc1c7	-0.0062181684
66	0x38df8b9d	0.000106594736
67	0x3bd00764	0.0063485373
68	0xbca798d9	-0.020458626
69	0x3bd1338f	0.00638432
70	0xbb3317cf	-0.0027327423
71	0xbcd8dcba	-0.026472438
72	0x3d1f7b96	0.03893622
73	0xbaee32d1	-0.0018173103
74	0xbbabdb8a	-0.005244677
75	0xbabd8350	-0.001445869
76	0x3be5f86b	0.007018139
77	0x3bea973a	0.007159141
78	0x3c0dcd12	0.00865485
79	0xba19fa90	-0.00058738235
80	0x3bc3debc	0.0059774797
81	0xba8a82e1	-0.0010567569
82	0x3bf4560f	0.007456548
83	0xbc6c62ab	-0.014427821
84	0xbba6f77c	-0.0050954204
85	0x3c850a11	0.016240152
86	0x3c937fa2	0.018005196
87	0x3cb97253	0.022637522
88	0x3c358fbd	0.011081633
89	0x3b087966	0.0020824312
90	0xbb691dfe	-0.0035570855
91	0x3a0d78b2	0.0005396708
92	0xba6abed2	-0.0008954826
93	0x3c72da87	0.014822609
94	0xbbe73065	-0.0070553296
95	0xba93ea81	-0.0011285098
96	0xbb50b012	-0.0031843227
97	0x3cdad285	0.026711712
98	0x3bb44f62	0.005502627
99	0xbb861439	-0.004091766
100	0x3ae45187	0.0017419317
101	0x3d03e957	0.032204952
102	0x3c432f29	0.011913099
103	0x3b842350	0.00403253
104	0x3c22ef73	0.009944784
105	0x3cb78fba	0.022407401
106	0x3c24671b	0.010034348
107	0x3c283687	0.010266907
108	0xba6bfbaa	-0.00090020394
109	0x3bed5a09	0.007243399
110	0x3ba9718c	0.0051710065
111	0x3beeb981	0.0072852974
112	0xbc5c89ae	-0.01346056
113	0x3b333b3c	0.002734854
114	0x3c27b6fe	0.0102365
115	0x3c1f0541	0.0097058425
116	0xbb0cf04a	-0.0021505528
117	0x3b98d291	0.0046637733
118	0x3bf6007b	0.0075073815
119	0x3c0aa14e	0.00846131
120	0x3c8538ed	0.016262496
121	0x3c84fc05	0.016233454
122	0x3b4f4db5	0.003163201
123	0x3b244f62	0.002507173
124	0x3bf63e88	0.0075147785
125	0x3c14d871	0.009084807
126	0xbc77c2cd	-0.015122128
127	0xbc77b5de	-0.015119044
128	0xbc32ab14	-0.010905046
129	0x3bf979e4	0.0076134074
130	0xbc2fe796	-0.010736367
131	0xbc6fe552	-0.014642077
132	0xbc255b2b	-0.010092537
133	0xbbf493d7	-0.007463913
134	0x3c6d50d5	0.014484604
135	0x3b8fa7da	0.004384023
136	0xbd193ac0	-0.037409544
137	0xbd07831e	-0.033084027
138	0xbafa0e97	-0.0019077834
139	0xbc2a29e8	-0.010385968
140	0x39f5e3db	0.00046899807
141	0x3c377d24	0.011199269
142	0xbb9316fb	-0.0044888235
143	0xba167a79	-0.0005740296
144	0xbbb327c7	-0.0054673883
145	0xbb19ba02	-0.0023456817
146	0xbc8a4386	-0.0168779
147	0xbbc26397	-0.005932282
148	0xba885238	-0.001040048
149	0xbbb746b6	-0.005593146
150	0xbbe80f2d	-0.007081887
151	0x3bc004d1	0.005859949
152	0x3964c256	0.0002181617
153	0x3c06a12f	0.00821714
154	0xbbae5ad5	-0.0053208866
155	0xbb512a54	-0.0031916099
156	0xbbbf0471	-0.005829387
157	0xbc7dbcde	-0.015486924
158	0xbc50bf1d	-0.012740877
159	0xbc09ad18	-0.008403085
160	0x3c364b0d	0.011126292
161	0x3bdb3163	0.006689237
162	0xbc4fe3ef	-0.012688621
163	0xbc0c3e7b	-0.008559818
164	0xba87f337	-0.0010372166
165	0x395bcdcc	0.00020962133
166	0x3c7940b2	0.0152131785
167	0xbc5f14fa	-0.013615841
168	0xbbb7a442	-0.005604298
169	0x3968870e	0.00022175556
170	0x3b7d948f	0.0038693284
171	0x3c1b9cac	0.009497803
172	0x3c10fd99	0.008849525
173	0xba291c99	-0.00064511
174	0x3b889e86	0.004169288
175	0xbce661b5	-0.028122762
176	0x3c9da81d	0.019245202
177	0x3c163dbc	0.009169992
178	0xbc6abfdb	-0.0143279685
179	0x394993a5	0.00019223856
180	0xbb6e01b7	-0.003631694
181	0x3c975b4c	0.01847615
182	0xbc02e3c2	-0.007988872
183	0x3a8d6dbf	0.0010790153
184	0x3b9a1bed	0.004703036
185	0x3c0905e4	0.008363221
186	0x3b25494a	0.0025220686
187	0xbab776f7	-0.0013997246
188	0x3bd02478	0.0063520037
189	0x3b3afa85	0.002853067
190	0xbbb97fba	-0.005660978
191	0xbb7914e8	-0.0038006846
192	0x3b57e340	0.0032941848
193	0x3c909e4b	0.017653605
194	0x3c2a71fa	0.010403151
195	0xbcb85374	-0.022500731
196	0x3c55fed7	0.013061247
197	0x3b6dd5ee	0.0036290842
198	0x3be3656d	0.006939581
199	0x3cb18a9d	0.021672541
200	0xbabb453f	-0.0014287605
201	0x3afb4bf2	0.0019172414
202	0x3cc2dca1	0.023786845
203	0xbbbea93b	-0.0058185137
204	0xbc439ec8	-0.011939712
205	0xbb0857a2	-0.0020804186
206	0xbbe545d1	-0.006996848
207	0x3b499917	0.0030761415
208	0x3a82d02e	0.0009980255
209	0xbb874df0	-0.004129164
210	0xbc3d8aa9	-0.011568704
211	0x3d802092	0.06256212
212	0x3bc09922	0.00587763
213	0xbd0ac096	-0.03387507
214	0xbcccd2f2	-0.02500293
215	0xbcc3c920	-0.023899615
216	0xbc097b6e	-0.008391244
217	0xbbeed850	-0.00728897
218	0xba572078	-0.00082064373
219	0xbc0c204b	-0.008552621
220	0x3c75e62b	0.01500849
221	0xbc26567a	-0.010152454
222	0xbbe4646c	-0.006969979
223	0xbbddb538	-0.0067659877
224	0x3c2719a0	0.010198981
225	0xbc958dd7	-0.018256111
226	0xbb75ef4f	-0.0037526672
227	0xbaf05be0	-0.0018337928
228	0xbc108759	-0.008821332
229	0xbc15b37a	-0.009137029
230	0xbc3f765a	-0.011685932
231	0x3afd90ce	0.0019345523
232	0xba9fb467	-0.0012184501
233	0xbbf79e09	-0.007556681
234	0x3aa4d66b	0.0012576109
235	0xbbac8620	-0.0052650124
236	0xbbc4828f	-0.005997009
237	0xbb5523ab	-0.003252248
238	0xbbe25d0b	-0.0069080642
239	0x3ade40a0	0.0016956516
240	0xbc844809	-0.01614763
241	0xbbad7cb3	-0.0052944063
242	0xbb895aff	-0.004191756
243	0xbbd7b5de	-0.0065829596
244	0x3afa2c41	0.0019086675
245	0x3a83084e	0.0009996982
246	0xbc01aba0	-0.007914454
247	0xbc1c72e6	-0.009548878
248	0xbccbd8c4	-0.024883635
249	0xbc9b4aee	-0.018956628
250	0xbbfa941c	-0.0076470505
251	0xbb77a394	-0.003778671
252	0x3b9b7bc7	0.00474498
253	0xbac91fda	-0.0015344576
254	0x3c991271	0.018685551
255	0x3c4cec1a	0.012507463

transformer.h.0.ln_1.weight f4 [128]
0	0x3ed3113f	0.41224095
1	0x4009c92c	2.1529036
2	0x3ed7a2d3	0.42116413
3	0x3f1c1cbd	0.6098135
4	0x40807e06	4.0153837
5	0x3f215e2a	0.6303431
6	0x3fb65c55	1.4246927
7	0x3edfbad3	0.43697223
8	0x3f11ffa7	0.5703072
9	0x3f102294	0.5630276
10	0x3f7dd177	0.99147743
11	0x3ecaf5e2	0.3964072
12	0x3f1b6b99	0.60711056
13	0x3ece8931	0.40339044
14	0x3f6b8a96	0.9200834
15	0x3e923684	0.28557217
16	0x3ec50bfb	0.38485703
17	0x3b906783	0.004406871
18	0x3f82d489	1.022111
19	0x402764e8	2.6155338
20	0x3ba34e7f	0.0049837227
21	0x3f025487	0.5091023
22	0x3a377f44	0.000699986
23	0x3f0687e5	0.5255111
24	0x3ed6f6e8	0.4198525
25	0x40107d86	2.2576613
26	0x3ee853cd	0.45376435
27	0x3a8178e7	0.0009877951
28	0x3ebcfbe5	0.3691093
29	0x3eb06b8d	0.34457055
30	0x3f96a5f0	1.176939
31	0x3ee7f93a	0.45307332
32	0x3f24f6fe	0.6443938
33	0x4008fffe	2.1406245
34	0x3f7cc28e	0.98734367
35	0x3f0a58d4	0.5404179
36	0x400f9589	2.243502
37	0x3eec7578	0.46183372
38	0x3f001fd9	0.50048596
39	0x3eb963ce	0.36208957
40	0x4068696d	3.6314347
41	0x3f02ab28	0.51042414
42	0x3f472191	0.77785593
43	0x3f393d80	0.72359467
44	0x3f26e086	0.65186346
45	0xbad4bbd6	-0.0016230296
46	0x3ecde3e7	0.40212938
47	0x3edced73	0.4314991
48	0x3f93a027	1.153325
49	0x3ed00561	0.40629104
50	0x3ed87514	0.42276824
51	0xba4238ed	-0.00074089953
52	0x3ede0cee	0.4336924
53	0x404bb08b	3.1826503
54	0x3eff1074	0.4981724
55	0x3f2986c4	0.6622126
56	0x3eb64db6	0.35606164
57	0x3e8572aa	0.26064044
58	0x3ed3548d	0.41275445
59	0xbbd5e914	-0.006528029
60	0x3f03c21e	0.51468074
61	0x3f32e6ab	0.6988322
62	0x3ed8cc0c	0.42343175
63	0xb9d91432	-0.00041404512
64	0x3ef65a02	0.48115546
65	0x406d932d	3.712108
66	0x3eb76b33	0.35823974
67	0x3efa3e87	0.4887583
68	0x3f18bd2d	0.5966366
69	0x3e9813cd	0.29702607
70	0x4026f129	2.6084692
71	0x3f2efe13	0.68356436
72	0x3ee031e2	0.43788058
73	0x3fce2673	1.6105484
74	0x3ee90803	0.45513925
75	0x3f056ce0	0.52119255
76	0x3f4ea8ad	0.8072613
77	0x3f433644	0.7625468
78	0x3f9baec9	1.2162715
79	0x3f06afda	0.5261208
80	0x3ed45d2c	0.41477334
81	0x40045d41	2.0681918
82	0x3efea06e	0.49731773
83	0x4096ba0b	4.7102103
84	0x3fa73d26	1.3065536
85	0x3ef842e6	0.4848854
86	0x40493184	3.1436472
87	0x3eb4f3da	0.35342294
88	0x3f124365	0.57134086
89	0x3de9daef	0.114187114
90	0x3f116f58	0.5681052
91	0x405ad8a8	3.4194736
92	0x3f24bd8e	0.6435174
93	0x3f212da5	0.62960273
94	0x3f7ed1f7	0.9953913
95	0x3ed3284b	0.4124168
96	0x3ec0c245	0.37648216
97	0x3f46ac05	0.7760623
98	0x3fd760bb	1.6826395
99	0x3ec4c980	0.38434982
100	0x3ed9ad14	0.4251486
101	0x3f0abd9d	0.54195577
102	0x3f4ff560	0.8123379
103	0x403e32d3	2.971852
104	0x3b048175	0.0020218764
105	0x3e8b06a5	0.27153507
106	0x3ed50c36	0.4161088
107	0x3c9b680d	0.018970514
108	0x3ec3d543	0.38248643
109	0xbba8f94e	-0.0051566726
110	0x40394fd5	2.8954976
111	0x3e14146d	0.14460917
112	0x3edd4621	0.43217567
113	0x3ec4c2c7	0.38429853
114	0x3f8aaf70	1.0834789
115	0x3e7a133e	0.24421403
116	0x3fced526	1.6158798
117	0x405afb6d	3.4215958
118	0x3f4c57bb	0.79821366
119	0x3f3065df	0.6890544
120	0x3f0e44f6	0.55573976
121	0x3f4d0adc	0.80094695
122	0x3ecec496	0.40384358
123	0x405f4cf0	3.489071
124	0x3e9b7863	0.30365285
125	0xbb927f3f	-0.0044707353
126	0x3f24f136	0.6443056
127	0x3fa8f2df	1.3199118

transformer.h.0.ln_1.bias f4 [128]
0	0xbe967671	-0.2938724
1	0x3e04ec3a	0.12980738
2	0xbe6ffe88	-0.2343694
3	0x3e0184ca	0.12648311
4	0xbeb6a6bb	-0.3567408
5	0xbde63d4e	-0.11242162
6	0xbc57b4a5	-0.013165628
7	0x3e8cd3a0	0.27505207
8	0xbe54135e	-0.20710513
9	0xbea5aeba	-0.32359868
10	0xbdba9520	-0.091104746
11	0xbe89eff7	-0.2694089
12	0xbb456602	-0.0030120616
13	0x3e89ce1f	0.2691507
14	0x3e10b21c	0.14130443
15	0xbce8fbce	-0.028440382
16	0x3e0f0d9c	0.13970035
17	0x3b389efc	0.0028170934
18	0x3e47198c	0.19443339
19	0x3de592d3	0.11209645
20	0xb9fdd4a8	-0.00048414362
21	0x3e1f6e1c	0.15569347
22	0x3a34c070	0.00068951305
23	0xbeb49ed2	-0.3527742
24	0xbdc120f8	-0.094301164
25	0xbd6dbd4f	-0.058041867
26	0xbeb5703c	-0.3543719
27	0xbb93f2ab	-0.0045150123
28	0xbbbff7aa	-0.0058583813
29	0xbe261baa	-0.1622149
30	0x3bad1c54	0.005282918
31	0xbe640296	-0.22266611
32	0x3eac3b26	0.33638877
33	0xbd287ded	-0.041135717
34	0x3db5ea13	0.08882537
35	0x3e967a37	0.29390118
36	0x3da4d018	0.08047503
37	0xbec4b11f	-0.38416383
38	0x3ea3e580	0.32011032
39	0xbe3ac13d	-0.18237777
40	0x3f502372	0.81304085
41	0xbdade721	-0.0849135
42	0xbdb0f734	-0.086409
43	0x3d306e43	0.043073904
44	0x3ec75147	0.38929197
45	0x3a44129c	0.00074795797
46	0x3e968585	0.29398742
47	0xbe85f1bd	-0.26160994
48	0x3d2ab509	0.041676555
49	0x3decee5e	0.115689024
50	0xbdf3fa2a	-0.119129494
51	0x3a6eb9dc	0.00091066747
52	0xbea3c852	-0.3198877
53	0x3e800e9b	0.25011143
54	0x3e986050	0.2976098
55	0x3dfff407	0.124977164
56	0x3e637c0c	0.22215289
57	0x3dd06815	0.10176102
58	0x3eac14cc	0.33609617
59	0x3b8850c9	0.004160021
60	0x3ea59f9f	0.32348344
61	0xbd036b9e	-0.032085054
62	0xbe9193f6	-0.28433198
63	0x39d56d31	0.0004070788
64	0xbebf3c94	-0.37350905
65	0xbda0efc4	-0.07858232
66	0x3e63a2f2	0.22230127
67	0xbeca741e	-0.39541715
68	0xbeb33ef7	-0.35008976
69	0x3d87cd7b	0.06630989
70	0x3e1828c7	0.14859305
71	0xbe9e576e	-0.3092608
72	0x3e46c1ed	0.19409914
73	0x3da70e26	0.081569955
74	0x3eb0965f	0.34489724
75	0xbd9fb236	-0.07797663
76	0xbdb654cf	-0.08902895
77	0x3db6d0ca	0.08926542
78	0xbdbec50c	-0.093149275
79	0xbd045d8b	-0.032315772
80	0x3e9b8a8b	0.30379137
81	0xbccd499b	-0.025059512
82	0xbe4142ce	-0.1887314
83	0x3ef6438d	0.48098412
84	0x3e0993d7	0.13435303
85	0xbe9c8015	-0.3056647
86	0x3e79e75a	0.2440466
87	0xbe3acd86	-0.18242463
88	0x3e9de7fc	0.30841053
89	0xbba38c90	-0.0049911216
90	0xbe6e71d9	-0.23285617
91	0x3ec63d03	0.38718423
92	0x3e3d8559	0.185079
93	0x3ed25cb7	0.4108636
94	0xbd6eaf1e	-0.058272474
95	0xbe8da238	-0.27662826
96	0x3dcd4b3d	0.10024116
97	0x3db33bc5	0.087516345
98	0x3d08e0ea	0.03341762
99	0xbd093f77	-0.03350779
100	0xbea0b2cf	-0.3138642
101	0x3eaf56bf	0.3424587
102	0x3df79569	0.120890446
103	0x3d9c778d	0.0763999
104	0x392d0dbd	0.00016503684
105	0x3da66672	0.08125009
106	0x3ea74f24	0.32677567
107	0xba8f8d7c	-0.00109522
108	0xbe5a1852	-0.2129834
109	0xba24d001	-0.00062870985
110	0x3e2033b8	0.15644729
111	0x3d30fccf	0.043209847
112	0xbe5b0334	-0.2138794
113	0xbd456030	-0.048187435
114	0xbd4b8c6a	-0.049694456
115	0x3cf6cdce	0.030127432
116	0x3e28c1c6	0.16480169
117	0xbcdb6e32	-0.026785944
118	0xba8ca70b	-0.0010730935
119	0xbd7d7c44	-0.061886087
120	0xbe005234	-0.12531358
121	0x3e0a4a3c	0.1350488
122	0x3d8810af	0.06643807
123	0x3dde3ad9	0.10851068
124	0x3d22c526	0.039738797
125	0x3b72c8b5	0.00370459
126	0xbdb4466b	-0.08802494
127	0x3da1497c	0.07875344

transformer.h.0.attn.c_attn.weight f4 [384, 128]
0	0x3b2cae3f	0.0026348976
1	0x3d279af3	0.040919255
2	0xbc7985e3	-0.015229675
3	0xbd576e35	-0.052595336
4	0x3c692d79	0.014232033
5	0xbc998a83	-0.018742805
6	0xba05e346	-0.0005107414
7	0xbd09c852	-0.033638306
8	0xbd6df224	-0.05809225
9	0xbc8432b0	-0.016137451
10	0xbca59ca6	-0.020216297
11	0x3c8f2dca	0.017477889
12	0xbcc55d44	-0.024092324
13	0x3c64ff96	0.013976952
14	0x3c481ee6	0.012214398
15	0xbc83561d	-0.016032273
16	0xbd17fe97	-0.03710803
17	0xbbee673d	-0.0072754906
18	0xbcdede64	-0.027205653
19	0x3b26b395	0.002543663
20	0x3b2e07e3	0.0026554994
21	0xbbea40a8	-0.007148821
22	0x3c1aca0b	0.009447585
23	0x3c72b77b	0.014814253
24	0x3d3bf951	0.045892064
25	0x3cf751b6	0.03019033
26	0x3c876f6c	0.016532622
27	0xbcb9fee3	-0.022704547
28	0x3ce0e44a	0.027452607
29	0xbd27b613	-0.040945124
30	0x3c85d74b	0.016338011
31	0x3a7af92a	0.00095738715
32	0x3d157605	0.036489505
33	0xbce66326	-0.02812345
34	0xbca0ab08	-0.019612804
35	0xbc14f8f7	-0.009092561
36	0x3c286292	0.010277407
37	0x3ceb38d8	0.028713629
38	0xbc24b6f9	-0.01005339
39	0xbd211ce6	-0.0393342
40	0xbd2b0e2f	-0.041761573
41	0x3cf54de7	0.029944373
42	0x3d438f7e	0.047744267
43	0x3b5bd9b5	0.0033546512
44	0x3d24a650	0.04019767
45	0xbb6e3df0	-0.0036352836
46	0x3c0251e0	0.007954091
47	0xbd15d8fb	-0.03658388
48	0x3c9d9371	0.019235345
49	0x3c89d175	0.01682351
50	0xbd1fc1f4	-0.039003327
51	0xbc69da24	-0.0142732
52	0x3c70f7f2	0.014707552
53	0x3cce364d	0.025172377
54	0xbcea0a36	-0.028569322
55	0x3c60fc08	0.013731964
56	0xbc6a0d24	-0.0142853595
57	0x3bb32481	0.005466998
58	0xbcae555c	-0.021280937
59	0x3c932f11	0.017966779
60	0x3cb59c2d	0.022169197
61	0x3d059c19	0.03261957
62	0x3c4667a1	0.012109668
63	0xbb95f486	-0.0045762686
64	0x3d1fa117	0.038971987
65	0x3c72ef88	0.0148276165
66	0x3cdbaebb	0.026816716
67	0xbcc25ac1	-0.023724915
68	0x3c7770bd	0.0151025625
69	0x3bc0ef0f	0.005887873
70	0xbb3b1365	-0.0028545496
71	0x3ce1c666	0.027560424
72	0xbc93f8bc	-0.018062942
73	0x3d00c132	0.031434245
74	0x3d12697b	0.035745125
75	0x3bcd46af	0.0062645297
76	0xbcee3b80	-0.029081106
77	0xbcf6597f	-0.030071972
78	0x3cfbaee0	0.030723035
79	0x3d22f943	0.039788496
80	0xbbb0d1a9	-0.005396087
81	0x3c3cda19	0.011526608
82	0xbcfe1ddc	-0.031020097
83	0x3d2755cf	0.040853318
84	0xbb707a01	-0.0036693814
85	0xbd1a26ef	-0.037634786
86	0xbd226337	-0.0396454
87	0xbd46094a	-0.048348702
88	0xbc5cd87c	-0.013479348
89	0xbc5bdbf4	-0.01341914
90	0x3c11eb94	0.008906264
91	0xbd148b48	-0.03626564
92	0x3ce5300f	0.027977018
93	0xbc80c6e3	-0.015719837
94	0xbca1f03c	-0.019767873
95	0xb9decfed	-0.00042498056
96	0x3d0d71ac	0.034532234
97	0x3b4cf470	0.0031273626
98	0xbc56fe16	-0.013122102
99	0xbc09d360	-0.008412212
100	0x3bdcba19	0.0067360518
101	0xbd0a7c7b	-0.03381012
102	0xbd441fab	-0.047881763
103	0x3c793159	0.015209519
104	0x3c3668fd	0.01113343
105	0xbd0703c7	-0.032962587
106	0xbcc992bf	-0.024606107
107	0xbc78ce51	-0.015185908
108	0xbc3ae2ac	-0.011406582
109	0xb80175d0	-3.0865718e-05
110	0x3a0e8515	0.0005436701
111	0x39818748	0.0002470559
112	0xbbf98ec3	-0.0076158955
113	0x3c818c9b	0.015814116
114	0xbb4cc8e9	-0.0031247681
115	0xbc75b8a5	-0.014997636
116	0x3c50a268	0.012734033
117	0x3c7d2945	0.015451734
118	0xbca1b24f	-0.019738344
119	0x3c50f78e	0.012754334
120	0xbd2afb1b	-0.04174338
121	0xbd30f9bc	-0.043206915
122	0x3c40265c	0.011727896
123	0x3c3e619a	0.01161995
124	0x3cdd277b	0.026996365
125	0x3a50ad6b	0.00079604116
126	0x3d021710	0.031760275
127	0x3d4d1136	0.05006524
128	0x3c10a736	0.008828929
129	0x3b96336b	0.004583766
130	0x3cecd361	0.028909387
131	0xbc58166d	-0.0131889405
132	0x3b376219	0.0027982055
133	0x3cbf399a	0.023342896
134	0x380d6e20	3.371958e-05
135	0xbcd97c5c	-0.026548557
136	0x3ce8686c	0.028370105
137	0x3c25a2b0	0.0101095885
138	0x3c6c02ef	0.014404996
139	0x3cac5667	0.021037294
140	0xbb6aab87	-0.0035807805
141	0xbbc57f86	-0.006027165
142	0xbc49d0ec	-0.012317877
143	0xbbbeb72c	-0.0058201756
144	0xba8b8c52	-0.0010646677
145	0x3b5308ee	0.0032201367
146	0xbc4bcdb4	-0.01243918
147	0xbb0b042b	-0.00212122
148	0x3b44fa64	0.003005647
149	0x3b8d6b72	0.004315787
150	0xbc2fd001	-0.010730744
151	0x3b79eeed	0.0038136796
152	0xbc08181d	-0.00830653
153	0xbbe714a9	-0.0070520234
154	0x3b86ce8c	0.004113978
155	0xbc2a7455	-0.010403712
156	0xbc855787	-0.016277088
157	0x3c8ed190	0.017433912
158	0x3ab6d456	0.0013948779
159	0x3a3455c6	0.00068792363
160	0xbc25a1b0	-0.01010935
161	0x3c781035	0.015140583
162	0x3a1fda5b	0.0006097906
163	0xbc34ebd4	-0.011042554
164	0xbbb14c1c	-0.0054106843
165	0x3c036a2d	0.00802092
166	0xbc5d2207	-0.013496882
167	0x3ca8b0c8	0.020592108
168	0x3caaacba	0.020834316
169	0x3c092cb6	0.008372476
170	0x3b962d34	0.0045830254
171	0xbbbbfc3d	-0.0057368563
172	0xbc58e63f	-0.013238489
173	0xbc20bf77	-0.009811274
174	0xbc538db7	-0.012912205
175	0x3c48d214	0.012257118
176	0x3aef3ad5	0.0018251786
177	0xbbefd129	-0.007318635
178	0x3b190490	0.0023348667
179	0xbc99ea78	-0.018788561
180	0x3c0e998f	0.008703603
181	0xbd10dcf6	-0.035366975
182	0x3c24ae39	0.010051304
183	0xbbae747d	-0.005323945
184	0xbcddffc5	-0.0270995
185	0xbcac260c	-0.021014236
186	0xbca7f3ae	-0.020501938
187	0x3c962db9	0.01833235
188	0xbbba1325	-0.0056785517
189	0x3c4cd861	0.012502761
190	0x3c67c11a	0.01414516
191	0x3cc171c8	0.023613825
192	0x3b7fefa2	0.0039052744
193	0xbc6aa910	-0.014322534
194	0xbc85cd6d	-0.016333306
195	0x3c52d72a	0.012868682
196	0xba1f216f	-0.00060703506
197	0xbb3b72fc	-0.0028602472
198	0x3c9baf51	0.019004496
199	0xbc4a42a9	-0.012344995
200	0xbb81a445	-0.00395635
201	0x3b4a9848	0.003091352
202	0xbcb36387	-0.021898044
203	0x3c71069a	0.014711047
204	0xba5df148	-0.00084664347
205	0xbc8d9b6b	-0.017286023
206	0xbae484be	-0.001743458
207	0x3bbace99	0.005700898
208	0xb93b0ea1	-0.0001783916
209	0xbcc2a464	-0.023760028
210	0x3c9bb47e	0.019006964
211	0xbc9490d2	-0.018135462
212	0x3c1ca702	0.009561302
213	0x3cce9765	0.025218675
214	0x3c32a0bd	0.010902581
215	0x3c6d4c83	0.014483574
216	0x3a9751a6	0.0011544719
217	0x3be0a4fc	0.006855605
218	0x3a303a2a	0.00067225343
219	0x3a133c49	0.0005616588
220	0x3b06254e	0.0020469013
221	0xbbc500d1	-0.00601206
222	0x3c527d4f	0.012847259
223	0x3c19f278	0.009396188
224	0xbb8fa877	-0.0043840962
225	0x3a48ef71	0.0007665074
226	0x3a67f2ec	0.0008848149
227	0xbc7e0ed0	-0.015506461
228	0x3bdd01b7	0.006744589
229	0xbbba6e4a	-0.005689417
230	0xbc058589	-0.008149513
231	0x3b66d866	0.0035224198
232	0x3c2b06ee	0.010438664
233	0x3a3d88e6	0.0007230177
234	0xbc8529b6	-0.01625524
235	0x3c23870d	0.009980929
236	0x3cad54fa	0.021158684
237	0xbb81193e	-0.0039397767
238	0x3ade7b5a	0.0016974017
239	0xbcaa0988	-0.020756498
240	0x3bc81944	0.0061065275
241	0x3aa5a806	0.0012638576
242	0xb9f72df2	-0.00047145743
243	0x3a881c71	0.0010384453
244	0xbb829d74	-0.003986055
245	0xbc8b7c54	-0.017027058
246	0x3a6d7c0d	0.00090593175
247	0x3cd9e9be	0.026600715
248	0x3cdcbcba	0.02694546
249	0xba5ec58e	-0.0008498066
250	0x3ac1b1c5	0.0014777711
251	0xbbcd376d	-0.006262711
252	0x3bbfdb08	0.005854968
253	0x3cd4c175	0.025971154
254	0xbc1d117f	-0.009586691
255	0xbc73b425	-0.014874493

transformer.h.0.attn.c_attn.bias f4 [384]
0	0xbf32be86	-0.69821966
1	0xbe518677	-0.2046145
2	0xbfb7d362	-1.4361384
3	0xbfc09330	-1.5044918
4	0x3e0f4e1f	0.13994645
5	0x3df12abd	0.1177573
6	0xbfbf7009	-1.4956065
7	0x3eaeb195	0.3411986
8	0xbfd5a80b	-1.6691908
9	0x3dcb2dfd	0.09920881
10	0x3f65442a	0.89557135
11	0xbfd5ad02	-1.6693423
12	0xbfca9a46	-1.582833
13	0xbfad9bcf	-1.3563174
14	0xbf89c5d3	-1.0763496
15	0xbf1cb699	-0.6121612
16	0xbe010876	-0.12600884
17	0x3f764af6	0.9620813
18	0xbfb34b05	-1.4007269
19	0x3fb53e3d	1.4159619
20	0xbf825e35	-1.0185
21	0xbf7ed3be	-0.9954184
22	0x3ece8ead	0.40343228
23	0x3fd9f361	1.7027398
24	0xbfccad68	-1.5990419
25	0xbe333b5d	-0.17503114
26	0xbfb65bbf	-1.4246749
27	0x3fac621f	1.3467444
28	0x3fb325e2	1.3995936
29	0x3fde8cf3	1.7386764
30	0x3fc2dda8	1.5223894
31	0x3fb6e8e2	1.428982
32	0x3e9e98af	0.30975863
33	0x3cfa0a69	0.030522542
34	0x3f2941b8	0.66115904
35	0xbef58997	-0.47956535
36	0xbd39a817	-0.04532632
37	0x3f3e3d10	0.74311924
38	0xbe348db6	-0.17632183
39	0xbf019958	-0.5062461
40	0xbf0d9ff4	-0.55322194
41	0x3f09ba1b	0.537996
42	0xbe575d0a	-0.21031585
43	0x3e5fc38d	0.2185194
44	0x3f34f878	0.70691633
45	0x3f8a7b60	1.0818901
46	0xbf02c4cc	-0.5108154
47	0xbf04b603	-0.5184023
48	0x3e7665ba	0.24062243
49	0xbc998ca7	-0.018743826
50	0xbe17fd9f	-0.14842843
51	0xbf8ee7cc	-1.1164489
52	0xbf90a075	-1.1298968
53	0x3ebc2ac9	0.36751392
54	0xbf921de3	-1.1415371
55	0x3f3ad5b4	0.72982335
56	0x3e72c1fc	0.23706812
57	0x3e5c7f25	0.21532877
58	0x3f810ee8	1.0082674
59	0x3e027b82	0.12742427
60	0xbddc6574	-0.10761538
61	0xbeeee978	-0.46662498
62	0x3f3895e7	0.7210373
63	0xbf3cd5d5	-0.7376378
64	0xbef6a50a	-0.4817279
65	0xb8ce7766	-9.845085e-05
66	0xbe8d035f	-0.27541634
67	0x3e14e006	0.14538583
68	0xbf95513b	-1.1665415
69	0x3ff657fd	1.9245602
70	0xc0189b2a	-2.3844705
71	0xc00af8bb	-2.1714313
72	0xbedbd81b	-0.42938313
73	0xbc980970	-0.018559188
74	0xbfa09845	-1.2546469
75	0xbb00f388	-0.0019676406
76	0x3ea6a0c1	0.3254452
77	0xbf60ba40	-0.87784195
78	0x3c87d15e	0.016579326
79	0x3caa1d99	0.020766066
80	0x3f0f9130	0.56080914
81	0x3ec4fbf1	0.38473466
82	0x3e86fc30	0.2636428
83	0xbc0f0911	-0.008730189
84	0xc00ca5e7	-2.1976259
85	0xbb86139f	-0.0040916945
86	0x3e9190f5	0.28430906
87	0xbfedbb07	-1.8572701
88	0xbc0fa578	-0.008767478
89	0xbcf1ea56	-0.029530685
90	0xbea1774b	-0.31536326
91	0x3ff17777	1.8864583
92	0xc007d54f	-2.1223943
93	0xbb1ddf7d	-0.0024089508
94	0xbe7aa284	-0.24476057
95	0x3e38ad06	0.18034753
96	0xbe09c666	-0.13454589
97	0xbda83241	-0.0821271
98	0xbefff607	-0.4999239
99	0xbef14513	-0.47123012
100	0x3f4ee278	0.80814314
101	0x3cf5ad19	0.029989766
102	0x3eec38ef	0.46137187
103	0xbed70de7	-0.42002794
104	0xbe8fdf8d	-0.28100243
105	0x3e90d8f3	0.2829052
106	0xbc95b5db	-0.018275192
107	0x3ea0479c	0.31304634
108	0x3e842d3f	0.2581577
109	0x3ee0405d	0.43799105
110	0x3eb24bc0	0.34823418
111	0x3f5955d0	0.84896564
112	0x3e98230b	0.29714236
113	0x3f360742	0.71104825
114	0xbe8c8f0d	-0.2745289
115	0x3f8f0866	1.1174438
116	0x3d8b7ce9	0.06810934
117	0xbef3927a	-0.4757269
118	0x3ecdd896	0.40204304
119	0xbe57c0e6	-0.21069679
120	0xbf8a7f38	-1.0820074
121	0xbda2e19a	-0.07953186
122	0xbf3cd9d0	-0.73769855
123	0xbf80591e	-1.0027196
124	0x3f8ef4fd	1.1168514
125	0xbc199731	-0.009374426
126	0x3fbf63cc	1.495233
127	0xbdf3a16e	-0.11896025
128	0xbfbd057b	-1.4767298
129	0x3d969b8b	0.07353886
130	0xc0aeb4ad	-5.459555
131	0xc0c2a6d0	-6.082863
132	0xbecd073f	-0.4004459
133	0xbfa60a5f	-1.2971915
134	0xc0d6511e	-6.697402
135	0x40194992	2.3951154
136	0xc0e4c66f	-7.149223
137	0xbe5fdb33	-0.21860962
138	0x40100a4a	2.250628
139	0xc0dc4330	-6.8832016
140	0xc0261971	-2.5953028
141	0xc0c5822b	-6.1721396
142	0xc0c52609	-6.160893
143	0xc04f0c44	-3.2351236
144	0x3f7565bf	0.9585838
145	0x4081f155	4.0607095
146	0xc0da0499	-6.813061
147	0x3ff52532	1.9151976
148	0xc099ac12	-4.8022547
149	0xc0b167f4	-5.5439396
150	0x3f0b1054	0.5432179
151	0x40580f23	3.3759239
152	0xc030d8d2	-2.7632337
153	0xbe9e7bdc	-0.30953872
154	0xc0c9e656	-6.309367
155	0x40c6a901	6.2081304
156	0x40c5f86a	6.186574
157	0x40e4c310	7.1488113
158	0x40cd7550	6.4205704
159	0x40028e82	2.039948
160	0x3fb36fa8	1.401845
161	0x3f796c1f	0.97430605
162	0x40061a94	2.0953722
163	0xc0137870	-2.304226
164	0xbe2bb026	-0.16766414
165	0x4084bccb	4.148046
166	0xbefff93a	-0.49994832
167	0xbfc60701	-1.5470887
168	0xc03dd5e7	-2.9661806
169	0x3fed999a	1.85625
170	0xc0246579	-2.5686934
171	0x3f35d126	0.7102226
172	0x400c8621	2.1956866
173	0x40a1b7a5	5.0536675
174	0xbff87579	-1.941085
175	0xc02ac833	-2.6684692
176	0x3eef2a3d	0.46711913
177	0x3e3eda5b	0.18637984
178	0xbf7aa056	-0.97900903
179	0xc0a71666	-5.221484
180	0xc09d4eb2	-4.9158564
181	0x3f94dbd5	1.1629587
182	0xc0a317e8	-5.0966682
183	0x402c5f75	2.6933262
184	0x3fd575f0	1.6676617
185	0x3fcea6dd	1.6144673
186	0x4091d5c7	4.557346
187	0x3f1aacf7	0.60420173
188	0xbf64e99a	-0.8941895
189	0xbfb56094	-1.4170098
190	0x400bd556	2.184896
191	0xc0113702	-2.2689824
192	0xc01d58c1	-2.458542
193	0xbdb21c1c	-0.08696768
194	0xbf821d01	-1.0165101
195	0xbec5b42c	-0.38614023
196	0x400e2d59	2.2215178
197	0x405f7044	3.4912271
198	0xc00743b6	-2.1135077
199	0xc03d8987	-2.961519
200	0xbfc86d77	-1.5658406
201	0xbe3deb89	-0.18546881
202	0xc0752de1	-3.8309252
203	0xbd0caa6e	-0.034342222
204	0xbf64d62b	-0.89389294
205	0x40578006	3.367189
206	0xbe9b3830	-0.30316305
207	0xbe254b55	-0.16142018
208	0x3fcc4856	1.5959575
209	0x40104114	2.253972
210	0xc0462250	-3.0958443
211	0xbf15ba18	-0.5848708
212	0xc0515c64	-3.271264
213	0xbee5dc42	-0.44894606
214	0x3f8e64fd	1.1124569
215	0xc061b94a	-3.5269341
216	0x3e409119	0.1880535
217	0xbf161f38	-0.58641386
218	0x40758315	3.8361256
219	0x4059b2b7	3.401533
220	0xc0465201	-3.0987551
221	0x3d3c0974	0.045907453
222	0xbfd54aec	-1.6663489
223	0x3f8c9113	1.0981773
224	0x3e6e405b	0.23266737
225	0x3e4e6d2f	0.20158838
226	0xc0013b5d	-2.0192482
227	0xc0142c6e	-2.3152118
228	0x4037f1f6	2.8741431
229	0x3f6f4d31	0.9347716
230	0x4003c4ad	2.0588791
231	0xbe848ea6	-0.25890082
232	0xbf77957d	-0.96712476
233	0x3f193cd1	0.59858423
234	0x3f280253	0.65628546
235	0xbe39fd9b	-0.18163149
236	0x3f86512c	1.0493522
237	0x3f69a932	0.91273797
238	0x3f19173b	0.5980107
239	0x3fa9f52c	1.3277946
240	0x3e9ca396	0.30593556
241	0x3ff970f6	1.9487598
242	0xbd3d2684	-0.04617931
243	0x400a26d8	2.1586208
244	0x3f05d0d6	0.52271783
245	0xbf882af4	-1.0638108
246	0x3fc30446	1.5235679
247	0xbeb9f5ab	-0.36320242
248	0xc06ed575	-3.7317784
249	0xbd9ecc54	-0.07753816
250	0xc0207e59	-2.5077116
251	0xc061d780	-3.528778
252	0x402c8d21	2.6961138
253	0x3f67f430	0.90606976
254	0x402db68e	2.7142673
255	0xbdec4f4b	-0.115385614

transformer.h.0.attn.c_proj.weight f4 [128, 128]
0	0xbb0cd569	-0.0021489507
1	0x3a6043b7	0.0008555012
2	0xbc260296	-0.0101324525
3	0x391a7806	0.00014731297
4	0xba72d944	-0.00092639425
5	0x3b992507	0.0046736035
6	0xbbe17530	-0.006880425
7	0xbb3c9007	-0.002877237
8	0xbc449195	-0.0119976
9	0xbb461cef	-0.0030229648
10	0xbbf887b4	-0.0075845364
11	0x3acaba2a	0.0015466858
12	0x3a14c525	0.0005675129
13	0xbb222efc	-0.0024747243
14	0xbcc041dc	-0.023468904
15	0x3c545d29	0.012961664
16	0x3c523682	0.0128303785
17	0x3c835f93	0.016036784
18	0xbca9432c	-0.020661913
19	0xbb65aab1	-0.0035044367
20	0xb9c3be56	-0.0003733511
21	0x3c14f7f5	0.009092321
22	0x3c58213a	0.013191516
23	0xbb235237	-0.002492083
24	0x3d2bc7ac	0.04193847
25	0xbc4d0f05	-0.012515788
26	0xbc9e5e35	-0.01933203
27	0xbb2ee0a0	-0.002668418
28	0x3c710238	0.014710002
29	0x3b623626	0.0034517138
30	0xbc78e137	-0.015190414
31	0x3c0a8954	0.008455593
32	0x3b153a10	0.0022770204
33	0x3ae4670a	0.0017425728
34	0xbb76df5a	-0.003766975
35	0x3bda074c	0.006653702
36	0xbc3fe5c7	-0.011712498
37	0xbb8ef39f	-0.004362538
38	0xbc9bf576	-0.019037943
39	0xbd5cbcb3	-0.053890895
40	0xbaf80e14	-0.0018925094
41	0x3b86d033	0.0041141747
42	0x3cc74e43	0.02432931
43	0xbcad0146	-0.021118771
44	0x3c61296e	0.013742788
45	0xbb9951b0	-0.0046789274
46	0x3bc806c3	0.0061043217
47	0xbd3c034e	-0.04590159
48	0x39e8fc75	0.00044438583
49	0xb992b4fd	-0.00027982137
50	0x3b8a607f	0.004222929
51	0xbab8bd41	-0.0014094488
52	0xbd423038	-0.047409266
53	0xbbf34cc4	-0.0074249227
54	0xbcfa50ac	-0.030556045
55	0xbcdc50f4	-0.02689407
56	0x3cfaea2a	0.030629236
57	0x3ba63150	0.0050717965
58	0xbcb66cb0	-0.022268623
59	0x3d8a2f34	0.067472845
60	0x39c2cfad	0.00037157294
61	0x3a57d11b	0.0008232758
62	0xbc6896c9	-0.014196106
63	0xba96f6c7	-0.0011517637
64	0x3c8fd15e	0.017555889
65	0x3d193555	0.037404377
66	0xbc847ab1	-0.016171785
67	0xbbcf21fc	-0.00632119
68	0x3b7be5a8	0.0038436446
69	0x3d5331e8	0.051561266
70	0xbb23bfc0	-0.0024986118
71	0xbba8f76b	-0.0051564476
72	0xbbedf9d3	-0.0072624474
73	0xbb9267cb	-0.0044679395
74	0x3bf103e1	0.0073551987
75	0xb98eda96	-0.0002724721
76	0xbc8729fb	-0.01649951
77	0x3c9886fe	0.018619057
78	0x3af245d6	0.0018483947
79	0xbd0cfdbe	-0.034421675
80	0xbb52f754	-0.0032190876
81	0x3b0b589d	0.0021262534
82	0xbb0ce30c	-0.0021497635
83	0xbd166b88	-0.036723644
84	0x3be54d30	0.006997727
85	0xb9d801b4	-0.000412
86	0x3c3c467f	0.011491417
87	0x3bf5c6a7	0.007500488
88	0xbba26f9b	-0.004957152
89	0x3a128b52	0.00055902184
90	0x3d3b8632	0.045782275
91	0x3a21bd98	0.0006169914
92	0x3b284546	0.0025676056
93	0x3ccf5b26	0.025312018
94	0x3bed2bcf	0.0072378884
95	0xbb8d5a67	-0.0043137553
96	0x3d0af5a3	0.033925664
97	0x3b0578c0	0.0020366162
98	0x3ae6b9b4	0.0017602951
99	0x3c003c6b	0.007826905
100	0x3d8d465e	0.06898187
101	0xbb64ccce	-0.0034912112
102	0x3c5c3915	0.013441344
103	0x3a533c14	0.00080579636
104	0x3b327b97	0.002723431
105	0xbce67090	-0.028129846
106	0xbc039e01	-0.008033277
107	0xb9068009	-0.00012826933
108	0x3c0c4ecd	0.008563709
109	0xbc1fbfa9	-0.009750285
110	0x3caeef44	0.021354325
111	0x3b3f4238	0.0029183757
112	0xbb5eb6a8	-0.0033983383
113	0xbbce5196	-0.006296347
114	0x3c355ad5	0.011069019
115	0xbbab1014	-0.0052204225
116	0xbaad3348	-0.0013214136
117	0x3bbf239c	0.0058331024
118	0xba2705ce	-0.00063714094
119	0xbbad35e5	-0.0052859657
120	0x3b3bf738	0.002868129
121	0x3b422397	0.0029623264
122	0x3cdc32c0	0.026879668
123	0xbb4d16cf	-0.0031294113
124	0xbc189519	-0.009312891
125	0x3a2f01a8	0.0006675967
126	0xbcbb5ce0	-0.022871435
127	0xbbce8a1f	-0.0063030864
128	0xbb291a40	-0.0025803
129	0xb7154f90	-8.899617e-06
130	0xba884228	-0.0010395693
131	0xba877be8	-0.001033661
132	0xbb0f7c52	-0.002189417
133	0x3a3f7dd0	0.00073048193
134	0xbb9c527c	-0.004770575
135	0xbb1916e7	-0.0023359598
136	0xbb293e03	-0.0025824315
137	0x3aee3a29	0.0018175292
138	0x3d297066	0.041366957
139	0xbdd2a21d	-0.10284827
140	0x3b1f915d	0.0024348118
141	0x39d9485a	0.0004144337
142	0x3c8416df	0.016124187
143	0x3ccd456b	0.025057515
144	0x3b1f2284	0.0024282048
145	0x3b929fbf	0.0044746096
146	0xbc86c423	-0.016450947
147	0xbb98a4fc	-0.0046583395
148	0xbc6d3d18	-0.014479898
149	0xbcf7cbf6	-0.030248623
150	0x3aec4e7a	0.0018028759
151	0x3a6cece1	0.0009037983
152	0x3c8aba50	0.016934544
153	0x3c8252d7	0.015908642
154	0x3bbd61a8	0.005779464
155	0xbb2457dd	-0.0025076785
156	0xbb9e9ab3	-0.004840219
157	0x39ef60b4	0.00045657682
158	0xbc7defd8	-0.015499078
159	0x3bb9ebde	0.0056738695
160	0xbc0a7801	-0.008451463
161	0xba8d7d70	-0.001079483
162	0x3b31ed06	0.0027149334
163	0x3cdad0e9	0.026710944
164	0xbb8ad1cb	-0.004236435
165	0xbba78e5f	-0.0051134075
166	0xbb8ca787	-0.0042924318
167	0xbc40b1ac	-0.01176111
168	0xba7a1c19	-0.000954093
169	0x3ac6e518	0.0015174476
170	0xbc8c0f2e	-0.017097082
171	0x3ca13ce5	0.019682357
172	0xbaf4f0a4	-0.0018687439
173	0xba250e5f	-0.0006296392
174	0xbbb5c86d	-0.0055475743
175	0x3cfc0c75	0.030767659
176	0x3a200c72	0.000610537
177	0x3b4747a0	0.0030407682
178	0x3bb04716	0.005379568
179	0xbba5a0f8	-0.0050545894
180	0x3c1e24ea	0.009652356
181	0xbc1e4c16	-0.009661695
182	0xbb4e7e1e	-0.0031508277
183	0x3cafa427	0.021440579
184	0xbbfee45e	-0.0077786883
185	0x3a882ead	0.0010389887
186	0x3bbf0174	0.0058290306
187	0x3caf2a26	0.021382403
188	0xbb151233	-0.0022746443
189	0xbafb0536	-0.0019151333
190	0x3c00f40b	0.007870684
191	0xbb44c1f4	-0.0030022832
192	0x3a8a60da	0.0010557428
193	0xbb9e278a	-0.004826491
194	0xbba0544b	-0.004892861
195	0x3ab1e647	0.0013572656
196	0xbb236c02	-0.0024936204
197	0xb9508493	-0.00019885814
198	0xbc22de18	-0.009940647
199	0xbc9f853b	-0.019472709
200	0x3a2b3f55	0.00065325695
201	0x3b4902ec	0.0030671908
202	0xbbcc0813	-0.0062265485
203	0x3a8330b3	0.001000902
204	0xbc2ffed2	-0.010741906
205	0x3c45606a	0.012046913
206	0x3a538059	0.00080681365
207	0xbc5e48e2	-0.013567181
208	0x366bd580	3.5142002e-06
209	0x3b4bd854	0.0031104283
210	0x3bc9b392	0.0061554397
211	0x3cb95867	0.022625161
212	0xbbf72121	-0.007541791
213	0x3a079dc1	0.00051733485
214	0xbba9ec38	-0.00518563
215	0x3c5a18ee	0.013311608
216	0xbabb877d	-0.0014307346
217	0x3ba58422	0.005051152
218	0xbc314b48	-0.010821171
219	0x3b6f49e3	0.0036512546
220	0xbbedfb64	-0.007262634
221	0x3ca0a38c	0.019609235
222	0x3c5c0e31	0.013431118
223	0xbb8fac3a	-0.0043845447
224	0x3d19f64d	0.037588406
225	0xb9fb22df	-0.00047900432
226	0xbb87f3b9	-0.004148927
227	0xbc0b96dc	-0.008519854
228	0xbd304221	-0.043031815
229	0x3b1af936	0.0023647076
230	0xbacf7802	-0.0015828612
231	0xbc2498bd	-0.010046181
232	0x3be09d29	0.0068546725
233	0xbbad2da3	-0.0052849813
234	0x3a285a96	0.000642219
235	0x39ecb8ee	0.0004515121
236	0x3bfe23ed	0.0077557475
237	0xba47ed62	-0.00076266204
238	0x3d1da1c7	0.03848436
239	0x3be41764	0.006960796
240	0xbb1f97b8	-0.0024351906
241	0x39601df0	0.00021373457
242	0xbccbd89b	-0.024883559
243	0x3b32ff63	0.0027312867
244	0x3ba018d9	0.0048857746
245	0x3b689e17	0.003549462
246	0x3bcb57e2	0.006205545
247	0x393cf778	0.00018021266
248	0x3af19bdc	0.001843329
249	0xbbf5f793	-0.00750632
250	0x3ba7e6d7	0.005123954
251	0xba86c220	-0.0010281242
252	0xbc30b00e	-0.010784162
253	0xbbb64d9a	-0.00556345
254	0x3c804df1	0.015662165
255	0x3b152176	0.002275554

transformer.h.0.attn.c_proj.bias f4 [128]
0	0xbc8f36b9	-0.017482148
1	0xbc8889d7	-0.01666729
2	0x3cd59385	0.02607132
3	0x3c543229	0.012951412
4	0x3d9c0e18	0.07619876
5	0x3b5fb9dd	0.0034137883
6	0x389357c2	7.0258524e-05
7	0xbc3c6017	-0.011497519
8	0xbcc3f2e5	-0.023919532
9	0xbc8f012e	-0.017456617
10	0xbd1038cd	-0.03521042
11	0x3d132b63	0.03593005
12	0xbc883bda	-0.016630102
13	0x3bbef0d0	0.005827047
14	0xbb4c3db0	-0.0031164698
15	0x3c467ed6	0.012115201
16	0x3ce890e0	0.028389394
17	0xbd42002b	-0.04736344
18	0xbc20ccb8	-0.009814434
19	0x3b0e9a98	0.0021759626
20	0xbb99427b	-0.0046771145
21	0xbc75408a	-0.014969001
22	0xbd067397	-0.03282508
23	0x3cf94e99	0.030432986
24	0xbc0fbac3	-0.008772555
25	0xbc08ccf4	-0.008349646
26	0xbb919ee3	-0.0044439896
27	0x3b85e7b1	0.0040864577
28	0xbcc7c882	-0.024387602
29	0xbc98a4b1	-0.018633218
30	0xbc6ab26f	-0.014324768
31	0x3c9a3b87	0.018827213
32	0x3ac33337	0.0014892583
33	0x3ac20ca9	0.0014804798
34	0x3a104caa	0.0005504588
35	0xbbbcb053	-0.005758324
36	0x3c45eaf3	0.012079942
37	0xba7075c0	-0.00091728196
38	0xbbf9e912	-0.007626661
39	0xbb007607	-0.00196016
40	0x3c817fee	0.015808072
41	0x3c0e94c7	0.0087024635
42	0x3c538103	0.012909177
43	0xbb8a3af1	-0.004218452
44	0x3c5ad2d3	0.0133559285
45	0xbb831b5a	-0.0040010633
46	0x3b6ebafd	0.0036427372
47	0xbc2d6e2d	-0.01058535
48	0x3bf74f44	0.007547291
49	0xbd636e80	-0.055525303
50	0x3caff319	0.021478223
51	0x3b8f0597	0.00436468
52	0x3c80cc3a	0.015722383
53	0x3ad3d3f4	0.0016161189
54	0xbae9ccbf	-0.0017837508
55	0x3bee85f0	0.00727915
56	0xbc000707	-0.007814175
57	0x3c80c153	0.015717184
58	0xbc69705e	-0.014247982
59	0x37373038	1.0918877e-05
60	0x3be4ca0b	0.006982093
61	0x3c8cfb49	0.017209666
62	0xbc9e9c51	-0.019361647
63	0x3bf990cc	0.007616138
64	0x3c97e13f	0.018540023
65	0x3d5c692c	0.053811237
66	0x3c972276	0.01844905
67	0xbc6a78d3	-0.014311033
68	0xbc695af4	-0.014242876
69	0x3d1c905a	0.038223602
70	0xbbafff56	-0.0053710146
71	0x3b46636b	0.003027166
72	0xbd20747f	-0.0391736
73	0xbc1ea234	-0.009682227
74	0x3bdf185a	0.006808323
75	0xbb7cf5ad	-0.0038598583
76	0x3b83f94f	0.0040275226
77	0xbcaabcd3	-0.020841992
78	0x3b285605	0.0025686037
79	0xbbb7569e	-0.0055950424
80	0x3c3dbdfc	0.01158094
81	0x3b7c919b	0.0038538936
82	0xbd185bcf	-0.03719693
83	0x3c9f5853	0.019451296
84	0x3c8275d0	0.015925318
85	0xbcfcc82b	-0.030857166
86	0xba96ec15	-0.001151445
87	0xbca34182	-0.019928697
88	0xbb6d8a71	-0.0036245848
89	0xbc963003	-0.01833344
90	0xbc6b5d6a	-0.014365533
91	0x3a74f85f	0.00093448715
92	0xbbe7e5df	-0.0070769633
93	0x3ca91375	0.02063916
94	0xbc334dd6	-0.0109438505
95	0xbbafeb94	-0.0053686593
96	0xbc9a2654	-0.018817104
97	0xbbc58a77	-0.006028469
98	0xbc4cf077	-0.012508503
99	0xbca4ed3b	-0.020132652
100	0x399bf7e9	0.0002974861
101	0xbc9990b0	-0.01874575
102	0x3b8a87ea	0.004227628
103	0xbaeb8dd4	-0.0017971345
104	0xba87478f	-0.0010321009
105	0x3c9f6e2f	0.01946172
106	0xbb986eac	-0.004651865
107	0xbc02b50a	-0.007977733
108	0xbc539520	-0.012913972
109	0x3c2b94f6	0.010472527
110	0xbb13f6d0	-0.0022577532
111	0xbcd75f7c	-0.026290648
112	0x3d56d544	0.05244948
113	0x3ce80de3	0.028326934
114	0xbc70c47e	-0.014695285
115	0x3cab4613	0.020907437
116	0xbc3c4889	-0.011491903
117	0xbba13e7f	-0.00492078
118	0xbbfde960	-0.0077487677
119	0x3bec1192	0.007204243
120	0x3cee3e4d	0.029082442
121	0xbc41a0e3	-0.011818144
122	0xbb34a7d6	-0.0027565858
123	0xbd1ac305	-0.03778364
124	0x3cca79a9	0.024716215
125	0x391cbc4c	0.00014947465
126	0xbc9ba223	-0.018998211
127	0xbb684e87	-0.0035447197

transformer.h.0.ln_2.weight f4 [128]
0	0x3f982ecd	1.1889282
1	0x40ed73c3	7.420381
2	0x3fe2a95b	1.7707933
3	0x40b11d44	5.5348225
4	0x4093bd76	4.6168776
5	0x40244ef6	2.5673194
6	0x40fc05ca	7.8757067
7	0x406d25d9	3.705435
8	0x408fe612	4.4968348
9	0x3f9e7f93	1.2382683
10	0x40f6393b	7.694486
11	0x3fa7db04	1.3113713
12	0x403ab8d0	2.91753
13	0x400879a1	2.1324236
14	0x403fda42	2.9976964
15	0x401c037a	2.4377122
16	0x3fae11e1	1.3599206
17	0x3ff9e062	1.9521601
18	0x409731f4	4.724848
19	0x40c916fd	6.284056
20	0x3ad1b834	0.0016000331
21	0x407286ef	3.7894857
22	0x3fba27a9	1.4543353
23	0x3f87f27e	1.0620878
24	0x3fe1c424	1.7637982
25	0x3fed89b5	1.855765
26	0x3f6a1c70	0.9144964
27	0x3f1d3158	0.6140342
28	0x40e466f4	7.1375675
29	0x3fb08a83	1.379227
30	0x4046e525	3.1077359
31	0x3f170e36	0.5900606
32	0x400d3eff	2.20697
33	0x40e3e626	7.1218443
34	0x408156c8	4.0418434
35	0x3f764b94	0.96209073
36	0x40a1e14e	5.058753
37	0x3fd1c4ca	1.638818
38	0x4022a2e3	2.5411918
39	0x3f8f175c	1.1179004
40	0x40b902a0	5.7815704
41	0x40c5bf40	6.179596
42	0x40951ca2	4.659745
43	0x401c72a0	2.4444962
44	0x3bb1aee5	0.0054224604
45	0x3b636efb	0.00347036
46	0x3f92f017	1.147952
47	0x3fd3b2db	1.6538957
48	0x402e21b8	2.720808
49	0x3f89cd10	1.0765705
50	0x4030f298	2.7648067
51	0x3e1010e2	0.1406894
52	0x3fac8191	1.347704
53	0x40d9a85a	6.8018007
54	0x405e7869	3.4760993
55	0x408abfaf	4.335899
56	0x3fd18fa4	1.6371961
57	0x3ee37426	0.44424552
58	0x3f8f3592	1.1188223
59	0xbb1c603b	-0.0023861069
60	0x3ffd1f9f	1.9775275
61	0x4079dd8b	3.904147
62	0x3f9b41af	1.212942
63	0x3eed0700	0.46294403
64	0x3fde7e6a	1.7382329
65	0x40f100b7	7.5313373
66	0x3fa6b869	1.3025028
67	0x3f87ef74	1.061995
68	0x401d1a5d	2.454734
69	0x3fabcf31	1.3422605
70	0x4087e87c	4.2471294
71	0x40651f78	3.5800457
72	0x3f35130e	0.707322
73	0x40843444	4.13138
74	0x3f934f72	1.150862
75	0x40475892	3.114781
76	0x4064d040	3.5752106
77	0x406824c9	3.6272452
78	0x4090de26	4.5271177
79	0x4050bd9c	3.2615728
80	0x3faa1280	1.3286896
81	0x40906f14	4.5135593
82	0x40f642ba	7.6956453
83	0x40afe4a0	5.4966583
84	0x408dfd33	4.437158
85	0x400396bb	2.0560749
86	0x407361da	3.8028474
87	0x3f90cda8	1.1312761
88	0x3fad0c83	1.3519443
89	0x3f8fef75	1.1244951
90	0x40c1cdb5	6.0563607
91	0x40a5f797	5.1864734
92	0x407f312a	3.9873757
93	0x3fcfdc9a	1.6239197
94	0x404cbddb	3.1990879
95	0x3f8929ee	1.0715921
96	0x40ccbdfb	6.398191
97	0x4027d949	2.622637
98	0x40bfbbc4	5.9916706
99	0x405f0ad3	3.4850357
100	0x3f0be843	0.5465128
101	0x3fe4ef4c	1.7885528
102	0x4076b961	3.8550646
103	0x40a4fb76	5.155696
104	0xbbf01f04	-0.007327916
105	0x3f83b292	1.028887
106	0x3f57700a	0.84155333
107	0x3f0bfec7	0.54685634
108	0x4021ce1b	2.5282047
109	0x3f6840e4	0.90724015
110	0x40d5ede5	6.68529
111	0x3f899177	1.0747517
112	0x3f7e6d02	0.9938508
113	0x40f68095	7.703196
114	0x40a228d6	5.067485
115	0x3fb05c3d	1.3778149
116	0x406b34ce	3.675098
117	0x40f51d51	7.6598287
118	0x40a7ddcb	5.2458243
119	0x405fdd6b	3.4978893
120	0x40f853a7	7.7602115
121	0x4044ea48	3.0767994
122	0x40a5c102	5.1798105
123	0x40b3dd8d	5.620795
124	0x3f9ccebb	1.2250589
125	0xbb203bce	-0.002444971
126	0x40eec2ed	7.4612947
127	0x40ef0c01	7.4702153
