warmup/warmup_2_97_-_1.pth (torch, 824611 bytes, 17 tensors)

transformer.wte.weight f4 [14, 128]
0.016780252 -0.025224581 -0.019924294 0.031448394 -0.01567418 0.04694258 -0.022280235 -0.019858964
-0.031441275 -0.0065124887 -0.019602781 0.041297417 -0.035231568 0.04166414 0.0051960363 -0.016251344
0.031325698 -0.020850403 -0.0099818455 0.008686416 -0.00084397796 -0.034703493 -0.019419936 -0.00869208
-0.013507295 0.025005829 -0.019533405 0.023141865 0.020852488 0.0054830285 -0.021156134 -0.014786459
-0.036620926 -0.00922358 -0.0039364137 -0.017469969 0.009732086 0.012761331 0.042415943 -0.053129863
0.04234879 0.027603665 0.036387008 0.000647029 -0.020725211 -0.022198113 0.005707791 -0.02336456
-0.0072542755 0.013758102 -0.00046432635 -0.019150535 0.010086847 -0.02945548 0.009297287 -0.01816588
-0.019815559 -0.027234413 -0.019763596 -0.012289953 0.0007443012 -0.022561202 0.027531547 -0.027364746
0.015550216 0.0147033315 -0.007471438 -0.021068733 -0.0286247 0.008928672 0.020991221 0.034738224
-0.019959692 0.037578072 -0.04306603 0.035261467 -0.022083107 -0.019498328 -0.025769182 -0.00147411
0.0013358112 -0.004019242 -0.022332907 -0.006256661 -0.014708238 0.029469293 -0.0009892865 0.009684667
0.026137715 -0.005635056 -0.031035623 -0.005620874 0.038797263 -0.02000974 0.013663736 -0.021041283
0.021851324 0.017519224 -0.022668254 0.014856747 -0.019205654 0.01463783 0.019318383 -0.0019742597
-0.02253362 0.0050513693 0.010621577 0.046041172 0.03132893 0.029723896 -0.019265885 0.01066301
0.009477238 0.0115220295 -0.020156853 0.0107445475 0.0142138675 0.03604164 -0.009277316 -0.0014754661
-0.025489938 0.014418869 -0.013922296 -0.0028402305 0.028235475 0.015548103 0.007831586 -0.019331994
-0.01546728 -0.007985707 -0.009622701 0.02875631 -0.000557176 0.023067592 -0.0307659 -0.028781097
-0.005906752 0.022052072 -0.02825547 0.032329712 -0.025381202 0.035134677 -0.017376477 -0.025939154
0.019234551 0.007000417 -0.002147416 -0.024008902 -0.00044660203 -0.0155789135 -0.008081591 -0.017983174
-0.028392304 0.008835765 -0.028150624 -0.0074086427 0.014326541 2.1954467e-05 -0.02077069 -0.024350546
-0.03461983 0.010650793 -0.004411709 -0.022082668 0.0016335668 -0.043545604 0.025010493 0.044452764
0.03145605 -0.0032731576 0.03461217 -0.0016266886 -0.029378537 -0.030435102 0.00044133837 -0.046373706
0.0004964544 0.0021587312 -0.0025721258 -0.028033415 0.019532572 -0.009616683 -0.006387059 -0.026249379
-0.03233085 -0.021653246 -0.028595572 -0.0070304377 0.0038818119 -0.031597536 0.02415025 0.007012455
0.017394593 -0.030781368 0.016577883 -0.029622046 -0.020846412 -0.004867896 -0.00215556 0.0006458216
-0.0023195506 0.032295723 -0.0008778407 0.014380568 -0.030879831 -0.027982248 0.0013927177 0.028688572
0.009439464 0.004638784 -0.031002942 -0.037849847 0.0142277535 -0.018115042 -0.041009564 0.011119748
0.040570524 0.024364017 -0.02834948 0.019534847 -0.011625073 -0.028729266 0.010112745 -0.02965971
0.02899421 -0.0402142 0.0017975527 0.0049867383 -0.028233012 -0.0014992832 0.007410768 0.0026198525
0.006993851 -0.008630617 -0.0062977523 0.028452545 0.006635794 0.018338295 -0.028120067 -0.021926817
0.012289028 0.016990252 -0.028780477 0.001121439 0.004199109 0.0031085045 -0.012080172 0.0012151737
-0.021675605 0.017931268 0.005487831 0.004635372 0.005865177 0.009307387 -0.05186114 -0.033046164
00000000: bd76 893c c8a3 cebc 4638 a3bc 08d0 003d
00000010: 2367 80bc dd46 403d 0a85 b6bc 44af a2bc
00000020: 91c8 00bd b766 d5bb 0396 a0bc 7b27 293d
00000030: fa4e 10bd 04a8 2a3d 8343 aa3b 8a21 85bc
00000040: 604f 003d 77ce aabc e58a 23bc 7851 0e3c
00000050: 673e 5dba 4025 0ebd 8f16 9fbc 3a69 0ebc
00000060: b44d 5dbc 06d9 cc3c 8504 a0bc 0294 bd3c
00000070: d6d2 aa3c faaa b33b a14f adbc e742 72bc
00000080: d3ff 15bd 801e 17bc 08fd 80bb 2e1d 8fbc
00000090: 5473 1f3c e714 513c 57bc 2d3d b39e 59bd
000000a0: ed75 2d3d 1521 e23c 8b0a 153d 629d 293a
000000b0: ebc7 a9bc d1d8 b5bc 6c08 bb3b 0967 bfbc
000000c0: 46b5 edbb aa69 613c d470 f3b9 95e1 9cbc
000000d0: 4d43 253c 9e4c f1bc a653 183c 9dd0 94bc
000000e0: 3d54 a2bc b41a dfbc 44e7 a1bc cd5b 49bc
000000f0: 351d 433a 45d2 b8bc d789 e13c 082c e0bc
00000100: 55c6 7e3c 3ee6 703c f7d2 f4bb 5698 acbc
00000110: 597e eabc 9149 123c c8f5 ab3c ab49 0e3d
00000120: 8282 a3bc 77eb 193d 0166 30bd 546e 103d
00000130: a2e7 b4bc f5ba 9fbc e419 d3bc ec36 c1ba
00000140: 6316 af3a d8b3 83bb 80f3 b6bc ad04 cdbb
00000150: d2fa 70bc 9669 f13c f2aa 81ba 70ac 1e3c
00000160: c31e d63c 47a6 b8bb 6b3e febc 4f2f b8bb
00000170: e1e9 1e3d 77eb a3bc dddd 5f3c c55e acbc
00000180: 8c01 b33c 7a84 8f3c c6b2 b9bc b769 733c
00000190: 2d55 9dbc 82d3 6f3c 9641 9e3c 9562 01bb
000001a0: 6d98 b8bc f585 a53b 1f06 2e3c ab95 3c3d
000001b0: c452 003d 877f f33c 7dd3 9dbc e8b3 2e3c
000001c0: 6b46 1b3c e5c6 3c3c fc1f a5bc e609 303c
000001d0: 48e1 683c 66a0 133d e2ff 17bc 6d64 c1ba
000001e0: 46d0 d0bc 1f3d 6c3c 581a 64bc 2923 3abb
000001f0: 154e e73c 78bd 7e3c 0d50 003c 215e 9ebc
00000200: 796a 7dbc 7cd6 02bc 89a8 1dbc 5a92 eb3c
00000210: 730f 12ba 3ff8 bc3c c508 fcbc 56c6 ebbc
00000220: 6d8d c1bb 8ca6 b43c 0478 e7bc 296c 043d
00000230: 3dec cfbc 61e9 0f3d 1d59 8ebc 597e d4bc
00000240: c791 9d3c c163 e53b a9bb 0cbb 51ae c4bc
00000250: e925 eab9 b33e 7fbc a668 04bc 7351 93bc
00000260: fa96 e8bc e2c3 103c 239c e6bc 33c4 f2bb
00000270: deb9 6a3c dc2a b837 4b27 aabc cc7a c7bc
00000280: 86cd 0dbd aa80 2e3c 1990 90bb b6e6 b4bc
00000290: 681d d63a e05c 32bd cee2 cc3c 1a14 363d
000002a0: 0fd8 003d 7982 56bb 7ec5 0d3d 9d36 d5ba
000002b0: 42ab f0bc 0953 f9bc 6f63 e739 5bf2 3dbd
000002c0: 7e24 023a 8079 0d3b 1c91 28bb 55a6 e5bc
000002d0: c602 a03c 4b8f 1dbc 894a d1bb f008 d7bc
000002e0: 5a6d 04bd 2662 b1bc 4341 eabc 965f e6bb
000002f0: ff65 7e3b 6b6c 01bd bfd6 c53c bcc8 e53b
00000300: 1b7f 8e3c 3529 fcbc 57ce 873c efa9 f2bc
00000310: 18c6 aabc df82 9fbb 4c44 0dbb 5b4c 293a
00000320: 9a03 18bb 8548 043d e41e 66ba 799c 6b3c
00000330: b3f7 fcbc 073b e5bc da8b b63a 4c04 eb3c
00000340: fba7 1a3c f100 983b e2f9 fdbc 7108 1bbd
00000350: 861b 693c ff65 94bc a5f9 27bd 9a2f 363c
00000360: 472d 263d 0c97 c73c 2b3d e8bc 8b07 a03c
00000370: 1777 3ebc a359 ebbc edaf 253c ecf8 f2bc
00000380: 4485 ed3c a5b7 24bd dc9b eb3a cb67 a33b
00000390: eb48 e7bc 9983 c4ba 07d6 f23b d5b1 2b3b
000003a0: ad2c e53b 6e67 0dbc 605d cebb 5015 e93c
000003b0: 1371 d93b 313a 963c 0e5c e6bc de9f b3bc
000003c0: eb57 493c 242f 8b3c 09c5 ebbc 40fd 923a
000003d0: ae98 893b 0db8 4b3b eaeb 45bc 7746 9f3a
000003e0: 0a91 b1bc 98e4 923c 43d3 b33b 52e4 973b
000003f0: ac30 c03b 037e 183c 596c 54bd 6a5b 07bd

transformer.wpe.weight f4 [32, 128]
-0.012585175 0.008178839 0.005235485 -0.009024357 -0.0043556755 -0.0026421174 -0.0068641505 -0.012375364
-0.012651673 -0.018381797 -0.006675152 0.0016390178 -0.0143032605 0.0146013135 0.014334019 -0.010993938
0.012254249 -0.0114141945 0.0086603835 -0.027717667 -0.007120595 -0.0086234175 -0.03597725 0.013201511
0.011481242 0.0014954244 -0.010063694 -0.014695869 -0.011745879 0.00035327996 -0.012295594 -0.007045168
-0.008078208 0.0014170555 0.016210409 0.011684553 -0.021615792 -0.0075569255 0.009610699 -0.007881498
0.015589635 0.02158083 0.009455661 -0.004381383 -0.007696168 -0.010228239 -0.005960658 -0.0059916917
-0.025052939 -0.022568228 -0.0007655477 -0.011773029 -0.009758661 -0.011729329 -0.013613717 -0.00047694967
-0.03590557 -0.0055705397 -0.013627139 0.014850805 0.018399805 -0.0037878214 -0.0075879307 0.014228966
-0.00051128847 0.021148803 0.004016837 -0.0048968936 -0.0009283573 0.016539164 -0.01637114 0.008790108
0.0022772742 -0.008933906 -0.0068202387 0.019014664 -0.010745513 -0.012712917 -0.01908293 -0.003649381
-0.013221736 -0.0028565535 -0.0056929872 0.00074734737 -0.010357818 0.021352712 -0.017743582 -0.006659148
0.007871612 -0.014708653 -0.0048793405 0.006929005 0.0016402554 -0.008865101 -0.00638495 -0.014080823
-0.00091165444 -0.0023543965 -0.010600477 0.009749727 -0.0112680495 -0.021359557 -0.011410367 0.015355215
0.0029656736 -0.025087334 0.0010502718 0.02867967 0.014463635 0.00092923804 -0.014945088 -0.025244275
0.08002138 0.0063163275 -0.011326483 -0.0024844476 0.01059636 0.010554591 0.02882908 -0.0021462322
-0.030970432 0.006472909 -0.008857503 0.022397688 -0.0064148484 -0.0047906777 -0.013847724 0.009642354
0.011123506 -0.0022095535 -0.002115953 0.026053952 0.0070444476 0.017119857 0.0021679956 -0.0010669384
0.008836227 -0.0064750817 -0.0023723384 0.01771618 -0.0062347306 0.0069985273 0.0049776137 -0.0014075775
-0.0074338354 0.00031462678 -0.0078020776 0.01802172 0.016668312 -0.007949474 0.009859211 -0.010338102
-0.019843077 0.013476092 -0.0028990675 0.009846748 0.008494705 0.002508889 0.009852839 -0.0021950612
-0.0029184376 0.006866858 -0.009401821 -0.017997641 0.015990878 0.013445765 0.008321072 0.009649807
0.01031848 -0.0034319335 0.004920954 -0.00092081144 -0.0013065215 0.0023106658 0.0070724245 0.00070841634
0.0094633605 0.010917162 -0.011609157 -0.001829482 0.0057779606 -0.0074385856 0.0019053997 3.560819e-05
-0.0008781593 -0.011284113 -0.0018397084 -0.07348271 -0.0071540526 -0.0023917698 0.014336115 0.00020251796
0.005736941 -0.004817635 -0.010519019 -0.0027412565 -0.019037392 -0.006065829 0.006416269 -0.015254235
0.010379261 0.02164557 0.008558433 -0.014512142 -0.0003515168 -0.0029883317 0.0019220071 0.0013932169
0.0070482837 -0.0061581032 -0.00047745716 -0.0059006475 0.01287973 0.0049882284 0.011832658 -0.00025888206
-0.014833784 0.0034931104 -0.018307984 -0.018183365 -0.0060322573 -0.00035921417 0.021616789 -0.0008559502
0.013585842 -0.0026204514 0.008486985 0.0035238967 -0.0005945079 0.0055190795 0.018929048 -0.0046469457
-0.0076973145 0.012516909 -0.024564715 0.00470762 0.00014333951 0.00039939344 -0.0014184783 0.016009228
-0.00881414 -0.0045288224 -0.00090391433 0.016318051 -0.008329348 0.0041498994 0.001009018 0.013357302
0.012830499 -0.0018981437 0.0127245635 -0.01882752 0.006835174 -0.006184691 0.016620941 -0.017809644
00000000: 0d32 4ebc 8a00 063c 6e8e ab3b e6da 13bc
00000010: 0eba 8ebb 6027 2dbb abec e0bb 0ac2 4abc
00000020: f648 4fbc 6c95 96bc 3cbb dabb 50d4 d63a
00000030: 3958 6abc 593a 6f3c 3cd9 6a3c eb1f 34bc
00000040: 0cc6 483c 9a02 3bbc 48e4 0d3c 2910 e3bc
00000050: e153 e9bb 3c49 0dbc e25c 13bd 274b 583c
00000060: d21b 3c3c 1e02 c43a 31e2 24bc f1c6 70bc
00000070: ca71 40bc 6f38 b939 7673 49bc 27db e6bb
00000080: 765a 04bc 7ebc b93a b1cb 843c 9170 3f3c
00000090: 9a13 b1bc 16a0 f7bb 3176 1d3c 6621 01bc
000000a0: ab6b 7f3c 48ca b03c ebeb 1a3c b491 8fbb
000000b0: 2330 fcbb 5894 27bc a051 c3bb f455 c4bb
000000c0: d23b cdbc 01e1 b8bc 09af 48ba aae3 40bc
000000d0: cae2 1fbc 5f2c 40bc 110c 5fbc 1a0f fab9
000000e0: b811 13bd 1389 b6bb 5d44 5fbc ca50 733c
000000f0: 30bb 963c 193d 78bb 2da4 f8bb 9c20 693c
00000100: fd07 06ba 4140 ad3c ac9f 833b 1f76 a0bb
00000110: 015d 73ba 247d 873c c51c 86bc 6304 103c
00000120: 523e 153b 855f 12bc 4f7c dfbb a4c4 9b3c
00000130: f30d 30bc d749 50bc ce53 9cbc 742a 6fbb
00000140: fb9f 58bc 0435 3bbb 3d8c babb a2e9 433a
00000150: d6b3 29bc e2eb ae3c fd5a 91bc fb34 dabb
00000160: eff7 003c 90fc 70bc e0e2 9fbb b50c e33b
00000170: d7fd d63a ee3e 11bc d838 d1bb 41b3 66bc
00000180: 18fc 6eba 384c 1abb a0ad 2dbc 52bd 1f3c
00000190: a09d 38bc 3dfa aebc 8cf2 3abc 7194 7b3c
000001a0: bf5b 423b f483 cdbc 46a9 893a a1f1 ea3c
000001b0: e2f8 6c3c 1c98 733a 3edc 74bc 15cd cebc
000001c0: 40e2 a33d 32f9 ce3b b792 39bc 1dd2 22bb
000001d0: 5b9c 2d3c 2aed 2c3c f62a ec3c cda7 0cbb
000001e0: b4b5 fdbc b21a d43b 0f1f 11bc 5b7b b73c
000001f0: a633 d2bb 1efb 9cbb 90e1 62bc f7fa 1d3c
00000200: 5e3f 363c 28ce 10bb cdab 0abb 196f d53c
00000210: 1cd5 e63b f13e 8c3c ee14 0e3b 83d8 8bba
00000220: d2c5 103c ec2c d4bb 3c79 1bbb 8621 913c
00000230: b64c ccbb e753 e53b 401b a33b 777e b8ba
00000240: 8897 f3bb 7ef4 a439 92a8 ffbb 49a2 933c
00000250: fc8b 883c 833e 02bc 8788 213c 2461 29bc
00000260: f38d a2bc d4ca 5c3c 48fe 3dbb 4154 213c
00000270: 602d 0b3c 2c6c 243b cd6d 213c 04db 0fbb
00000280: 4243 3fbb 6103 e13b 180a 1abc ca6f 93bc
00000290: 4dff 823c a04b 5c3c 1b55 083c 391a 1e3c
000002a0: d80e 293c 4aea 60bb f43f a13b 9c62 71ba
000002b0: 963f abba 8a6e 173b ccbf e73b 04b5 393a
000002c0: 360c 1b3c e5dd 323c 5534 3ebc 3bcb efba
000002d0: 0c55 bd3b 61bf f3bb 9bbe f93a 015a 1538
000002e0: 4634 66ba 00e1 38bc 5f22 f1ba 1a7e 96bd
000002f0: 8b6c eabb 3dbf 1cbb 06e2 6a3c 005b 5439
00000300: f3fc bb3b 40dd 9dbb f757 2cbc a7a6 33bb
00000310: 4ef4 9bbc ddc3 c6bb 913f d23b e6ec 79bc
00000320: c70d 2a3c 0d52 b13c ab38 0c3c 56c4 6dbc
00000330: c94b b8b9 e3d7 43bb dbeb fb3a 9a9c b63a
00000340: 4af5 e63b eac9 c9bb 3753 fab9 385a c1bb
00000350: 8105 533c 4b74 a33b c4dd 413c 90ba 87b9
00000360: 6609 73bc abec 643b a0fa 95bc 48f5 94bc
00000370: 3eaa c5bb e954 bcb9 b115 b13c d861 60ba
00000380: 2797 5e3c e1bb 2bbb ff0c 0b3c 2df1 663b
00000390: c0d8 1bba 65d9 b43b 1711 9b3c 6845 98bb
000003a0: c139 fcbb b913 4d3c f13b c9bc 6142 9a3b
000003b0: 684d 1639 ae65 d139 3cec b9ba c925 833c
000003c0: 2f69 10bc 8466 94bb aaf4 6cba 6fad 853c
000003d0: d177 08bc e1fb 873b 0741 843a 96d8 5a3c
000003e0: 0337 523c 22cb f8ba b07a 503c 2c3c 9abc
000003f0: 98f9 df3b f3a8 cabb a428 883c 88e5 91bc

transformer.h.0.ln_1.weight f4 [128]
0.7328599 0.82184607 1.9742379 0.6266536 0.7927505 0.34388372 -4.037509e-05 0.004548785
0.6976249 0.7296969 0.0041712867 0.32622412 0.23472193 0.3670634 0.20790334 -0.00052651804
0.50824046 0.51366746 0.4039135 1.0725996 1.2433059 0.27557367 0.4328096 0.5706102
0.7232998 0.9442892 -0.00070181163 1.7548071 0.18375894 2.6591177 0.6068547 -0.0022616566
0.19069168 1.927942 1.1275748 0.5453035 0.65812904 0.78040445 0.3251717 2.339706
0.23090218 0.46678418 0.19503164 0.052875716 0.003945594 0.0046670004 2.0811043 0.27076817
0.72353023 0.64257437 1.6915388 -0.0028551791 1.9983735 0.3176863 0.92090297 -0.0014426267
0.4000797 0.34419367 -0.005935437 4.6339993 0.9531914 0.0009422337 0.6038351 3.161383
0.54714036 0.37548873 0.90968883 0.0024239672 0.3522958 1.1145473 0.7908834 0.7017553
2.6149766 0.40506244 1.0918745 0.58789414 -0.0021116803 -0.003723308 0.37724787 0.8782798
0.3454443 1.7251439 -0.0011802999 0.4512278 0.58256006 0.67580175 0.43066195 0.7112662
0.29175854 0.3826687 0.269581 2.907166 0.81219256 0.0023573192 0.6578743 0.0017596803
0.9300395 1.6842248 0.46448505 0.6375015 -0.0018575309 0.77001494 0.9826656 0.3523658
0.48108798 0.8988154 3.3846653 0.3003543 0.4917931 0.0766233 -0.0024577302 0.8063657
4.1158514 0.57893854 0.003006464 2.128527 0.58049095 0.42912135 0.5369428 0.7029318
0.56554145 0.31311598 2.254341 0.69548464 2.6720257 0.58383816 0.6601997 0.36002246
00000000: b59c 3b3f 8164 523f d4b3 fc3f 5f6c 203f
00000010: b2f1 4a3f 8711 b03e 6c58 29b8 f90d 953b
00000020: 8c97 323f 6bcd 3a3f 4aaf 883b d906 a73e
00000030: f25a 703e bcef bb3e 9de4 543e 0706 0aba
00000040: 0c1c 023f b67f 033f c0cd ce3e f24a 893f
00000050: a624 9f3f fe17 8d3e 3899 dd3e 8313 123f
00000060: 2d2a 393f f0bc 713f c8f9 37ba 859d e03f
00000070: 4e2b 3c3e fc2e 2a40 d45a 1b3f 4d38 14bb
00000080: ae44 433e cec6 f63f 5f54 903f 0399 0b3f
00000090: 257b 283f 96c8 473f e87c a63e bebd 1540
000000a0: 9f71 6c3e 56fe ee3e 60b6 473e 3594 583d
000000b0: 0b4a 813b a3ed 983b d030 0540 20a2 8a3e
000000c0: 4739 393f c17f 243f 5884 d83f f51d 3bbb
000000d0: b4ca ff3f c7a7 a23e 4cc0 6b3f 8516 bdba
000000e0: 3fd7 cc3e 273a b03e 0e7e c2bb b949 9440
000000f0: 5a04 743f 3c00 773a f094 1a3f 1954 4a40
00000100: 6411 0c3f 0f40 c03e 5ee1 683f 6cdb 1e3b
00000110: 1d60 b43e 7ca9 8e3f 5677 4a3f 3ca6 333f
00000120: c75b 2740 5864 cf3e 8bc2 8b3f 3b80 163f
00000130: 1e64 0abb be02 74bb a226 c13e f2d6 603f
00000140: 13de b03e 84d1 dc3f 4bb4 9aba 5507 e73e
00000150: a822 153f 5801 2d3f b97f dc3e 8b15 363f
00000160: 6061 953e 27ed c33e 8506 8a3e 020f 3a40
00000170: daeb 4f3f 417d 1a3b 736a 283f 13a5 e63a
00000180: 1217 6e3f ae94 d73f fcd0 ed3e 4c33 233f
00000190: 6578 f3ba b31f 453f f98f 7b3f 4a69 b43e
000001a0: 2a51 f63e c418 663f 5b9e 5840 0ac8 993e
000001b0: 4ecc fb3e adec 9c3d df11 21bb fc6d 4e3f
000001c0: 0eb5 8340 5135 143f 1908 453b c939 0840
000001d0: 0e9b 143f cbb5 db3e 1575 093f 57f3 333f
000001e0: 53c7 103f bd50 a03e 1f47 1040 480b 323f
000001f0: 7802 2b40 6b76 153f d902 293f dd54 b83e

transformer.h.0.ln_1.bias f4 [128]
0.098025165 0.20518468 0.14105088 0.3760077 0.019905461 0.12484955 0.00041386567 0.0062521896
0.26475614 -0.119587526 0.00023267537 0.20520405 -0.061296318 0.24894047 0.009200572 0.001958913
0.015468881 -0.07529856 -0.05912678 0.15132989 0.122177415 -0.08375715 -0.25146478 0.1013977
-0.24537772 0.1259443 0.0035159925 -0.15592943 0.007930141 0.025534434 -0.109686255 0.0007697254
-0.060814112 0.3522635 0.33398768 -0.19847243 0.23461147 -0.021605954 0.14619045 0.0025414366
0.08252355 0.17794338 0.06279591 0.00089832087 0.004540149 0.002343284 -0.08587018 -0.047001094
-0.23649715 -0.059883088 -0.010530226 -0.004164695 -0.33606592 -0.046632953 -0.1338955 0.00030218362
-0.22182563 -0.14885251 0.00025960538 -0.25804758 0.34483212 -0.0045314534 0.13542145 0.32430512
0.13618322 0.053324934 -0.07195452 0.0011462313 -0.17571037 0.08714166 0.1127275 -0.14890394
-1.1725702 0.18457001 -0.23538674 -0.027236987 -0.003784656 0.0024036642 -0.06682331 -0.00086417125
0.049730416 -0.1351436 0.0020416996 -0.15088955 -0.06805893 0.20209195 0.021641755 0.049063727
-0.038813923 -0.04252871 -0.13037401 -0.38634643 0.069107376 0.004089436 0.20442457 -0.004728339
0.28838888 -0.34073478 0.08191834 0.18913215 0.004778321 -0.039657883 0.22269861 -0.0024035932
-0.06822406 -0.2574455 0.008634644 0.11130478 0.13217543 0.006906748 -0.003051431 0.13513374
0.38809043 0.17290996 0.005328813 0.005392823 0.028257797 0.13250571 0.18421125 0.067785025
-0.03499671 0.069804296 -0.22683416 0.02116009 -0.10018109 -0.07731094 -0.03918762 -0.19078457
00000000: 6bc1 c83d ef1b 523e a46f 103e 1584 c03e
00000010: c710 a33c 1fb1 ff3d 1cfc d839 2bdf cc3b
00000020: 1e8e 873e 4eea f4bd 52fa 7339 0321 523e
00000030: d911 7bbd 40ea 7e3e ffbd 163c 1b61 003b
00000040: 3171 7d3c 2236 9abd ec2e 72bd 39f6 1a3e
00000050: 2738 fa3d de88 abbd febf 80be 99a9 cf3d
00000060: 4c44 7bbe 8bf7 003e 916c 663b f7ab 1fbe
00000070: 6ced 013c 972d d13c 30a3 e0bd 66c7 493a
00000080: 3818 79bd e25b b43e 6f00 ab3e 5b3c 4bbe
00000090: fd3d 703e f8fe b0bc f3b2 153e 3b8e 263b
000000a0: 1b02 a93d ca36 363e 249b 803d 4b7d 6b3a
000000b0: 88c5 943b c891 193b b4dc afbd 3884 40bd
000000c0: 4f2c 72be f847 75bd f886 2cbc fe77 88bb
000000d0: d510 acbe 3202 3fbd e71b 09be 666e 9e39
000000e0: 4226 63be cb6c 18be a51b 8839 d01e 84be
000000f0: d68d b03e 967c 94bb ecab 0a3e 520b a63e
00000100: 9d73 0b3e 3f6b 5a3d e45c 93bd 243d 963a
00000110: 6bed 33be 5477 b23d addd e63d 467a 18be
00000120: c816 96bf ecff 3c3e 3909 71be 1a20 dfbc
00000130: fe07 78bb cb86 1d3b a9da 88bd 8d89 62ba
00000140: 1fb2 4b3d 1563 0abe 09ce 053b ca82 1abe
00000150: 7b62 8bbd 31f1 4e3e 0d4a b13c 0cf7 483d
00000160: 59fb 1ebd 9632 2ebd c480 05be 33cf c5be
00000170: 2b88 8d3d ad00 863b ad54 513e 2ff0 9abb
00000180: b5a7 933e ca74 aebe cdc4 a73d dcab 413e
00000190: 7693 9c3b 4e70 22bd 1b0b 643e 9a85 1dbb
000001a0: 0eb9 8bbd e6cf 83be 5278 0d3c c3f3 e33d
000001b0: ff58 073e 0052 e23b 84fa 47bb 8060 0a3e
000001c0: cab3 c63e 4f0f 313e 539d ae3b 47b6 b03b
000001d0: e57c e73c 94af 073e e0a1 3c3e e0d2 8a3d
000001e0: b658 0fbd 8ef5 8e3d 3747 68be ed57 ad3c
000001f0: be2b cdbd 3355 9ebd 3383 20bd 085d 43be

transformer.h.0.attn.c_attn.weight f4 [384, 128]
-0.037525397 0.007159055 -0.005899768 -0.019545196 -0.0136727225 -0.018204898 0.0037779026 -0.005416184
-0.010502247 0.0057838834 -0.0049348413 -0.013000788 -0.0020227132 0.014382384 -0.0022849545 -0.002041589
0.020114737 0.020503571 0.027634623 -0.009057452 0.00966294 0.022862589 -0.020695603 0.0273585
0.008513609 -0.019922802 -0.0057289843 -0.028080365 -0.012778162 0.002808033 -0.027673503 -0.0050172186
0.004081675 -0.015565475 0.038865995 0.011070567 -0.00090228353 -0.018143449 0.008399326 -0.005543798
0.0068175234 0.014969423 0.0071929595 0.013227572 -0.0019847276 -0.0033705756 0.015636414 0.03419235
-0.024354259 -0.03174243 0.06673936 0.007556117 0.01412257 0.020852135 -0.0099328235 -0.001133292
-0.013812088 0.0038769944 0.0013343915 0.022501111 0.035480786 -0.0007522445 0.01915499 0.04080355
0.006515822 0.017045183 0.005719106 0.00042634405 0.026642822 0.0033977213 -0.023944367 0.018695375
-0.012076581 -0.038539544 -0.010308739 0.016611526 0.013020954 0.0031447762 0.0054424037 -0.030591082
-0.030385591 0.022344796 -0.011267776 -0.006188807 -0.018254887 -0.0012056974 -0.02847393 0.0020634301
0.01973595 0.01757817 0.011805541 -0.010919924 0.015695233 -0.002765598 -0.018237663 -0.0067480477
-0.0110412175 -0.007973565 -0.022382611 0.0017959413 -0.009699747 -0.010509342 -0.037746623 0.02638338
0.04151705 -0.037416678 0.018255409 0.0075705233 -0.016782861 0.008879555 0.011688033 -0.026505578
0.014696759 -0.004428879 -0.0019278047 -0.05088143 0.016733546 -0.020895584 0.01920501 -0.0139128445
-0.013182157 0.012294746 -0.0076366914 0.010736116 -0.00924592 0.018835405 -0.0073287576 0.0033056343
0.016336814 -0.029519755 -0.06291768 0.00031790524 -0.013619719 -0.024720829 0.0002795673 0.0025681753
0.0013983549 0.0066918293 0.009031028 0.0022493473 -0.00062034634 -0.0066042906 0.01639138 -0.0039881966
0.010141654 -0.0011604718 0.016098078 0.01899459 0.0034059766 -0.0047519277 -0.0030002021 -0.02999517
-0.011751458 -0.0015647641 -0.003224198 0.013007212 -0.017601311 0.011182982 -0.0041290005 0.013236609
-0.013562327 -0.060352728 -0.03707328 0.009990462 0.0009587901 -0.0030554542 -0.014297418 0.00056957296
-0.01884578 0.02249827 -0.008604953 -0.013583941 -0.008636147 0.0025679306 0.0040183207 -0.0008027758
0.024608403 0.019326497 -0.014011034 0.0065287505 -0.015704697 -0.0062802634 0.033754673 -0.0061048265
0.0015800366 -0.009983667 0.006276928 -0.00087461085 0.006206806 0.0026386285 0.0022328547 -0.022319384
0.024548642 0.019105151 0.03082406 -0.0055057923 0.0015786162 0.03794499 -0.019967586 0.0086398795
-0.0016149172 -0.008837456 -0.012499254 0.0059214863 0.007063496 0.0022830374 -0.015011946 -0.0082399435
-0.0014154766 0.0050729485 -0.0018449085 0.0068846247 -0.019010685 0.020909188 -0.004084512 0.030820472
0.017068697 -0.03281951 0.002168783 0.0067901844 -0.004837705 0.0065128044 0.013657603 -0.004368068
-0.0071508833 0.0076475525 -0.005320992 -0.007375389 0.004056103 -0.0023330222 -0.04644984 -0.005983725
-0.0039590793 0.035477396 -0.014321393 0.009286954 0.030025085 -0.006526843 0.0042097075 0.023386067
0.0033542588 0.0067749606 -0.0051433886 0.013110535 -0.019698484 0.025989428 -0.004840913 -0.005724937
-0.017445087 0.018796112 0.026127188 0.005837216 -0.004205649 0.013935908 -0.045667436 0.024698868
00000000: 3bb4 19bd 8296 ea3b d752 c1bb 3f1d a0bc
00000010: 8e03 60bc 7022 95bc b096 773b 3f7a b1bb
00000020: 9e11 2cbc bb86 bd3b 73b4 a1bb 4201 55bc
00000030: 7f8f 04bb 17a4 6b3c 2dbf 15bb 2ecc 05bb
00000040: a9c7 a43c 1bf7 a73c 0162 e23c b565 14bc
00000050: 4f51 1e3c 534a bb3c d389 a9bc ef1e e03c
00000060: aa7c 0b3c 2535 a3bc 34ba bbbb cb08 e6bc
00000070: 7f5b 51bc fa06 383b 8bb3 e2bc 7b67 a4bb
00000080: 92bf 853b 5606 7fbc f331 1f3d 5361 353c
00000090: 3987 6cba 92a1 94bc 549d 093c c0a8 b5bb
000000a0: 8865 df3b 5042 753c ebb2 eb3b 75b8 583c
000000b0: 3412 02bb e0e4 5cbb f017 803c 470d 0c3d
000000c0: 9582 c7bc 5a04 02bd a5ae 883d 4e99 f73b
000000d0: 5a62 673c 19d2 aa3c 48bd 22bc f88a 94ba
000000e0: 194c 62bc 2c15 7e3b c0e6 ae3a 4054 b83c
000000f0: 4d54 113d 4632 45ba edea 9c3c a021 273d
00000100: ad82 d53b 57a2 8b3c 5767 bb3b ee86 df39
00000110: 0c42 da3c 4eac 5e3b fa26 c4bc 0b27 993c
00000120: dadc 45bc a4db 1dbd fce5 28bc e514 883c
00000130: d755 553c 9718 4e3b 3156 b23b 269a fabc
00000140: 34eb f8bc 6f0c b73c 7a9c 38bc 7acb cabb
00000150: 468b 95bc 7e08 9eba 2942 e9bc 9d3a 073b
00000160: 49ad a13c 1800 903c 076c 413c 7be9 32bc
00000170: 4a93 803c 093f 35bb 2767 95bc ba1e ddbb
00000180: 39e6 34bc 8ea3 02bc bd5b b7bc ca65 eb3a
00000190: b0eb 1ebc 602f 2cbc 349c 1abd f521 d83c
000001a0: c80d 2a3d 3b42 19bd 5e8c 953c 2712 f83b
000001b0: 367c 89bc 8e7b 113c 2a7f 3f3c 3a22 d9bc
000001c0: adca 703c 2120 91bb 64ae fcba 0c69 50bd
000001d0: ca14 893c 372d abbc d353 9d3c b3f2 63bc
000001e0: f9f9 57bc e76f 493c 363d fabb 89e6 2f3c
000001f0: 337c 17bc b54c 9a3c 1326 f0bb 57a3 583b
00000200: c8d4 853c 6ad3 f1bc fcda 80bd 85ac a639
00000210: 3e25 5fbc 5683 cabc e392 9239 d54e 283b
00000220: 0149 b73a 2247 db3b e0f6 133c c969 133b
00000230: bd9e 22ba ce68 d8bb 3747 863c 6baf 82bb
00000240: 2e29 263c f91a 98ba 1ee0 833c 8b9a 9b3c
00000250: ce36 5f3b 0fb6 9bbb 0a9f 44bb 6eb8 f5bc
00000260: 3089 40bc c518 cdba 114d 53bb 341c 553c
00000270: a030 90bc d338 373c 914c 87bb 5dde 583c
00000280: 8634 5ebc 6c34 77bd 27da 17bd 09af 233c
00000290: 5057 7b3a 043e 48bb b83f 6abc 654f 153a
000002a0: 7762 9abc 4b4e b83c cafb 0cbc 2e8f 5ebc
000002b0: a07e 0dbc ba4a 283b 1eac 833b 5f71 52ba
000002c0: 9097 c93c 9a52 9e3c 898e 65bc 21ef d53b
000002d0: 23a7 80bc abca cdbb 5742 0a3d ff0a c8bb
000002e0: 3b19 cf3a 8992 23bc b0ae cd3b 2446 65ba
000002f0: 7662 cb3b d7ec 2c3b 1655 123b 24d7 b6bc
00000300: 3c1a c93c 6882 9c3c bd82 fc3c ef69 b4bb
00000310: 92e9 ce3a 356c 1b3d 1093 a3bc 488e 0d3c
00000320: a1ab d3ba faca 10bc acc9 4cbc 0709 c23b
00000330: e674 e73b 039f 153b aaf4 75bc d400 07bc
00000340: 8387 b9ba fa3a a63b dbd0 f1ba 6b98 e13b
00000350: 4cbc 9bbc bf49 ab3c 5fd7 85bb 377b fc3c
00000360: a7d3 8b3c c06d 06bd 2422 0e3b 3280 de3b
00000370: 9c85 9ebb 5d69 d53b 24c4 5f3c 0322 8fbb
00000380: f551 eabb 5298 fa3b b75b aebb 3fad f1bb
00000390: 0fe9 843b 9ee5 18bb 3042 3ebd 2013 c4bb
000003a0: 2abb 81bb bf50 113d 47a4 6abc 4f28 183c
000003b0: 2bf7 f53c 21df d5bb 96f1 893b 2394 bf3c
000003c0: 20d3 5b3b 7d00 de3b df89 a8bb 92cd 563c
000003d0: b75e a1bc c8e7 d43c 86a0 9ebb 4198 bbbb
000003e0: 00e9 8ebc 4efa 993c af08 d63c 1e46 bf3b
000003f0: 8acf 89bb 6f53 643c c70d 3bbd 4855 ca3c

transformer.h.0.attn.c_attn.bias f4 [384]
-0.45073542 0.09468098 -0.081510045 -0.7613549 -0.6616557 -0.043831125 -1.4180291 0.25575462
-1.4541694 -0.89945704 0.00045304446 -0.11896205 0.8134108 0.58522344 0.45341885 -1.460175
-0.09292326 1.0526309 0.06324265 -0.48443922 -0.58973175 -0.085817955 0.86710244 -0.013811099
0.35680318 0.9857323 -0.16253428 1.3962755 -0.22201835 0.2106375 -1.042488 0.4938292
0.9236608 0.34494716 0.7591869 -1.2806159 -0.3482586 0.98047376 -0.30965137 0.7118466
-0.1479384 -0.3711488 0.16556391 0.18449986 0.27654395 -0.114068195 -0.38376078 -1.4111154
-1.339052 0.677002 -0.2910483 -0.39076766 -0.2515754 -0.13044882 1.4200996 0.44595888
0.119971074 -0.0648014 0.44442654 0.1396767 0.6863125 -0.50475836 -0.35402757 0.105395555
1.4869565 0.31493348 0.7720761 -0.0008449751 0.0029640873 1.5154676 -0.59874815 -1.7707769
0.010441979 -0.019456424 -1.5252641 -0.0011919662 1.4481281 -0.47402632 0.61088604 0.006467313
-1.7723175 1.5444428 -1.7529087 -1.6492682 -0.003981667 -1.7273905 -0.056202456 -0.9420932
-0.91667914 0.00015051171 -0.009350642 -0.27503738 0.448585 0.0062559573 -0.17373794 1.330313
2.714216 -1.9005113 -1.7147751 -3.1077452 -0.040060185 -0.028594976 0.2829176 3.0130384
0.27889997 0.24579743 1.5450449 0.00030687923 3.1199489 2.3810484 2.8153055 -2.5044246
-1.9555155 -3.283135 -3.2846801 0.1503552 -2.5274503 -3.379872 -0.055960134 1.7614342
-0.9482959 -0.14187202 1.4999053 -2.7297523 -2.6163492 -2.9178135 1.1458633 3.2706869
0.43153113 0.25778583 -1.5194392 -0.7380313 -1.2461258 0.3010937 -2.9572234 -0.047775418
-2.407585 -2.2308683 -0.0338366 0.016186992 0.6954753 0.31090963 -0.122831106 -2.4490297
-0.4781056 2.0445704 0.8775377 -0.25278595 -0.0972329 -0.25867385 1.2173313 -0.40804556
1.9423414 1.0431641 -0.5822264 2.7246108 -0.5508584 -0.38525036 -2.7498674 -0.24498658
1.8863399 1.0288799 1.6698062 -4.559533 -0.776425 2.224927 -0.55381584 1.6461555
-0.975229 -1.2068708 0.09032234 -0.16248332 -0.17920247 -0.045144066 -0.33891574 -4.776812
-4.7973742 2.0623205 1.1436486 -0.91425663 -0.15919569 -0.39523467 4.900937 0.30319592
0.44361869 0.37554237 1.9383482 0.06280623 0.9637953 -1.0040052 0.8374529 1.0022192
1.9340546 -0.07279697 1.2579588 -0.41131148 -0.33520296 1.9911807 -1.2625527 -0.9958409
0.51882845 0.065140605 -2.0801864 0.14905785 1.9441613 -0.40139627 0.5224698 0.07468512
-1.0595617 0.7885192 -0.95078164 -1.9746602 0.050191645 -1.0996786 -1.1853827 -1.4603319
-1.8082112 -0.07450896 -0.111320764 0.21137877 0.6118085 -0.09764963 0.13128464 1.7491132
7.451361 -5.0271444 -5.0241656 -8.346771 -0.40890065 -0.112706944 -0.0037903204 8.095403
-0.07576174 -0.0010254941 3.3041058 -0.359138 8.385058 6.685627 7.526406 -6.9483733
-5.685908 -8.788425 -8.47051 0.22931717 -6.911852 -9.0281 0.4306737 5.128844
-2.320848 0.11835973 4.605894 -7.153495 -6.8616896 -7.8235517 2.9860265 8.784469
00000000: cbc6 e6be 1ae8 c13d bdee a6bd 28e8 42bf
00000010: 4562 29bf 4488 33bd fa81 b5bf 45f2 823e
00000020: 3922 babf d142 66bf 9986 ed39 60a2 f3bd
00000030: b13b 503f 34d1 153f 8426 e83e 04e7 babf
00000040: 8d4e bebd 9cbc 863f 5d85 813d 6b08 f8be
00000050: a9f8 16bf 53c1 afbd 6dfa 5d3f f347 62bc
00000060: e8ae b63e f458 7c3f 636f 26be 28b9 b23f
00000070: c758 63be 5bb1 573e 3f70 85bf 2ed7 fc3e
00000080: 0975 6c3f ea9c b03e 135a 423f 39eb a3bf
00000090: f44e b2be 5400 7b3f a08a 9ebe 943b 363f
000000a0: 2a7d 17be 3707 bebe 9689 293e 88ed 3c3e
000000b0: 2b97 8d3e 969c e9bd 4b7c c4be 6e9f b4bf
000000c0: 0e66 abbf 0150 2d3f 4804 95be b312 c8be
000000d0: 7ece 80be 6094 05be d3c5 b53f b954 e43e
000000e0: 65b3 f53d 99b6 84bd e08b e33e 6907 0f3e
000000f0: 2db2 2f3f d837 01bf 1a43 b5be a0d9 d73d
00000100: 9754 be3f f63e a13e c7a6 453f 5281 5dba
00000110: 2241 423b d8fa c13f 8f47 19bf d1a8 e2bf
00000120: d614 2b3c 1463 9fbc db3b c3bf c03b 9cba
00000130: 435c b93f 94b3 f2be 0763 1c3f c1eb d33b
00000140: 4ddb e2bf 4db0 c53f 505f e0bf 381b d3bf
00000150: a578 82bb 221b ddbf 8c34 66bd 052d 71bf
00000160: 7cab 6abf aed2 1d39 6f33 19bc b3d1 8cbe
00000170: efac e53e c6fe cc3b 5ce8 31be b247 aa3f
00000180: b7b5 2d40 f443 f3bf c07d dbbf 4ce5 46c0
00000190: 2616 24bd 0340 eabc 93da 903e 9fd5 4040
000001a0: facb 8e3e 52b2 7b3e 08c4 c53f a2e4 a039
000001b0: 3ead 4740 1963 1840 f72d 3440 7e48 20c0
000001c0: 554e fabf e21e 52c0 3338 52c0 b7f6 193e
000001d0: bfc1 21c0 d34f 58c0 7436 65bd ad76 e13f
000001e0: 85c3 72bf e646 11be e6fc bf3f 43b4 2ec0
000001f0: 4472 27c0 75bd 3ac0 a6ab 923f ef52 5140
00000200: a6f1 dc3e 81fc 833e fc7c c2bf 9fef 3cbf
00000210: 0d81 9fbf f428 9a3e 2643 3dc0 28b0 43bd
00000220: df15 1ac0 8cc6 0ec0 3f98 0abd 959a 843c
00000230: ab0a 323f 8c2f 9f3e e08e fbbd e7bc 1cc0
00000240: 42ca f4be 3eda 0240 50a6 603f 296d 81be
00000250: 0b22 c7bd e670 84be 83d1 9b3f 59eb d0be
00000260: a59e f83f 6786 853f ca0c 15bf 0660 2e40
00000270: 0e05 0dbf 893f c5be d4fd 2fc0 c3dd 7abe
00000280: 9673 f13f 56b2 833f 36bc d53f b2e7 91c0
00000290: cac3 46bf 3465 0e40 e0c6 0dbf 39b5 d23f
000002a0: 9ca8 79bf be7a 9abf ebfa b83d 0762 26be
000002b0: da80 37be fce8 38bd 5d86 adbe a5db 98c0
000002c0: 1784 99c0 0ffd 0340 1463 923f b90c 6abf
000002d0: 3204 23be 335c cabe 7ad4 9c40 7f3c 9b3e
000002e0: fd21 e33e 1747 c03e cb1b f83f 8da0 803d
000002f0: 4abb 763f 3e83 80bf 5063 563f b848 803f
00000300: 1a8f f73f 9416 95bd cb04 a13f 6b97 d2be
00000310: b99f abbe 02df fe3f 549b a1bf 6eef 7ebf
00000320: f1d1 043f 7068 853d c621 05c0 9fa2 183e
00000330: 47da f83f d083 cdbe 95c0 053f 83f4 983d
00000340: b89f 87bf 65dc 493f 6d66 73bf aac1 fcbf
00000350: c195 4d3d 45c2 8cbf 9fba 97bf 28ec babf
00000360: 7773 e7bf 2798 98bd 24fc e3bd ad73 583e
00000370: 7b9f 1c3f 87fc c7bd 7b6f 063e f1e2 df3f
00000380: 8d71 ee40 5ede a0c0 f7c5 a0c0 608c 05c1
00000390: 6d5b d1be e6d2 e6bd 0667 78bb c586 0141
000003a0: f928 9bbd df69 86ba 7876 5340 f0e0 b7be
000003b0: 3329 0641 a8f0 d540 51d8 f040 1359 dec0
000003c0: f5f2 b5c0 649d 0cc1 3587 07c1 1fd2 6a3e
000003d0: e42d ddc0 1973 10c1 4381 dc3e 7d1f a440
000003e0: c688 14c0 9666 f23d 7c63 9340 6ee9 e4c0
000003f0: f692 dbc0 895a fac0 0f1b 3f40 2f8d 0c41

transformer.h.0.attn.c_proj.weight f4 [128, 128]
0.00025969147 -0.005566027 -0.0025161318 0.0039594094 -0.013501344 0.0018888816 0.007009169 0.01224061
-0.0069395495 -0.0061860634 -0.032885674 0.0002526855 0.04862061 0.0008784031 -0.009249222 -0.0077185733
0.0013403215 0.032078587 0.023876674 0.008411108 -0.011545611 0.007121118 0.0012519079 0.004447632
0.00063781976 0.0015436865 0.02512057 -0.006537961 0.058023524 0.0053628865 -0.052104633 0.005242445
-0.00068604946 0.028250394 0.027131863 -0.0007376782 -0.010401203 -0.009912604 0.007600221 0.025058236
0.0046864846 0.0033590773 0.021665642 0.06133049 0.0069571836 -0.0025360098 -0.013785617 1.815226e-05
0.022448739 -0.0009971374 0.004718321 -0.004501433 -1.2060278e-05 0.0037064268 0.010387884 0.011726548
-0.0328258 0.002401337 0.0038438253 -0.0035894474 0.010188912 0.026190907 -0.0062440746 0.004533383
0.012880028 -0.0011032418 0.006434588 0.0050075715 0.0023038317 0.010542129 0.043259446 0.022004806
-0.00084909744 0.010974971 -0.01756882 0.015125062 -0.021633545 0.018507306 0.0016747861 -0.017664451
-0.0023718954 -0.034488253 -0.0029720447 0.010497457 -0.0026183787 -0.009296701 0.031080125 9.848259e-05
0.009987365 0.009051602 -0.008931438 -0.020760955 -0.014507693 0.007167545 -0.008478861 0.00027803064
0.0010006058 0.005898225 0.0033164348 0.0040399237 -0.0051364657 0.004204426 -0.011429702 -0.0033700746
0.0056944815 -0.00370431 0.0017647751 0.003053085 0.0069150655 0.01365473 0.008076274 0.0017788503
-0.0043285247 -0.0029872449 0.018418675 0.01240782 -0.009308901 0.0006168755 -0.00783549 0.010598898
-0.009752421 0.001650839 0.005823243 -0.00028913343 -0.0056502526 -0.00040622236 0.009796329 -0.013188832
-0.008654468 -0.003058146 0.007429971 -0.00044895423 0.025018226 4.1839827e-05 -0.006356223 0.0010149931
-0.0327512 -0.0022776925 -0.040178947 -0.010441402 -0.021995783 0.0013181638 -0.002008569 -0.0052009826
-0.013527335 0.049232185 -0.019548872 -0.0007507394 0.02459019 0.0011323935 -0.0011854089 0.0007295483
-0.052652445 -0.0018511877 -0.0023281507 -0.019865349 -0.061130937 0.0039167856 -0.033170182 0.0067942813
-0.0052204556 0.025582433 0.008150901 -0.0040934603 -0.0033445242 0.005519608 0.007546962 0.007698145
-0.0033746886 0.0003320545 -0.012458495 -0.059309166 0.0043127364 -0.0074857017 0.011113189 0.0037433987
0.0086586345 0.0038251479 -0.0006606651 -5.323591e-05 0.0062084664 0.0024104882 0.03104043 -0.0027177895
-0.037121847 0.008919054 0.0008666312 0.031045796 -0.010670985 -0.03645898 0.006715709 0.0019307991
0.041258134 0.00096273643 -0.00061419903 -0.008300694 0.0007603464 -0.006403958 -0.033386335 0.010548315
-0.0015907504 0.008081466 0.03310216 -0.0011346199 -0.017559962 -0.023309339 0.009038813 -0.025525915
0.010096226 0.008104753 -0.009768255 -0.0044350764 0.0011577718 -0.006602857 -0.04020894 0.0011905426
0.031188948 -0.0055878195 -0.023013148 0.01807283 0.017871026 0.012548654 0.007005432 0.006658223
0.0008874946 -0.001797831 0.007887357 -0.004536908 -0.0027709738 0.00022870066 0.008279761 0.0045421547
-0.0058385967 -0.004073979 0.012853855 -0.0041631744 -0.007048264 -0.016033234 -0.0028067152 0.0013981991
0.006630748 0.0061958404 0.018356686 -0.004358921 -0.0007901971 -0.016673854 0.00048461388 -0.0066392003
0.001650988 -0.007527969 -0.007858679 0.005533792 0.0027328318 -0.008586476 0.00053036446 0.0066911206
00000000: 3327 8839 3863 b6bb b0e5 24bb efbd 813b
00000010: be34 5dbc 5994 f73a 2cad e53b d78c 483c
00000020: 2965 e3bb 76b4 cabb 21b3 06bd e07a 8439
00000030: 6826 473d a244 663a 0d8a 17bc 16ec fcbb
00000040: baad af3a d664 033d 0499 c33c bece 093c
00000050: cd29 3dbc 4458 e93b 0f17 a43a 71bd 913b
00000060: 5c33 273a 8655 ca3a a7c9 cd3c 643c d6bb
00000070: 13aa 6d3d 27bb af3b ab6b 55bd d1c8 ab3b
00000080: 00d8 33ba 5f6d e73c a443 de3c bf60 41ba
00000090: cf69 2abc 7968 22bc 460b f93b ee46 cd3c
000000a0: 1591 993b f723 5c3b 257c b13c ae35 7b3d
000000b0: 16f9 e33b 2f33 26bb 12dd 61bc ae45 9837
000000c0: 6be6 b73c 61b2 82ba 259c 9a3b c280 93bb
000000d0: 8056 4ab7 86e7 723b f231 2a3c b520 403c
000000e0: 5974 06bd c05f 1d3b b0e8 7b3b ef3c 6bbb
000000f0: 65ef 263c 508e d63c 189b ccbb c68c 943b
00000100: c106 533c a79a 90ba 3dd9 d23b 8e16 a43b
00000110: e2fb 163b e5b8 2c3c d130 313d 6c43 b43c
00000120: f795 5eba 5dd0 333c 7cec 8fbc 1ccf 773c
00000130: d538 b1bc a29c 973c 7f84 db3a 0ab5 90bc
00000140: cd71 1bbb 8e43 0dbd a3c6 42bb 87fd 2b3c
00000150: 1b99 2bbb 3151 18bc bf9b fe3c 7088 ce38
00000160: 0ca2 233c 2c4d 143c 2b55 12bc e112 aabc
00000170: adb1 6dbc badd ea3b ecea 0abc a4c4 9139
00000180: c226 833a e645 c13b 8b58 593b 5661 843b
00000190: cc4f a8bb 48c5 893b a543 3bbc 78dc 5cbb
000001a0: c698 ba3b 02c4 72bb 0750 e73a 4416 483b
000001b0: c697 e23b 17b8 5f3c 5952 043c 5028 e93a
000001c0: 4cd6 8dbb a7c5 43bb c3e2 963c 2b4a 4b3c
000001d0: 5c84 18bc d0b5 213a 6d60 00bc 00a7 2d3c
000001e0: 9ec8 1fbc f760 d83a e7d0 be3b d596 97b9
000001f0: c125 b9bb 3efa d4b9 c880 203c f915 58bc
00000200: 78cb 0dbc 2d6b 48bb 1d77 f33b 9e61 ebb9
00000210: 06f3 cc3c 2c7d 2f38 dd47 d0bb 8409 853a
00000220: 1f26 06bd 5745 15bb ae92 24bd 6a12 2bbc
00000230: 8030 b4bc 3dc6 ac3a 32a2 03bb 016d aabb
00000240: c1a1 5dbc b0a7 493d f524 a0bc 45cd 44ba
00000250: 5e71 c93c d26c 943a b95f 9bba 283f 3f3a
00000260: 17aa 57bd 8da3 f2ba e393 18bb a8bc a2bc
00000270: 6f64 7abd 6158 803b 75dd 07bd 90a2 de3b
00000280: 5b10 abbb 4092 d13c 5b8b 053c 6f22 86bb
00000290: ce2f 5bbb d4dd b43b 814c f73b b940 fc3b
000002a0: e129 5dbb 9a17 ae39 b71e 4cbc 2bee 72bd
000002b0: db51 8d3b 9e4a f5bb 1814 363c cf53 753b
000002c0: f2dc 0d3c 55af 7a3b 7c30 2dba a049 5fb8
000002d0: 6470 cb3b 48f9 1d3b 8048 fe3c f11c 32bb
000002e0: 140d 18bd 3921 123c a32e 633a c153 fe3c
000002f0: 5bd5 2ebc 0356 15bd 730f dc3b de12 fd3a
00000300: 4afe 283d 2660 7c3a 3302 21ba a2ff 07bc
00000310: fc51 473a 4bd8 d1bb 1cc0 08bd d7d2 2c3c
00000320: ba80 d0ba 2068 043c 2196 073d 87b7 94ba
00000330: e9d9 8fbc 3af3 bebc 8817 143c b91b d1bc
00000340: a46a 253c ccc9 043c 080b 20bc 1e54 91bb
00000350: 60c0 973a c75c d8bb 21b2 24bd fb0b 9c3a
00000360: f77f ff3c 071a b7bb 1286 bcbc 790d 943c
00000370: 4266 923c df98 4d3c d38d e53b 392d da3b
00000380: c1a6 683a 33a5 ebba f939 013c 58aa 94bb
00000390: 3a99 35bb 5ecf 6f39 d6a7 073c 5bd6 943b
000003a0: b351 bfbb 037f 85bb fa98 523c 3d6b 88bb
000003b0: 20f5 e6bb 2158 83bc def0 37bb c743 b73a
000003c0: bf46 d93b 7a06 cb3b c360 963c 48d5 8ebb
000003d0: 3b25 4fba 9b97 88bc c613 fe39 a68d d9bb
000003e0: f765 d83a 2ead f6bb b0c1 00bc d054 b53b
000003f0: 4f19 333b 4aae 0cbc 2808 0b3a 3041 db3b

transformer.h.0.attn.c_proj.bias f4 [128]
0.019391583 -0.012918842 -0.009659191 -0.009630594 -0.025349725 0.017974 0.01006537 -0.0007066606
3.452081e-05 0.011743301 0.002222056 0.034463994 -0.049496192 0.0060430868 0.005505411 0.00183457
-0.001931631 0.0017037535 -0.017583225 0.0575893 -0.016841589 0.020107286 0.010314236 -0.031071652
0.025793232 -0.0023209963 -0.0028313948 0.013005969 -0.008600771 0.0036872856 -0.016142564 0.0005468718
-0.028094215 -0.0018931029 -0.021216452 -0.026020667 0.026153708 -0.024478812 -0.042157203 -0.020895809
0.0041285055 -0.009866295 0.0023895428 -0.003252624 0.0072169574 0.04077042 0.0045496514 0.009180355
0.03945971 0.022283515 -0.002678883 -0.0019781387 -0.0027168859 0.01075725 0.022623222 -0.0041483026
0.016636595 -0.00011602271 -0.0020388174 0.0099661 -0.017186573 0.0023304347 -0.012468169 -0.01054558
0.009277529 -0.027627477 0.007318844 0.013942294 -0.015757106 -0.0143329315 0.01112408 -0.02327111
-0.0011354467 0.004626101 0.014177011 -0.04185941 0.032633565 -0.00049293874 0.005158298 -0.031066258
0.009850731 0.0015633134 0.0041368487 0.013711663 0.021949291 -0.023555193 0.020619966 -0.016038848
0.008652904 -0.0034055768 -0.018638883 -0.0055571524 0.0326548 0.005196172 -0.003022292 0.0047661355
0.031403303 -0.0036361124 -0.0013300171 -0.0010121554 0.002524559 0.019355936 0.009870994 -0.007401082
-0.009160161 0.024753155 0.011876252 0.013941271 0.008427639 -0.027334813 -0.002415905 0.0067603383
-0.046998676 0.021158537 0.00028149813 0.005095773 -0.0005505048 -0.013860667 -0.018797778 0.0065934462
0.011388734 0.016985863 -0.0076899305 -0.012955038 0.010228584 -0.028396938 -0.018350562 0.029426964
00000000: 19db 9e3c 8da9 53bc 9541 1ebc a4c9 1dbc
00000010: 3aaa cfbc 363e 933c 39e9 243c 313f 39ba
00000020: 70ca 1038 f966 403c ea9f 113b 1e2a 0d3d
00000030: 85bc 4abd 1605 c63b bc66 b43b f475 f03a
00000040: c82e fdba 7b50 df3a b20a 90bc c2e2 6b3d
00000050: 5ff7 89bc 09b8 a43c 0bfd 283c fa89 febc
00000060: 544c d33c db1b 18bb ec8e 39bb fd16 553c
00000070: 40ea 0cbc 63a6 713b 693d 84bc f25b 0f3a
00000080: d725 e6bc fe21 f8ba 20ce adbc 4b29 d5bc
00000090: 4d40 d63c ca87 c8bc 08ad 2cbd b02d abbc
000000a0: 6a48 873b 3ea6 21bc e099 1c3b fa29 55bb
000000b0: 3a7c ec3b e2fe 263d 3e15 953b 3369 163c
000000c0: 81a0 213d eb8b b63c 3390 2fbb a9a3 01bb
000000d0: c80d 32bb 2d3f 303c 5654 b93c 7cee 87bb
000000e0: 7849 883c 3851 f3b8 ae9d 05bb da48 233c
000000f0: dbca 8cbc 35ba 183b 4b47 4cbc 5ec7 2cbc
00000100: c700 183c 0553 e2bc ead2 ef3b 386e 643c
00000110: 0c15 81bc acd4 6abc c641 363c 0ea3 bebc
00000120: 45d3 94ba 8c96 973b b246 683c c674 2bbd
00000130: c6aa 053d 8f38 01ba f106 a93b aa7e febc
00000140: f664 213c 18e8 cc3a 678e 873b e2a6 603c
00000150: 00cf b33c d2f6 c0bc 34eb a83c e763 83bc
00000160: e9c4 0d3c 1930 5fbb 92b0 98bc c618 b6bb
00000170: 0ac1 053d a644 aa3b a511 46bb 3e2d 9c3b
00000180: c0a0 003d d84b 6ebb f853 aeba 4daa 84ba
00000190: 1273 253b 5790 9e3c f3b9 213c c784 f2bb
000001a0: 8014 16bc 21c7 ca3c 9c94 423c ee69 643c
000001b0: 1414 0a3c 42ed dfbc 2954 1ebb d485 dd3b
000001c0: af81 40bd ab54 ad3c 0a96 9339 71fa a63b
000001d0: c04f 10ba da17 63bc ccfd 99bc d60d d83b
000001e0: d097 3a3c f025 8b3c d0fb fbbb 5e41 54bc
000001f0: ca95 273c b2a0 e8bc eb53 96bc d110 f13c

transformer.h.0.ln_2.weight f4 [128]
2.0864794 1.8522997 4.9823117 2.9988728 7.6916976 1.8860618 0.89442134 0.0018335669
1.2152909 1.8932296 -0.0056592226 1.6473045 0.9363886 1.9337299 1.2171886 0.0011606099
0.8268165 1.200885 1.8199849 7.1972284 3.0505102 1.0121639 1.5533394 1.796914
7.485387 4.0397363 0.0030235376 5.3199086 3.6183925 5.185895 1.4828125 -0.00023416689
2.9776144 6.203821 3.7560844 3.5482357 4.0368347 7.3448014 0.9014163 7.760496
0.6045505 3.7573407 1.3055391 0.003939577 0.06422609 1.0863485 5.2920537 4.842371
1.69096 2.8533282 4.5493765 0.0049100285 5.796097 1.1847608 2.3563516 2.9991872
0.8604209 5.330878 -0.0010358931 6.4155297 4.367483 0.59936994 6.5434813 6.458783
5.938058 1.6901361 3.5885565 0.17569287 1.7611415 4.6824913 2.9289064 1.3982217
7.6650453 1.820811 5.2399306 1.2120246 0.55853677 -0.0014745899 1.3167396 7.698865
3.2442176 4.8912477 1.4710276 4.0663323 1.4654797 2.2511375 4.7863073 3.4539347
5.8593917 3.08239 1.1486475 7.4734426 7.6781774 -0.005691946 2.7075071 0.33181748
7.712555 5.6370106 1.949578 3.0075562 0.0027191504 3.083327 4.1219687 3.3904114
1.334521 1.9105562 5.9816985 1.164477 3.5540595 0.83500195 -0.004770887 3.4971077
5.2692823 6.6209946 0.005261055 4.625078 2.755936 2.4746735 -0.0024057298 3.4145467
0.9008146 2.751161 5.79966 3.6927898 6.2121634 7.464924 6.5508733 1.6354506
00000000: e188 0540 2818 ed3f 196f 9f40 88ed 3f40
00000010: 6322 f640 796a f13f ccf8 643f 4c54 f03a
00000020: a78e 9b3f 5955 f23f 0071 b9bb e0da d23f
00000030: 2ab7 6f3f 7684 f73f d6cc 9b3f 9b1f 983a
00000040: 3faa 533f 9ab6 993f 44f5 e83f b24f e640
00000050: 8f3b 4340 968e 813f d3d3 c63f 4701 e63f
00000060: 4a88 ef40 8545 8140 8b26 463b b13c aa40
00000070: be93 6740 daf2 a540 cdcc bd3f b28a 75b9
00000080: 3c91 3e40 b485 c640 b063 7040 4b16 6340
00000090: c02d 8140 9d08 eb40 38c3 663f fc55 f840
000000a0: d2c3 1a3f 4578 7040 e81b a73f 9117 813b
000000b0: f888 833d 780d 8b3f 8158 a940 b4f4 9a40
000000c0: 6171 d83f ee9c 3640 7e94 9140 4ee4 a03b
000000d0: a079 b940 3ea6 973f 77ce 1640 aff2 3f40
000000e0: 8b44 5c3f 8d96 aa40 cec6 87ba 054c cd40
000000f0: 6cc2 8b40 4f70 193f 3364 d140 5aae ce40
00000100: 9204 be40 6156 d83f e9aa 6540 d5e8 333e
00000110: 166d e13f f8d6 9540 3473 3b40 eef8 b23f
00000120: 0d48 f540 5610 e93f 83ad a740 9f23 9b3f
00000130: 44fc 0e3f 0747 c1ba ec8a a83f 1a5d f640
00000140: 43a1 4f40 1a85 9c40 a24a bc3f 651f 8240
00000150: d794 bb3f a312 1040 6e29 9940 440d 5d40
00000160: 2380 bb40 e145 4540 e206 933f 7126 ef40
00000170: a1b3 f540 8183 babb cc47 2d40 fbe3 a93e
00000180: 40cd f640 6462 b440 c68b f93f cd7b 4040
00000190: c633 323b 3b55 4540 2be7 8340 80fc 5840
000001a0: 96d1 aa3f 1b8d f43f 136a bf40 950d 953f
000001b0: b675 6340 b0c2 553f 1a55 9cbb 9dd0 5f40
000001c0: f69d a840 30df d340 ee64 ac3b a400 9440
000001d0: 4161 3040 0d61 1e40 73a9 1dbb ef87 5a40
000001e0: c99b 663f 0613 3040 d196 b940 ab56 6c40
000001f0: 0bca c640 a8e0 ee40 c1a0 d140 7256 d13f

transformer.h.0.ln_2.bias f4 [128]
-0.53798074 0.4080438 0.10954407 1.2383417 -1.8546482 -0.6665329 -0.2177609 -0.0044444934
0.1782769 -0.06357516 -0.0045950566 -0.96622795 1.1387036 -0.09204594 -0.30718598 -0.0028021873
-0.07874057 -0.39511198 0.46576932 1.6171645 0.8079573 -0.71418625 0.020994762 0.7790821
1.8686141 -0.03390035 -0.004822381 -1.1027892 1.1696697 -1.0862345 0.5946359 0.010047437
1.740319 1.4806689 0.3752078 1.4942164 -0.9722011 -1.9730896 1.0878874 -2.3627684
-0.042121354 1.235251 -0.13381022 0.0026253753 -0.010099953 -0.8979062 0.19317387 0.54350704
-1.0300919 -0.6551876 -0.31488612 -0.0006725695 -1.3152989 -0.38451293 -0.59912723 0.19065836
-0.0829374 1.7221721 0.008473832 -1.6907827 0.92512506 -0.05325089 -1.5832313 1.0915049
-1.324726 0.76039755 -0.2880392 -0.06586249 0.57985383 0.43557218 0.1436997 0.8417206
2.3113015 0.50000405 -1.4194723 1.3148259 -0.44650453 -0.0001300746 -0.15005094 -1.8106223
-0.36603388 1.2197552 -0.5600072 -1.6088399 -0.70116186 0.67050725 -1.6787374 1.2616785
1.975448 0.47457066 0.4208441 -0.890933 2.1399815 -0.0035507032 0.30295548 -0.033620395
2.5722625 -0.36283246 0.31670573 -0.1691243 -0.006515014 -0.60074586 -0.18599181 0.16704655
-0.014422363 -0.4356288 -1.3995352 -0.66415185 -1.058814 0.7170211 0.0029287597 0.13810748
-1.3093283 1.6792728 -0.000553509 0.14147833 -0.45817918 0.78033364 0.0031391755 -0.5060501
0.080957204 -1.2427868 1.3903987 0.32910106 0.31527585 -1.7273312 -1.6055926 -1.3529444
00000000: 1bb9 09bf 1eeb d03e a458 e03d fb81 9e3f
00000010: 1d65 edbf e6a1 2abf b7fc 5ebe 1da3 91bb
00000020: 388e 363e b233 82bd 2192 96bb b75a 77bf
00000030: 0ac1 913f 9582 bcbd 7b47 9dbe e7a4 37bb
00000040: bc42 a1bd 1e4c cabe 5179 ee3e 3fff ce3f
00000050: 4ad6 4e3f e9d4 36bf 35fd ab3c ed71 473f
00000060: bf2e ef3f 18db 0abd 1005 9ebb 3228 8dbf
00000070: bdb7 953f bb09 8bbf 0f3a 183f 019e 243c
00000080: c6c2 de3f 8f86 bd3f 3d1b c03e 7c42 bf3f
00000090: 2ce2 78bf 338e fcbf e53f 8b3f 9937 17c0
000000a0: 7187 2cbd b41c 9e3f 8c05 09be 7d0e 2c3b
000000b0: 467a 25bc 2edd 65bf 5fcf 453e 4723 0b3f
000000c0: 0dda 83bf 60ba 27bf c138 a1be 604f 30ba
000000d0: b75b a8bf e1de c4be 6760 19bf f23b 433e
000000e0: 15db a9bd 2370 dc3f d4d5 0a3c 916b d8bf
000000f0: ffd4 6c3f 9b1d 5abd 53a7 cabf 6fb6 8b3f
00000100: 9f90 a9bf 6aa9 423f e079 93be eae2 86bd
00000110: 4d71 143f 5103 df3e 0426 133e 007b 573f
00000120: 5dec 1340 4400 003f 45b1 b5bf 374c a83f
00000130: 3e9c e4be a264 08b9 f4a6 19be 79c2 e7bf
00000140: cb68 bbbe f020 9c3f a25c 0fbf 77ee cdbf
00000150: 587f 33bf 5da6 2b3f dee0 d6bf ae7e a13f
00000160: 7bdb fc3f edfa f23e e178 d73e 2f14 64bf
00000170: 75f5 0840 eab2 68bb fb1c 9b3e 8ab5 09bd
00000180: f39f 2440 2dc5 b9be 4127 a23e ec2e 2dbe
00000190: e67b d5bb 7bca 19bf a374 3ebe 400e 2b3e
000001a0: c64b 6cbc bd0a dfbe f823 b3bf db05 2abf
000001b0: 3887 87bf b28e 373f 6ff0 3f3b 0c6c 0d3e
000001c0: 1298 a7bf 69f2 d63f 5c19 11ba b2df 103e
000001d0: 7696 eabe f2c3 473f a0ba 4d3b 808c 01bf
000001e0: e4cc a53d a313 9fbf 96f8 b13f ef7f a83e
000001f0: d66b a13e 3019 ddbf 0f84 cdbf 482d adbf
