warmup/warmup_1_113_-_1.pth (torch, 824633 bytes, 17 tensors)

transformer.wte.weight f4 [14, 128]
000000 64 54 0f 3c 6d 19 d1 3b ce 82 2f 3c ad ec 75 bc
       0.008748148 0.006381205 0.010712339 -0.015010041
000010 44 04 1d bb 6a f2 e8 3b b7 95 73 bb d2 4b 4b bb
       -0.0023958841 0.007108976 -0.0037168094 -0.0031020534
000020 c8 60 de bc e1 94 5a bc 26 db e3 bb 14 30 2e bb
       -0.027145758 -0.01334116 -0.0069536148 -0.002657895
000030 55 14 bc 3b 3f 67 62 3b aa 3d 8c ba 59 6e 38 bc
       0.0057397285 0.0034546403 -0.001069953 -0.011256778
000040 24 de bc bb 33 d8 e3 bb 42 6e 1d 3b ca 04 37 bc
       -0.005763786 -0.006953263 0.0024022018 -0.011170575
000050 54 bf 12 3d 3c f3 a2 bb c0 30 f1 bc 80 35 08 3b
       0.035826996 -0.0049728435 -0.029442191 0.0020783842
000060 d9 a1 b4 3b 6b 76 aa 3a 69 59 8f bb 0e d2 9a 3a
       0.005512458 0.0013005262 -0.004374672 0.0011811869
000070 11 40 62 bb 33 75 0b ba fc 57 f4 bb 08 e0 8b ba
       -0.003452305 -0.0005319893 -0.0074567776 -0.0010671625
000080 5b de 52 bb 6f ae 1e 3b c2 ef 35 3b 7d f3 27 3d
       -0.0032175991 0.0024212857 0.0027761315 0.041003693
000090 33 0b 52 3c 7a 67 22 3b 8c fb 60 3c 2c 87 14 bb
       0.012820053 0.0024780915 0.013731848 -0.0022663577
0000a0 37 f8 ea bb 9e e7 67 bb ec f4 43 bc 6a 43 73 bb
       -0.007170703 -0.0035385857 -0.011960249 -0.003711904
0000b0 96 1e 82 3b 53 8d d1 3b e3 65 f3 b9 da 6a 57 bb
       0.0039709313 0.006395021 -0.00046424483 -0.0032870085
0000c0 3d 01 8c bb 49 fd 16 3c ff fb 5a bb d3 5b 00 3c
       -0.0042726086 0.009215661 -0.0033414362 0.007834393
0000d0 19 88 73 3c d8 63 88 bc 30 cf ac 3d 05 8c 0c 3d
       0.014863991 -0.016649172 0.084379554 0.03431322
0000e0 79 25 25 bc 51 d0 a3 3b 3d 18 19 3c f8 ed f5 3b
       -0.010079735 0.0049991985 0.009344158 0.0075051747
0000f0 15 8e 38 bc ad 18 73 bc de 10 d4 3b e1 f9 f8 ba
       -0.011264344 -0.014837426 0.0064717373 -0.0018995368
000100 6b 6f da ba f9 25 f4 bb 64 54 f4 39 a7 4f 21 bc
       -0.0016665285 -0.0074508158 0.00046602183 -0.009845651
000110 64 e9 d4 3a d4 6d a2 ba 84 5e 4c bb 11 e9 d8 3b
       0.0016243872 -0.001239235 -0.0031184265 0.0066195806
000120 4b 66 ca 3b b5 6c ad bb 21 5c 92 bc 4d bf 86 3c
       0.006176745 -0.0052925 -0.017866196 0.016448641
000130 86 9e 6f 3a dd 39 54 3c 66 8b b9 bb 9c a8 a6 3b
       0.00091407483 0.012953249 -0.0056623695 0.005086018
000140 44 ce cb ba 6a d0 50 bb 4f 79 8c 3b c7 9b 5b ba
       -0.0015549143 -0.0031862506 0.004286922 -0.00083773996
000150 7b 93 52 bc 7f de f1 3a 3f 87 6c bb 7c 19 7e 3b
       -0.012852545 0.001845315 -0.0036091355 0.0038772514
000160 3b 6c 19 bb 02 66 fe 3c 0e 08 8c bb cc 7d 51 bb
       -0.0023410458 0.0310545 -0.004273421 -0.003196585
000170 3c 1b 1f 3c 01 14 9c 3b b4 61 2c bb f8 52 fd 3b
       0.009711083 0.004763127 -0.0026303353 0.007730838
000180 06 87 ab b8 5e d4 46 3c 49 f4 53 3b c0 bd 7c bb
       -8.1790655e-05 0.012135593 0.003234165 -0.0038565248
000190 c7 57 5a 3b 46 a5 64 3b 00 bd 0a bb f8 42 38 3b
       0.003331648 0.003488855 -0.0021169782 0.0028116088
0001a0 4b fa 69 39 3e 37 05 3a f0 e3 c5 bb fc 98 67 ba
       0.00022313853 0.0005081779 -0.006039135 -0.0008834747
0001b0 28 c8 a2 3b 1e a3 64 bd 3e 08 5e 3a eb c7 57 bc
       0.004967708 -0.055819623 0.0008469856 -0.013170223
0001c0 de 24 3e bc 07 26 1f bb b3 c1 f1 3b ad 13 55 bb
       -0.0116054695 -0.002428414 0.007377827 -0.0032512948
0001d0 58 ce 9a 38 0d c1 99 bb c0 10 de 3b 13 ff e9 3b
       7.381727e-05 -0.004692203 0.006776899 0.007141003
0001e0 2e f9 6b 3b 65 42 f1 bb 25 59 0f 3c 7b 43 ec 3b
       0.0036006677 -0.007362651 0.008749281 0.0072101927
0001f0 66 53 c3 3c 1e 0b 60 3b 98 be 09 bc fa 71 9a bd
       0.023843478 0.0034186314 -0.0084072575 -0.075412706
000200 96 cd 34 3c 84 74 4b 3c 81 6d 67 3d 39 79 dc bb
       0.011035344 0.012417916 0.056500915 -0.006728318
000210 2c a2 26 3a 93 fa a9 3c 55 8d 84 bd df 79 38 3d
       0.0006356563 0.020749366 -0.064722694 0.0450381
000220 3b 2f 36 3a c9 31 c0 3c 58 eb 6f bd a8 6b 87 b8
       0.0006949787 0.02346124 -0.05857405 -6.457354e-05
000230 de a0 dc 3c 4a 00 e1 3c 85 c8 32 bc 91 cd c1 bb
       0.026932176 0.027465958 -0.010912065 -0.005914398
000240 94 1d 3d bc 21 cc 86 bc 43 14 94 b9 69 9d 08 3d
       -0.0115426965 -0.016454758 -0.00028243856 0.033353243
000250 78 1e 19 3c 5e 17 93 bd 98 ff 3d bd 47 b6 53 bb
       0.009345643 -0.07182191 -0.04638633 -0.003230469
000260 58 1a 14 bd 4b aa 21 bc db 75 5c bd 2b 0f 8e bb
       -0.036157936 -0.009867261 -0.053823333 -0.0043353043
000270 51 73 00 3d 2a 81 37 3d 1d 8b 2e bd b5 6b 83 bb
       0.031359974 0.044800915 -0.042613138 -0.0040106424
000280 49 f5 8e 3c b1 78 35 3d 25 74 5c 3c 97 66 1a 3d
       0.017450945 0.044304553 0.013455425 0.037695494
000290 1e 8b f0 3b 52 4f 20 3b 57 b9 e5 3c 6f b0 c2 ba
       0.007340803 0.002446134 0.028042478 -0.0014853607
0002a0 90 ef 48 bd 72 89 4e bc c0 fd bd bc ca db 38 bd
       -0.04905659 -0.012606012 -0.023192286 -0.045131482
0002b0 ec 65 64 3c 19 c0 dd bc aa ed 97 3c fa ee 94 bc
       0.013940316 -0.027069138 0.018545944 -0.01818036
0002c0 7e ae 34 bc a7 9f 07 3c 5a bb c7 bc e8 46 e2 ba
       -0.01102793 0.00827781 -0.024381328 -0.0017263563
0002d0 e1 d0 04 bd fe bd 13 3c 8d bd 7f bc de 04 d7 3c
       -0.032425765 0.009017466 -0.015609157 0.026247438
0002e0 67 29 b4 bb ff df 11 3c f6 35 ac bb 4c 8f ba 3c
       -0.0054980996 0.0089035025 -0.005255456 0.022773407
0002f0 6e 70 a8 bd 9e 61 c6 bb c7 7a c5 3c 5d 6e 0b 39
       -0.08224569 -0.0060541173 0.024106396 0.00013297187
000300 89 56 0a bd b5 05 6e bd d7 75 1d 3c 4c 6d 77 bc
       -0.033773933 -0.05811091 0.009610615 -0.015101742
000310 d1 69 1b bc b7 c1 1f bd a6 e2 c6 3a 52 32 13 bd
       -0.009485678 -0.0390031 0.0015173748 -0.03593666
000320 98 f0 28 3d af ef 31 bd 91 69 af 3b e4 d9 e8 bc
       0.041245073 -0.04344147 0.0053531607 -0.02842421
000330 25 a5 bd 3b e8 95 91 3c 2d bf 10 bc ff 67 63 bd
       0.005787509 0.017771676 -0.008834642 -0.0555191
000340 ef 5e 23 bb e3 c3 9a bd 00 be 2e 3c 68 ea 77 3b
       -0.002492841 -0.07556894 0.010665417 0.0037828926
000350 2c dd 0f 3c cc 62 23 bd af 80 53 3c 16 f1 1b 3c
       0.008780759 -0.039889142 0.0129090985 0.009517929
000360 cd 99 88 3c ee 31 1d 3c b7 a0 3e bd a5 46 99 3a
       0.0166749 0.009594424 -0.04653999 0.0011694027
000370 fa f8 ad ba ca 38 19 bd 7b e9 9a bc 0a 8f 73 bb
       -0.0013273053 -0.037407674 -0.01891016 -0.0037164115
000380 47 d1 c8 3a b7 1c 41 3c ff a3 9c 3c 99 bf a3 3c
       0.0015321159 0.011786631 0.019121168 0.019988822
000390 5e b0 a9 bb a8 b2 72 3c fe ee e4 bb 90 3f 1c 3d
       -0.0051784953 0.014813103 -0.006986498 0.038146555
0003a0 b0 1c a0 3b 96 75 ac 3c 85 f8 80 bb 2b 4c 09 3c
       0.0048862323 0.021052163 -0.003935876 0.008379976
0003b0 a7 f2 43 3d f4 d8 3a bb 63 4d 11 3d 0a df 64 bd
       0.047838833 -0.0028510662 0.035474192 -0.05587677
0003c0 a1 46 17 bd b4 86 02 3c 68 be 05 3c 40 31 87 bd
       -0.03693259 0.007966686 0.008163072 -0.066011906
0003d0 a9 b4 1c bd 8a 4b af ba be 14 2a 3d f6 6b ea 3c
       -0.03825823 -0.0013373953 0.041523688 0.028615933
0003e0 cd 3e ca bb 94 59 67 bd 49 e2 ad 3c 0f 45 3f 3c
       -0.006172037 -0.056481913 0.021226065 0.01167418
0003f0 3e c5 0e 3d 63 e1 16 3d 20 b8 ec bc 95 27 e2 bd
       0.034856074 0.03683604 -0.028896391 -0.11042706

transformer.wpe.weight f4 [32, 128]
000000 90 4c c3 3b b4 f7 32 bb 37 0d 02 3c a5 c0 44 3b
       0.0059600547 -0.0027308287 0.007937721 0.0030022052
000010 97 d9 11 3b 33 75 40 3c 33 a4 87 bc ed e8 a2 bb
       0.0022254938 0.0117466925 -0.016557788 -0.0049716146
000020 0f e0 5d 3c 91 c9 17 3b 84 b6 98 3b d4 d5 2f 3c
       0.013542189 0.0023160914 0.0046604294 0.010732133
000030 65 e5 4d ba 42 65 a6 3c ca 0c 92 b9 98 06 0a bb
       -0.0007854312 0.020311955 -0.0002785682 -0.002106106
000040 e8 99 fd bb 65 00 8b bc 8f 8d 7e 3c 25 72 0c 3c
       -0.0077392943 -0.016967962 0.01553668 0.008572136
000050 f6 b6 35 3c 0d 11 d1 bb 14 54 96 3b 04 23 3d 3a
       0.011090985 -0.0063802064 0.0045876596 0.00072149956
000060 f8 c0 fd bb 6d 8f df bb f1 35 83 bc 34 85 1b bc
       -0.007743951 -0.0068225176 -0.016016932 -0.009492207
000070 f0 5d d7 3b 35 7b 57 3c dd ca 38 bb 80 d4 e6 39
       0.0065724775 0.013151933 -0.0028197088 0.00044027343
000080 d2 10 9c ba e6 0b a2 3c 36 af 5f 3b 61 a8 72 3c
       -0.0011906868 0.019781064 0.0034131533 0.0148106525
000090 50 a3 c3 3b 81 9d 8d 3a 74 a9 0d 3b b3 fe 79 bc
       0.005970396 0.0010804386 0.0021615895 -0.015258479
0000a0 62 35 4a bb 51 2a b7 bb 26 2b 8c bb 65 29 87 bc
       -0.0030854573 -0.0055897613 -0.0042776046 -0.01649923
0000b0 66 9e de 3b 30 57 a6 bb a2 22 01 3c d1 7e 94 39
       0.006793785 -0.0050763115 0.007881792 0.00028323245
0000c0 89 b2 88 3a cc 3f 24 bc 50 32 68 3a de fb 03 3c
       0.0010429184 -0.010024976 0.0008857595 0.008055655
0000d0 90 41 36 bc 4b 18 26 bc 8f 51 15 bb dc be 08 3c
       -0.01112403 -0.010137628 -0.0022784208 0.008346286
0000e0 5e 80 80 3b 30 63 0f bc 7c 1c 1a ba e6 19 ba 3a
       0.0039215526 -0.0087516755 -0.00058788783 0.0014198392
0000f0 6f 22 4e bb de 0a 89 3c d2 63 40 bb 70 82 45 3c
       -0.003145363 0.016728815 -0.0029356373 0.0120550245
000100 b1 a2 8f bc ae 90 cd 3b 70 7c e7 3a f4 2a b8 3b
       -0.017533632 0.0062733507 0.0017660987 0.005620355
000110 e8 6d 04 bc 24 9c 3e bc e8 c3 fc ba 98 32 8f bb
       -0.008082844 -0.0116339065 -0.0019284459 -0.004370045
000120 0f d5 a5 3a 7f 43 72 bc 93 cf df bb 71 d1 f9 3b
       0.0012651997 -0.0147866 -0.0068301647 0.0076238443
000130 bb 21 55 3c bd 9e 8e bc 4c 98 16 ba fe e6 35 bc
       0.01300853 -0.017409677 -0.000574474 -0.011102436
000140 23 64 9f 3a e9 6f 82 bb 4a de 51 bc 88 f0 6c 3b
       0.001216058 -0.003980626 -0.0128093455 0.003615411
000150 6f 3c a9 3b bd 78 6a bc 08 19 a0 3b 8f 57 b4 3c
       0.005164675 -0.014311013 0.0048857965 0.022014407
000160 70 f2 06 38 6f e5 75 b9 46 2e 8a bc ee 2f 10 3b
       3.2173877e-05 -0.00023450491 -0.016867768 0.0022001225
000170 f9 2f 56 ba 8b 2b 25 bc d4 34 f8 3b 23 ca 31 ba
       -0.00081706006 -0.010081182 0.007574657 -0.0006782135
000180 65 16 e1 3b e2 e6 13 bb 96 e6 1f bc 5a 42 7f 3c
       0.0068691247 -0.0022568037 -0.009759566 0.015579784
000190 58 5c 81 bc 61 43 33 3b 16 e9 63 3b 6c 71 17 3b
       -0.015791103 0.0027353393 0.0034776381 0.0023108376
0001a0 25 73 bf 39 38 94 47 3c 28 38 07 3a a7 29 21 3c
       0.00036516148 0.012181334 0.0005158209 0.009836591
0001b0 de 34 00 3d a7 93 c8 bd e2 81 a7 3c e5 d1 60 bb
       0.031300418 -0.097937874 0.020447675 -0.0034304794
0001c0 bd d9 ac 3a ee 27 1f ba bc a1 8f 39 c0 50 65 bb
       0.001318745 -0.00060713186 0.00027395587 -0.0034990758
0001d0 95 b7 41 bc 6b 2c 39 3b be 03 2b 3c 5f e9 36 3b
       -0.0118235545 0.0028255235 0.010437904 0.0027910096
0001e0 c3 79 9d ba 49 04 f3 ba cf f4 c1 3c 1c 6c 79 b9
       -0.0012014437 -0.0018540706 0.023676304 -0.00023786764
0001f0 ae 6e 0c 3b 84 00 11 3c 74 37 6c 3c 19 82 f5 bb
       0.0021428275 0.008850221 0.014417518 -0.0074923155
000200 f6 60 20 3c e6 6e 5c 3c 3c 7a 54 bc bb 99 5e bb
       0.009788742 0.013454175 -0.012968596 -0.0033966142
000210 2d d6 b7 3c 98 f8 88 b8 fd f4 ca bc 29 cc 43 3c
       0.022440994 -6.5312895e-05 -0.024775023 0.011950531
000220 d3 f9 9b bd f1 0b 45 3c 12 cf 3f bd 79 b7 1a bc
       -0.076160096 0.012026773 -0.046828337 -0.009443157
000230 3d 7f 60 3c f6 b5 df 3b 7f e2 d4 3b 29 a0 be bb
       0.013702211 0.0068271114 0.006496727 -0.0058174324
000240 d0 fb 2b 3c 73 01 71 3c a7 85 82 bc 62 04 9d 3b
       0.0104970485 0.014709818 -0.015932871 0.0047917822
000250 6b 91 2e bc 17 35 4d 3b 48 17 c9 ba 6a c5 04 3c
       -0.0106547875 0.0031312162 -0.0015342021 0.008103708
000260 2e 49 50 bb 9a 90 09 bc 56 ba 08 bd c0 27 94 bb
       -0.00317819 -0.008396292 -0.03338083 -0.00452134
000270 df 34 87 3b dc da 77 3c 10 84 e2 3c a1 ad 36 3c
       0.004126176 0.015127864 0.027650863 0.011149795
000280 05 69 b1 3b c1 57 e2 3b e6 21 83 3c 0d 26 96 3b
       0.0054141306 0.0069074337 0.016007375 0.0045821727
000290 0a e0 0a bc 8e 56 9e bb 95 ea 70 3d a8 4c 29 3c
       -0.008476267 -0.0048320955 0.058817465 0.010333218
0002a0 75 a9 38 bc e6 70 63 3c 7e 71 79 3a f9 8e 2a bc
       -0.01127087 0.013881898 0.0009515508 -0.010410064
0002b0 0d 25 21 ba 7e d3 01 bd b9 6a c3 3b ad 4d ab bc
       -0.00061471836 -0.031695835 0.00596365 -0.020911062
0002c0 ff 51 2b bc 91 77 af 3c 29 f3 ce bb 15 1a d3 3b
       -0.010456561 0.021419318 -0.006315608 0.006442318
0002d0 4e 87 33 bc d9 f0 bf 3c fe 2d a4 bb 5a 5d 8a 3b
       -0.010957552 0.023430275 -0.0050103655 0.004222554
0002e0 81 b0 1f bc 7e cb d3 3c ea f6 8f bb aa 3c af 3c
       -0.009746672 0.025853869 -0.004393448 0.021391232
0002f0 2d cb 16 bc 59 e1 b4 bb 2c fd ae 3b 30 db ae bb
       -0.009203714 -0.0055200276 0.005340239 -0.005336188
000300 83 a6 94 3c 1c 62 ad bc 0a 59 ea 3b 14 6e 1f bc
       0.018145805 -0.021164946 0.0071517276 -0.0097308345
000310 57 90 8e bc 93 d8 ab bb 1b 0c 15 3b f4 6e 96 bb
       -0.017402811 -0.0052443235 0.002274281 -0.0045908634
000320 13 d5 2e 3c ce cf 74 3c e0 ca ac 3c 34 21 22 bc
       0.010670918 0.014942123 0.021092832 -0.009895612
000330 92 e0 7f bc d6 49 06 3d 21 76 3e bc 98 34 1b bc
       -0.015617507 0.03278526 -0.011624844 -0.009472989
000340 6e be 13 3b dd 61 9f 3c 06 cc aa 3c 50 5b dd 3c
       0.0022543925 0.019455845 0.02084924 0.02702108
000350 22 6d dd bb 05 1d 30 bc 49 82 9e 3b 19 1d 5c bc
       -0.0067573944 -0.010749106 0.0048373085 -0.013434672
000360 74 fc fe 3b 63 2f 4e 3a a8 d5 e4 bc 0a 8a 3b bc
       0.0077815596 0.00078653375 -0.02793391 -0.011446485
000370 c1 cc e6 bb 8a 05 23 bc d3 cb ac bc 28 ae 81 bb
       -0.0070434515 -0.009950051 -0.021093285 -0.0039575286
000380 fb 40 7a 3b d6 d5 c8 3b 90 37 c4 3c 76 a8 80 bc
       0.0038185704 0.006129007 0.023952276 -0.015705328
000390 b1 68 91 3c 49 87 0e b9 2a a6 d7 3a 28 a4 a2 3a
       0.017750116 -0.00013592573 0.0016452719 0.0012408542
0003a0 5d 03 c6 3b 51 36 3f bc c1 d2 eb 3c 91 35 12 bc
       0.0060428814 -0.011670665 0.028787019 -0.008923904
0003b0 47 e6 7c ba 4c 5b 0e 3c d2 a4 64 bc 0e 47 d6 b9
       -0.0009647351 0.008688759 -0.013955312 -0.000408702
0003c0 2a 47 1b bd ed c3 8f 3c 4c 8f 93 3b 8d dc 90 3b
       -0.037909664 0.01754948 0.0045031663 0.004420823
0003d0 7d 54 46 bb f4 e2 95 3c d6 08 80 bc 27 04 3a 3c
       -0.0030262761 0.018296696 -0.015629213 0.011353529
0003e0 48 99 6f bc 2f 05 18 3c 8a 9a 55 bc fd a0 9c bb
       -0.014623947 0.00927858 -0.013037333 -0.0047799335
0003f0 11 a3 d1 3b 23 66 84 3c 4d b9 89 bc 14 c0 46 3c
       0.006397613 0.016161984 -0.016811991 0.012130756

transformer.h.0.ln_1.weight f4 [128]
000000 9f 05 d5 3e 3a 5d 14 3f 3e 3c 40 3f 53 7a 06 40
       0.4160585 0.5795475 0.7509192 2.101216
000010 13 03 0e 3f d3 7f 22 3f 0c f5 a8 3e 84 5a 40 3f
       0.5547344 0.63476294 0.32999456 0.75138116
000020 cc ab 85 40 50 20 55 3e 8b c4 0f 3f 9a 86 25 3f
       4.1772213 0.20813107 0.56159276 0.6465851
000030 5c 6f e1 3d f3 22 d5 3e c7 87 45 3f 39 79 93 3f
       0.11007568 0.41628227 0.77160305 1.1521369
000040 61 5c c8 3e 53 17 85 3e 31 df d3 3e c5 3e 2f 3e
       0.3913298 0.25994357 0.4138122 0.17113788
000050 df fa 61 40 f1 72 d3 3e fe 76 22 3e 5d 5f 2d 3f
       3.530937 0.4129863 0.15865704 0.6772364
000060 ea 9a 86 3a 66 77 05 3f 23 6e 8d 3e fb 63 1e 40
       0.0010269557 0.5213531 0.2762309 2.4748523
000070 b2 0f 7f 3e 7a 2e e8 3e f6 7a fa 3e 8c 12 12 3f
       0.24908331 0.4534796 0.48921937 0.5705955
000080 a5 d0 8b 3e 51 bb c2 3e a7 97 0c 3f 69 d9 49 40
       0.2730762 0.38033536 0.54918903 3.1538947
000090 a2 c2 22 40 29 5e e3 3e b1 1e 5a 3f 54 2b f3 3e
       2.5431294 0.44407776 0.8520308 0.47493994
0000a0 08 e0 88 3d 37 33 2a 3f e6 78 0c 40 8e d8 c6 3b
       0.066833556 0.664844 2.194879 0.006068296
0000b0 cf 7e a2 3f 2e 95 b3 3e 37 89 91 3e 9e 72 c5 3e
       1.2694949 0.35074753 0.28425 0.38564008
0000c0 ee 21 fa 3e be 61 d8 3e a2 61 2e 3f 08 e8 39 40
       0.4885401 0.4226207 0.68117726 2.904787
0000d0 65 8a 6e 3b 13 aa 1f 3f 72 e8 0c 40 58 45 2d 40
       0.0036398408 0.6236889 2.2016873 2.7073574
0000e0 0c 99 08 3f d2 e0 71 3f 49 a3 61 3f b8 cf b7 3f
       0.5335853 0.94483674 0.8813978 1.4360266
0000f0 e2 ec cf 3e da 5e 6c 3e 24 cd 39 3e b6 91 6e 3f
       0.40610415 0.23083058 0.18144661 0.9319109
000100 26 68 91 3f 53 1a a7 3e 44 5c 16 3f 47 82 0f 3f
       1.1359909 0.3263727 0.58734536 0.5605816
000110 c8 19 4c 3e 6a 41 c8 3b a8 6d 20 3f e6 8f 03 3b
       0.1993171 0.0061113136 0.6266732 0.0020074784
000120 06 41 d5 3e 48 bd 3a 3f 99 aa 22 3f 8c e0 e0 b9
       0.4165117 0.7294507 0.6354156 -0.0004289191
000130 8e 14 ed 3e 81 07 0b 40 ec a4 24 3f b6 c5 01 3e
       0.46304744 2.172333 0.6431415 0.12673077
000140 74 d2 07 40 9d f8 d0 3e f4 a5 a2 3f e3 65 0c 3f
       2.12222 0.40814677 1.2706895 0.54842967
000150 0d 86 39 40 0b 0b e1 ba 85 70 40 3f 67 96 31 3f
       2.8988068 -0.0017169429 0.7517169 0.6937012
000160 bb 00 39 40 8c 54 30 40 51 52 54 3e 63 cc 2e 3f
       2.8906696 2.7551603 0.20734526 0.6828062
000170 d1 87 53 3f 75 e7 96 3a 38 cf 20 3f d9 53 9f 3f
       0.82629114 0.0011513071 0.6281619 1.2447463
000180 c1 19 20 3f 29 d4 91 3e be 98 02 3f 60 2b 8a 3e
       0.625393 0.28482178 0.51014316 0.26986217
000190 13 0b 42 3f aa c6 6e 3f e6 b3 9a 3f 83 83 15 3f
       0.7579815 0.9327189 1.2086151 0.58403796
0001a0 b6 0e 1c 40 49 fc 47 3f 9b 04 0c 3f 84 a3 4e 3f
       2.438398 0.7811933 0.5469453 0.80718255
0001b0 8a fd c5 3e 45 9a ad 40 ca 72 d7 3f 19 0e b1 3d
       0.38669997 5.4250817 1.6831906 0.08645267
0001c0 d0 1b c8 3e 75 75 ac 3e ab ba e9 3e 21 1a a9 3e
       0.3908372 0.33683363 0.4565023 0.33027747
0001d0 04 26 db bb 8a 4a ea 3e dd be 81 3e 7a 7b e8 3f
       -0.0066878814 0.45759994 0.2534093 1.8162682
0001e0 cd 2f 4f 3f 73 cb 02 3f 84 01 6d 3f 37 17 85 3e
       0.80932313 0.5109169 0.9258044 0.25994274
0001f0 06 af c6 3d bd d0 c5 3e d5 15 19 3f 3e 2f 50 40
       0.09701352 0.38635817 0.5979894 3.2528834

transformer.h.0.ln_1.bias f4 [128]
000000 a7 d0 dd 3d 67 2e f6 bc 7c 9f 03 bd 80 f1 84 bd
       0.10830813 -0.030051423 -0.032134518 -0.06491375
000010 c8 02 5e be cd f4 84 bc 12 94 87 3c 7b 8a f7 bd
       -0.21680748 -0.016230011 0.016550098 -0.1208696
000020 6f 96 de be 84 cb 4a 3d 5f e8 a9 3d 89 25 90 bc
       -0.43474147 0.049510494 0.082962744 -0.017596023
000030 1c f0 7d 3c ad 7b 00 3d 4a 43 49 3d 83 fb 00 be
       0.015499141 0.031367946 0.049136437 -0.12595944
000040 c9 0f 30 bd 28 27 86 bd 90 19 92 3d e6 05 a0 3d
       -0.042983804 -0.06550437 0.07133782 0.07813625
000050 93 7f 18 3e eb 5e dd b9 db 0e ac 3c a4 1d 0d 3e
       0.14892416 -0.00042223124 0.021003177 0.13780838
000060 1c 0d 0d bb 96 02 9c bd 41 c1 36 bd b9 9f 98 3e
       -0.0021522706 -0.07617681 -0.044617895 0.2980936
000070 9f 53 76 3d 11 9b cc 3c 1c 5e a9 3c 6c ce bc bb
       0.06013834 0.024976285 0.020674758 -0.005761912
000080 b9 ab 43 3d f1 cb 3b 3d c8 e3 39 be dd 0f b9 be
       0.04777119 0.04584879 -0.18153298 -0.36144915
000090 5f 99 26 3d 33 87 15 3d 3b 18 49 3e 0d d5 84 bd
       0.04067361 0.03650589 0.1963815 -0.06485949
0000a0 22 50 be 3b 7d 94 24 3c 37 81 83 3b 69 b5 95 ba
       0.0058078924 0.010045168 0.0040132063 -0.0011421862
0000b0 7e f1 8c bd 13 64 2d bc 62 58 d7 3d ab 0c a9 3d
       -0.068819985 -0.010582942 0.105149046 0.08254369
0000c0 92 94 45 3d 20 7b 04 3d 77 c0 d5 bd 24 47 06 3e
       0.04823739 0.032343984 -0.104371004 0.13113075
0000d0 f8 6c 35 3b a9 a9 ac 3d 8d f5 52 3f b9 1e b0 3c
       0.0027683359 0.084307976 0.8240593 0.021499025
0000e0 2d 48 83 3d a5 49 31 3e 8b a2 17 3d 21 19 f4 3c
       0.06410251 0.1731325 0.037020247 0.029797139
0000f0 38 79 e6 3b 53 84 a1 3d 77 47 e1 bc 0d f9 62 3d
       0.0070334934 0.07886567 -0.027499897 0.055413295
000100 c8 1a 82 bd 29 68 34 3c 91 d3 e8 3d 85 75 01 3e
       -0.06352764 0.011011162 0.11368478 0.12642486
000110 28 fb 33 3d a3 6e 77 3b 01 53 6e 3d 23 8e 26 bb
       0.043940693 0.0037755154 0.058184627 -0.002541431
000120 3b 5f a1 3d 26 eb dd 3b 9a a7 7f 3d 4c e9 92 ba
       0.07879492 0.0067724166 0.062415697 -0.0011208444
000130 e4 db 9d bd 4b 2e c4 be 8d 46 f0 3d c0 37 f6 bc
       -0.077079564 -0.3831657 0.117322065 -0.03005588
000140 74 11 c7 3d ed 82 f6 3c 88 d6 ce 3c 01 c2 48 be
       0.09720126 0.030091727 0.02524878 -0.19605257
000150 8a d0 23 bd b2 56 88 ba 0f b9 03 3d 1a 8d 52 3e
       -0.0399938 -0.0010401814 0.032158908 0.20561638
000160 32 b6 85 3e 63 06 fe 3d de 2f 60 bd f8 2d b1 bc
       0.26115566 0.12403562 -0.05473315 -0.021628365
000170 34 88 ca bb 68 52 1d b9 ec 8e 32 3e 0b d5 88 3d
       -0.0061807875 -0.00015003385 0.17437333 0.0668126
000180 ed 62 aa 3d 43 1c f8 3c c2 34 32 bd e5 0c c9 3d
       0.0831965 0.030286914 -0.043507345 0.098169126
000190 1e a3 35 be a4 67 30 39 11 6f af 3c e5 48 92 bd
       -0.17738006 0.00016823277 0.021415265 -0.0714281
0001a0 40 05 1f 3e 6c ad a9 bd a7 5e 60 be 51 64 51 bd
       0.15529346 -0.08285031 -0.21911107 -0.05112106
0001b0 f5 db d7 3d a4 16 e9 be f5 31 05 3e b9 02 e5 bb
       0.1054 -0.45525086 0.13007338 -0.00698885
0001c0 e7 b6 d6 bd 99 6b b1 3c 88 08 9c 3d e9 6f 6c bd
       -0.104841046 0.021657752 0.07618815 -0.057723913
0001d0 9d f2 1d bb ad f7 bb bd 14 16 90 3d 6d ca 61 3e
       -0.0024100908 -0.091781 0.07035461 0.22049876
0001e0 3c a8 2e be 6f 1a 41 3d fa 9e 3a 3e c0 ca af bc
       -0.17056364 0.04714435 0.18224707 -0.021458983
0001f0 a3 6d 42 3c 31 df aa 3d 12 49 a9 3b 2c 36 00 bf
       0.01186696 0.08343352 0.0051661814 -0.5008266

transformer.h.0.attn.c_attn.weight f4 [384, 128]
000000 04 26 31 3c e4 c6 fe 3b 53 70 3b 3c 5e cb c0 bb
       0.010812286 0.0077751745 0.011440354 -0.0058836183
000010 62 16 94 3c 49 1e 1a bb ab e4 83 3c 95 9f 8b 3b
       0.01807708 -0.0023516587 0.016100248 0.004260967
000020 91 a9 f6 bc 09 f0 95 bc 6e ad 85 bc c9 99 0b bc
       -0.030110152 -0.018302934 -0.01631805 -0.008520552
000030 81 af 05 3c 2a 1a 9c bc 57 95 a9 bb a2 52 54 bc
       0.008159519 -0.019055445 -0.0051752734 -0.012959154
000040 b0 31 41 bc 2a 47 28 3c fc fd 4d 3b cc d1 72 bc
       -0.011791632 0.010270873 0.0031431904 -0.014820527
000050 bc 3e ec bb aa d1 ac bb d4 f2 9f bb e0 3d a2 3b
       -0.007209627 -0.0052740173 -0.0048812423 0.0049512237
000060 6e 0b 95 bb 45 38 0e 3d ba d6 64 3c 45 dd ff bc
       -0.0045484817 0.03472163 0.01396721 -0.03123344
000070 83 57 6a bc cc 30 b9 bc 89 ca 0e bc 33 41 bb 3c
       -0.014303091 -0.022606276 -0.00871528 0.022858238
000080 07 73 4f bc bf 8d 44 bc b4 a7 04 3d 45 d6 52 3c
       -0.012661702 -0.0119966855 0.032386497 0.012868469
000090 a2 2f 09 3c 73 1d 4b 3c 99 5b 08 3c 4f 87 8d 3b
       0.008373173 0.012397158 0.00832262 0.0043191086
0000a0 e7 49 5f bc 19 24 e8 3c 46 50 c9 bc 01 d2 40 bb
       -0.01362846 0.028337525 -0.02457441 -0.0029422047
0000b0 98 37 10 3b d9 2b c6 bb c7 e2 bb 3b e9 9d 17 bd
       0.0022005793 -0.0060477075 0.005733821 -0.03701583
0000c0 8e 09 3e bd ba b3 33 3a 59 a7 2c bd f9 d0 0c bd
       -0.04639583 0.00068550895 -0.042151783 -0.03437898
0000d0 f8 df 32 3b 26 e4 9d b9 84 9f 65 bc 20 4a c9 bc
       0.002729414 -0.00030115357 -0.014015082 -0.024571478
0000e0 d4 34 80 bc b2 ca 21 3c bd b0 1c bc 41 f7 63 3d
       -0.01565019 0.0098749865 -0.009563622 0.05565572
0000f0 7a 2e 28 bc 2e 27 d2 bc cd 9e e0 3c ef 21 af 3b
       -0.010264987 -0.025653448 0.027419472 0.0053446214
000100 82 5c 13 3b 38 25 e1 bc 20 75 46 bd 91 1e e8 bb
       0.002248556 -0.027483568 -0.048451543 -0.007083722
000110 10 01 1c bc fa 58 68 3b 31 5c 9a 3c 26 56 af 3b
       -0.009521738 0.0035453425 0.018842788 0.005350846
000120 8f b2 22 bc d6 76 15 3d 2b 64 08 bc 5a a1 ad 3b
       -0.009930267 0.036490284 -0.008324663 0.0052987756
000130 32 a3 f9 3b ec f7 64 3b e3 90 dd 3c 01 a7 9e 3c
       0.0076183314 0.0034937812 0.027046626 0.019366743
000140 0e 62 0b bc 78 cb fd 3b 4e 78 56 3c a5 1f d4 3c
       -0.008507265 0.0077452026 0.013090206 0.025893996
000150 3a 83 cd bc 0f 5e 0a 3c 23 71 0b 3c 75 f7 f7 3b
       -0.025086988 0.008445277 0.008510861 0.007567341
000160 f2 4b 43 3d 14 73 35 3b 8d b6 d3 3b 74 0b ef bc
       0.04767985 0.0027687 0.0064609707 -0.029180266
000170 00 eb 21 bc 4c be 98 3b 53 90 35 bc 99 7a 6f 3c
       -0.0098826885 0.004661357 -0.011081773 0.014616632
000180 ab 86 7a 3c c3 ab 9c 3c 37 86 87 3a d6 65 c9 bc
       0.015290896 0.019124871 0.0010339682 -0.024584692
000190 bc f6 b3 3c b1 75 f6 3c 1e 4b 3d bc da d5 3c b9
       0.021968238 0.030085417 -0.011553554 -0.00018008743
0001a0 24 98 9b 3c 8f a6 b3 bc 00 8c 2a 3c 31 55 33 bc
       0.018993445 -0.021930007 0.010409355 -0.010945604
0001b0 d9 9b b7 bc 89 1d 0c 3b 73 2e 4e bc 62 b4 61 bc
       -0.022413181 0.002137991 -0.012584317 -0.013775917
0001c0 b8 04 85 bc f9 b6 44 ba 74 54 8c b7 79 4c 53 3d
       -0.016237602 -0.00075040717 -1.6728627e-05 0.051586602
0001d0 22 92 8d 3a 5a 74 e8 3b 5a 1b 23 3a 2d dc 2e 3d
       0.0010800997 0.0070939483 0.0006222032 0.042690445
0001e0 0d a8 d3 3c 87 b2 0c bb 3c a8 c3 bb 25 1f 06 bb
       0.025836969 -0.0021468715 -0.005970983 -0.002046534
0001f0 03 ad a5 3c ef 9d e1 bc 33 69 e5 3b 46 0a 04 3d
       0.0202241 -0.027541129 0.007001066 0.03223636
000200 8e 68 5a 3d 54 78 82 bc e1 ee f4 3b 2b 3a ab 3c
       0.053322367 -0.015926518 0.0074747656 0.02090176
000210 ff 03 3a bc 88 70 d6 3c fe 4d 74 3c e4 a7 0b bd
       -0.011353492 0.026176706 0.014911173 -0.03409566
000220 d7 c2 07 3d 28 ea 0d 3d 01 75 17 3c f7 90 c0 3c
       0.033144798 0.034647137 0.0092442045 0.023506625
000230 36 26 12 bd 44 fc cc 3c 13 88 99 3d ca d6 08 3c
       -0.035680972 0.025022633 0.07496657 0.008351991
000240 c6 95 13 bc 83 e5 a2 bc c1 db 6f bc 7f 50 08 bb
       -0.009007877 -0.01988483 -0.014639796 -0.0020799933
000250 3b f8 ba bc 19 8e 52 bd 99 29 91 bb 9c ee 2a 3c
       -0.022823444 -0.051405046 -0.0044300077 0.0104328655
000260 89 78 7d 3c a8 8f 70 bc 8e 91 65 bb c1 66 43 bc
       0.015470632 -0.014682688 -0.0035029384 -0.011926354
000270 7c c3 21 3c 77 6d e3 bb 78 d0 1b bb b4 97 00 3c
       0.009873267 -0.0069405395 -0.002377538 0.007848669
000280 71 cf d3 bc 90 c6 00 3c 12 32 90 3a 98 07 75 3c
       -0.025855752 0.007859841 0.001100125 0.014955424
000290 d7 f4 0f 3c 3b 64 87 bc 5b 8e 08 bb 32 c0 03 bd
       0.008786402 -0.016527286 -0.0020836804 -0.032165714
0002a0 b3 66 68 3c 79 6f d3 bc 32 11 87 bc 4c 09 47 3a
       0.014184642 -0.02580999 -0.016487692 0.0007592633
0002b0 c4 71 c6 bb dc d8 77 3c 37 f6 f6 3c 3c 23 25 3c
       -0.0060560424 0.015127387 0.030146701 0.010079201
0002c0 d4 26 1a bb b3 6e 8b bb 94 5e d5 3b b8 a4 f1 3b
       -0.0023521679 -0.0042551397 0.0065115187 0.0073743723
0002d0 ba 4f b2 3b 58 67 b9 bc b8 f1 8e ba 98 04 a1 3b
       0.005441633 -0.022632286 -0.0010905778 0.0049138777
0002e0 c8 81 b7 3c fa f7 85 3c 8b f5 66 3d 09 d0 41 bc
       0.022400752 0.016353596 0.05638651 -0.011829385
0002f0 39 5a 96 bc 2f 42 40 bc 01 83 c7 bc f6 64 d0 3c
       -0.018353568 -0.011734529 -0.02435446 0.025438767
000300 40 ad 81 bc 31 f0 96 3c 5a 03 ea 3b d2 9c bd 3c
       -0.015829682 0.018425079 0.007141513 0.023146067
000310 d1 cc 81 3a 6e e8 4e 3c c2 a4 63 bc 72 e1 0d 3c
       0.0009902959 0.012628658 -0.013894262 0.008659707
000320 2d 10 1a 3b 45 47 ce bc 93 4a a8 bc a0 21 4c bc
       0.0023508177 -0.025180468 -0.020543372 -0.012459189
000330 d9 a4 3b 3d d6 5f ab bc 71 d9 ef bb 34 9c 93 3a
       0.045811508 -0.020919722 -0.007319622 0.0011261762
000340 be 1c aa 3c b7 78 d9 3b 1b 9e 16 bd ce 72 08 bc
       0.020765658 0.006636705 -0.036771875 -0.008328153
000350 48 3a 77 ba 04 03 d9 3b 47 35 26 bc a9 66 d4 3c
       -0.0009430987 0.006622674 -0.010144538 0.025927858
000360 b9 48 7a 3c 6d 1c c1 bd a6 70 36 bc 64 10 01 bc
       0.0152761275 -0.0942925 -0.011135256 -0.007877443
000370 a6 ac 4d 3d b5 db 7c 3c 01 03 97 bb 41 1f 11 bd
       0.05021348 0.015433242 -0.0046085124 -0.035430197
000380 ae 53 86 3c 04 f3 d0 bc ca 7d bb bc 70 3c 86 3c
       0.016397323 -0.025506504 -0.02288713 0.01638624
000390 cf 0f d6 bb cb b8 9c bb 92 88 f7 3c f3 50 72 bd
       -0.0065326462 -0.004782771 0.030216489 -0.05915923
0003a0 ec 2e 2a bd 39 40 91 bb 25 69 b9 3a f7 ac a4 3d
       -0.041548654 -0.0044327048 0.0014145715 0.08040803
0003b0 3a e8 3c 3c a4 01 1f bc 22 1f 94 3c 79 22 fc bc
       0.0115299765 -0.009704981 0.018081252 -0.030778157
0003c0 25 11 d1 ba d3 58 f6 3c c2 15 f6 bc 3f 65 19 bc
       -0.0015950544 0.030071652 -0.030039672 -0.009362518
0003d0 14 8c f2 ba d7 6a 80 bc 43 2e b8 3c 19 9b 82 3b
       -0.0018504881 -0.015675945 0.022482997 0.0039857742
0003e0 15 78 4a bc a6 0a 44 bc a0 27 87 3c 70 1e ab bc
       -0.012357731 -0.011965429 0.016498387 -0.020888537
0003f0 e5 b6 09 bc ef 67 ef bc ec 1e d2 bc 8e 52 83 bc
       -0.008405422 -0.029224364 -0.02564951 -0.016030576

transformer.h.0.attn.c_attn.bias f4 [384]
000000 dc ae b5 3c 76 52 27 bf 11 ae 6d bf 55 fe fb 3d
       0.022178106 -0.653602 -0.9284373 0.12304369
000010 49 cf 31 bf 90 21 b1 be 46 0a 2c bf 02 23 84 3f
       -0.6945692 -0.3459592 -0.67203176 1.0323184
000020 be 04 7f be 01 50 3e bf b1 cf 37 3f 98 34 8b bf
       -0.24904153 -0.74340826 0.71801287 -1.0875425
000030 81 cc 06 bd 9e fb e9 be 18 15 1e bf 33 a0 86 bf
       -0.032909874 -0.4569978 -0.61750937 -1.0517639
000040 bc af 39 3f 4d f9 8e bb 42 d0 60 bf 82 1a 97 3f
       0.72533774 -0.004363215 -0.87817776 1.1804965
000050 51 85 73 bf be b6 cc ba c4 41 25 bf 5e be 3b 3f
       -0.951253 -0.0015618426 -0.64553475 0.7333735
000060 3d 81 6a bf 9f 23 27 bf 34 4b 80 be 29 6f 1a 3f
       -0.9160345 -0.6528873 -0.25057375 0.60325867
000070 f1 b3 d4 bd fe b1 0d be f1 63 6a 3f 05 95 91 be
       -0.103858836 -0.1383743 0.9155875 -0.28434005
000080 5f 55 62 bc 9b fd 6a bf 6c 86 5b 3f f0 fc 1b 3f
       -0.013814299 -0.9179322 0.85751987 0.60932827
000090 11 f2 64 3f de a2 10 bf 0a 15 da be 2d ab cf be
       0.89431864 -0.56498516 -0.42594177 -0.40560284
0000a0 52 8a da be 9d 45 5c 3f 9a 27 3d be 58 5c 35 3f
       -0.42683655 0.8604372 -0.18472138 0.7084403
0000b0 fc 4c 7a 3f 21 3d 08 3f 9e af 55 bf 58 f1 58 bf
       0.9777372 0.53218275 -0.83471096 -0.8474326
0000c0 eb dc 44 3e 75 c9 b2 3d e9 24 05 be c4 5f 24 bf
       0.19224899 0.08729831 -0.13002361 -0.64208627
0000d0 8a 0c a2 3d de fd c4 bc 07 6a 45 bf c2 de 50 3f
       0.07912548 -0.024046835 -0.7711491 0.815899
0000e0 c6 56 35 bf 6e 50 47 3f 9f ab 80 3f 2e 2f d7 3e
       -0.7083553 0.778571 1.0052375 0.42028183
0000f0 37 99 2e bf 14 6d 3b bf ca 6d 2e 3f 55 28 7d 3c
       -0.6820254 -0.73213315 0.68136275 0.01545151
000100 1b be 31 40 85 cf 07 c0 8c f3 38 c0 5e 4a be bf
       2.777228 -2.122041 -2.889865 -1.4866445
000110 6e b9 29 c0 af 58 2d c0 bc 03 37 40 6b 13 72 bf
       -2.6519427 -2.7085378 2.859603 -0.9456088
000120 c9 73 14 40 3e f3 8e bf 48 bd 3c c0 91 94 2e bf
       2.319567 -1.1167982 -2.9490528 -0.68195444
000130 6b ab 37 40 d2 ff 2c c0 90 56 1d 40 ff 16 36 c0
       2.8698375 -2.703114 2.4584084 -2.8451536
000140 32 3e 32 c0 08 18 1d c0 41 61 41 40 d0 6c 90 3e
       -2.785046 -2.4545918 3.021561 0.28208017
000150 5a b7 3d 40 3c 26 44 c0 4b 32 37 c0 4c df 19 c0
       2.964316 -3.0648336 -2.8624446 -2.404254
000160 fc 74 47 40 de 6f 28 c0 33 6a 14 bf 47 28 2f 40
       3.1165152 -2.6318278 -0.5797455 2.7368333
000170 53 86 95 bf 13 e7 e9 be 86 91 af bf b3 f1 15 c0
       -1.1681617 -0.45684108 -1.3716285 -2.3428771
000180 1c 75 30 bf b2 34 38 3f 68 26 6c 3f 92 02 63 bf
       -0.68928695 0.71955407 0.92246103 -0.88675797
000190 12 8b 72 3f 6e 8d 44 bf 4e d9 18 bb 62 e0 86 3e
       0.94743454 -0.76778305 -0.0023322883 0.26343066
0001a0 2f c1 a7 3f 3a 56 4f bf a8 0a ac bf 31 63 4c bf
       1.310583 -0.80990946 -1.3440752 -0.79838854
0001b0 26 f2 27 bb d5 56 21 bf cb e6 56 bf 26 3f 3d bf
       -0.002562651 -0.6302312 -0.8394591 -0.7392448
0001c0 cb be aa bf c8 ff 39 bf 00 18 29 bf ba e2 06 3d
       -1.3339475 -0.72655916 -0.66052246 0.032931067
0001d0 45 a6 47 3f 2e f4 86 3e 67 6a 89 bf 8c 17 56 bf
       0.7798808 0.2635817 -1.0735596 -0.8362968
0001e0 89 eb 01 bf 5d 60 5c bf 87 70 4b bf 26 c2 ad 3c
       -0.50750023 -0.8608454 -0.7946858 0.021210741
0001f0 a1 06 74 bf 3f 5c 1d bf 35 e3 17 3f c2 64 6f 3f
       -0.95322615 -0.6146888 0.59331065 0.9351312
000200 7b cc 2b 3e 3f d2 49 bf 6f 46 ed bf 01 07 b2 be
       0.16777222 -0.78836435 -1.853712 -0.3477097
000210 45 1c 3c bf 4c 13 00 3e 7e b5 76 be 08 73 37 40
       -0.73480636 0.12507361 -0.24092671 2.866396
000220 95 ad 33 3f 13 e1 22 bf 8e 51 e4 3f 26 1e f6 bf
       0.7018674 -0.63624686 1.7837389 -1.922795
000230 9c 3a 34 bf 59 33 8b bf 68 e4 a4 bf d0 a2 3e c0
       -0.7040193 -1.0875045 -1.2882204 -2.9786873
000240 21 94 e5 3e de f7 09 3f 35 ec c9 bf 73 04 2f 40
       0.44839576 0.5389384 -1.577521 2.7346466
000250 53 21 f9 bf c9 25 3b 3e 33 43 1f bf c4 6e 96 3f
       -1.9463295 0.18276133 -0.6221191 1.1752553
000260 f7 7b e5 bf 02 a7 b7 bf 3f b7 15 bf 9b 92 db 3f
       -1.7928456 -1.4347842 -0.58482736 1.7154115
000270 45 05 cb bd d3 bd 82 3d da 1f 08 40 b9 12 0a bf
       -0.099131145 0.06383862 2.126944 -0.5393482
000280 bd 7d 9a bf 9c 43 39 c0 a6 6a 67 40 72 c8 82 40
       -1.2069622 -2.8947515 3.6158843 4.0869684
000290 2c f9 90 40 b6 25 53 c0 58 f9 15 c0 32 e4 13 c0
       4.5304165 -3.2991767 -2.3433437 -2.310803
0002a0 4e af 26 c0 f6 d0 1e 40 ca b9 2e c0 d6 f8 77 40
       -2.6044497 2.481504 -2.7300897 3.8745627
0002b0 a1 bf 9f 40 5c 80 69 40 54 d9 93 c0 8e d4 96 c0
       4.992142 3.6484594 -4.6202793 -4.7134466
0002c0 f7 fa 34 3e 29 f6 e5 3f 37 44 a3 bf 68 18 8a c0
       0.1767386 1.7965747 -1.2755193 -4.3154793
0002d0 38 f5 b3 3d 42 5f 81 bf 6f b9 88 c0 50 1c 4b 40
       0.08787006 -1.0107195 -4.272636 3.173603
0002e0 c4 b7 81 c0 f4 68 94 40 1f 19 ae 40 f3 18 f9 3f
       -4.0536823 4.6378117 5.4405665 1.9460739
0002f0 dc 2c 82 c0 dc 5c 8d c0 ba f1 81 40 c2 45 a7 3f
       -4.067976 -4.4175854 4.0607576 1.3068163
000300 95 65 20 41 8f 2c 03 c1 59 bc 27 c1 51 82 d8 c0
       10.0248 -8.198379 -10.483483 -6.765908
000310 fa 66 12 c1 c2 a2 1b c1 bf 81 28 41 8b 8f ab c0
       -9.150141 -9.727236 10.531676 -5.3612723
000320 42 43 0c 41 3d a5 53 c0 b1 7e 21 c1 05 65 85 c0
       8.76642 -3.3069603 -10.0934305 -4.1685815
000330 0a 35 28 41 21 82 1d c1 fa 6a 18 41 0f 1f 19 c1
       10.512949 -9.84427 9.526117 -9.570083
000340 17 86 23 c1 ce b4 16 c1 fd af 29 41 ad 6f 44 3e
       -10.220237 -9.419142 10.605466 0.19183226
000350 ea 90 29 41 c3 5c 2d c1 e5 85 26 c1 65 ce 0e c1
       10.597879 -10.835147 -10.407689 -8.925389
000360 ac 2c 29 41 51 6c 16 c1 92 b0 e7 bf 85 79 13 41
       10.573406 -9.401444 -1.810076 9.217168
000370 53 99 bf c0 10 c7 98 bf bf 53 b3 c0 b1 27 03 c1
       -5.9874663 -1.1935749 -5.603973 -8.19719
000380 c8 4f fa 3e d2 02 c6 40 53 52 bb 40 fe 54 e9 c0
       0.48888993 6.1878443 5.8537993 -7.291625
000390 2b 56 eb 40 18 18 dc c0 41 35 26 40 30 a2 b1 40
       7.3542686 -6.877941 2.5970004 5.5510483
0003a0 1f ff 64 3f 36 a9 f6 c0 4f 47 41 c0 63 2c e2 c0
       0.89451784 -7.7081556 -3.0199773 -7.0679183
0003b0 cb e2 69 3d 8e 6f df c0 b7 f8 e8 c0 38 2b a7 c0
       0.057101052 -6.9823675 -7.2803607 -5.2240257
0003c0 4f 5c 1a c0 e9 7b 66 c0 a1 75 c5 c0 d5 17 33 bf
       -2.411884 -3.6013129 -6.170609 -0.6995824
0003d0 60 81 d5 40 0d 93 a9 40 4d 96 c9 bd c1 97 d7 c0
       6.672043 5.2992005 -0.09843121 -6.7372746
0003e0 6a 60 c2 c0 34 36 12 3f 58 57 dd c0 24 c9 10 c0
       -6.0742693 0.5711396 -6.916912 -2.2622766
0003f0 02 d5 8a be 9c e0 47 3f 38 dd c2 40 47 24 d2 40
       -0.27115637 0.780771 6.0895042 6.5669284

transformer.h.0.attn.c_proj.weight f4 [128, 128]
000000 e9 48 f3 3b e0 27 dd 3c ee e9 17 bc 57 f7 cf bb
       0.007424463 0.026996553 -0.009272082 -0.006346624
000010 1d 3b b1 ba 75 b4 2e 3a c9 63 1e bd bf 25 15 bc
       -0.0013521645 0.00066644634 -0.03866938 -0.009103238
000020 44 4d 14 38 f0 5d e2 3a 9e a5 e7 3b fc 90 54 3a
       3.535791e-05 0.0017270427 0.0070693037 0.00081087626
000030 36 58 cd bb f7 71 fe 3c 0e 14 d0 3b dd 7b 38 bd
       -0.006266619 0.031060202 0.006350047 -0.04504
000040 83 2f 8b bc 8a d1 8f 3b a7 76 a5 3c a8 a9 81 bb
       -0.016990429 0.0043889927 0.02019818 -0.003956992
000050 59 76 9e bb d8 d3 09 3a 38 aa 0f 3b 2f 5e 12 3b
       -0.0048358855 0.00052577024 0.0021921527 0.002233397
000060 a1 4f d7 3c 74 5c d6 bb 15 8b 0f bc de 41 7c bc
       0.026283087 -0.006541783 -0.008761187 -0.015396563
000070 69 99 8d bc fd 88 28 3a 14 98 e3 bb 66 98 ab 3b
       -0.017285066 0.0006429104 -0.0069456194 0.005236673
000080 c0 56 74 bc f3 8f 58 bb 6e 21 2a 3b db 9f fe bc
       -0.014913261 -0.0033044785 0.0025959867 -0.031082084
000090 00 3e 9e 36 2a 60 52 3b c1 d1 dc 3c 80 c1 00 bb
       4.7159847e-06 0.0032100775 0.026955487 -0.0019646585
0000a0 7d 0f 12 3c ad 1e ec bb 0c 99 34 bb a6 d7 09 3c
       0.0089148255 -0.0072058053 -0.0027557043 0.008413231
0000b0 44 77 0f bc 94 12 a5 ba 02 f4 d3 bb a2 93 1f 3d
       -0.0087564625 -0.0012594038 -0.006468297 0.038959153
0000c0 b5 f9 0f bc 6c 7e cd ba 3a f3 c2 3b 93 8c 6a 3c
       -0.008787562 -0.0015677935 0.005949405 0.014315742
0000d0 1a c3 29 bd 42 aa 35 3a 31 d3 f3 3c 7f 58 dc bb
       -0.04144583 0.00069299724 0.02976379 -0.0067244167
0000e0 9f 33 8b ba ca 91 6f bc 27 13 84 b9 6a a2 25 bc
       -0.0010620243 -0.014622161 -0.00025191272 -0.010109523
0000f0 ac de 44 3c 48 74 a9 bc 28 96 cd bb e9 72 50 3c
       0.01201598 -0.02068533 -0.0062740035 0.012722709
000100 68 ce af 3a f2 e9 1c 3c e3 68 87 3b a3 1c 54 3b
       0.0013412954 0.009577261 0.0041323765 0.0032365702
000110 e8 b9 79 ba 5e 6a 47 bb cc 95 02 3b 05 f7 38 bb
       -0.00095262984 -0.003042839 0.0019925712 -0.0028223407
000120 58 84 af bb e3 a1 ec 3b 53 2c f9 bb 88 cf 72 bb
       -0.005356353 0.007221447 -0.007604161 -0.0037049968
000130 10 de 00 bb 88 be e1 37 15 35 df 3b be 8e 10 3a
       -0.001966361 2.6910813e-05 0.006811748 0.00055144343
000140 08 61 43 bb 38 53 a6 bb 2d 72 c7 3a 6c a6 04 3c
       -0.0029812474 -0.0050758384 0.0015216522 0.008096319
000150 b8 3d e0 3b e0 f8 13 bc 72 6f 12 bd 2b 93 0a 3b
       0.006843295 -0.009031504 -0.035750814 0.0021144848
000160 28 be 26 3a da f1 4a 3b db 7b 4d bb e0 58 ea bb
       0.0006360733 0.0030966909 -0.0031354341 -0.007151708
000170 f6 27 06 bc 3a 0b d6 ba 3b 7b b9 bb 09 6f 56 bb
       -0.008188238 -0.001633025 -0.005660442 -0.003271999
000180 8b cb ea ba 9c 2d bd bb f9 0f ba ba cc 07 62 ba
       -0.0017913444 -0.0057732593 -0.0014195434 -0.00086223776
000190 31 65 2a bc ac 8e 8e 3b f4 68 15 3c 3c 18 4c bc
       -0.0104001025 0.004350504 0.009119261 -0.01245695
0001a0 ad 36 c5 ba 7c 06 67 bb 1b 58 48 3a f7 a3 8d 3a
       -0.0015046202 -0.0035251668 0.0007642523 0.0010806312
0001b0 37 c3 cf 3c f2 e5 7c 3c 6f 46 bd bb fa 69 ca 39
       0.02536164 0.015435683 -0.0057762186 0.000386074
0001c0 07 e7 f7 ba 01 43 24 bc dc a7 81 bb ce fb 48 3b
       -0.0018913456 -0.010025741 -0.003956778 0.0030667665
0001d0 c7 c6 84 3c e3 9d 84 bb a2 5b 17 3c f2 79 d5 3a
       0.016208066 -0.004047142 0.009238156 0.0016286953
0001e0 1f 75 8c bc ee 38 ba bc 81 26 24 3c 38 45 66 3b
       -0.017145691 -0.022732224 0.010018946 0.0035136472
0001f0 06 74 17 3b 72 dd f8 3b 7c 72 fd bb 91 6b 08 bc
       0.0023109927 0.0075947577 -0.007734595 -0.008326427
000200 26 b3 16 bc 0f cd e8 ba bf 71 be 3c 03 7c 82 3a
       -0.009197986 -0.0017761308 0.023247598 0.0009955171
000210 7a f8 28 bb ab f4 17 ba 65 c8 4e bd 4a e9 98 3c
       -0.002578287 -0.0005796651 -0.05048408 0.018665928
000220 f7 3e 3d ba be 23 8e 3b a6 8e 71 3d 7f 68 0c bc
       -0.00072191603 0.004337757 0.05897393 -0.008569836
000230 38 92 fd 3b 09 88 56 3d fe 2e 6e bb 55 de 11 bd
       0.007738378 0.052375827 -0.0036343927 -0.035612423
000240 93 a6 8b bc 7c ec 1c bd 0e 51 f7 3b 9a de c8 3c
       -0.017047202 -0.038311467 0.0075475043 0.024520207
000250 ef 19 fc 3c 89 f8 09 3b 58 7b 56 bc 77 5d bf 3b
       0.030774085 0.002105268 -0.013090931 0.0058399993
000260 a7 95 3d 3c 4f 03 65 bc b1 af 9c 3b 33 cd 12 3c
       0.011571324 -0.01397784 0.0047816862 0.008960056
000270 68 ca 12 3d 2a af 0c bc a6 fc 11 3c d0 b6 80 bb
       0.03583756 -0.008586684 0.008910334 -0.003928043
000280 23 67 99 3c 4f 45 20 3c 35 e9 b3 bb f2 9e 91 3c
       0.018725937 0.009782149 -0.005490447 0.017775986
000290 96 f0 5d 3b 39 5f 98 3b 97 d4 0c bd 16 70 db bb
       0.0033865324 0.0046500233 -0.03438243 -0.0066967113
0002a0 6a 93 85 3c 38 78 fa 3a 4f 4a 10 bd 62 8b 9c 3b
       0.016305644 0.0019109314 -0.035227116 0.004777358
0002b0 e7 0f 11 bd 0f 2a 38 3b fc 5f b4 3b 7d 18 04 3c
       -0.035415556 0.002810124 0.0055046063 0.008062479
0002c0 57 7d 35 bc bf fa 9c 3c 14 8e f5 3a 89 39 80 bd
       -0.011077247 0.019162534 0.0018734359 -0.06260974
0002d0 29 b6 cc 3c 31 31 a6 3b 40 89 84 3b f4 e8 66 bc
       0.024989204 0.005071782 0.004044682 -0.014093626
0002e0 86 59 73 bc 61 94 ad 3c 3b a1 37 3b ca 9b 20 3d
       -0.014852887 0.021188917 0.0028019685 0.039211072
0002f0 d7 be 89 bc e1 ba 9b 3c df cf 0f 3b 75 a1 a4 3c
       -0.016814632 0.01901001 0.002194397 0.02009652
000300 bf a9 74 3b 5c 00 31 3d 01 75 94 3b 8f 58 7e bb
       0.0037332622 0.043213233 0.0045305495 -0.003881011
000310 dd 32 0d 3b 1a bb 84 b9 5d 35 aa bb c8 c3 57 ba
       0.002154521 -0.00025316403 -0.0051943497 -0.0008230773
000320 96 5e 27 3b 0d 46 35 bc d9 eb 1c bc e6 2d 7d 3b
       0.0025538555 -0.011064065 -0.009577715 0.0038632094
000330 58 5c 06 bb 18 b9 41 bb df 7d 3e bc ac 3b 7c bb
       -0.0020501819 -0.0029559787 -0.01162669 -0.0038487716
000340 b7 f7 2c bc 76 1e 8f 3a 78 1b 22 bc e3 68 b3 bb
       -0.010557107 0.0010919112 -0.009894244 -0.00547515
000350 b1 83 46 3b e4 af 38 bb eb 0a 39 bd 62 3a 9e bc
       0.0030290897 -0.002818101 -0.045176428 -0.019314948
000360 8b 91 d9 3b b0 49 4f 3c 32 a2 d6 3b 21 4a 30 bb
       0.0066396645 0.012651846 0.006550097 -0.0026899653
000370 76 73 00 bc 8a ea 59 3c ce 67 88 3a 39 d0 1f bc
       -0.007840028 0.013300547 0.0010406913 -0.009754234
000380 20 84 1c 3b 9e 35 82 bb a0 75 df ba 80 10 52 3b
       0.0023882464 -0.003973677 -0.0017048605 0.0032053292
000390 de 3b b9 3b 78 f9 36 3c ee 74 b6 3b 8c 8d e6 ba
       0.0056528887 0.011167876 0.0055681383 -0.0017589792
0003a0 6a 11 40 bc 95 f8 0b 3c b9 76 25 3c bc 6a 1b 3c
       -0.011722902 0.008543153 0.0100991065 0.009485897
0003b0 25 2b 0f bd 8f 34 02 3d 9c 30 ed 3c 34 77 3c 3c
       -0.034953255 0.031788405 0.028953843 0.01150303
0003c0 c2 bd 47 3c f4 cc 86 bc ef 33 83 bb ac f8 86 3b
       0.012191238 -0.016455151 -0.0040039937 0.0041189995
0003d0 2f 78 2c bb a5 16 4a 3d 0a cb 41 39 1d cb 68 3c
       -0.0026316752 0.049338 0.00018481552 0.014208582
0003e0 6a 97 eb 3c 14 81 c5 3c c3 93 e0 3b 40 d0 54 bc
       0.028758723 0.0241094 0.006853552 -0.012989104
0003f0 42 46 7e 3b 6b 1f 10 bb 24 1f 82 bc b3 5e 3f bb
       0.00387992 -0.0021991383 -0.01588399 -0.0029200732

transformer.h.0.attn.c_proj.bias f4 [128]
000000 e6 78 26 bc 15 41 f3 bb a9 d0 24 3c 12 d9 bd 3c
       -0.01016066 -0.00742353 0.010059514 0.023174796
000010 1d bf e1 ba f0 45 b0 bc ca bb 0b 3c 4d 94 8c bc
       -0.0017223094 -0.021517724 0.008528659 -0.01716056
000020 a3 1d 0e 3d e5 56 b9 bc 1a 6f 04 3d e6 64 e3 3c
       0.034696233 -0.022624442 0.032332517 0.027758073
000030 23 d8 cd bc e8 33 9a bc d9 91 5b 3b 66 23 d3 bb
       -0.025127476 -0.018823579 0.003350368 -0.006443429
000040 9d 39 79 bb fb 05 df bb be a6 f4 3c 1b ce 4c bc
       -0.0038028725 -0.006806133 0.029864665 -0.012500311
000050 2c 90 86 3c 8a 0e eb bc 6c f3 44 bd 53 0b 2a 3c
       0.016426168 -0.028693456 -0.048083708 0.0103786765
000060 fc 6f e7 bc 0c 39 75 ba 1b 85 e7 3b 57 d2 0e 3b
       -0.02825164 -0.0009354509 0.007065428 0.0021792853
000070 4d 17 21 3d f4 b2 27 bd b4 b2 0c bb ef 49 8d 3c
       0.039328862 -0.040942147 -0.002146882 0.017247168
000080 1c 65 ca bc 98 31 f4 bb 76 e7 96 bc 72 49 7b 3c
       -0.024706416 -0.007452201 -0.018420916 0.015337335
000090 4f 9a 3c 3c d0 ae bb 3c d4 e2 7d bc f8 60 7c 3c
       0.011511399 0.022910506 -0.015495975 0.0154039785
0000a0 54 b1 82 bc 97 bf 9c bc ab db 1a bd 01 33 63 3c
       -0.015953697 -0.019134326 -0.037807148 0.013867141
0000b0 c7 0b 26 3c 0e 4d 9f 3c ae c0 98 3c fc 19 bb ba
       0.010134644 0.019445922 0.018646564 -0.0014274712
0000c0 2d 0d 9f 3c 29 33 5f bc c1 87 a0 bc 50 55 b5 3b
       0.019415462 -0.013623037 -0.019595983 0.0055338517
0000d0 b5 c5 80 3d 24 c3 0a bc 1d 98 08 3c c6 42 b8 bc
       0.062877096 -0.008469377 0.008337048 -0.022492778
0000e0 d6 3f 17 3d 4d 91 c6 3b 05 d4 98 3c f3 b2 ab bb
       0.036926113 0.0060598017 0.018655786 -0.0052398383
0000f0 29 38 36 bd ca 59 7f 3c 9e 8b f0 bb c7 4e e8 3b
       -0.044487152 0.015585372 -0.0073408624 0.007089469
000100 48 7c 81 bc 7c cb 15 3c 27 01 df 3b 52 22 93 bc
       -0.015806332 0.009142753 0.0068055573 -0.017960701
000110 5a b6 8c 3c 3e 99 cb 3b b6 c7 96 3c b0 1f eb 3b
       0.017176796 0.0062133363 0.018405776 0.0071754083
000120 03 6f 00 bd ef 0f a7 3b 4b 46 15 3c ac c5 90 3c
       -0.03135587 0.005098335 0.009110997 0.017672382
000130 ae 99 5c 3c e1 a0 e2 3c 0f 68 8a 3c 15 84 ec bb
       0.0134643745 0.027664604 0.016895322 -0.007217894
000140 d9 93 f7 3b 45 a5 a5 3c f8 f5 fe 3c 2a c9 f4 b9
       0.0075554666 0.020220408 0.031123146 -0.00046689186
000150 93 9f 0c bc ef dd 1d 3c 29 2e 4e 3a 40 e7 8f 3c
       -0.008582967 0.009635433 0.0007865155 0.017566323
000160 19 23 01 bc 7d a8 39 bb 3a 7e ae 3c f2 f7 c5 bc
       -0.007881903 -0.0028329187 0.021300424 -0.024166081
000170 74 5d f7 ba bc 42 b9 bb 5c fb 19 bc ba 49 9d 3b
       -0.0018872456 -0.0056537073 -0.009398308 0.0048000487
000180 e8 13 c6 ba 27 3a 23 bc 9d 99 b9 3c 9a 1a ab 3c
       -0.0015112134 -0.009962595 0.022656256 0.020886708
000190 f1 99 a5 bc ff 74 91 bc 1d 2d 74 3c 22 d2 8e 3c
       -0.020215007 -0.017755983 0.014903334 0.017434184
0001a0 59 01 60 bb 8c 20 ad bc c6 f1 b1 bc 41 22 98 bc
       -0.003418049 -0.021133684 -0.021721732 -0.018571021
0001b0 56 d0 8e bc 22 9e 8c 3d 77 f5 2f 3c 05 1b 22 bc
       -0.017433327 0.06866099 0.010739676 -0.009894137
0001c0 0a fb 4a bb 79 4b 66 ba cd 14 cd bc 29 25 ce 3c
       -0.0030972385 -0.000878505 -0.025034333 0.025164204
0001d0 18 8e 92 bc 5c cd a6 bc 4e 2c 97 3b ff e9 39 bc
       -0.017890021 -0.020361595 0.004613436 -0.011347293
0001e0 4a 1b 87 bc 63 34 c8 bc 88 07 73 3c 51 7d 11 bd
       -0.016492505 -0.024439042 0.014833339 -0.0355199
0001f0 f8 8b 71 3d ba ba c1 bc 56 a0 a7 bb a3 ee 5a bb
       0.058971375 -0.023648608 -0.005115549 -0.0033406399

transformer.h.0.ln_2.weight f4 [128]
000000 d7 fe 51 40 7f 53 a4 3f 77 24 b3 40 18 03 9d 40
       3.2811792 1.2837981 5.5982013 4.9066277
000010 7a 58 b5 3f f1 04 8d 40 aa be 08 bc 9b 9c d4 3f
       1.4167626 4.406853 -0.008346239 1.6610292
000020 0c a2 ca 40 01 47 26 40 de b6 91 3b 4e 67 27 40
       6.332281 2.5980837 0.0044468483 2.6156802
000030 71 b4 dc 3f a6 4c cb 3f 46 86 cc 40 0e 12 88 40
       1.7242566 1.5882766 6.391391 4.252204
000040 42 5f ff 3f 65 41 a0 3f 09 dd ec 40 48 45 08 40
       1.9950945 1.2519957 7.401982 2.1292286
000050 90 79 ae 40 57 75 f5 3f 27 01 04 40 a5 8c 30 40
       5.452339 1.9176434 2.0625703 2.7585843
000060 ad 62 a0 3f 2f 7d 63 3f 7f b8 5e 3f 18 86 97 40
       1.2530113 0.8886289 0.8700027 4.735119
000070 b6 89 1a 40 bc a5 8c 3f 28 ca e0 3f 15 e0 8b 40
       2.4146552 1.0988078 1.7561693 4.371104
000080 6b 7d 2b 40 42 08 34 40 e5 3f bf 3f 8e 2c 85 40
       2.67953 2.813004 1.4941374 4.161689
000090 81 dc 96 40 67 b8 2a 40 e7 37 c1 3f 52 e9 1c 40
       4.714417 2.667505 1.5095185 2.4517407
0000a0 7f a4 25 3f 66 1b de 3f 72 1b 05 41 2e 15 58 3a
       0.64704126 1.7352111 8.3192005 0.0008242902
0000b0 d2 2d 7e 40 65 9c 40 3b e4 ab 40 40 8d 95 29 40
       3.9715466 0.0029390093 3.0104914 2.6497529
0000c0 33 98 4d 40 25 e9 05 40 c0 92 b6 40 a6 d6 fa 40
       3.2124145 2.092355 5.705414 7.838702
0000d0 da cb 7f 3f bf 55 a5 3f 1c d2 92 40 60 26 82 40
       0.9992043 1.2916793 4.588148 4.0671844
0000e0 2b 2a 64 40 1b 02 eb 40 97 c7 f4 40 76 a8 cb 40
       3.5650737 7.344007 7.649364 6.364314
0000f0 5b f9 ff 3f 9f 3e 93 3f ce 49 8c 3f 87 5b a6 40
       1.9997972 1.1503485 1.0960023 5.198673
000100 2c 69 eb 40 58 33 6b 40 cc 2c 62 40 d8 72 5d 40
       7.3565884 3.6750088 3.5339842 3.4601345
000110 a0 8b 90 3b b2 87 b8 3f aa f0 e3 40 43 d7 ce 40
       0.004411176 1.4416411 7.123128 6.463777
000120 5b 8f f5 40 6f ed a9 40 90 1a 65 3f a5 12 e2 40
       7.6737494 5.3102336 0.89493656 7.064776
000130 1e 54 79 40 73 62 ed 40 20 84 56 40 e0 c3 1a 40
       3.895759 7.4182677 3.3518143 2.4182053
000140 1c 33 be 40 1d e2 f7 3f 58 db ee 40 d5 87 ab 3f
       5.943739 1.9365879 7.4642754 1.3400828
000150 1c cf da 40 b9 46 03 bc e4 0f 84 40 96 fd cb 40
       6.837782 -0.008012467 4.12694 6.3747053
000160 21 77 c1 40 8c 00 c1 40 f2 f3 93 3f e2 21 e5 3f
       6.045792 6.0313168 1.1558821 1.7900965
000170 0a 2a c4 40 d3 95 84 3f a6 c1 d0 3f 0e ec d2 40
       6.1301317 1.0358223 1.6309097 6.5913153
000180 be 32 df 3f 64 26 3e 40 f0 c0 e4 3f 88 39 eb 40
       1.743736 2.9710932 1.787138 7.350773
000190 f0 ec db 40 f2 cd 94 40 99 bd 8d 40 33 eb fd 3f
       6.872673 4.65014 4.4293942 1.9837402
0001a0 5b 57 a4 40 d2 c0 ae 40 af 1d 01 40 d8 89 a7 40
       5.1356635 5.4610376 2.0174367 5.2355766
0001b0 85 f3 d2 3f 95 13 bb 40 1c 81 f0 40 61 2a c2 40
       1.6480566 5.8461404 7.5157604 6.067673
0001c0 a0 7b a8 3f 80 3a 1a 40 f1 33 72 40 0b 81 1e 40
       1.3162727 2.4098206 3.7844203 2.4766262
0001d0 52 a9 b5 3f c5 41 8d 3f 3d 38 d9 3f 27 14 7e 40
       1.4192297 1.1035696 1.6970288 3.96998
0001e0 2f 6b 63 40 22 86 be 3f 31 eb dc 40 47 3c 93 40
       3.553417 1.4884684 6.90371 4.601108
0001f0 72 9a 98 3f 91 99 22 40 9c 31 b8 40 7d 63 ea 40
       1.1922133 2.540623 5.756056 7.3246446
