warmup/warmup_3_113_-_1.pth (torch, 824633 bytes, 17 tensors)

transformer.wte.weight f4 [14, 128]
000000 23 a5 8d bc 0c 5f 35 3c 65 f3 a2 bb c1 52 d5 b8
       -0.017290657 0.011070024 -0.0049728625 -0.000101720456
000010 f4 6d 9e bc 37 55 63 3c 85 03 45 3c 2f d0 17 3b
       -0.01933954 0.013875297 0.012024765 0.0023164859
000020 dd b8 2e bb 9c 34 99 3c ee 6c 99 bb ee 58 90 bb
       -0.002666048 0.018701844 -0.004682175 -0.0044051325
000030 58 b6 64 3b 97 ee ae bb 20 8f 4f 3b dd 3f 19 3c
       0.0034898724 -0.0053385007 0.0031671003 0.009353605
000040 de 9d 29 3c c8 69 11 3c f0 34 1f 3c a9 54 00 bb
       0.01035258 0.008875318 0.009717211 -0.0019581711
000050 6b 7e 1e 3c 17 12 5d ba 88 19 b6 bb c4 5d 5a ba
       0.009673695 -0.00084331766 -0.005557243 -0.0008330012
000060 0f e8 bf 3b 15 20 b0 bb cd ae ef 3b 68 9a 41 bc
       0.005856521 -0.005374918 0.007314539 -0.0118165985
000070 8c 28 a2 bc 38 4e a0 bb 09 96 80 3c a6 db eb bc
       -0.019794725 -0.004892137 0.015696542 -0.02879126
000080 e4 ff 83 3c 2d 05 07 ba 86 44 1f 3c a8 d3 a9 bc
       0.01611323 -0.00051506126 0.009720927 -0.020730808
000090 85 dd f2 3b 85 e8 15 3b e7 81 18 3c d3 62 ad bb
       0.007411661 0.0022874188 0.009308315 -0.005291322
0000a0 fb be c7 3c dc c4 8a bb 0e e4 b8 3c eb 43 3e 3c
       0.024383059 -0.0042348932 0.022569682 0.011612873
0000b0 96 a3 51 bc c6 37 d3 bb e8 98 3c bc 21 8f 00 3c
       -0.01279535 -0.0064458577 -0.011511065 0.007846625
0000c0 63 0f b9 3c bc 33 a6 bb ad 19 1a 3b 1b 18 aa 3b
       0.022590345 -0.005072085 0.002351384 0.005190862
0000d0 22 de 6e bc 59 1f 8e 3b ab 5b 8b 3c b2 36 09 bc
       -0.014579328 0.004337233 0.017011484 -0.008374857
0000e0 19 85 d4 ba 33 4f cd 3a ba 35 1d bc dc c0 48 3c
       -0.0016213983 0.0015663862 -0.009595329 0.0122530125
0000f0 ab 2a 5f 3b 31 af 81 ba 52 18 31 3c 1d d9 1c bc
       0.0034052532 -0.000989413 0.010809021 -0.009573248
000100 50 a1 7b bc 24 47 b9 bb 5d 39 15 ba be 21 94 3c
       -0.015358284 -0.0056542326 -0.0005692447 0.018082496
000110 c2 df 34 3a bf c4 37 3c 08 f0 73 3a a0 23 1d bc
       0.00068997976 0.0112163415 0.0009305482 -0.009591013
000120 32 38 08 bb a3 5c ff bc 4a dd f5 bb f2 d0 2d bb
       -0.0020785448 -0.031172102 -0.0075031864 -0.0026522246
000130 99 85 1c bb 26 ab 57 3b 64 c6 1b bd 92 f2 0a bc
       -0.0023883341 0.003290841 -0.038030997 -0.008480685
000140 5b 6d 0f bc 70 93 2c 3b be 62 e8 bb 80 59 2e 3b
       -0.0087541 0.0026332997 -0.007091849 0.002660364
000150 60 b6 a6 3b 86 5c 60 3c 02 0f 4e 3a 0f 39 ee 3a
       0.0050876588 0.013693934 0.00078605127 0.0018174964
000160 d8 21 4b bc 7b 64 cc bb a5 6e 4d 3b a8 0a c8 bc
       -0.012398206 -0.006237564 0.0031346467 -0.024419144
000170 72 cd 27 37 a4 61 1c 3b 5c 5a 1e bc 0f f4 00 3b
       1.000181e-05 0.002386191 -0.009665098 0.001967672
000180 c9 12 38 3b 71 6b b0 3b 29 9a 95 3c 2d 9f 68 3a
       0.0028087369 0.0053839018 0.018261986 0.00088738167
000190 de 4e 86 3c ae cc 82 bc 77 fa 14 3c 8c 31 2d 3d
       0.016395029 -0.01596674 0.009092919 0.04228358
0001a0 ec 4b 64 bc 31 f9 1b 3c c5 29 82 bc d4 13 b0 bb
       -0.013934117 0.009519861 -0.015889058 -0.0053734574
0001b0 93 d5 52 3a b9 7d 07 3c d8 4b a9 ba 40 d3 0e 3b
       0.00080426893 0.008269721 -0.001291628 0.0021793395
0001c0 41 a1 56 3a 84 9f ce bc 65 68 05 bb 4c 02 d3 bc
       0.0008187481 -0.025222547 -0.0020356413 -0.025757931
0001d0 e8 b9 12 bb b1 b9 a0 3b e0 02 59 3b b8 7b de 3b
       -0.002238864 0.0049049486 0.0033113286 0.006789651
0001e0 1e ed 4c bc da 1f 34 3c a0 c2 1e 3c bb 53 3b 3c
       -0.012507705 0.010993922 0.009689957 0.011433537
0001f0 27 f5 53 bc 9f 14 aa b9 79 a4 39 3b 95 28 23 bc
       -0.012936867 -0.0003244029 0.0028326793 -0.009958406
000200 aa 9b 0c 3c ce 12 f0 bc 96 c7 6c 3c 76 33 05 bc
       0.008582035 -0.029305842 0.014451882 -0.008129945
000210 57 39 1d bc e9 02 87 bc b5 8c 41 3c af 75 8c 3c
       -0.00959619 -0.01648088 0.011813332 0.01714596
000220 5c 17 1a bd 09 59 17 3d 01 53 41 bd 18 79 2e bd
       -0.037619933 0.036950145 -0.0471983 -0.042595953
000230 e6 2d 21 3c c7 d6 4f 3a 6a 03 5a ba c4 82 3b 3b
       0.009837603 0.00079284277 -0.0008316549 0.0028611878
000240 e5 22 95 bc d2 1a 9f bc e7 cc c7 3c 6c dc 24 bd
       -0.018205116 -0.019421969 0.024389697 -0.040249273
000250 e9 e8 50 3c 4b 67 43 bd 9c 8b 7d bc 61 41 31 bd
       0.012750843 -0.04770593 -0.01547518 -0.04327524
000260 a5 b6 b1 ba 83 2d ba bc f9 de ef bc 56 23 a0 bc
       -0.0013558461 -0.02272678 -0.029281126 -0.0195481
000270 5d 52 48 bd fa c3 cf 3c b8 da 53 3c 6b 21 01 bd
       -0.048906673 0.025362004 0.012930565 -0.03152601
000280 12 fa c4 bc 61 74 b2 bb ff 3e cb bb f4 08 8b bb
       -0.024045024 -0.0054460024 -0.006202578 -0.0042430107
000290 7a 9f 18 3b 75 ba b4 bc d0 72 f1 3c bb 39 6b bc
       0.0023288415 -0.022061566 0.029473692 -0.014357026
0002a0 f7 63 80 3c 1b 85 c7 bc bd 55 02 3e bd db b4 bb
       0.015672667 -0.024355462 0.12728019 -0.005519359
0002b0 38 fe 5c bc 20 e4 a3 bc 6a ce 1d 3c 59 92 9f bc
       -0.013488345 -0.02000624 0.0096317325 -0.019478964
0002c0 8e 97 0b 3d 20 5d bd bc 1f d8 26 bd 19 8f 5c 3b
       0.03408008 -0.023115695 -0.040733453 0.0033654629
0002d0 fd ff 9b 3c bd 3e 32 ba 27 df bf 3c c2 c5 d8 bc
       0.019042963 -0.000679951 0.023421837 -0.026461486
0002e0 71 77 b1 bc 64 e2 ed bc 3c 05 54 bc 8a 48 79 3c
       -0.0216634 -0.029038616 -0.012940701 0.015215049
0002f0 c9 71 3c 3c 89 a8 80 3c 2b 94 b9 bc 9e 18 00 bd
       0.011501738 0.015705364 -0.02265366 -0.031273477
000300 df 03 e5 bc 6e b4 2c bd dd f7 c7 3b 0f d4 79 bc
       -0.027955947 -0.04216426 0.0061025457 -0.015248313
000310 46 d9 93 3c bb 21 0a 3c c5 78 33 bc b4 03 0d bd
       0.01804794 0.0084308935 -0.010954087 -0.03442736
000320 f1 f2 b8 bc 57 7d d3 bc a4 d5 00 bd 64 4c f4 3a
       -0.022576781 -0.025816603 -0.031453744 0.0018638489
000330 94 b8 f4 bc be bd 85 3c 96 86 d0 bc 53 aa d1 3c
       -0.02987317 0.016325828 -0.0254548 0.025593912
000340 0d 39 b4 bc e3 6d bf bb 72 05 ea bc 99 6c 09 bd
       -0.02199986 -0.005841957 -0.02856705 -0.033550832
000350 41 dc 30 3c 5e f4 ba bb 6f c4 a3 bc be e6 8e bb
       0.0107947 -0.0057054004 -0.019991128 -0.0043610027
000360 91 b7 cb bc 16 1f ae 38 70 bc c0 3c 11 8b 81 bc
       -0.024867805 8.302757e-05 0.023527354 -0.015813382
000370 88 62 f8 3b 0a 30 6a 3b a8 f4 55 bc f3 aa 89 3c
       0.007580105 0.00357342 -0.013058819 0.016805148
000380 01 3c ea bc bf 2e cd 3c 10 85 96 bc c6 a7 02 bd
       -0.028593065 0.025046704 -0.018373996 -0.031898282
000390 50 1d 08 3d fe 1c 05 bc 16 cf 15 bd 90 76 6e 3b
       0.03323108 -0.008124588 -0.036574446 0.0036386587
0003a0 71 25 0f bd 30 5e 70 3b 1f ad d2 bc 50 0e f4 bc
       -0.034947816 0.0036677234 -0.025717316 -0.029791981
0003b0 8a d5 d5 3a 3e 23 b8 38 72 0e 65 bc fe 2d 10 bb
       0.001631425 8.780368e-05 -0.013980495 -0.002200007
0003c0 cd fb 9e 3c b7 f7 a2 3a 1a 13 ee bc 20 e9 af 39
       0.019407177 0.0012433444 -0.029061843 0.00033552293
0003d0 7a e3 43 bc 62 1c 66 bc 42 c1 8a 3c f4 6d 97 bb
       -0.01195609 -0.014044853 0.016937856 -0.0046212617
0003e0 40 9c d3 bc a7 92 43 bc 01 91 e8 b9 82 06 72 3b
       -0.025831342 -0.01193682 -0.00044358525 0.0036930148
0003f0 a4 8a 94 bc cb b4 26 3b ca 0f b6 bc 0b 6c d6 bc
       -0.018132515 0.002543735 -0.022224326 -0.026174566

transformer.wpe.weight f4 [32, 128]
000000 bf eb ac bb 07 9b 70 3c 0b 9f 8b 3b fa 36 2c bb
       -0.0052771266 0.014685399 0.0042609028 -0.0026277886
000010 29 ad 5a bc ef 2d 97 bb 0e 36 c9 bb 1a 57 9b bb
       -0.013346949 -0.00461363 -0.006140477 -0.004740608
000020 b8 d8 9f bb 4e ca a0 3a 34 10 29 bb 5a 02 d2 bb
       -0.00487813 0.0012267323 -0.0025797011 -0.0064089717
000030 cb 14 44 3c 40 6a 66 bc 8b 8c 13 3c 34 02 3f 3c
       0.011967848 -0.014063418 0.009005676 0.01165824
000040 d4 e1 9d ba 15 51 0d 3a 57 ef 8d 3b 5e 0c 03 bc
       -0.0012045451 0.00053908053 0.00433151 -0.007998554
000050 09 f2 a5 bc 71 56 29 bc e2 3b ea 3b ba c8 06 bc
       -0.020257013 -0.010335551 0.007148252 -0.008226568
000060 8a 61 10 bc 63 35 9f bb 79 d4 cd 3b ce 5e 3c ba
       -0.008812318 -0.004858659 0.006281432 -0.0007185758
000070 4d 0b f9 bc 9a e0 28 bc 26 9f 3f ba 19 9d ac bb
       -0.030400896 -0.010307455 -0.0007309787 -0.005267751
000080 02 46 55 3b 5e a2 e9 bb 4a 25 0f bb 23 04 ac bb
       0.0032542949 -0.0071299514 -0.0021842294 -0.0052495166
000090 c7 e8 d5 3b 5a 5d 4f bb 1a bb b2 3b 26 d2 4a 3a
       0.0065279934 -0.0031641335 0.005454433 0.0007737003
0000a0 33 0a 96 3b 32 e7 de 3b 29 a3 bd 3b 60 31 62 ba
       0.0045788526 0.006802463 0.0057872725 -0.0008628573
0000b0 10 d0 dc b9 3c 0b c7 ba 89 fb 16 bc 2d 12 af bb
       -0.0004211669 -0.0015185843 -0.009215244 -0.005342743
0000c0 69 b1 32 3c 4f d5 1e bc 71 7f 99 bb c2 0c 50 b9
       0.010906556 -0.009694411 -0.0046843817 -0.00019841178
0000d0 04 fb d3 3a ee 05 7f 3b 58 43 85 bc 93 1b 80 bc
       0.0016172831 0.0038913446 -0.016267464 -0.015638148
0000e0 5b 9f 2d bc e4 dd bc 3c 1f 02 e5 3a 8b 99 99 3b
       -0.010597075 0.023055024 0.0017471946 0.004687493
0000f0 51 6f b7 3b 35 41 e7 3b e5 bb 39 3c 7b 9b ec bb
       0.0055979867 0.007057334 0.011336301 -0.007220683
000100 07 6a 4e bc 65 76 a1 bb 50 38 c6 39 17 bb a3 b9
       -0.012598521 -0.004927444 0.0003780746 -0.00031229176
000110 8c f6 98 bb 53 ad 9d bb a9 23 7a bb e9 a6 26 bc
       -0.0046680626 -0.0048119216 -0.0038168228 -0.01017163
000120 b3 0c cb bb 12 bd 15 3c f8 5c 9d bb 5d 79 ee bb
       -0.006196582 0.009139316 -0.0048023425 -0.007277651
000130 ee 69 8e 3b 33 a1 08 3c e3 c4 4a bc 7c f7 c1 3b
       0.004346124 0.008339214 -0.012376043 0.005919395
000140 9e 09 fd ba 81 a1 37 bb 78 2b bd 3a 79 ab 81 bb
       -0.0019305234 -0.0028019848 0.001443251 -0.0039572087
000150 05 11 22 bb 35 ba 57 3a 98 86 74 bb 27 0a 19 3c
       -0.0024729383 0.0008229346 -0.003731167 0.009340799
000160 b0 57 12 bc 44 1c 0b bb cb 1d 5d 3c ef a6 ad ba
       -0.008932039 -0.0021226564 0.013495873 -0.0013248603
000170 c4 bc 95 3a 9f 56 57 ba e0 c6 c7 bb 1b 7a e8 3b
       0.0011424054 -0.00082145067 -0.006096706 0.007094634
000180 c0 ba 05 3c a3 db 0c bc 8e 5d 6f 39 d8 21 c7 3b
       0.0081622 -0.008597287 0.00022827668 0.0060770325
000190 35 8d 2b 3c b2 16 73 bb 76 3c b8 bc e9 cc 44 3c
       0.010470678 -0.0037092385 -0.022489768 0.012011745
0001a0 9d 1f 95 bc 3c 2d b9 3c b4 1a ed bb ff 20 01 bb
       -0.018203551 0.022604577 -0.0072358493 -0.0019703505
0001b0 8e fc e5 3a 32 b8 ec b9 31 95 e9 ba fc 2d 44 3c
       0.0017546581 -0.00045150664 -0.0017820952 0.011973854
0001c0 cb dd f8 3b 4c 7e 17 3b ce 6c 6b bc d7 2e 96 3c
       0.007594799 0.002311605 -0.014369203 0.018332882
0001d0 37 00 75 bc 5d c6 55 3b 76 ed 3a 3c 0a ed 48 ba
       -0.0149536645 0.0032619454 0.011409154 -0.0007664716
0001e0 87 7f a7 bb 1c d8 b8 3d 1b 2b a7 bb b1 1f b3 38
       -0.005111638 0.090255946 -0.005101574 8.541288e-05
0001f0 43 e3 25 bc f6 4c 91 bc 18 a8 9a b9 75 d4 15 3b
       -0.010124984 -0.017736893 -0.0002949841 0.002286223
000200 c1 36 fa bb f0 ba 1c bb 54 70 e8 3b 35 0e 46 3c
       -0.0076359217 -0.0023915134 0.0070934687 0.012088348
000210 f0 f9 35 bc 37 b6 03 bc 23 21 b0 3b 59 69 de 3b
       -0.011106953 -0.008039049 0.005375044 0.0067874608
000220 ca 9a f5 bc 0b 86 a4 3b d9 26 08 bc 3c 7e b1 bc
       -0.029981036 0.005020862 -0.008310043 -0.021666639
000230 ef d4 07 bc a0 4e 57 3c f4 c4 d7 ba 50 ac 9d bb
       -0.008290513 0.013141304 -0.0016461895 -0.004811801
000240 11 1f fa bb 0e 61 10 bc f2 2b 3d 3c bb 05 25 bc
       -0.007633098 -0.008812202 0.011546122 -0.010072167
000250 44 09 f3 3c 47 84 55 bc 9e 86 1e bc ae 7b 0e 3c
       0.029667504 -0.013032026 -0.00967565 0.00869648
000260 65 a7 bf 3b 8a c2 7b bc 19 66 c9 bb bc 22 42 bc
       0.0058488124 -0.015366206 -0.006146204 -0.011849102
000270 f3 39 67 3c 0d 1c 7d 3c 67 c1 26 bc 68 c5 8a bb
       0.014112937 0.015448582 -0.010177947 -0.0042349584
000280 57 d4 3f 3c dc 1f 79 3b f2 7d 41 ba a2 8c a7 3b
       0.011708341 0.0038013374 -0.0007381133 0.0051132003
000290 35 40 f3 bb 0a 46 4a bc 32 d2 08 ba e7 30 e0 39
       -0.0074234256 -0.0123458 -0.000521931 0.00042761044
0002a0 01 77 fa bb 48 ac 07 bc cf 6e f8 bb 81 65 13 bc
       -0.007643581 -0.008280821 -0.007581569 -0.008996368
0002b0 50 f2 3e bb 04 45 ec bc e8 76 9f 3c 89 db 0a bc
       -0.0029136129 -0.028841503 0.019465879 -0.008475193
0002c0 76 ca 0b 3c 7d 56 f5 bb 0c db 19 bb d4 aa dc ba
       0.008532157 -0.007487117 -0.002347651 -0.0016835579
0002d0 7d 70 a8 3c 7a b0 51 3b 91 fa b0 3d 7f ce 9b 3c
       0.020561451 0.0031996057 0.08641542 0.019019363
0002e0 2e db 3c bc 9c 02 78 bc e5 5a 3b 3b b8 4c 1d bc
       -0.011526866 -0.015137341 0.0028588113 -0.009600811
0002f0 0f 03 b4 39 e1 18 f5 39 de 08 8f bc 5c 14 20 bc
       0.00034334554 0.00046748578 -0.017460283 -0.009770479
000300 82 c0 da bb 14 1d 2b bc 69 6a 08 bb 50 b1 50 bc
       -0.0066757808 -0.0104439445 -0.0020815379 -0.012737587
000310 e2 70 0c bc 52 1d 64 3c 76 f3 6c bb d0 55 4d bc
       -0.008571835 0.013923006 -0.0036155856 -0.012532666
000320 42 5c 23 bc ac 16 92 bc 98 94 3c bc 80 25 ff bb
       -0.009970726 -0.017833076 -0.011510037 -0.007786453
000330 99 48 4b bc b5 30 98 3b 99 9f cf 3b 79 ea a9 3a
       -0.012407445 0.004644478 0.006336164 0.0012963555
000340 07 b2 95 bb a6 b1 7d 3c 12 7c 91 3b 44 88 84 3a
       -0.0045683417 0.015484249 0.004439839 0.0010111411
000350 aa 0b 60 3c c5 d3 c4 b8 96 7e 20 bc 1b 8a ee bb
       0.013674656 -9.3854534e-05 -0.009795805 -0.007279647
000360 51 8f 42 bc 84 44 a0 bb e3 f4 44 3c 32 f4 82 bb
       -0.01187499 -0.00489098 0.012021276 -0.0039963955
000370 6e a5 8e bb 80 8e 45 3c 40 dc a3 3b 03 85 98 3b
       -0.004353217 0.0120579 0.005000621 0.004654528
000380 c4 e7 2b bc 5e f3 d9 bb 74 14 b8 b9 f7 37 3e bc
       -0.010492269 -0.006651326 -0.00035110454 -0.011610023
000390 cf ab 8c 3b d8 1d 8e 3b af 1f 65 3c f6 18 8e bb
       0.004292942 0.0043370537 0.013984605 -0.0043364717
0003a0 11 7b 96 3b f7 ba 01 39 47 a9 20 bc 21 72 81 bc
       0.0045923074 0.00012372049 -0.009805984 -0.015801491
0003b0 3a d6 32 bc 3a 52 f0 ba 6c 86 1b bc 0e 4f dc bc
       -0.010915333 -0.0018335052 -0.009492498 -0.026893165
0003c0 9e 12 a2 3b a0 a9 4d b8 9b 4d 34 3c 9f c1 76 bc
       0.004946067 -4.9033784e-05 0.011004831 -0.015060811
0003d0 e6 2e c3 3c c8 d1 56 bc 74 07 1b bc a3 ae ad 39
       0.023826074 -0.013111539 -0.009462226 0.00033127246
0003e0 fa 6d de bb 66 d1 3f bc 43 8c 44 3c fa e0 5d bc
       -0.0067880126 -0.011707639 0.011996332 -0.013542408
0003f0 99 b1 12 3b b2 ef 5d 3c f8 ef ff bb 98 0b 44 bc
       0.0022383688 0.013545917 -0.007810589 -0.011965655

transformer.h.0.ln_1.weight f4 [128]
000000 34 3a 03 3f 14 00 98 3e e3 c0 1b 3f 2b e2 52 3f
       0.51260686 0.2968756 0.60841197 0.82376355
000010 69 65 c8 3f 6b 66 5e 3b 65 b4 48 3f 45 83 3d 3f
       1.5655948 0.0033935558 0.7840026 0.74028426
000020 68 1e ac 3e 3d 9a df 3e 7f b0 dd 3e 92 27 2f 3f
       0.33616948 0.43672362 0.43298718 0.68419755
000030 4a f6 5e 3f 40 ea 89 3f 98 51 6a 3e 79 f0 fb 3e
       0.8709456 1.0774612 0.22882688 0.49206904
000040 1d 02 96 bb b2 ee 76 3b 66 73 88 3f 77 6c 50 3f
       -0.0045778886 0.0037678895 1.0660217 0.81415504
000050 73 35 1b 3f b4 91 d0 3e b5 4a 3f 40 70 f3 c9 3e
       0.6062843 0.40736163 2.9889348 0.3944354
000060 47 41 a3 3f df 0e 01 ba af fc e1 3d aa 94 d8 3e
       1.2754296 -0.00049231754 0.11034524 0.42300922
000070 8d e3 51 3f 9f 60 08 3f b8 dd 31 40 fe 5c 8d b8
       0.8198784 0.5327243 2.7791576 -6.740725e-05
000080 be 56 4b 3e 1b 68 71 3f d3 1e 1c 40 e1 61 39 3f
       0.19857308 0.9429948 2.4393814 0.72414976
000090 b2 09 f6 3e 10 79 21 ba 5a 94 5a 3e 13 8c 73 3f
       0.48054272 -0.00061597023 0.21345654 0.9513561
0000a0 88 37 30 40 19 73 7f 3a 45 25 77 40 d2 21 15 3f
       2.7533894 0.0009744629 3.8616498 0.5825473
0000b0 d6 f5 3a 40 bd c6 26 3f ec d3 84 3f c6 c4 d2 ba
       2.9212546 0.65147 1.0377173 -0.0016080372
0000c0 48 86 ab 3f 22 99 c7 3e 74 3f 48 3e fc e0 b9 3e
       1.3400354 0.3898402 0.19555455 0.36304462
0000d0 b8 eb 44 3f 80 c4 21 3f b5 32 9f 40 81 a9 09 3f
       0.7692218 0.6319046 4.97494 0.5377427
0000e0 a9 53 14 ba 1c 32 d1 3e 09 3a 34 3f a4 46 03 3f
       -0.0005658218 0.40858543 0.70401055 0.51279664
0000f0 2d db fa 3d da 62 03 3e 6f d3 bf 3e f8 5b 29 3f
       0.12248836 0.12830678 0.37466 0.6615596
000100 b4 8f 5d 3e 0b 86 07 3f d2 09 1d 40 d3 9a 16 bb
       0.2163685 0.5293891 2.4537244 -0.0022980466
000110 90 82 e8 be 96 fb 78 3f 32 db 05 3f 91 fd b3 3d
       -0.4541211 0.9725889 0.5228759 0.08788598
000120 a8 1a b9 bb 8e db 9e 3f 62 61 bd 3e 30 0a 3d 3f
       -0.0056489296 1.2410753 0.3698836 0.7384367
000130 d4 6c 06 3f 33 e8 0c be 42 15 52 40 a6 37 0d 3f
       0.5250981 -0.13760452 3.2825475 0.5516304
000140 49 98 e9 3f 3d 79 a9 3e c8 8c 03 3f da d1 6c 3e
       1.8249599 0.3310031 0.5138669 0.23126927
000150 da c2 de 3e f6 ca 16 bf ff d2 1d 3e c8 76 5a 3f
       0.43508035 -0.58903444 0.1541252 0.85337496
000160 6a 2f 9d bc 87 b6 22 40 b8 91 2b 3e 77 72 4d 40
       -0.019187648 2.5423906 0.16754806 3.2101114
000170 b2 ab 36 40 e1 1c ff 3e a4 24 a1 3f 6e cd 09 3e
       2.8542295 0.4982672 1.2589307 0.13457271
000180 7a 55 81 3e 2d 34 51 3f d3 e2 c7 3d 6a 25 14 3f
       0.25260526 0.8172024 0.0976006 0.5786959
000190 21 79 9c 3f d0 f5 ee 3e f9 14 2d 3f 6c 5d df 3f
       1.2224466 0.46671915 0.67610127 1.7450385
0001a0 8c f0 40 3f 33 bd 83 3e 09 dd 6f bb c1 e5 0c 3e
       0.75367045 0.25730285 -0.0036600253 0.13759519
0001b0 62 5f 93 3e c5 04 83 3f e5 28 0a 3f 63 e9 22 3f
       0.2878371 1.023583 0.5396865 0.6363737
0001c0 d2 63 11 3e 70 83 77 3f 3b 60 f6 3e cb 48 ac 3f
       0.14198235 0.9668493 0.48120293 1.3459715
0001d0 55 b9 a8 3e 6c 17 ea 3e 82 cc 7d 3f 24 72 34 40
       0.32953897 0.45720994 0.9914018 2.8194666
0001e0 6a 2b b4 bb f3 f7 ad 40 a2 ce 82 3f e1 51 5d 3f
       -0.0054983394 5.4365172 1.0219309 0.8645306
0001f0 79 b4 5d 3f 23 bd 18 40 6e ce 4c 3b 4d bb 19 3f
       0.86603504 2.386544 0.0031250971 0.60051423

transformer.h.0.ln_1.bias f4 [128]
000000 ae 3c be 3e 5b 0b ab bc dd b7 ea 3d c8 6a 4e 3e
       0.3715567 -0.020879438 0.114608504 0.20157921
000010 8a 23 9c 3d 70 7f 10 3b 18 55 0d bd e6 73 08 3e
       0.07623966 0.0022048615 -0.03450498 0.13325462
000020 b9 2a 01 be c6 d7 91 3e 0c 87 2f bd 4e 5f 97 bd
       -0.12613954 0.28484935 -0.0428534 -0.07391225
000030 cc 5e 9d 3e 64 65 58 3d 18 2c c9 3d 7a 59 3f 3d
       0.30736387 0.05283107 0.09822863 0.04671619
000040 31 fa df bb e0 16 2b 3b a7 9c e3 bd ba 40 91 bd
       -0.006835245 0.0026106164 -0.111138634 -0.07092424
000050 ac 6f 38 3e e1 3b cc bc 9e 21 67 be d3 73 0b bd
       0.1801135 -0.024930896 -0.22571418 -0.034046005
000060 b1 0c 80 3e cd 25 43 3b 8b 97 92 bc 31 e9 4b be
       0.25009683 0.002977717 -0.017894527 -0.19913174
000070 b4 3a 86 bd 8c 1c 35 3e 11 70 95 3e 18 8d 33 3a
       -0.065541655 0.17686671 0.29187062 0.0006849333
000080 c7 72 0c bd 00 53 5a 3c d8 19 53 be 4c 46 5b 3e
       -0.034289148 0.013325453 -0.20615327 0.21413535
000090 08 37 bb 3c dc 40 4f 3b 78 37 eb 3c 32 e5 04 3d
       0.02285339 0.0031624353 0.028712973 0.03244514
0000a0 3c 8d b5 bc 96 3f 84 ba 87 de 2c 3f d4 b0 46 3e
       -0.022162072 -0.0010089751 0.6752705 0.19403392
0000b0 a4 63 eb 3d 89 c8 83 be b2 07 f8 3d ab 3d 38 3b
       0.11493614 -0.25738934 0.12110843 0.002811293
0000c0 82 12 8d be 87 b4 63 3d 87 01 a2 3c da 85 af 3c
       -0.27553183 0.055592086 0.019776119 0.02142613
0000d0 5d 26 8b 3d 1d 03 12 be 90 88 44 3f 66 7e cd 3c
       0.067944266 -0.14259 0.7677088 0.025084686
0000e0 48 76 11 b9 0f 99 7f bc ff 9e fc 3c f7 94 c6 3c
       -0.00013872341 -0.015600457 0.030837534 0.024240954
0000f0 87 ad 8d 3c 97 17 98 3c 28 74 bb bc 2f 40 34 3d
       0.017294658 0.018565936 -0.022882536 0.044006523
000100 42 49 49 bd fa 2e e4 bd 49 32 82 3e c9 0f 1a ba
       -0.04914213 -0.111417726 0.2542899 -0.0005876986
000110 32 f5 10 be 1d 7d 9e 3d 43 f9 aa 3d ab 43 95 bb
       -0.14156035 0.07738707 0.08348324 -0.004555186
000120 42 99 c7 bb 0a 76 6e bc c8 17 46 3d 12 14 68 3e
       -0.006091268 -0.01455451 0.048362523 0.22663906
000130 85 27 8e 3c b5 da 8e bc 99 20 c8 3e 92 7a 75 3d
       0.017352829 -0.017438272 0.3908737 0.059931345
000140 c9 98 2a 3e 5e 77 b5 bc cf c9 3f 3e ce 51 5e 3d
       0.16659845 -0.022151645 0.18729328 0.054277234
000150 61 21 57 3d df ad 0f 3d c7 78 66 bb ad 97 4c 3e
       0.052522067 0.035077926 -0.0035167204 0.19979735
000160 d5 73 9f 3b 52 08 0d 3d 2e 56 bb 3c 58 af 01 bc
       0.004866103 0.034431763 0.022868242 -0.00791534
000170 ca 94 91 be bf ef 80 3d 63 cf 23 3e b1 0a 92 3c
       -0.2843383 0.06295728 0.1599708 0.017827364
000180 5c da cc 3a 68 93 58 3d e7 19 eb 39 79 18 31 3d
       0.0015629041 0.052874953 0.00044841992 0.04323623
000190 66 5f 8b be 94 bd 10 3e 8c 7c b5 bd 5a fa 5a 3d
       -0.2722122 0.14134818 -0.08861646 0.05346141
0001a0 2e dc 75 3b d3 cc a1 3d da b0 d2 bb ac 66 42 ba
       0.003751527 0.07900395 -0.0064297738 -0.0007415812
0001b0 2d 6c 9d 3b 56 41 55 bd 54 3e d6 3d a2 30 0a 3e
       0.0048041553 -0.052064262 0.10461107 0.13495114
0001c0 5c d2 c9 3c 7c 36 89 be 1f 6f c0 bd 9c 44 55 3e
       0.02463644 -0.2679938 -0.09396195 0.20826954
0001d0 05 e5 23 3d 48 4f 01 be 6e 84 f1 3d d5 0d 7b 3c
       0.040013332 -0.126279 0.11792837 0.015323122
0001e0 9e ba 27 bb 44 3e 12 3f cf e2 d4 3d 61 eb 28 bd
       -0.002559341 0.5712626 0.10394823 -0.0412401
0001f0 c7 61 26 3e 54 a1 be 3e 8e ea 83 bb 3d 62 df 3d
       0.16248237 0.3723246 -0.004025764 0.10907409

transformer.h.0.attn.c_attn.weight f4 [384, 128]
000000 90 7e c0 bc ca 26 1c 3c 1f e5 8c bc 37 64 ec bc
       -0.02349785 0.009530732 -0.017199097 -0.02885638
000010 52 14 7d 3c 28 12 5f bb 43 3e ee bb 67 08 08 bd
       0.015446739 -0.0034037922 -0.007270606 -0.033211138
000020 f6 3c 0d 3d 13 7b b3 bc b2 e9 0d 3c 52 21 23 3d
       0.034481965 -0.021909272 0.008661674 0.0398267
000030 33 1a c6 3a 61 cb eb bb cf 97 0b bc d7 7e e7 3b
       0.0015114009 -0.0071958755 -0.008520081 0.007064681
000040 66 41 31 3b 38 81 7d 3a 20 ed a5 bb f7 36 f2 3c
       0.0027047037 0.0009670439 -0.005063668 0.029567225
000050 55 17 93 bd c6 7b 66 bc 4f 74 91 3b 93 65 11 bd
       -0.071821846 -0.014067596 0.004438914 -0.03549726
000060 84 4f 4e bd 7a 4a ae bc f2 7e dc 3c b0 5b 18 3d
       -0.0503688 -0.021275748 0.026916001 0.037196815
000070 31 ef 36 bd e9 5b de bc b5 fe c6 bb de be db 3c
       -0.044661704 -0.027143436 -0.006072844 0.026824411
000080 88 5b 5a bd 4d 01 d2 bc 50 96 1e ba 5f 4f 1c bc
       -0.053309947 -0.025635386 -0.000604962 -0.009540408
000090 99 0e b1 3c 62 c0 28 3c a4 fd 6a b9 e3 13 a1 3b
       0.021613406 0.010299774 -0.00022410467 0.0049157008
0000a0 4d 1b ab 3b 93 ca 91 3b 9e 44 43 3d 23 cb 4e bc
       0.0052217604 0.0044491976 0.04767286 -0.012621674
0000b0 66 d2 af bc 0e 55 86 3d e3 26 4f bd 00 ad b5 bc
       -0.02146263 0.06559192 -0.050574195 -0.02217722
0000c0 89 bf 67 3c ee 2f 31 bc fb 27 9b bc d6 90 d9 bc
       0.014144787 -0.01081465 -0.018939963 -0.026558321
0000d0 c9 25 b3 bc 4a fb 1e bc 37 61 c9 bd 47 b3 fc bc
       -0.021868603 -0.009703467 -0.098329954 -0.030847205
0000e0 f6 4a 19 3c b2 2c 10 3d da 90 01 3c 7f 9a ad 3c
       0.009356251 0.035198875 0.00790807 0.021191834
0000f0 2e 3e 9e bc 4a 28 0f bc 9c ff 24 3d 93 39 eb 3c
       -0.019316759 -0.008737633 0.04028283 0.028713977
000100 af 38 53 3c 0d d8 7a 3c 78 99 37 bc f8 70 27 bc
       0.012891932 0.0153103 -0.011206023 -0.010219805
000110 3b 07 57 3c 08 4f 15 bd 4e b6 7c bc 25 b5 8d bc
       0.0131242825 -0.036452323 -0.015424324 -0.01729829
000120 2f 6a 38 3b d1 5e 25 3d d9 18 3e 3c e8 50 41 3c
       0.0028139462 0.040373627 0.011602604 0.011799075
000130 c2 58 ce 3c e5 cb 14 3c 1f ef 1c bd 33 89 35 3d
       0.025188807 0.009081815 -0.03831398 0.044320296
000140 a3 a5 b3 3c e5 02 5a bd 89 40 4a bd 28 7c 1e bd
       0.021929568 -0.053225417 -0.04937795 -0.038692623
000150 6c fd 2c bd e5 d7 7c bb 11 e5 23 3d 60 cd 99 bc
       -0.04223387 -0.0038580832 0.040013377 -0.018774688
000160 c7 e3 31 3b 9f 6b ab bc 6f e1 9c bb 89 20 6a bb
       0.0027143823 -0.020925341 -0.004787616 -0.003572496
000170 84 e5 9a 3c b8 31 ea bc 4c 33 3c bc 7f 38 5b bc
       0.01890827 -0.02858816 -0.0114868395 -0.013380169
000180 14 3d f3 3a 17 e4 1b 3d 17 1d 03 bc ba 17 07 3d
       0.0018557631 0.03805932 -0.008002541 0.03298161
000190 e9 de 10 3d 06 5d a8 bc ce 79 09 bd eb 78 70 3b
       0.035368834 -0.02055217 -0.033563428 0.0036693166
0001a0 10 16 14 bd 3a 19 bb 3b 31 f9 90 3b b4 ff 9b 3c
       -0.036153853 0.0057097943 0.004424237 0.019042827
0001b0 51 8a 24 3d da 68 9d bc f1 34 f2 3c 24 c1 06 3d
       0.04017097 -0.019215036 0.02956626 0.032899037
0001c0 d1 1f 3e bc fb e1 d4 3b 0d 09 ae bc 83 d4 02 3d
       -0.011604265 0.0064966655 -0.02124455 0.03194095
0001d0 48 14 b5 bd 99 ed 60 3d 90 0e 0a 3d 2a cd 03 3c
       -0.08841759 0.05491409 0.033705294 0.00804452
0001e0 56 e7 bb bc c9 db f4 3c e2 d4 01 bd 94 b2 e7 3b
       -0.022937458 0.029889958 -0.03169716 0.0070708487
0001f0 a7 1e d1 bb 9b d9 39 bd f1 da 80 3c ff 84 ab 3c
       -0.006381828 -0.04537354 0.0157294 0.02093744
000200 b8 62 3c 3c 81 67 a9 3c 55 0d fd 3c 1f a3 15 3c
       0.011498146 0.020679237 0.030890146 0.009133129
000210 b4 fb 09 bc aa 25 85 3a 9e 81 cf bc d1 cf a6 3b
       -0.008421827 0.001015832 -0.025330361 0.0050906916
000220 55 fd 0c bd 41 36 2c 3c 8e bd 71 3c b2 ff 27 bd
       -0.034421284 0.010510982 0.014754666 -0.041015334
000230 f2 d4 84 bc 85 17 0b bc 4a ea b3 3c bb 46 b2 3b
       -0.016214821 -0.008489494 0.021962304 0.0054405606
000240 39 58 26 ba 51 72 0e 3b 5b f0 d7 3c b8 83 bf bd
       -0.00063455437 0.0021735618 0.026359728 -0.09351295
000250 b0 21 ec 3c a0 95 08 bb b3 ef e3 3c 96 68 0a 3d
       0.028824657 -0.0020841137 0.027824258 0.033791147
000260 8a fd 36 3d 80 f2 a8 3c 51 21 14 3c fd 7c 43 bd
       0.044675387 0.020623446 0.009041146 -0.04772662
000270 1f 65 3b 3c 1e 56 e5 3b 9d 47 3c bc 0e 52 f3 bb
       0.011437683 0.0069987914 -0.011491683 -0.007425553
000280 c3 18 a6 3c b4 87 6d 3c 65 d7 d8 bb f9 b5 dc 3b
       0.02027548 0.014497686 -0.006617474 0.00673556
000290 0d 1e 17 3c bd d8 70 ba f9 ca c8 3c 01 b8 8f bc
       0.009223473 -0.000918757 0.024510847 -0.017543795
0002a0 40 06 8d bc 14 4f d5 bb 48 61 26 bc 01 aa dc bb
       -0.017214894 -0.006509671 -0.01015503 -0.006734133
0002b0 cd 0e ce 3b e0 5c 8f bd 7b 14 9c 3c 51 27 42 3c
       0.0062883855 -0.070001364 0.019052735 0.011850194
0002c0 55 dc 09 3c 8e 8d 3c bc 0e 87 7b 3c 4d 56 0b 3d
       0.008414348 -0.011508359 0.015352024 0.03401785
0002d0 3f 22 96 3c c8 00 96 3c 11 e7 7f 3d 73 95 b9 3b
       0.018326877 0.01831092 0.06247622 0.0056635677
0002e0 7f 47 e9 bb 67 1b dd 3b f1 19 22 3c 4a 05 f2 bc
       -0.0071191187 0.0067476514 0.00989388 -0.029543538
0002f0 48 b2 8a 3c 0d 5a 2d 3c a8 14 84 3a a8 55 2b bd
       0.016930714 0.010580552 0.0010076957 -0.041829735
000300 44 e5 1f bd 5a 30 83 3c 9b 46 4e 3c ea c6 18 3c
       -0.039037004 0.016014267 0.012590076 0.009324769
000310 de e1 b4 bb 66 e7 a3 3c 0e b9 b3 3c 7c 45 43 bb
       -0.0055200895 0.0200078 0.021938827 -0.0029796055
000320 50 c1 ba bb 3a 75 88 bc 94 1a d3 bc 17 69 ae bc
       -0.005699314 -0.01665746 -0.02576951 -0.021290345
000330 58 58 b2 b6 12 c8 4e bc 18 fc 33 3b fa 08 1d bd
       -5.315098e-06 -0.012620943 0.0027463492 -0.03833864
000340 57 7d 32 bc 3b 5e 2f 3d 7c b5 bf 3d 32 e7 1e 3c
       -0.010894141 0.042814475 0.09360787 0.009698676
000350 9b 1c dd 3b 9f 2b 61 bb a0 e3 1e bd 04 a6 f6 3c
       0.006747795 -0.0034358276 -0.0387913 0.03010846
000360 3a 2b a6 3b 43 48 a5 3d 97 13 41 3c c9 fe bb 3b
       0.005071071 0.080704235 0.011784456 0.00573716
000370 47 3e 36 bc 1c f8 ad 3c 12 2c 87 ba 2e f5 5d 3c
       -0.0111232465 0.021236472 -0.0010312817 0.013547225
000380 13 8d 0c 3d 96 0b ef bc ea 60 95 ba 62 20 9a bb
       0.034314226 -0.02918033 -0.001139668 -0.0047035674
000390 11 5e 83 3a 73 9b 2c 3c b8 15 7e bb 7d f6 4e 3c
       0.0010022541 0.010535109 -0.003877027 0.01263201
0003a0 5e c3 b4 3c c0 84 91 3c fa 16 00 3c e3 1e 29 3c
       0.022065815 0.017763495 0.007817978 0.010322305
0003b0 7b 52 2a bd 30 18 f9 3c 8c a3 ca bc ad 93 ac bc
       -0.041582566 0.030407041 -0.024736188 -0.021066511
0003c0 41 e8 4b 3c 91 04 0b bb bf e0 4c bb ec 54 39 bc
       0.01244551 -0.0021212439 -0.0031261889 -0.011311751
0003d0 45 39 8f 3d 5d 6b 6f bd 0c 36 dd bc 83 3d a1 bb
       0.06993345 -0.058452 -0.02700331 -0.004920663
0003e0 38 c6 5b 3c 68 e8 c3 bb 79 d0 88 3c bc fc 5b 3c
       0.013413958 -0.0059786327 0.01670097 0.013426956
0003f0 09 2f 00 bc fa 8a 8c bb 79 6e 0e bc 5e 50 b1 3c
       -0.007823714 -0.0042890282 -0.008693331 0.021644767

transformer.h.0.attn.c_attn.bias f4 [384]
000000 c6 9d 8e bf ec 46 18 3f 6c 85 cd 3e 31 c6 3c 3f
       -1.1141899 0.5948322 0.40140855 0.73739916
000010 47 ee 30 bd b0 8a 6f bf ad de 4d bf 13 7d 28 bf
       -0.04319599 -0.93570995 -0.804179 -0.6581585
000020 59 c5 0e bf 57 b5 19 bf ad fd f6 3e 65 a5 2a bf
       -0.5576988 -0.6004233 0.48240414 -0.6665862
000030 af 24 2e bf a3 94 b8 be b1 c3 62 3f 5c e5 f5 3e
       -0.68024725 -0.360509 0.8857985 0.4802655
000040 88 c8 85 3f 83 06 50 3f fa 5f 4e 3f 9f 72 3b 3f
       1.0451822 0.81259936 0.806152 0.7322177
000050 3a e1 22 3f cd 7e 10 3f a5 60 48 bf f8 dd d2 be
       0.6362492 0.5644348 -0.7827247 -0.41184974
000060 fe 57 a4 bd c7 a3 49 bf 7b 66 46 3f 86 a9 92 be
       -0.08024596 -0.7876553 0.7750012 -0.2864496
000070 cd 9f 87 3f fa 31 09 bf a6 3f 6e bf 13 cd 8d 3f
       1.0595642 -0.53591883 -0.9306587 1.1078209
000080 4b bb 4c 3f 3f 6c 94 3f 37 92 53 bf 30 10 6b 3f
       0.79973286 1.1595534 -0.8264498 0.91821575
000090 64 26 a3 3f c4 7d 12 bf ed 48 5b bf 37 42 8e 3f
       1.2746091 -0.57223153 -0.8565815 1.1113957
0000a0 d1 5e 84 bf 0c 7c 2d 3f 87 0e 45 bf 60 99 70 3f
       -1.0341436 0.67767406 -0.7697529 0.9398403
0000b0 45 4d 89 3f d1 67 57 3e 99 55 1e be 9a 1e f9 be
       1.0726706 0.21035697 -0.1546234 -0.4865616
0000c0 96 b2 dc be 39 f0 95 3f a0 33 14 bf ab 72 98 3f
       -0.43105 1.1713935 -0.57891273 1.1909994
0000d0 3a a1 4a be ce 67 c2 3d f7 a7 f5 bd 3d ca 5c 3f
       -0.19788066 0.094924554 -0.119949274 0.8624609
0000e0 05 78 8a bf 22 be 44 3e 12 68 02 3f 16 5b 94 3f
       -1.0817877 0.19213155 0.5094005 1.1590297
0000f0 52 37 4c bf 6c 91 5e 3f d6 54 99 3f 2d 51 44 be
       -0.7977191 0.86940646 1.1979015 -0.19171591
000100 87 6b 91 3f 1b 95 9b be c2 14 0a bf 77 9b 62 bf
       1.136094 -0.30387196 -0.53937924 -0.8851847
000110 19 d8 ba 3f 64 45 8f 3f 27 20 a3 be 8b 3b e9 be
       1.4597198 1.1193051 -0.31860468 -0.4555324
000120 4e f3 59 bd ff 6c 27 bf 4d e0 29 bf 92 db bb 3f
       -0.05321055 -0.6540069 -0.6635788 1.4676383
000130 dd e9 81 bf b8 54 bc 3f 4a c2 bc 3f 9b b9 1f bd
       -1.0149494 1.4713354 1.4746792 -0.038995367
000140 2d 5b 57 be 54 e7 55 bf f4 01 97 3f a0 b4 0d 3e
       -0.21030875 -0.83556104 1.1797471 0.13838434
000150 63 6b 2e bf 61 cc 08 3f dd 2a 82 3f 37 43 c2 3e
       -0.6813261 0.5343686 1.0169331 0.37941906
000160 9a c8 8c bf 16 1e e3 3d d4 4a 2a 3e 5b 8b 81 be
       -1.0998719 0.11089723 0.16630107 -0.25301632
000170 d1 15 0f be 9a 18 02 be 3a 23 d4 3e 8f 79 37 be
       -0.13973166 -0.12704697 0.41433126 -0.17917465
000180 d3 c0 18 c0 2d 98 25 c0 20 e8 0e c0 4c 89 27 c0
       -2.386769 -2.587413 -2.2329178 -2.617755
000190 c7 31 de 3f 4a 83 1a 40 4e 85 28 c0 27 67 db bf
       1.7358941 2.4142632 -2.6331363 -1.7140855
0001a0 88 b7 2d c0 f3 10 09 c0 cb dd 55 3f 65 c6 12 c0
       -2.7143269 -2.1416595 0.83541554 -2.293359
0001b0 cb 0c b4 3f c5 50 05 40 dd c9 e9 3f cf 27 29 c0
       1.4066404 2.0830548 1.8264729 -2.6430547
0001c0 27 37 ad 3f 49 db 1f c0 7d 1b 15 40 69 85 bf be
       1.3532456 -2.497759 2.3298028 -0.3740647
0001d0 de 2c bb bf f6 f1 2a 40 5a 3c f7 3f 48 92 24 40
       -1.4623067 2.6710181 1.9315293 2.5714283
0001e0 56 62 6a 3f a2 eb 18 c0 65 2c 28 c0 76 c7 f2 3f
       0.915563 -2.389382 -2.6277096 1.8967121
0001f0 cb c9 1f 40 6c ef ee 3e aa 95 11 40 19 f3 26 40
       2.4966915 0.4666704 2.2747598 2.6085875
000200 a6 8f 9d c0 1b 2b 68 40 4b fd 7d 3f cc 1b aa 3f
       -4.923785 3.627631 0.9921462 1.3289733
000210 9b 1f 42 c0 ca bb b2 c0 af d7 8d bf b3 29 88 c0
       -3.033179 -5.5854235 -1.1081446 -4.25509
000220 65 c3 57 c0 7f 9c 02 c0 2d 43 5c 40 bf 3c 3a c0
       -3.371301 -2.0408018 3.4416 -2.9099576
000230 45 52 65 c0 51 0c 5a c0 8a 21 4d 40 36 84 92 3f
       -3.5831463 -3.4070017 3.205172 1.1446598
000240 8d 87 73 40 04 d4 a8 40 b3 82 01 40 98 39 bf 3f
       3.8051484 5.275881 2.0236022 1.4939451
000250 5c e1 9d 40 22 33 12 40 f4 98 27 c0 ba 98 fc bf
       4.9337597 2.284371 -2.6187105 -1.9734108
000260 66 07 61 c0 a4 e1 5f c0 9c 52 f0 3f 7f 16 5a c0
       -3.5160766 -3.498147 1.877521 -3.407623
000270 15 31 95 40 1a 39 49 c0 63 30 75 c0 97 25 8f 40
       4.6622415 -3.1441102 -3.8310783 4.4733386
000280 18 97 cd 40 1e 79 f9 40 92 e3 1f bf 06 36 69 40
       6.424694 7.796035 -0.6245662 3.6439223
000290 1c 34 36 40 57 c9 ab c0 6c 97 9e bf d4 81 31 40
       2.8469305 -5.3683276 -1.238996 2.773549
0002a0 18 db a0 c0 0e 96 94 40 77 2b cc c0 ec 38 cb 40
       -5.026745 4.643317 -6.380306 6.3506985
0002b0 e8 91 9d 40 83 80 93 40 55 0f 02 40 16 c1 49 c0
       4.924061 4.6094375 2.0321858 -3.15241
0002c0 02 4d 89 c0 1b 2d b4 40 6c d2 0a 3e 68 f8 ce 40
       -4.2906504 5.630506 0.13556832 6.467823
0002d0 35 d6 19 c0 fb 9d b5 bf bc e6 57 3f 92 be cd 40
       -2.4036992 -1.4188837 0.8433645 6.429513
0002e0 30 f0 8e c0 79 a7 82 40 e2 d4 bc 40 bd 6d e8 40
       -4.46682 4.0829434 5.9009867 7.263396
0002f0 ff 03 c5 c0 1f f3 ce 40 fa 8b df 40 b0 60 57 40
       -6.156738 6.467178 6.985837 3.3652763
000300 9e 05 b4 40 0e a6 11 c0 9f 7d 68 c0 35 f8 8f c0
       5.6256857 -2.2757602 -3.6326673 -4.4990487
000310 43 df 0a 41 68 93 80 40 d9 11 35 c0 6b 47 31 c0
       8.679507 4.017994 -2.8292143 -2.769984
000320 83 a9 9a be 2c 9a 71 c0 4e df ef bf fb da 09 41
       -0.30207452 -3.775035 -1.8740022 8.615962
000330 c3 d4 9a c0 20 20 07 41 1b fb 05 41 f7 a9 ae 3f
       -4.838472 8.445343 8.373805 1.3645619
000340 9b b9 cc bd d3 ce 97 c0 34 c2 ba 40 a1 4d 05 3f
       -0.09996339 -4.743997 5.8362064 0.5207158
000350 45 a2 5f c0 6e 84 0f 40 d2 d1 a1 40 af 79 04 3f
       -3.4942791 2.2424579 5.056863 0.51748174
000360 a8 db 7d c0 13 b3 b8 3e ad f4 5d be 9b 96 48 bf
       -3.9665318 0.36074123 -0.21675368 -0.78354806
000370 87 fa e8 bf b7 d0 7d bf b4 8b b4 3f 66 d7 c9 bf
       -1.8201455 -0.991466 1.4105134 -1.5768859
000380 52 42 d8 c0 d8 fd 03 c1 15 90 06 c1 a2 b7 07 c1
       -6.7580957 -8.249474 -8.410176 -8.482332
000390 09 5b a8 40 19 12 f1 40 e0 9c 08 c1 1f f3 a3 c0
       5.2611127 7.533459 -8.5383 -5.123428
0003a0 17 b1 13 c1 c6 38 d0 c0 13 68 e2 3f 4c f5 cd c0
       -9.230735 -6.5069304 1.7688011 -6.4361935
0003b0 d3 67 bc 40 bf a1 c5 40 b5 55 88 40 1b 04 07 c1
       5.887674 6.1759944 4.2604623 -8.438502
0003c0 d1 fd 1b 40 e3 bb 0e c1 42 ed 0a 41 e8 00 18 be
       2.4373667 -8.920871 8.682924 -0.14844096
0003d0 1c ea 68 c0 18 2b 12 41 31 b0 fe 40 65 43 05 41
       -3.639289 9.135521 7.9590077 8.328954
0003e0 e4 00 2d 40 9d 6e 0b c1 f1 f3 07 c1 63 b0 a2 40
       2.7031794 -8.714505 -8.497056 5.0840316
0003f0 d7 2c fe 40 95 c5 19 be b6 c5 00 41 0e 55 06 41
       7.9429736 -0.15016778 8.048269 8.395765

transformer.h.0.attn.c_proj.weight f4 [128, 128]
000000 c5 64 92 ba f2 c9 a9 3b 24 b8 42 bb 57 d9 76 bc
       -0.0011168948 0.0051815445 -0.0029711807 -0.015066466
000010 9f 4b 66 3c 02 cc 7f 3c 9b b3 09 3d aa c0 61 3c
       0.014056115 0.015612604 0.03361855 0.013778845
000020 53 ed e8 bc 82 72 fb 38 45 2a d4 bb 1f 1a 1c 3c
       -0.028433478 0.000119899414 -0.0064747655 0.009527712
000030 5c f0 29 bc df eb c4 3c 7d 08 82 3c 84 c2 de bb
       -0.010372248 0.024038253 0.015873188 -0.0067980904
000040 b2 06 f6 3b e0 6d 29 ba 48 44 9d 3b d7 c4 a6 3b
       0.0075081224 -0.0006463211 0.0047993995 0.005089383
000050 64 22 32 ba 86 f3 73 3b 73 b6 03 bc a3 fa 6c bc
       -0.0006795286 0.0037224009 -0.008039105 -0.014464053
000060 82 42 1e 3d 8f a1 2f bd fe 35 37 bc 14 a5 29 bb
       0.038637646 -0.042878684 -0.011182306 -0.0025885748
000070 a8 d7 f2 3a c6 86 0a 3c 33 8f d6 3a dd 49 17 39
       0.0018527405 0.008454984 0.0016369581 0.00014427998
000080 6c be 28 bc 8b 49 eb 3b 1e db be 3c e1 78 97 bc
       -0.010299306 0.007180398 0.023297843 -0.018490257
000090 c4 7a 28 bc e4 3c c8 bc 52 ca 5a bd f5 48 b3 bb
       -0.010283176 -0.024443097 -0.053415604 -0.0054713436
0000a0 43 f0 7c bb 67 e3 64 3c 7d 75 93 bb a3 21 d2 ba
       -0.0038595356 0.013970233 -0.0045000897 -0.0016031753
0000b0 e5 97 2e bc 8d 5e ab bb da ca ad 3b fb 28 bb 3b
       -0.010656332 -0.005229777 0.005303723 0.0057116724
0000c0 0d 57 36 3d dd d3 37 b9 ab ae 53 bc 59 10 b4 3a
       0.04451661 -0.00017531165 -0.012920062 0.0013737782
0000d0 e4 67 b0 3b 68 b1 f2 3c c5 1e 82 3b d9 11 0a 3c
       0.0053834785 0.02962561 0.003970953 0.008427107
0000e0 5a d6 15 3c 2f 77 d3 3c 50 3a 0f 3b 49 a5 0e 3a
       0.009145344 0.025813667 0.0021854825 0.00054414995
0000f0 8c 91 d3 39 01 e2 72 bb 5e 7d 2a ba e9 f4 d6 3b
       0.00040353497 -0.0037060978 -0.00065036665 0.0065599573
000100 b6 51 10 bd 11 60 e8 3b d9 d7 50 bc 0c ae 65 3c
       -0.035234176 0.00709153 -0.012746775 0.014018547
000110 76 76 7b bc af 28 d7 3a d5 46 8c bb 5e 37 90 3b
       -0.0153480675 0.0016415323 -0.004280905 0.0044011315
000120 6f 5d 54 3c f3 3e 00 bc ef 2b ca bb c7 4f 1e bc
       0.012961729 -0.007827508 -0.006169788 -0.009662575
000130 ba 45 57 3b d1 c1 13 bb f0 43 16 3c 4e dc 85 3c
       0.0032847957 -0.0022545944 0.009171471 0.016340401
000140 e3 63 64 3c 3a 55 56 bc 0e 3a 5e 3c eb d7 0b bb
       0.0139398305 -0.013081843 0.013563646 -0.0021338414
000150 0a f7 83 39 1a 91 80 3d 74 c6 17 3d 9b 38 1b bc
       0.00025170326 0.06277676 0.037054494 -0.009473945
000160 93 6c 3f bc 7c 02 27 bb e5 81 20 3c f1 e3 93 3b
       -0.011683601 -0.0025483659 0.009796594 0.0045132567
000170 d9 31 dd bb 9f 76 45 3d 4e 23 cc b9 a4 29 ab bb
       -0.006750327 0.04820883 -0.00038936216 -0.00522347
000180 a1 d1 7a bb 10 05 80 ba c4 ed 2c bb 6f 73 70 bc
       -0.0038271921 -0.0009767134 -0.0026386837 -0.014675959
000190 6b d7 80 bb aa c9 46 bc 22 1f bd bb 7e 7a c8 3b
       -0.00393193 -0.012133041 -0.0057715336 0.006118118
0001a0 21 7c 3d bc a6 2b ee 3a 5b 4f 84 b9 97 65 49 3b
       -0.011565239 0.0018170967 -0.00025236126 0.0030730718
0001b0 48 a1 92 3a ab da b9 bb 85 c1 f5 ba fa f3 67 bb
       0.0011186982 -0.005671819 -0.001874969 -0.0035393224
0001c0 49 55 7a b9 03 c6 11 bc 72 e6 b4 bb 2c d7 2f ba
       -0.00023873629 -0.008897307 -0.0055206353 -0.00067077833
0001d0 ea ec 94 bb 72 9e 17 3c 30 64 ab bb 76 b2 a6 3b
       -0.004544844 0.009254085 -0.005230449 0.005087192
0001e0 8e b0 01 bc 9f ed 9f 3c 63 5e d0 bc 1f 75 9a bb
       -0.007915629 0.019522486 -0.025435632 -0.004713669
0001f0 67 6f 63 3b 34 b0 04 bd 5a 18 cf bb dd 36 03 3a
       0.0034703852 -0.032394603 -0.0063200416 0.00050054287
000200 e2 e6 70 ba 42 96 f4 3c ae f8 0a 39 3c f7 fa 3c
       -0.00091896777 0.029856805 0.00013253346 0.030635469
000210 cc 2b c8 3c d1 24 cd 3c ac 52 a1 3d ce ca f0 bc
       0.024434946 0.02504197 0.078770965 -0.02939358
000220 ea dc 82 bc 65 62 52 ba bf d3 dc 3b e5 26 bd 3b
       -0.01597448 -0.0008025526 0.0067391093 0.005772459
000230 93 f4 bd bb 46 39 11 3d 8d 22 2c 3c c3 74 8e 3c
       -0.005796978 0.03545501 0.010506284 0.01738966
000240 30 b9 bf bc 90 56 a6 ba a4 c4 c3 bb 33 46 b2 3c
       -0.023403734 -0.0012690593 -0.005974369 0.02176199
000250 22 6a 3d ba 58 51 69 b8 63 a3 9f bb 1a a7 f4 ba
       -0.0007225593 -5.5627286e-05 -0.004871772 -0.0018665523
000260 1c a4 91 3c ae 55 45 3c e2 4f 20 3d 26 a9 49 b8
       0.017778449 0.012044353 0.039138682 -4.8079666e-05
000270 fa 2e c4 3b a4 4c 19 bb f3 7e af bb da 1e d0 3c
       0.0059870454 -0.0023391629 -0.0053557097 0.025405336
000280 2a 2b c3 bb 28 93 86 bb 47 22 b6 bb bb 11 d5 3c
       -0.0059560733 -0.004106898 -0.0055582854 0.026009431
000290 96 e2 ee bb f7 c6 06 3d 83 a1 37 bc 3d ea 83 bb
       -0.0072901947 0.03290459 -0.011207941 -0.004025726
0002a0 a0 72 ee bb 09 4a 50 3d ae 37 cc 3a 7c 53 0e b9
       -0.007276848 0.050851855 0.0015580559 -0.00013573276
0002b0 68 c9 57 3d 27 05 1a 3c b4 8d 94 b8 56 fe ee bb
       0.05268231 0.0094006425 -7.083584e-05 -0.007293503
0002c0 05 ff 27 3d 2d 34 44 3c 00 dc 01 3c c0 8f 20 bb
       0.04101469 0.01197533 0.007925987 -0.0024499744
0002d0 5f 07 88 3b 13 8a cc bb 47 88 94 3b 5f 6c 35 bb
       0.0041512693 -0.0062420457 0.004532847 -0.0027683002
0002e0 0d fd 14 bb 75 19 a6 bb 6c c9 38 bb 87 26 8c bb
       -0.0022733838 -0.0050689527 -0.0028196229 -0.0042770538
0002f0 07 4e b4 bb f3 0a 98 3b a8 9c 43 bb e7 e4 24 bc
       -0.0055024656 0.004639977 -0.0029848013 -0.01006434
000300 72 41 17 bc 24 79 10 bc f5 f7 0e 3c d3 c2 9b 3b
       -0.009231912 -0.008817945 0.00872611 0.0047534495
000310 2a 59 08 bc 72 a9 29 3d c3 9d bf 3b 7e af 9b ba
       -0.00832204 0.04142136 0.005847664 -0.0011877862
000320 7b 14 1f 3c 2e e4 4d 38 6f 70 0d 3c 7d d1 01 bc
       0.009709473 4.9088318e-05 0.008632763 -0.007923481
000330 26 82 e1 b9 8f 00 1f bd ec 8c d2 3a 6f f6 56 bb
       -0.00043012312 -0.038818892 0.0016063727 -0.0032800694
000340 e6 57 48 3b 77 05 50 bd c3 1c 5d 3d 26 60 ec 3b
       0.003056997 -0.05078646 0.053982507 0.00721361
000350 56 ff 47 3c b1 9d 38 3c cf 56 20 ba 8f 54 b3 bb
       0.012206873 0.011268065 -0.0006116451 -0.0054727267
000360 be 00 01 3d 8e 75 d2 ba 54 b5 53 3c 90 5f 90 bb
       0.03149485 -0.0016056763 0.01292165 -0.004405923
000370 1f 70 d3 39 bc 5f 1a bc 2c c6 a5 3a f0 cc e6 ba
       0.00040328593 -0.009422239 0.0012647561 -0.0017608684
000380 7d 75 0c bc b7 2e 72 bc 09 2c ba 3c b4 f1 b1 3b
       -0.008572933 -0.0147816455 0.022726076 0.0054304246
000390 27 1e 41 bc a1 89 8c ba 84 ab fd 38 d8 6a 3d bb
       -0.011786974 -0.0010722169 0.000120959274 -0.0028902795
0003a0 53 e0 a1 bb 58 7f bc ba 8d 10 85 3b da 08 c7 3c
       -0.0049400716 -0.0014381213 0.004060811 0.024296213
0003b0 16 01 6b bb cb 60 ae 3b 1a a4 a6 bb 2b ad ff 3b
       -0.0035858802 0.005321597 -0.0050854804 0.0078026257
0003c0 ef df 29 3b 2c ca 9f 3b d3 eb 5e bc d6 f3 39 3c
       0.0025920828 0.0048763957 -0.01360603 0.011349639
0003d0 a4 0e ba 3a 77 a0 c9 bb c4 0e a8 3b 70 bb 50 ba
       0.0014195037 -0.006153162 0.0051287133 -0.00079625007
0003e0 58 8b 31 3c 3f a3 0d 3b b1 5c 23 bc 72 b9 5e 3c
       0.010836445 0.0021612195 -0.00997083 0.013594018
0003f0 c8 1d 83 3a 26 ab 00 3d d4 85 de bb 0c 64 53 bb
       0.0010003382 0.03141322 -0.006790856 -0.0032255678

transformer.h.0.attn.c_proj.bias f4 [128]
000000 d6 55 d0 3c 7e f7 29 3c 04 27 19 3c a2 8b 68 bc
       0.025431555 0.010373948 0.009347681 -0.014193447
000010 24 c6 7e bc 56 7b 05 3a c2 16 c0 3c 88 7b 41 bc
       -0.01555017 0.0005091926 0.023448352 -0.011809237
000020 d8 f2 45 3b cd d5 b0 3b c1 43 8b 3c 4e 11 03 3c
       0.003020456 0.005396581 0.017000081 0.007999731
000030 11 b9 3c ba 72 70 3f bc 19 39 59 bd 3e e1 62 bd
       -0.0007199208 -0.011684524 -0.05303297 -0.05539059
000040 16 69 55 3c a0 d8 00 3c 95 b4 0e bc 19 cf 71 3c
       0.013025543 0.007864147 -0.008710046 0.014758849
000050 35 75 94 bb 5e e5 a7 3b 71 2e 08 3c 44 9b 27 3c
       -0.0045305737 0.0051237782 0.008311854 0.010229889
000060 3f 64 85 3c ec e5 12 bc 1f d8 aa bc 4e 4d 55 3c
       0.016283153 -0.00896595 -0.020855008 0.013018919
000070 93 f8 36 bb 9d cc 8b bc f9 9d df 3b f9 21 d4 3b
       -0.0027919158 -0.01706534 0.0068242517 0.0064737764
000080 10 05 c5 bb b7 7c 93 3b fa f7 b9 3b 77 e2 d0 3b
       -0.0060125664 0.004500951 0.005675313 0.006374653
000090 81 f9 c9 3c 05 2f 80 3b 0a 6b 09 bb a3 a1 8f 3c
       0.024655106 0.003911855 -0.0020968341 0.01753313
0000a0 82 0a cc bb 07 ff e2 bc f3 a8 a0 3c 0b 05 fe 3b
       -0.0062268386 -0.027709497 0.019611811 0.007752066
0000b0 32 53 7f bb ce f6 d1 3c d2 c4 bb bc 64 a2 ed 3c
       -0.00389595 0.025630381 -0.022921 0.029008098
0000c0 9c ae e3 3b f6 98 e8 ba b1 e5 7a bc 7d e3 cf 3c
       0.0069483053 -0.0017745781 -0.015313552 0.02537703
0000d0 f3 01 40 bc a5 88 25 bc 21 cc 95 bb 30 63 40 bc
       -0.011719215 -0.010103379 -0.004571453 -0.011742398
0000e0 9d 59 91 ba e4 29 8b bc b9 6b 9b 3b 9c b8 82 3c
       -0.0011089329 -0.016987748 0.004743066 0.01595717
0000f0 a9 a3 b6 ba 9d c1 a1 b8 aa 5d f7 3c 8b d6 ed 3a
       -0.0013934273 -7.7131415e-05 0.03019603 0.0018145604
000100 a5 47 a2 3b ea 5b b4 3c 89 c3 d2 bc fe 57 aa bb
       0.0049523883 0.022016484 -0.025728004 -0.005198478
000110 02 a0 27 3b 9f 13 98 bb ff f9 0a bd b4 2e 35 bd
       0.002557755 -0.004641011 -0.03392982 -0.044233993
000120 ec 52 45 3c b2 64 9b 3c 48 a0 a8 3b 98 51 a4 bb
       0.012043696 0.018968914 0.00514606 -0.0050146095
000130 9c 39 bd bb ab e7 06 bb 58 39 a9 bc 21 ac 8e bc
       -0.00577469 -0.0020584862 -0.020657226 -0.017416062
000140 aa 03 49 bc fc a6 93 3b 67 56 59 3c 51 85 96 3c
       -0.01226894 0.00450599 0.013265229 0.018374117
000150 a5 39 98 bc 90 a4 d6 b9 7b 4d d2 3a 74 30 25 3c
       -0.018582175 -0.0004093987 0.001604482 0.010082353
000160 dd f7 1e bd c6 d5 a8 3c 70 37 88 bb 95 0d 2c 3c
       -0.0388106 0.020609748 -0.0041569993 0.010501285
000170 0e ef 87 3b 9c c9 87 3c e7 47 9a bc ef 34 37 bb
       0.0041483706 0.016575627 -0.018833114 -0.0027955135
000180 61 6d 21 bb 60 c3 75 3c 94 3c e7 3c 9c b2 c1 bc
       -0.0024631845 0.015000194 0.028227128 -0.023644738
000190 d3 0e 0a bc 41 0d 7f bc 70 45 9a bc 0e 0b 41 3c
       -0.008426386 -0.015567125 -0.018831939 0.011782421
0001a0 76 e0 13 bb d5 22 ff 3c 9c e2 b8 bc f9 f3 23 3b
       -0.002256421 0.031144539 -0.022568993 0.0025017245
0001b0 12 56 80 3b 9a f1 6e 3c 01 46 42 3c 14 38 65 bb
       0.0039165104 0.0145839695 0.011857511 -0.0034976052
0001c0 a8 de ca b9 d5 88 9a bc 4c cb 66 bc a7 39 a3 3c
       -0.00038694334 -0.018864075 -0.014086556 0.019924952
0001d0 21 b9 a5 bb 58 47 c1 3b 9f 6f a0 3c b4 75 d6 ba
       -0.0050574695 0.0058983974 0.019584475 -0.0016361983
0001e0 95 a1 90 3c 7c 65 a6 bd 14 d1 d0 bb ac 99 3c 3c
       0.017655173 -0.08124825 -0.0063725803 0.011511248
0001f0 71 e5 41 3c 6e 5f 9f 3b 7a 89 e6 bc 5c aa 95 bc
       0.011834488 0.004863671 -0.028141726 -0.01826971

transformer.h.0.ln_2.weight f4 [128]
000000 b1 81 e4 3f fa 7c a0 3f 5b 36 6e 40 b2 64 e2 40
       1.7852079 1.253814 3.7220676 7.074792
000010 22 02 d2 40 5e ff b2 3f b2 1e 3e 40 af 82 ad 40
       6.5627604 1.3984182 2.9706235 5.4222026
000020 00 a7 a0 3f 78 70 45 40 6e 8e e8 40 7e b0 97 40
       1.2550964 3.0849895 7.2673864 4.7402945
000030 73 98 a6 40 c2 da 3f 40 82 60 9c 3f 1d 5c ee 40
       5.2061095 2.997727 1.2216952 7.4487443
000040 b4 09 ea 3f ac 2c ad 3f 05 f8 f2 ba e7 d1 67 40
       1.8284211 1.3529258 -0.001853705 3.6221864
000050 9d 43 61 40 5e f6 d8 39 13 10 c9 40 bd b7 d9 40
       3.5197518 0.00041382288 6.283212 6.803679
000060 63 4a f0 40 7c 7d 36 3f 47 c6 ec 3f fa 43 8b 40
       7.5090804 0.71285224 1.849801 4.352048
000070 e8 22 e7 40 7a f8 49 40 41 6e ee 40 5c 10 c6 40
       7.223011 3.1557908 7.4509587 6.189497
000080 09 0b 7a 3d d1 2c 73 40 44 23 ee 40 21 08 86 40
       0.06104568 3.7996104 7.441805 4.1884923
000090 cb 66 93 40 0e 98 a7 3f f7 13 f2 3e 6f 0a 0a 41
       4.606298 1.3093278 0.47280857 8.627547
0000a0 45 7f b5 40 ea 97 e2 40 a8 9e f9 40 9b 14 36 40
       5.671786 7.081044 7.800617 2.8450077
0000b0 d6 a6 64 40 9a 45 8a 40 da 9f 08 3f 5b 89 92 3f
       3.5726829 4.3209963 0.53368914 1.1448168
0000c0 5f 46 e5 3f 82 65 f4 3f 1c 86 9c 3f fb 39 b2 3f
       1.79121 1.9093478 1.2228427 1.3923944
0000d0 11 37 a0 3b 08 77 14 40 b4 04 c5 40 49 47 4c 40
       0.004889377 2.319765 6.156824 3.191851
0000e0 f1 b3 eb 39 a9 bd 36 40 5c d9 d7 40 bc 14 05 40
       0.0004495676 2.855326 6.745283 2.0793905
0000f0 cd 2e dc bb 0a 2e 0d 3b 1b c0 5f 40 06 d5 d7 40
       -0.0067194463 0.0021542334 3.4961002 6.744754
000100 e1 7b c0 3f 50 cb 8d 3f ff 85 f2 40 0d 17 bb 3f
       1.5037805 1.1077671 7.578857 1.461641
000110 34 05 ab 3f 20 36 44 bb 48 2d fc 40 49 b4 84 3f
       1.3360963 -0.0029939488 7.8805275 1.0367519
000120 e0 6d a0 3f 3b 4e 01 41 c1 09 14 40 56 48 30 40
       1.2533531 8.081599 2.3130953 2.754415
000130 2f 23 3b 40 74 46 fd 3a e7 05 68 40 dd 05 c2 3f
       2.9240224 0.0019323365 3.6253603 1.5158039
000140 4b 01 a2 40 b5 da 2e 40 c4 3d 34 40 55 c9 49 3f
       5.062658 2.7320988 2.8162699 0.78822833
000150 76 32 e8 40 98 9c 86 bf 3d 25 cb 3f 6f 76 d4 40
       7.25616 -1.0516539 1.5870739 6.639457
000160 91 38 7b 3f 03 9c f1 40 68 36 8b 3b 2d bd b9 40
       0.9813319 7.5502944 0.004248429 5.8043427
000170 e9 68 ca 40 ad 81 a4 40 c1 8f a5 40 e6 5a 57 ba
       6.3253064 5.1408296 5.173798 -0.0008215144
000180 6c 79 be 3f 43 07 85 40 f3 c7 70 3f b2 cc 5a 40
       1.4880805 4.1571364 0.940551 3.4187436
000190 37 a2 ba 3f c4 29 2e 40 68 1f e3 40 b6 2f 93 40
       1.4580754 2.7212992 7.097584 4.599574
0001a0 a6 ac e0 40 51 78 a3 3f da 2b d1 3f 2d 37 44 3f
       7.0210752 1.2771093 1.6341507 0.7664669
0001b0 a3 c4 ce 3f ea 60 84 40 45 38 fb 3f a1 07 80 40
       1.6153759 4.1368303 1.9626547 4.0009313
0001c0 91 07 d9 bb f3 fe 9b 3f 37 8b 8a 40 93 ea eb 40
       -0.0066232164 1.2187179 4.329494 7.3723845
0001d0 27 a4 a8 3f 5f ab 87 40 12 d7 dd 40 3b d9 b9 40
       1.3175095 4.2396693 6.9325037 5.8077674
0001e0 c2 db 0e 40 98 cf d5 40 b4 c8 f3 bb c8 c1 5b 40
       2.232163 6.681591 -0.007439697 3.4337025
0001f0 c2 7c 88 40 84 64 b9 40 8e 27 40 40 58 45 de 3f
       4.265229 5.79352 3.0024142 1.7364912
