warmup/warmup_3_97_+_1.pth (torch, 824611 bytes, 17 tensors)

transformer.wte.weight f4 [14, 128]
00000000: 48c7 703b 52f2 f73b 580c 383c 2803 fabb
00000010: 362d 14bd 38a9 913c 54c4 3c3c 00fd 523c
00000020: 2825 7a3c b682 8b3a d2f6 60bc 3dea 603b
00000030: 54f0 bc3c 7785 cc3b 3a3c 82bb 8d4f 9c3b
00000040: 1990 aa3c d12e 773c 2658 9cbb 218a 8d3b
00000050: ffb6 26bb 6ba0 d8bc 229c ebbb 9975 a3ba
00000060: e926 213c cef6 2e3c d349 173b c584 97bc
00000070: cefa 9d3b e810 9b3c 9d04 afbb 6cc2 d1bc
00000080: b3c7 0bbd 66ae 693c efc0 363b ab72 333b
00000090: 6d1e af39 066d 113c b411 8abc dab8 8fb9
000000a0: 4022 f7ba 1eca 70bb 05d2 e5bc bf66 373c
000000b0: 4ac8 683b 27fb d13c 058b 84bc b8fe 943c
000000c0: 44d4 1d3b 1af0 223b 2a64 593b 7698 4e3b
000000d0: 5d9d babc bdcc 04bd df01 bdbb 0696 48bc
000000e0: 9b12 85bd ddee 9e3c ae09 7fbb 10be da3a
000000f0: eb2a 793b aad5 99bc b23e f93b 62ff 2c3c
00000100: a46e 903b 6b64 663b 3739 0ebd 807a 963c
00000110: f330 8a3c a586 8b3b 539e 523c 7785 703b
00000120: 42f5 c43b f5f1 b53c 843b 333b c1a5 763b
00000130: 84b5 fe3a 03e5 353c 5f66 aabc aac5 933c
00000140: e1fb 803b 04b3 c8bb 4c34 6fbb 37a9 a03c
00000150: 4b0b 973b 8980 0c3c 8a59 80b8 e488 023b
00000160: 9940 af3a aa23 113c 136b 0ebb 9ae3 533a
00000170: 82a4 1d3b 0845 e4bc 37fd 43bc f9a4 19bc
00000180: e2eb 68b9 2087 453c beea ccbc 41b1 abbb
00000190: 925e 1dbb 2e0f 8abc 53fb f63a 8d4e 593b
000001a0: 4b77 0dbd 3b13 a63a fa39 a73b 550c 973c
000001b0: e757 50bc 0e8b 8f3c b3d2 1ebc 7090 93bc
000001c0: e5bf 8b3a b875 8b3b c2d7 903c 21c9 373c
000001d0: 6f6a 8cba a288 c13b 49e0 eabb c265 81bb
000001e0: 14c0 983a e50c 123b 49e0 5dbc 3dee fd3a
000001f0: f14d 293b d752 7d3b cae7 97bb 1b6a a4bb
00000200: 8334 303c c7d6 523c 84bb 46bb 186a 2cbb
00000210: fbc9 253d 73f8 cd3b 26d3 433b 2ae7 8aba
00000220: 2c15 22b8 462d 5539 cdaa 89bc 2d81 003c
00000230: 3769 c4bb 184e afbb e2e0 08bd 0479 acbb
00000240: cac8 9bbc 9d00 f73c aa63 a1bb 07be 893c
00000250: 318c f6bb 4014 b6bc 58a3 c33b 7e9c 6d3c
00000260: 56c4 eabc 63c2 60bb 0d08 943b ca23 d7bb
00000270: 11ef fd3b ca22 86bb b364 803b b420 153c
00000280: 2dc9 41bc 5f4f 38bd 7209 b33b 6fab ab3b
00000290: 4f24 1cbd 7270 7abc be3a 373c 46f5 abbc
000002a0: 05b3 8eba 6832 5a3c dd92 bfbc 3b19 97bc
000002b0: a402 f73b ba31 aabb c9ab 2f3c a72e b9bc
000002c0: e7e3 eabb 6caf 233b 155f 833a 9835 1e3b
000002d0: 5efc 54bc 7061 c63c e56f 143b 745b bd3c
000002e0: 3fc4 cc3b 7539 5c3c d5c2 f93b ea85 b83b
000002f0: b0b8 473b c273 3f3c 9050 f4bc 9f26 963b
00000300: f773 633b 04b8 dbbb 9a21 213d f42e a33c
00000310: 17db d2bc cebf 8e3c bf75 08bb 30df 903b
00000320: e015 4139 d6a3 43bd 5ee4 603b 39a4 b13b
00000330: 0612 0d3a 804a f9bb db4e 233d 63f4 36bd
00000340: c324 bdb9 8d36 f53b 8309 8d3c aed2 37bc
00000350: 45af 453c ad2e 45bc 8a40 03bd 68a1 b03c
00000360: 9130 fc3a 337d aabc b40b c7ba a3b6 3cb9
00000370: d51d e2ba 3011 af3c 4443 2dbb 1829 45bd
00000380: 79e6 0cba 2e82 f4bb 226d 1b3c 2207 723b
00000390: 23b2 4fbc 40f8 1f3c 79e5 953b 59a2 023e
000003a0: 73b5 fcbb 0d1d b1bb 455e a43b 60b3 c73c
000003b0: 52f4 0f3c 3afa fcbb c8c8 33b9 98e5 54bc
000003c0: 894d 6d3b 9eeb 013c c269 29bd 94ab 93bc
000003d0: d403 eaba fd14 edb8 e205 4dbc 592e 8ebb
000003e0: 13b0 313b 5776 05bc 0107 16bd 56da ce3b
000003f0: 8306 743b ddf4 7c3b 45c7 38bc 5c99 8a3c
0.0036739875 0.0075667286 0.011233412 -0.007629771 -0.03617593 0.017780885 0.011521418 0.012877703
0.015267648 0.0010643813 -0.013730722 0.0034319304 0.023063816 0.006241496 -0.0039744647 0.0047702254
0.020820664 0.0150868455 -0.0047712503 0.0043194448 -0.0025438664 -0.02644368 -0.0071902433 -0.001247096
0.009835937 0.01067896 0.0023084774 -0.018495927 0.004821158 0.01892896 -0.005341126 -0.025605403
-0.034125995 0.014262771 0.0027885993 0.002738158 0.0003340127 0.008876091 -0.016854145 -0.0002741281
-0.0018854812 -0.0036741565 -0.028054247 0.01119393 0.0035519772 0.025632454 -0.01617957 0.018187866
0.002408282 0.002486235 0.0033171275 0.003152398 -0.022780115 -0.032421816 -0.0057680453 -0.0122428
-0.06497689 0.019401008 -0.0038915682 0.0016688723 0.0038019966 -0.01877864 0.007606351 0.010558935
0.0044077206 0.0035155069 -0.034722533 0.01836896 0.016869044 0.0042579942 0.01285513 0.0036700645
0.0060106823 0.0222101 0.0027348706 0.0037635418 0.0019432758 0.011101964 -0.020800767 0.01803859
0.0039362763 -0.006124856 -0.0036499677 0.019611938 0.0046095005 0.008575567 -6.1201936e-05 0.001991802
0.0013370692 0.008858601 -0.0021731302 0.00080829265 0.0024054353 -0.027864948 -0.011962227 -0.009377711
-0.00022213117 0.012056142 -0.025014278 -0.005239636 -0.0024012667 -0.016852941 0.0018843211 0.0033158392
-0.034537595 0.0012670526 0.005103347 0.018438498 -0.01271627 0.017522361 -0.009693789 -0.01801321
0.0010662047 0.0042559765 0.017681006 0.011217386 -0.0010712872 0.0059061805 -0.00716785 -0.003948898
0.0011653923 0.0022285518 -0.013542243 0.0019373369 0.002583381 0.0038654113 -0.0046357857 -0.0050175316
0.010754707 0.01286859 -0.003032417 -0.0026308354 0.040475827 0.006285721 0.0029880493 -0.0010597457
-3.8643528e-05 0.00020330129 -0.016805077 0.007843298 -0.005993988 -0.0053498857 -0.03341759 -0.0052634496
-0.019016642 0.03015166 -0.004925211 0.016814245 -0.0075240363 -0.022226453 0.0059704 0.014502643
-0.028658073 -0.003429555 0.0045175613 -0.0065655457 0.007749446 -0.0040935026 0.0039182543 0.009102035
-0.011827749 -0.04499757 0.0054637725 0.0052389423 -0.038120564 -0.015285598 0.011183439 -0.020990979
-0.0010887092 0.013317682 -0.02338546 -0.018444648 0.0075381566 -0.005193916 0.010722109 -0.022605253
-0.0071682814 0.0024976386 0.0010022843 0.002414083 -0.012999622 0.024216384 0.0022649702 0.023114897
0.0062489803 0.013441433 0.0076221027 0.005631198 0.0030475073 0.011685314 -0.029823571 0.0045822407
0.0034706572 -0.006705286 0.039338686 0.01991985 -0.025739236 0.017425444 -0.0020822135 0.0044211373
0.00018414063 -0.047763668 0.0034315805 0.005421188 0.0005381409 -0.007607758 0.039870124 -0.04466666
-0.0003607628 0.0074833096 0.01721645 -0.011219664 0.012065713 -0.012035054 -0.03204397 0.02156134
0.0019240548 -0.020811653 -0.0015185983 -0.00017997115 -0.0017251322 0.0213705 -0.0026437799 -0.048134893
-0.0005374919 -0.0074618077 0.0094864685 0.003693052 -0.012676748 0.009763777 0.0045744744 0.12757243
-0.00771206 -0.0054050745 0.0050161206 0.024377525 0.008786278 -0.007720259 -0.00017145567 -0.012994193
0.0036209545 0.007929711 -0.041360624 -0.01802615 -0.0017853924 -0.0001130495 -0.01251361 -0.004339021
0.0027113005 -0.00814589 -0.036627773 0.0063126488 0.0037235327 0.0038598098 -0.011277978 0.01691883

transformer.wpe.weight f4 [32, 128]
00000000: 244b 373b e7a2 67bc 197e 223c 61f3 9bbb
00000010: a984 ab3a 11e7 d13b 0dbf 3fbc 61a4 94bc
00000020: 3f55 02bc cbdb b83b 2f79 413c 006f ec36
00000030: 1885 43bc c509 8a3b 86e1 16bb 4e2f 223b
00000040: dfbd 96bd c5b3 543b 232b 313b e5d2 cf3b
00000050: 54ca 4bba 8785 6fbc a755 38bc dcf7 883b
00000060: 3431 0fbc 7a9c 90bb 38a9 413c 2382 acbc
00000070: d00f 9d3b 1f2c c1bc f7ed 28bc 4d8c 903b
00000080: 4f45 17bc d458 88bc a444 973a f280 e93b
00000090: 4546 83bc 1cc8 54bc a0f5 e93c 8b7b ffbb
000000a0: b073 ab3c ad6b bf3d 87fd be3b fc7c 38bc
000000b0: 4b77 9a3b 8bfd 95bc b8b4 6f3c 6b47 89bc
000000c0: 5a6b af3c 00c2 283b 1be6 833a c978 d53a
000000d0: 9366 8c3c e646 c6bb 2d00 07bc 0ca9 7a3c
000000e0: 42db 1bbc ff8b 82bc 42ff 9b3b 5e6b 923b
000000f0: 3367 08bb d0cf 473d c892 6f3c 2063 8c3b
00000100: a7dc 4d39 4d8f 493c 0337 f93b 61cf 5abc
00000110: ae06 a8bc e364 d239 88e3 0e3c 6f01 c839
00000120: bad5 053b b5ba 11bc 7fdc da38 92e3 163a
00000130: 4696 a63b add5 49ba 5a7e 9f3c 0f7e 37bc
00000140: 9b73 523b 0c36 ebbc 2273 803c da1b 2fbd
00000150: 30cc f2ba c3ad d9ba e20f e0bc f10f b63c
00000160: 629f c538 e431 36bc cc91 cb3b 7376 be3a
00000170: 2254 813b b80b c63b d579 25bc 8594 23bc
00000180: 9285 1a3b edd5 a3bc 5071 49bc c496 ecb9
00000190: 7438 3f3b 0975 2fbc b2a9 ba3a bb26 0f3a
000001a0: 7f1f 003c 666f 69bb 0525 043c 01db 3b3c
000001b0: 845b 553b 79a2 183c ab0c 1a3c 3338 6b3c
000001c0: 50ef 603b 417d 9c3b a980 1ebb 0b4f 3ebd
000001d0: 3839 6f3a 88b4 3d39 eca0 2f3c 7088 3ebb
000001e0: dbb3 733c c01c 88bb 1101 75bb e5c3 5d3b
000001f0: a740 feba 797d a7ba 7cf7 58bb 7be4 e6ba
00000200: c3f6 6c3b 186c dd3c 5a94 3dbc 3e6a 093c
00000210: f7d4 373c 2b9c a3bb 0643 393c d8ba d13b
00000220: 98c6 7e3b f002 bb3a b574 bcbb 335f 813b
00000230: 1604 cf3b ee18 dd3a bcfd 01bc 1913 6abc
00000240: 8250 553c 471b a93b 0af4 f3bb 34f9 74bb
00000250: d21e 86bd 92ce ebbb de87 3a3c 9679 8c3b
00000260: 8588 d0bb 6a62 bfba 4096 993c 309f 943c
00000270: c1c6 763a 1582 92bb 5cc5 0e3c e093 0a3c
00000280: 5498 b23c d912 1d3b 8258 f938 4221 f3b9
00000290: ebb1 cd3b 9afe 65bc af8e 6bbc 30df c63a
000002a0: d8ff 4abc 4a3d 6dbc 84c4 18bc 3ff4 d1bb
000002b0: 3b67 bc3b fb61 193c 05ca 09bc aed2 0fba
000002c0: a841 bbbc 537a 653b 27ad 803b 08e3 143b
000002d0: 60b1 1ebc 239c 093d 0473 883c c2c3 2e3c
000002e0: 3e99 cf3c 10ff 523c b169 3b3b f2b0 203b
000002f0: e5db 483b 5fae 5fbb 867f 25bc 064f bbbb
00000300: d9d7 8d3b 804d 0fbc 0628 5e3c 7626 c83c
00000310: 386b 923b 4c12 cfbb f7ae 8dbb f786 593b
00000320: 4d56 10bc e709 1cbc d39c 373b c806 7f3b
00000330: ebcd 123b d0c6 44bb 980a 423a 6849 80ba
00000340: 1e91 0b3b 69bd 593c 72eb 843c d982 9739
00000350: f3a1 483b ef58 a9bb 6980 e03c 37b4 ecbb
00000360: 841c 883b e58f a03c 6680 6dbb 1aa9 19bc
00000370: f252 2c3a bfce ac3b ac3e b93b 2808 c43b
00000380: b4f0 b93a ba4e 753b c5e5 f03b 2700 dc3b
00000390: a604 ae3b 6734 113c e39c 6f3b 6a13 ba3c
000003a0: 85bb 51bc 84f2 84bb 46bd 1a3b 4eb8 0c3c
000003b0: 9f26 383c 74b9 6dbb 2241 aabb da93 ea3b
000003c0: 4d98 7d3b 5176 023b de09 27bb 5880 be3b
000003d0: 6037 3a3b 0bdc 0fbc 93a8 03bc 9caa b3bb
000003e0: 2c75 d4bb 9a27 5f3b 700c b9bc d75f 70ba
000003f0: 4903 383b e681 023b 0acf a43b 6038 a63b
0.0027968371 -0.01413796 0.009917759 -0.0047592376 0.00130858 0.006405719 -0.011703265 -0.018144788
-0.007954895 0.0056414357 0.011808678 7.04627e-06 -0.0119335875 0.0042125904 -0.0023022606 0.0024747434
-0.07360434 0.0032455784 0.0027033768 0.0063422793 -0.00077739847 -0.014619238 -0.01125089 0.0041799378
-0.008739758 -0.0044131847 0.01182013 -0.021058148 0.0047931448 -0.023580609 -0.0103106415 0.0044112564
-0.009232833 -0.016643919 0.0011540842 0.007125967 -0.016024718 -0.012987163 0.028559506 -0.00779671
0.020929188 0.093467094 0.0058285627 -0.011260267 0.004713928 -0.018309375 0.014630489 -0.016757688
0.021413494 0.0025750399 0.0010063084 0.0016286607 0.017138755 -0.006050932 -0.008239788 0.015299093
-0.009512724 -0.015935896 0.0047606537 0.0044683656 -0.0020813465 0.04878217 0.014622398 0.0042842776
0.00019632523 0.012302232 0.007605435 -0.013355107 -0.020510998 0.00040129488 0.00872124 0.0003814804
0.002042158 -0.008894612 0.00010436121 0.00057559565 0.005083832 -0.00076993817 0.019469429 -0.011199488
0.0032112363 -0.028712295 0.0156799 -0.04275117 -0.0018523987 -0.0016607571 -0.027351324 0.022224398
9.4233794e-05 -0.011120293 0.0062124487 0.001453115 0.003946797 0.0060438775 -0.010099848 -0.00998414
0.002357815 -0.019999469 -0.012295082 -0.00045125757 0.0029177936 -0.010709056 0.0014241247 0.00054607884
0.007820009 -0.0035619377 0.008065467 0.011465789 0.0032555768 0.00931608 0.009402434 0.014356661
0.003432233 0.0047756736 -0.0024185574 -0.0464621 0.0009125653 0.00018091698 0.010719519 -0.0029073022
0.014874424 -0.004153818 -0.0037384669 0.0033838686 -0.001939793 -0.0012778483 -0.0033106497 -0.00176157
0.0036157824 0.027029082 -0.011571014 0.0083871465 0.011220208 -0.004992982 0.011307484 0.0064004473
0.0038875695 0.0014267843 -0.0057512172 0.003948116 0.0063176258 0.0016868392 -0.00793403 -0.01428678
0.013019683 0.0051607224 -0.007444863 -0.0037379982 -0.06548847 -0.007196256 0.011384932 0.004286955
-0.0063639306 -0.0014601473 0.018748403 0.018142313 0.0009413772 -0.0044710734 0.008714046 0.008458108
0.021801151 0.0023967533 0.00011889731 -0.0004637335 0.006277313 -0.0140377525 -0.01437728 0.0015172716
-0.0123900995 -0.0144799445 -0.009324197 -0.00640729 0.0057496107 0.009361739 -0.008409982 -0.0005486411
-0.022858456 0.0035015538 0.0039268914 0.002271833 -0.009685844 0.03359617 0.016656406 0.0106667895
0.025341626 0.012878194 0.0028596933 0.002451953 0.0030648645 -0.0034131033 -0.010101205 -0.0057162074
0.0043287096 -0.008746505 0.013559347 0.024432402 0.004468348 -0.00631932 -0.004323836 0.0033192018
-0.008809638 -0.009523845 0.0028017059 0.0038913954 0.0022400569 -0.0030025728 0.0007402091 -0.0009787502
0.0021296213 0.013289788 0.01622555 0.00028898453 0.0030614107 -0.0051680724 0.02740498 -0.0072236317
0.00415379 0.019599864 -0.0036239862 -0.009378696 0.0006573639 0.0052736695 0.005653223 0.0059824176
0.0014186115 0.0037430958 0.0073516094 0.0067138853 0.0053106127 0.008862591 0.0036562018 0.022714335
-0.012801056 -0.0040572304 0.002361135 0.008588864 0.011239677 -0.0036273869 -0.0051957527 0.0071587386
0.0038695515 0.0019906948 -0.002548806 0.0058136396 0.0028414354 -0.00878049 -0.008035797 -0.0054829847
-0.0064836945 0.0034050704 -0.022588938 -0.00091695547 0.002807813 0.0019913851 0.005029564 0.0050726384

transformer.h.0.ln_1.weight f4 [128]
00000000: d086 65bb 112c 153f fa71 a03f b8ba 8f3f
00000010: 6d71 2b3e 4351 1d3f 411f 8d3f 26e3 613f
00000020: b8b0 fa3f cba7 983b 9413 153f 30c1 21bc
00000030: 4116 3140 8860 003f 73c1 d03e a590 4040
00000040: d733 703f 7f82 a43d 85a5 893f 1b1c 2b3f
00000050: cb32 8c40 de89 273f b350 a83e 5e8b 5540
00000060: e745 583f fd55 423f 5030 83be 4db9 4b3f
00000070: 476f f5b9 852f 113f ee42 803f c7cb 023f
00000080: baaf 2a40 5462 523e bff2 093b 343a a73e
00000090: 8901 db3e 514d e43e 92cf 183f 1011 e33e
000000a0: e3d6 fe3f d53f 6a40 5b11 863f b97a b63e
000000b0: 03ed a0ba 6116 883f 5ba8 103f da60 1e3f
000000c0: 030c 8a3f 81c6 f5ba a438 b63b 1491 79bb
000000d0: ed5a 5d3f f4c8 973f d2b9 6a40 fb2c b43e
000000e0: ca6b 753f 2742 4c3f 90c1 0db8 3e77 b33b
000000f0: b049 adb7 cb69 343f 363f fd3e f004 f03e
00000100: ed50 e23a b1b4 973f 527e 363e a4bd 473f
00000110: 582d 2e3f a45c e03e d94b 383f a38d 5a3b
00000120: 0898 5c3f d73c 583e 005e abbb 2b4d fcba
00000130: fd78 f939 708a 2840 9cee b53e b57a 283e
00000140: 5526 e23e d7e0 e23e fd63 71be 0ea5 ff3e
00000150: b1f6 e93b ae48 ec3f 5d8b 983f caf4 163f
00000160: d42f 25ba 997b 0540 80af 2c3f cd05 0b40
00000170: 9e1b 583a 619c 4c3f 7a0f d53f 95a1 fe3e
00000180: e819 273b f99e 243f ce24 183f 725f 8d3f
00000190: 35c7 0b3b 04ff 6f3f afed 2c3c 73e7 6140
000001a0: e7bb 133f ce87 0a40 8cab 17bb 4984 243f
000001b0: e89e bb3e 6aa0 113f afca ca3f 4464 a93e
000001c0: 2b94 a63a adb7 5cba 8378 073e 434a 1c3f
000001d0: f392 513f 9fbe 253f 5649 643f c0f7 a73f
000001e0: ccd2 2c40 2ac8 f53e df71 eb3e 98bf f2b8
000001f0: e647 56bb 4ce8 19ba af7d 3e40 c83a 2a3e
-0.0035022981 0.58270365 1.2534783 1.1228857 0.16742487 0.6145212 1.1025163 0.88237226
1.958518 0.0046586744 0.58233 -0.00987272 2.7669833 0.50147295 0.4077259 3.0088284
0.938291 0.08032703 1.0753638 0.6683976 4.3812003 0.65444744 0.3287407 3.3366313
0.8448166 0.7591246 -0.25622797 0.7957962 -0.0004681295 0.56713134 1.0020425 0.5109219
2.6669755 0.20545322 0.002104923 0.32661593 0.4277461 0.44590238 0.5969173 0.44348955
1.9909328 3.660146 1.0474046 0.35640505 -0.0012277666 1.063183 0.5650689 0.61866534
1.0784916 -0.0018751175 0.0055609513 -0.0038080858 0.86466867 1.1858201 3.6675916 0.35190567
0.958676 0.7978844 -3.379729e-05 0.0054768613 -2.065752e-05 0.7047393 0.4946229 0.46878767
0.0017266549 1.1852018 0.17821625 0.78023744 0.6803794 0.4382068 0.71990734 0.0033348582
0.8616948 0.21116959 -0.0052297115 -0.0019249072 0.00047583124 2.6334496 0.35533607 0.16453059
0.4416987 0.44312164 -0.23573299 0.49930614 0.0071400036 1.845968 1.191753 0.5896727
-0.00063013774 2.0856688 0.6745529 2.172229 0.00082438614 0.79926115 1.6645348 0.49732652
0.002549762 0.64305073 0.5943116 1.1044753 0.0021328453 0.937485 0.010554715 3.5297515
0.5770859 2.1645389 -0.0023143021 0.6426435 0.36644673 0.568854 1.5843104 0.3308431
0.0012708952 -0.0008419704 0.13229565 0.61050814 0.8186485 0.6474399 0.891744 1.3122482
2.700366 0.48004276 0.45985314 -0.00011575146 -0.0032696663 -0.0005871102 2.976421 0.16623986

transformer.h.0.ln_1.bias f4 [128]
00000000: 06ee 623a 6f20 993e 83f0 05be 8d01 75be
00000010: d698 003d 6a0d c2bd cda8 703d e881 5cbe
00000020: 5d70 013e 2982 6ebb 2ca2 40be 0d4c eb3a
00000030: 03a8 94bc 53b8 c4bd 09f7 0bbe f0a1 2d3e
00000040: ab90 8bbe 2c74 513b cea0 48be e99c a23d
00000050: 558b 133e 5464 123e 11e2 633d 71d2 57bf
00000060: b5b9 983d 9b2a 4ebd 75c8 27bd 960a 073e
00000070: 77b2 c8ba 5926 2fbe f59d 5c3d 4ad2 9d3e
00000080: c751 3b3d b765 48bd 2989 99bb 7a5f 3c3d
00000090: d69e 8cbd 2fc9 1cbe b918 3a3d dcf3 84bd
000000a0: 595c 1f3d 5020 34bd f135 053d 3950 9abd
000000b0: 05be 163b 1cfa 0fbe 00f5 6b3d 5141 a6bd
000000c0: e14a 1bbe 6ec2 ed3a bb15 7b3a ce65 9fbb
000000d0: 2a70 443e 8ec7 05be bab4 533e dcb8 073e
000000e0: 6417 ca3d f1cf a43d 7224 a8ba 82e3 f2ba
000000f0: 0011 0cbb 980c 113e fe14 4ebe 8ea3 37be
00000100: ec2d 1b3b d2fc 31bb 3354 303d 9345 ce3c
00000110: 62f1 56bd cc33 0c3d d551 9cbe 7fc2 53bb
00000120: 81d9 37be c392 b9bd 70e2 23bb f693 2dba
00000130: f896 9cbb ed32 f3bd a562 0e3e 278b d4bc
00000140: 2491 e53c 5dbc 3b3d ea62 04bd 731a 79be
00000150: ebbb 6bbb e4f9 1fbe fcce 193e 644b 41be
00000160: 529a bf3a 4a6f ba3c 8742 c33d 7442 dd3d
00000170: 5ac7 5eba 8df4 4bbe f11a 32be 2dd4 173e
00000180: 8650 80ba dd0b 7f3d 1ff2 4d3e e835 b93d
00000190: f871 82ba 466f c53d e871 553b 889c febe
000001a0: 0a63 283d 38ba edbd a38c 6b3a 1e22 9b3c
000001b0: 79ec ab3d 9ec9 0dbd 7676 3cbd a97e 243e
000001c0: 1364 23bb eeb3 e33a bac8 c7bc babd 10be
000001d0: 1323 3cbd e896 29be c7d7 8d3a c0fe eebd
000001e0: 2d55 82bd 974c 04bd a171 cfbc 74b5 2d3b
000001f0: 9867 80ba 49f6 093b 6ac2 a13e e399 4b3d
0.0008656684 0.29907557 -0.13080029 -0.23926373 0.031395756 -0.09475215 0.05875473 -0.2153393
0.1264052 -0.00363935 -0.18811864 0.0017951742 -0.01814652 -0.096054696 -0.13668455 0.16956306
-0.2725881 0.0031960113 -0.19592592 0.079400845 0.1440862 0.14296085 0.055635516 -0.84305483
0.07457296 -0.0503336 -0.040962655 0.13187632 -0.0015311976 -0.17104472 0.053861577 0.308245
0.045732286 -0.048925128 -0.00468554 0.04598949 -0.06866233 -0.1531112 0.045433734 -0.06491825
0.03890643 -0.043976128 0.032522146 -0.075348325 0.0023001444 -0.14060253 0.057606697 -0.08117927
-0.15165283 0.001813961 0.0009578128 -0.004864431 0.19183412 -0.13064405 0.2067441 0.13254112
0.09867743 0.08047474 -0.0012828244 -0.0018530937 -0.0021372437 0.1416496 -0.20125195 -0.17933485
0.0023678495 -0.002715875 0.04304905 0.02517966 -0.052476294 0.034229085 -0.30531183 -0.0032311974
-0.17954065 -0.09061196 -0.0025006793 -0.0006621474 -0.004778739 -0.11874948 0.13904817 -0.02594526
0.02802331 0.045833934 -0.032320894 -0.24326496 -0.0035970162 -0.1562267 0.15020365 -0.18876415
0.0014618135 0.022758145 0.095341735 0.108036906 -0.00084983336 -0.19917507 -0.1739309 0.14827032
-0.0009789623 0.062267173 0.20111893 0.09043485 -0.0009952178 0.09640364 0.0032569114 -0.497288
0.041110076 -0.11607784 0.0008985495 0.018937167 0.08394713 -0.034616105 -0.04601141 0.16063942
-0.0024931475 0.0017372349 -0.024387706 -0.14134875 -0.045931887 -0.16561472 0.0010821753 -0.116696835
-0.06363902 -0.032299604 -0.025322737 0.002650586 -0.0009796498 0.0021051338 0.3159364 0.049707305

transformer.h.0.attn.c_attn.weight f4 [384, 128]
00000000: 15c7 1bbc f621 273c 0c20 4bbb e8d2 743c
00000010: a1df f83b 4b80 553c 93c0 e03c c85c 9bbc
00000020: 3b5e f83b 643f 263b 525f 8eb9 1277 0e3b
00000030: 1651 013c ed4b 963c 1117 f6bc 8e9c fc3b
00000040: a234 4d3a 7b42 02bd 4914 0fbd 672a 463c
00000050: 6778 77bc 4e3a 70bc f7b6 b0ba 30f2 4f3c
00000060: a0ad 9b3a 8f35 e6bc cbe5 cabc 4c7f 7f3a
00000070: 9f99 353c 8170 13bd 397a ddbb c851 173d
00000080: 46c4 343c 309d 40bc b22b edb9 ad62 14bb
00000090: 01f2 59bb b273 34bd e405 96b9 4215 09bb
000000a0: c964 f93c 0e04 fdbb 7473 7d3a 1a10 49bb
000000b0: 2692 5ebb 5af5 4b3c f874 ca3c 1a2a 95bc
000000c0: 6650 1fbd 1bb0 5cbb 3337 763b 5c6f 2dbc
000000d0: 3731 943c 7b2f b33c 50af a5bc ff06 893c
000000e0: e102 803c 94a1 6a3c b208 3b3c d45e ba3c
000000f0: 3c01 993b 8a18 ce3a 7fd4 0ebc e474 e43c
00000100: 00c8 00bc 9fd4 9fbb af81 013d a4a4 9a3c
00000110: 1456 c5bc 436b f5bc 94c5 8b39 fff2 8fbb
00000120: 2398 22bd e304 dcbc 94cb a1ba 8b67 fe3b
00000130: 7352 f83b e771 143d b128 343c 775f f6bc
00000140: de09 a8bb 023b 233b 0e5d b4bc b8f2 08bc
00000150: 36ec 4cbc b0b2 13bd acb9 793c 6e3d 593c
00000160: 6a8d 323a 1a64 813d c9eb c53c 18e0 8abd
00000170: f614 313c 8da1 a93c a13e 04bd 9678 93bc
00000180: a0ca f73b 188f 92bc e5f6 5fbc e284 ed3c
00000190: 3626 99bc 2d85 083d 2b59 fa3b 9ba5 853c
000001a0: cd78 1cbb 7085 26bd ac0d 173b ac80 e43c
000001b0: 10cf 9b3c 8214 a73c 332a 943c 1b5b c63c
000001c0: 421f 07bc 1785 68bc 342b 1ebc 1006 d8bb
000001d0: 1102 8b3b 37a3 fdbc 84f7 063d 5b26 c2bc
000001e0: 6a8d 5dbc 0c67 b13b fbdd 15bc 85cb a73b
000001f0: 4de3 38bc a479 51bc 4df1 6f3b 1e54 833b
00000200: a8ff 043b 9581 b83b 93fb dd3c 6921 27bc
00000210: c6f2 6f3c 6916 2dbd f23f d73c 9597 e03c
00000220: 0e39 153d bd47 8b3b 1b8f 40bc bde1 16bb
00000230: dcc5 253d d895 623b dcbe 52bc 89e5 a23b
00000240: 3bc6 a33c 71d8 a73c dbee 933c 65ad c1bc
00000250: 9a23 02bd 316a 573c c1c9 373d 5a8d 1bba
00000260: 4a5d 883b 3dd7 ddbc bf40 9ebc 08ce 013c
00000270: ef1b f8bb cf1e 3f3c 26e5 a3bb e982 20bb
00000280: 720a e03c 0e59 703c 7aeb 9b3b 3894 00bc
00000290: 75f1 aa3c 7958 dbba 59ab 45bc 197f 24bc
000002a0: 11a7 d4bc 3c77 d2bc 370f 24bd ce65 6a3a
000002b0: 19b8 f4bb 57c6 efbb e006 87bc 10a8 84bc
000002c0: d58b d2bc 8f53 923a 5855 d3b7 cfd6 2c3b
000002d0: 0ce7 bdbc 6a47 b23c 6a14 053d e20f dfbc
000002e0: ce89 bb3c 050c a23b afc3 b9bb a197 213c
000002f0: 5c58 5d3b c8dd 99bc 9c91 28bc 6873 dfbc
00000300: f9f1 c3ba e66f 91bc b4ff 803a 49ae 1c3d
00000310: 3e57 a5bb 0d8a 753c 932b abbc 48b5 05ba
00000320: 20a6 a03c 3a00 7cba f550 013b 0bfa 80bb
00000330: 39e9 9439 3e12 c5bc 54ae 1bbc a003 323c
00000340: 24db 07bb ff4e a03c dfd5 9abc c604 b33c
00000350: 71d4 a03b b12a 3f3c 21b9 de3c dcb5 b3bc
00000360: 80e0 23b6 d40d c138 5f00 b8bc 134d 573c
00000370: 701f 33bb 5bdd 3e3b e516 b2ba 31a3 383d
00000380: 708e 88ba 219f 37bc b8f5 bb3c 5b5f 35bc
00000390: db71 82ba 1fdc 213c 89ed c2bb 7644 b33c
000003a0: 3e89 24bc 9273 0d3c ecb8 2cbb 5cfe 0e3b
000003b0: 0591 113c 2618 9f3b 322c e1bb 5549 e3bc
000003c0: a945 b4ba 0e7d 3a3c e43b 8dba 64a3 733c
000003d0: 4ac2 1e3a 05ff 2c3c 4675 37bd 23c4 a8bc
000003e0: 928b 5abd af9a 03bd d96d 04bd 1bd2 78ba
000003f0: 9f05 d9ba ea8e a7bb cae6 5a3c 1764 0d3c
-0.009507914 0.010200968 -0.0030994443 0.014942862 0.007595018 0.013031076 0.027435577 -0.01896514
0.0075795925 0.0025367374 -0.0002715537 0.0021738452 0.007892868 0.018346751 -0.030040296 0.0077090925
0.00078279723 -0.031801682 -0.034931455 0.01209507 -0.01510439 -0.014662338 -0.0013482262 0.012692019
0.0011877306 -0.02810171 -0.024767777 0.0009746447 0.011083989 -0.035995964 -0.006758955 0.036943227
0.011033123 -0.011756226 -0.00045236718 -0.0022641823 -0.0033255818 -0.04405565 -0.00028614618 -0.0020917212
0.030443566 -0.0077214306 0.0009668388 -0.0030679763 -0.0033961623 0.012448633 0.024713978 -0.018208552
-0.038895033 -0.0033674303 0.0037569522 -0.010585632 0.018089874 0.021873226 -0.020225197 0.016726969
0.015626373 0.01432075 0.011415647 0.022750296 0.0046693366 0.0015723866 -0.008717655 0.027887769
-0.007860184 -0.0048776413 0.031617817 0.018877335 -0.024088897 -0.029958373 0.00026659353 -0.004392981
-0.03969587 -0.026857799 -0.0012343996 0.007763808 0.007578188 0.03624144 0.01099603 -0.030074818
-0.0051281294 0.0024906998 -0.022017028 -0.00835865 -0.012507489 -0.03605908 0.0152420215 0.013259275
0.00068112335 0.06317921 0.024160283 -0.06781024 0.01080822 0.020706916 -0.03228629 -0.018001836
0.0075619966 -0.017890498 -0.013669704 0.028994028 -0.018694978 0.03333013 0.007640024 0.016314318
-0.0023875714 -0.0406546 0.002304892 0.027893387 0.019019634 0.020395521 0.018086528 0.024213364
-0.008247199 -0.014191887 -0.009653855 -0.0065925196 0.0042421897 -0.030961616 0.032950893 -0.02369993
-0.013522485 0.0054138955 -0.009147163 0.005120697 -0.0112846615 -0.012785349 0.0036612332 0.0040078303
0.0020293985 0.0056306818 0.027097499 -0.010200837 0.014645284 -0.0422577 0.026275609 0.02741603
0.036431365 0.004250495 -0.011752869 -0.0023022734 0.040471897 0.0034574177 -0.012862887 0.0049712104
0.019991985 0.02048895 0.018058231 -0.023642251 -0.031772234 0.013147877 0.044870142 -0.0005933844
0.0041615115 -0.027080173 -0.019317983 0.007922657 -0.0075716893 0.01166506 -0.005001682 -0.002449209
0.02734873 0.01466967 0.0047582956 -0.007847838 0.020867089 -0.0016734741 -0.012064778 -0.010040068
-0.02595857 -0.025691621 -0.040053573 0.00089415617 -0.007468235 -0.007317345 -0.01648277 -0.01619342
-0.025701443 0.0011163818 -2.5192901e-05 0.0026373153 -0.02318146 0.021762569 0.03249017 -0.027229253
0.022892859 0.0049452805 -0.0056690793 0.009862811 0.003377459 -0.018782511 -0.010288622 -0.02727671
-0.0014949433 -0.017753553 0.000984183 0.03825215 -0.0050458005 0.014986527 -0.020894801 -0.00051005604
0.019610465 -0.0009613071 0.0019732092 -0.0039360574 0.00028402524 -0.02405655 -0.009502012 0.010865122
-0.0020729983 0.019568918 -0.01890081 0.021852862 0.0049081375 0.011667893 0.027187886 -0.021937303
-2.441957e-06 9.205533e-05 -0.022461114 0.0131409345 -0.002733197 0.0029123637 -0.0013587145 0.045077506
-0.0010418426 -0.011207373 0.022944316 -0.011070098 -0.0009952144 0.009879141 -0.0059487266 0.02188323
-0.010042487 0.008633511 -0.002635534 0.002181909 0.008884673 0.0048551736 -0.0068717236 -0.027744928
-0.001375367 0.011382354 -0.0010775295 0.014870498 0.0006056173 0.010558848 -0.044789575 -0.020601338
-0.05335576 -0.03212994 -0.03233132 -0.00094917574 -0.0016557461 -0.005113472 0.013360688 0.00862982

transformer.h.0.attn.c_attn.bias f4 [384]
00000000: 6673 bfbe d8cc 423f 62f8 303f a1c0 d93f
00000010: 2bc5 12bf d01b 3d3f 7386 37bd 2839 abbc
00000020: c8a8 cdbe 85e9 efbe 2663 a93e 9c5c b93e
00000030: afee d93d b351 c1bf 311c 2c3f ee5a da3e
00000040: 77f8 cd3f dfea 443f 57cb 113f 6d21 c3be
00000050: d0ee 28be e90d 3abf 657b 713e 9993 b0be
00000060: dfaf 8c3e 1852 073e dc2b 003e 6aed c93e
00000070: 985d fd3e 5580 603f 80bd e7bf a844 1d3e
00000080: 7185 4dbd 7702 48be ac95 8d3e b5e4 ccbe
00000090: 630b 8b3f 70df 173f 0cbc d6be ff84 783b
000000a0: 09ac 763f 77c3 fb3e b8da 70bf cc27 54bf
000000b0: 3417 583f 45aa 413f 3f33 873f 5352 9a3e
000000c0: 942e b53e a9b6 58bd dd8f 393e 4816 9d3d
000000d0: 2908 1abe 17b8 43bf 6bb0 683e c3fd a03d
000000e0: 5cbe 46bf d3cb 63bf b044 333d 01bc 16bf
000000f0: aa03 a2bf dac1 72be abeb af3e 4815 8f3f
00000100: 2542 0540 9abd eb3f 7f43 493d cd12 c1bf
00000110: 2b6c 853f 48bc 5c3c d789 1fbc 0ccd 8d3f
00000120: 37b4 fa3b bf69 ea3f 0b04 dc3f 3e9f 9a3f
00000130: 9d37 c7bf 3664 193f da03 913f 9f52 15bc
00000140: 3f2c e4bf 5b4a 403b a3d8 e13f 2ac2 e23f
00000150: 9bb1 d9bf 37b2 5a3d 8e5f 623c b2e7 90bc
00000160: 1dcb 733d f692 ed3c d194 b2bb 5689 32bc
00000170: c0a0 68bf b491 913f 2bf5 9d3f 72bf dc3f
00000180: 71f4 2fbf a15f 403e b690 5bbf 9e6f 73bf
00000190: 3445 6bbf f100 80bf 70b0 86bf 89b9 253f
000001a0: 8f4c abbf 1012 703f 7522 e0bf bc64 b6bf
000001b0: 42e9 cebf 6d53 77bf 07c9 cd3f 1650 3cbf
000001c0: a148 1cbf 9fb8 943f 105b 99bf 5efc 38bf
000001d0: 4b9a a33f 25e5 313f 0e34 633f f2ab 3f3e
000001e0: a1b1 673f 40b3 413f 8ad6 1b3f c710 93be
000001f0: cd8d 92bf 6d70 73bf 77b1 c9bf bc23 3a3f
00000200: 24da 13c0 2f5b 653f 294d cb3f 1a46 c140
00000210: bc0c b0bf 62c5 d53f 75f7 0fbf 2cb0 57bf
00000220: 7838 37be 1d1e 71bf 66b1 db3f ec33 b53f
00000230: bd86 a2be 41be b2c0 8401 a23f 1803 073f
00000240: 0921 b640 3a30 cb3f 83df ac3f 636d dbbd
00000250: 1a95 0c3f 594f d0bf 4928 1d3d 9356 0cc0
00000260: 48ce b6bb fc15 b33e 9743 fa3c 8215 883e
00000270: e0c1 0840 2ca7 0140 bec9 c8c0 bc6b 0ebf
00000280: ca1c 583f c053 433f ebc4 a23f f5ac 563d
00000290: 7de3 a640 b091 0640 35ae 50bf a476 33be
000002a0: a716 9c40 63c8 0940 e86e 04c0 c6b4 91c0
000002b0: 465e 0f40 c13a 8b40 6907 3240 d7b1 383f
000002c0: e125 8f3f fff1 debf b69f 223f b51d 9dbe
000002d0: bf62 36c0 1b32 8fc0 c548 153f 6841 03bf
000002e0: 23e6 c8bf 4895 9cc0 4ebc 143f 3975 83c0
000002f0: 4fcf 54c0 1233 d73e bf77 d53e a2d6 3340
00000300: dfee 5a40 69b4 3340 1979 013f 452a 93c0
00000310: 5465 8140 0c6e 17bd 92f1 2ebe f6fe 7040
00000320: c5fd 99bf fbbc 3c40 8e57 a140 707d 8b40
00000330: 294f 99c0 4fc5 2e40 ef18 8040 93b1 3f3e
00000340: 09a1 2ec0 aab0 6b39 ad2d a440 75bc a340
00000350: caee a1c0 b4d7 563f 7916 073d ed42 5cbe
00000360: 0880 b63f 61c8 253e 38ea 5fbe 180b 8abd
00000370: 0c93 5ec0 9aea 7740 cfbb ac3f 3085 a340
00000380: ceb1 6ac0 2630 ef3f b85f 63c0 0403 59c0
00000390: a37d 2ec0 5be2 6dc0 8695 82c0 9b5a 0240
000003a0: 66bf 713f 2274 3640 d2e3 4e3f b3cc 933f
000003b0: 425b 593f c826 51c0 6a3e 3cbf 12d2 a4bf
000003c0: 2dc6 4ebf a1dd 4140 4a09 6ec0 bb6d 2fc0
000003d0: 8fdb 4940 feb5 1c40 d33b 8240 17bd e0be
000003e0: c737 7b40 deb0 4240 cc9f 3240 264e 993f
000003f0: 3a3c 50c0 4780 2ac0 fb77 6c3f 81ea 5f40
-0.3739273 0.76093817 0.69129 1.7011911 -0.57332104 0.73870564 -0.044805955 -0.020901278
-0.40167832 -0.4685785 0.33083457 0.36203468 0.106412284 -1.5103058 0.67230517 0.426475
1.609145 0.76920885 0.56950897 -0.3811144 -0.1649735 -0.72677475 0.23582228 -0.34487608
0.2747793 0.1321491 0.12516731 0.39438945 0.4948547 0.8769582 -1.8104706 0.15358222
-0.050176088 -0.1953219 0.27653253 -0.4001824 1.086285 0.59325314 -0.41940343 0.0037921069
0.96356255 0.49172565 -0.9408374 -0.82873225 0.84410405 0.75650436 1.0562514 0.30140933
0.353871 -0.052908573 0.18121286 0.076702654 -0.15042175 -0.76452774 0.22723548 0.07860901
-0.77634215 -0.88982886 0.043766677 -0.5888062 -1.2657368 -0.23706761 0.34359488 1.117837
2.0821621 1.8417237 0.049136635 -1.5083863 1.0423635 0.013472624 -0.009737453 1.10782
0.007650878 1.8313521 1.7188734 1.2079847 -1.5563847 0.59918535 1.13293 -0.009113937
-1.7826003 0.0029341194 1.7644237 1.7715504 -1.7007326 0.053392615 0.013816727 -0.017688606
0.059519876 0.02900074 -0.005449869 -0.010897001 -0.90870285 1.137259 1.2340444 1.7245924
-0.68732363 0.1878648 -0.85767686 -0.9509219 -0.9190247 -1.0000287 -1.0522594 0.6473623
-1.3382739 0.9377756 -1.7510515 -1.4249492 -1.6164935 -0.9661167 1.6076974 -0.735597
-0.6104832 1.1618842 -1.1980915 -0.7226008 1.2781461 0.6949027 0.88751304 0.18717936
0.90505415 0.7566414 0.60874236 -0.28723738 -1.1449524 -0.95093423 -1.5757283 0.72710776
-2.3101892 0.8959226 1.5882922 6.0398073 -1.3753886 1.6700861 -0.56236964 -0.8425319
-0.17892635 -0.94186574 1.7163513 1.415647 -0.31743422 -5.5857244 1.2656713 0.52739096
5.6915326 1.5874093 1.350571 -0.10714223 0.5491501 -1.6274215 0.038368497 -2.192784
-0.00557879 0.3497771 0.030549807 0.2657891 2.1368332 2.0258284 -6.2746267 -0.5563314
0.8441893 0.7629967 1.2716345 0.05241104 5.2152696 2.102642 -0.8151582 -0.17525727
4.877765 2.1528556 -2.0692692 -4.553317 2.240129 4.350922 2.7817023 0.7214636
1.1183435 -1.7417601 0.6352495 -0.30686727 -2.849777 -4.4748664 0.5831416 -0.51271677
-1.5695232 -4.893223 0.5809983 -4.1080594 -3.325153 0.4203115 0.41692922 2.8099751
3.4208295 2.8078864 0.50575405 -4.59891 4.043619 -0.036970183 -0.1708434 3.7655616
-1.2030569 2.9490345 5.041938 4.359062 -4.790913 2.7307928 4.0030437 0.18720083
-2.7285788 0.00022477159 5.1305757 5.116755 -5.060399 0.83922887 0.032980416 -0.21509905
1.4257822 0.1618972 -0.21866691 -0.06740397 -3.477725 3.873694 1.3494815 5.1100082
-3.6671023 1.8686569 -3.5527172 -3.390809 -2.7264183 -3.7169406 -4.0807524 2.03678
0.94432676 2.8508382 0.80816376 1.1546844 0.84904873 -3.267992 -0.73532736 -1.2876608
-0.8077114 3.0291522 -3.719317 -2.7410724 3.1540258 2.448608 4.0698028 -0.43894264
3.9252794 3.042045 2.7910032 1.1976974 -3.253676 -2.6640794 0.92370576 3.498688

transformer.h.0.attn.c_proj.weight f4 [128, 128]
00000000: 89b8 373b a0f8 253d 1ceb 3d3d cfb0 47bc
00000010: bdf4 19bc 2287 9aba 22d9 473b a5c0 ab3b
00000020: 4b3f bfbc c482 ab3b ec4e a63b 911b cf3c
00000030: 2877 afbc f40f f43c 731d e63c 9a2f 75bb
00000040: b7d2 cf3b 440e c3bb 3ed2 cb3c 3f7c 713c
00000050: a20a 953a ab32 4a3a 1283 0e3d 4c82 c1b9
00000060: 9cb4 2c3c e72f cb3a dd8a 24bd f096 06bd
00000070: 151b 933b c3b0 78bc a6c1 d2bb b9fa b1bb
00000080: 813e 29bd 6328 8abc 93c8 91bc 2d99 1e3d
00000090: c02e 70bc a084 b6bb 1836 85bb f32b 3c3c
000000a0: 9d25 9c3a 60b5 033c 19d3 fe3b bf97 d43b
000000b0: 52e1 3ebc cb09 b3bb c6aa 61bb 2a36 d3ba
000000c0: 37b7 1a3d 591a 0abc 012a a6bb 5f4f fd3b
000000d0: 5a2e 11bb cd4f 5bbb d807 3abb 8d97 b83c
000000e0: 3772 943b 4f26 df3c b76b 9cbb 08c8 34bc
000000f0: 62a7 ba3c 1eaf 34bd 5551 ab3a fd28 a2bc
00000100: c223 e13a c23d 3ebc ef32 6fbc d970 89bc
00000110: f731 b53c 55b6 57bc 93c6 d7bb 59d6 d7bb
00000120: f6a3 81b9 0b5f 5f3c 0962 8a3b 6a93 493c
00000130: 2303 c43c 66c0 583a 6037 5dbb 99d2 a23b
00000140: 173b 5739 458f 203c 32ec f33b 5b15 2f3c
00000150: f15d bbbb c647 cbbb 20ee a3bb 1595 203d
00000160: 9b28 b53b 8105 acbc f474 093b 2148 0b3d
00000170: dc51 773b a4d3 033c ded7 6e3b 6294 613b
00000180: 56a3 2abc cc38 2bbd cee3 c13c 71e4 c9bc
00000190: 7223 85bc 84be c33b 9b60 7a3b d0d0 cbbc
000001a0: 6fac 30bc 7639 923c 4ebe 5abb 28ae 2fbd
000001b0: dede 793c 99e3 dc3c d23e a5bb 44e5 c43c
000001c0: 8c0f 9d3b f566 86bc 01d9 103d 9267 d93b
000001d0: 4b21 4fbd c074 2eba bde8 d6bb 20f7 f2ba
000001e0: 9018 d6bb 0eae be3b 56d4 2c3c b956 1fbb
000001f0: 63c1 20bc 064e 03bb aa50 233c 0bb8 023d
00000200: c49e fbb9 37a8 60bb 5f6a 90bb d6e1 f7bb
00000210: 09c9 42bb 708f 0cbc a409 a13a d8e2 e63a
00000220: e038 de3c 06ef 093d 9e38 92bc 5d0e 24bc
00000230: 226d 8d3b fd05 0dbc 52e8 3b3b 18a4 ae3b
00000240: 352c b13b 52e0 a03a 4531 84bc 6215 bb3c
00000250: 60b7 2a3b 19f4 b139 2537 2b3d cb40 04bd
00000260: 3f79 023c 71b5 053c 5f34 fdba 1889 5c3c
00000270: 06c8 873c 03b4 7c3c ce77 59bd 56db 583b
00000280: 488e 603c b60c 2b3d 10bc 09bd 8666 163d
00000290: e234 20ba ee41 9d3b b19d 3bbc 6ff5 693c
000002a0: dd9a d7bb 228f 0f3c 98ea 833b 96ee 23bc
000002b0: 4dc0 b5bb 4bc1 973b 27cd 48bd 0768 d83c
000002c0: dbea d2bc c8bd 143d 184f 4d3c a35b 1e39
000002d0: 6b73 98bb ff95 80ba ebc1 8bbb c9c0 b73a
000002e0: 2c51 18bc 072f 90bc a68f 50bc fd61 173c
000002f0: 3db3 af3c a693 97bb ca51 d2bb 166d a93c
00000300: 289c 09bc acfd e2b9 cca2 9b3b a69b 9abc
00000310: 4816 96bb 7f11 97b9 b394 e03b b928 d8bb
00000320: 0156 37bb 284b e5ba 2cf5 c43a 81f8 a53b
00000330: 1794 4d3b 697d 7dbb 07f3 3dbb 72bd cb3b
00000340: c014 bcbb c6f1 99b9 88e6 173c 8e71 ddbb
00000350: 635b 9c3b 58eb e93b cf4e 07ba e11e 093c
00000360: 691d 85ba 4914 1e3b 48e1 3a3b c4ae 673c
00000370: eacf 34b9 39ec 323b d640 903b 6376 3dba
00000380: 1d97 ea3b f889 0dbd dc31 4fbb 4249 593d
00000390: b689 60bb aa24 ca3b 8e60 1bbc 34af 003d
000003a0: 4226 993b f29d 393b 5fac 183b 73fe e03c
000003b0: 1134 b03b 624c 123b 9a39 4abb 7466 503b
000003c0: 970c d53a c63c e0bb 4fc7 513c 71d7 44bb
000003d0: 8a6f 7c3b 422b 9b3c daf0 babb eebc 2ebb
000003e0: bb1a ad3b d5c9 95bc 3830 b939 42d2 773b
000003f0: 889c 023d 204d 21bc 5c1e ecbc 7977 6b3c
0.0028033576 0.04052031 0.046366796 -0.012188151 -0.009396729 -0.001178954 0.0030494411 0.005241471
-0.02334561 0.0052340943 0.005075326 0.0252817 -0.021419123 0.029792763 0.028090214 -0.0037412406
0.006342258 -0.0059526283 0.024880525 0.014739095 0.0011370967 0.00077132386 0.034792967 -0.00036908907
0.0105411075 0.0015501947 -0.040171493 -0.03285879 0.0044893124 -0.015178862 -0.006431776 -0.0054315
-0.041319374 -0.016864961 -0.017795837 0.0387203 -0.014659584 -0.0055700094 -0.0040652864 0.011485088
0.0011913065 0.008038849 0.0077766296 0.006487816 -0.0116504 -0.005463814 -0.0034434064 -0.0016114165
0.037772384 -0.008429133 -0.005070925 0.007730409 -0.0022152872 -0.0033464313 -0.0028386023 0.022533203
0.004530217 0.027239947 -0.004773583 -0.011034019 0.022784892 -0.044112317 0.0013070503 -0.019794935
0.0017176794 -0.011611404 -0.014599546 -0.016777443 0.022118552 -0.01316603 -0.006584951 -0.0065868315
-0.00024726958 0.0136335 0.0042231125 0.012303213 0.023927277 0.00082684157 -0.003375493 0.004968953
0.0002052601 0.009799783 0.007443928 0.010686244 -0.005717986 -0.0062036244 -0.005002752 0.039204676
0.005528522 -0.020998718 0.002097425 0.034004334 0.0037738 0.0080460645 0.0036444585 0.0034420718
-0.010414919 -0.041802213 0.023668196 -0.024645062 -0.016252253 0.005973639 0.0038204554 -0.024879843
-0.010783299 0.017849665 -0.003337759 -0.042890698 0.01525089 0.026963996 -0.005042889 0.024035104
0.004793113 -0.016406516 0.0353632 0.006634661 -0.05056886 -0.00066549703 -0.0065585063 -0.0018536784
-0.00653369 0.005819089 0.010548672 -0.0024313165 -0.009811732 -0.002003552 0.009967962 0.0319138
-0.0004799274 -0.0034279951 -0.0044072117 -0.0075647635 -0.0029721877 -0.00857912 0.0012286198 0.0017615212
0.02712673 0.033675216 -0.017849263 -0.01001319 0.004315988 -0.008607385 0.002867241 0.00532962
0.005406881 0.0012273884 -0.016136775 0.022837345 0.0026049241 0.00033941938 0.041800637 -0.032288354
0.007963478 0.008160935 -0.0019317976 0.01346042 0.01657487 0.0154237775 -0.05309277 0.0033089719
0.0137057975 0.04176017 -0.033626616 0.036718868 -0.0006111396 0.004799119 -0.011451171 0.014279707
-0.0065797404 0.008762153 0.0040257685 -0.010005614 -0.0055466057 0.0046311966 -0.049023774 0.026416792
-0.025746753 0.036313802 0.012531064 0.00015102192 -0.004652431 -0.0009810327 -0.00426506 0.0014019246
-0.009296697 -0.01760055 -0.012729561 0.009239671 0.021447772 -0.0046257554 -0.0064184414 0.020681899
-0.008399047 -0.0004329508 0.0047496315 -0.018873047 -0.004580293 -0.00028814 0.006853664 -0.0065966514
-0.0027974846 -0.0017493712 0.001502668 0.0050650244 0.0031368786 -0.0038679487 -0.0028983967 0.006217652
-0.0057397783 -0.0002936257 0.0092712715 -0.0067579215 0.0047716363 0.007138651 -0.00051615847 0.0083691785
-0.001015586 0.0024120978 0.0028515626 0.0141407885 -0.00017243592 0.0027301444 0.0044022603 -0.0007227419
0.0071591274 -0.034555405 -0.0031615412 0.05304838 -0.003426177 0.0061689215 -0.00948347 0.031417087
0.00467375 0.0028322903 0.00232961 0.02746508 0.0053773005 0.002232336 -0.0030857087 0.0031799348
0.0016254362 -0.0068431823 0.0128038665 -0.003003564 0.003851863 0.018941525 -0.0057049813 -0.0026662904
0.0052827275 -0.018284718 0.00035321875 0.0037814532 0.03188756 -0.009845048 -0.02882307 0.014371746

transformer.h.0.attn.c_proj.bias f4 [128]
00000000: 5bf7 98bc 890e 783c ee97 d9bc 002e b03b
00000010: d6b7 ba3c 0af1 86bc 761c d0bc 8460 55bb
00000020: 8ec5 e63a 021d c9bc 0cd5 2fbc 91db 71bb
00000030: 8e42 0ebb 2cc6 783a a396 a1bc f48c 423b
00000040: 0a32 5a3d 0e19 743c 62e1 923b 2c89 8b3c
00000050: f40c 0d3c 4ec9 113d 5317 a33c e4b5 71b8
00000060: e508 2e3c 3f72 8bbc 0990 f93b 3bbd 0dbc
00000070: 05e7 e83c b825 963a b558 1a3d 8d52 4abc
00000080: 640b 963a b7ed 1e3c 12fa ee3b f79b d0bc
00000090: a73f 903b bae1 b4bb af46 9ebc e15d f8bb
000000a0: 6d67 96bc e0c6 60bd 16b3 da3c fe1c 92bc
000000b0: 3b89 b0bb ca56 c23c a1ea f7bc 5073 993b
000000c0: d4aa 9a3b c1ca b8bb 6cfc b6bb e68d a1bb
000000d0: b303 bfbb 6226 0d3b 9a91 b33a f967 02bd
000000e0: d326 493d 12b3 00bd 23ab dbba aac6 93bb
000000f0: 4ee9 9dba 350b d8bc 0bd6 c43b 8552 34bc
00000100: 0c42 0abb 34e1 3f3c 82a5 493a c3b4 053b
00000110: e5df 00bc 78bb ee3c 625a 2abc e8ff 24bc
00000120: ff9b 283a 1024 013d e52c 8ebb a841 08ba
00000130: 6ea8 63bb fb4a 1c3c a553 b8bc 267e 3fbc
00000140: 2002 b1bc a0d5 ed39 4af2 61bc ad57 f63c
00000150: abe1 813b d66d b33b e4e8 a23c cbd5 ebbc
00000160: 616e dabb 192a f5ba 5bb5 be3c 6b69 6d39
00000170: df37 48bb 6dca 22bd f27f 113c 34c2 fc3c
00000180: 0881 aebb ba67 c43c 45a2 523c c0c7 18bc
00000190: 302a c4bb a12d 05bc 674f e5bb 6232 0abd
000001a0: 1ea6 20bb a096 85bb dd59 d9ba ffea 8cbc
000001b0: 5cc6 af3c f487 82bb 3aa7 33bc 8b5e 04bd
000001c0: f728 49bb 06f4 203c 84fe 553c 1fc1 7f3c
000001d0: bdcb 113d 43e5 c13b 93ab 6bbc 5771 8dbc
000001e0: c78d 87bb 9859 06bc f08c c73c dec4 f3bb
000001f0: d771 2bbb ab38 dabb 1406 11bb 4dba 833a
-0.018672636 0.015140184 -0.026561704 0.0053765774 0.022792738 -0.016472358 -0.025404196 -0.0032558748
0.0017606483 -0.024549965 -0.010731947 -0.0036904553 -0.002170715 0.0009489979 -0.01972515 0.0029686065
0.053270377 0.014898552 0.004482434 0.017033182 0.008609045 0.03559237 0.019908583 -5.7628276e-05
0.010622238 -0.01702225 0.0076160473 -0.008651073 0.028430471 0.0011455333 0.037682254 -0.012348783
0.0011447486 0.00970023 0.0072929943 -0.025464995 0.004402119 -0.0055200728 -0.019320814 -0.0075795506
-0.018359864 -0.054877162 0.026696723 -0.01783609 -0.005387453 0.023723025 -0.030263247 0.004682936
0.0047200713 -0.0056394045 -0.0055842903 -0.0049302457 -0.0058292984 0.002153777 0.0013700009 -0.031837437
0.04910929 -0.031420775 -0.0016759377 -0.0045097666 -0.001204768 -0.026372531 0.006006961 -0.011006002
-0.0021096496 0.011711407 0.0007692204 0.0020401932 -0.007865881 0.029142126 -0.0103975255 -0.010070778
0.00064319366 0.031528533 -0.004338848 -0.0005197772 -0.0034737843 0.009539361 -0.022500822 -0.011687791
-0.021607459 0.00045363326 -0.013790676 0.030071104 0.0039636693 0.00547574 0.019886442 -0.028788468
-0.00666599 -0.0018704563 0.023279836 0.00022641353 -0.003055088 -0.03974383 0.008880602 0.030854322
-0.0053254403 0.023975242 0.012856071 -0.009324968 -0.0059864745 -0.008128555 -0.006997991 -0.033739455
-0.0024513076 -0.004076794 -0.0016582567 -0.017201899 0.02145689 -0.003983492 -0.010965163 -0.032316726
-0.0030694583 0.009823805 0.01306117 0.0156100085 0.03559469 0.0059172227 -0.014384168 -0.017265959
-0.004136774 -0.008200072 0.024359196 -0.00743924 -0.0026160383 -0.0066595874 -0.0022128867 0.0010050029

transformer.h.0.ln_2.weight f4 [128]
00000000: 1848 e33e 7d73 ba3f 4fb5 9340 9af5 ad40
00000010: 2648 693f 4f62 1c40 b0e7 ff40 3530 3940
00000020: 2c8a 9340 36d5 433f 5753 3540 b04c 0f3f
00000030: 37ae c640 e345 5d40 b330 a140 9fa6 9940
00000040: 5614 0340 69ee 6940 594c b540 b87c ba40
00000050: b558 a240 8590 383f a637 6140 347a a640
00000060: 9a4b 5540 4044 1440 e66d e93f 7fe8 4f40
00000070: ba0e 7e3f c475 2b40 029b 0141 4964 0e40
00000080: 4056 3940 75ae ab3f f86b 583f 2590 bb40
00000090: 66d8 1b40 5da3 b53f 501f d13f 8b5f 4d40
000000a0: 2f76 ab40 ca26 9340 f03b 0541 a1e6 613f
000000b0: e997 943c 8144 9240 8104 4c40 0356 1640
000000c0: 123c 4040 ec29 f13b 9e03 abbb 697e 003c
000000d0: 1b9d af40 e17b 713f 0dda 5d40 0db7 0040
000000e0: 04f7 993f 918b 0941 bc52 8d3e c1ce d6bb
000000f0: 4874 333f 23f2 df3f ebee d33f 7c74 5740
00000100: 64f7 a23d 09ee 6f40 afbb 8d3f 1d1a a93f
00000110: b325 2b40 3ad1 7140 0cf6 6f40 c721 3f3f
00000120: cd5d a140 2986 8b3f ffc9 40bb 2fc4 1c3f
00000130: 7042 9fbb 48ae bf40 e109 3b40 8a96 993f
00000140: c3ee 8140 74a3 e73f afb4 a83f cda7 d53f
00000150: f055 fd3f 166b a840 a15c b740 f1d1 6440
00000160: 4f4c 433c 638f a440 8ab7 ed40 8e85 a040
00000170: 307a 833b a585 e640 9b82 8940 4d1d f740
00000180: 2a81 9537 226d 8040 973a 8f40 7209 8340
00000190: 7b78 8e3d 20c6 8940 95ef 293c 20c4 0241
000001a0: ac0e 0140 9d40 cb40 10d3 1c3f 5469 bc3f
000001b0: 5423 8e3f 3557 1640 7208 d240 8a64 2540
000001c0: 168e f93b f4c6 4b3f 4a7a 413f 6d4b eb3f
000001d0: 0878 0a41 f25e 5240 20b2 b240 f034 ae40
000001e0: ff54 9140 afef ac40 b1c4 8a3f 4163 9c40
000001f0: a9ea c73e 5025 8a3e 0db4 bc40 9455 d83f
0.4439094 1.4566494 4.6158824 5.4362307 0.91125715 2.4435003 7.997032 2.8935673
4.6106167 0.7649721 2.8332117 0.5597639 6.2087665 3.4573905 5.0371947 4.8015895
2.0481162 3.6551764 5.66557 5.8277245 5.0733285 0.7209552 3.5190215 5.2024174
3.3327394 2.3166656 1.8236663 3.2485654 0.9924122 2.6790628 8.100344 2.224871
2.8958893 1.3412615 0.8453975 5.861346 2.435083 1.419048 1.6337681 3.2089565
5.3581767 4.598485 8.327133 0.88242537 0.018138843 4.5708623 3.187775 2.3489997
3.0036664 0.007359734 -0.005218937 0.0078426385 5.487928 0.9432965 3.4664338 2.0111725
1.2028508 8.596574 0.27602184 -0.0065554087 0.70099306 1.7495769 1.6557287 3.3664846
0.07957342 3.7489035 1.1072901 1.3211094 2.674176 3.7783952 3.7493925 0.74660915
5.0427003 1.0900317 -0.0029417274 0.6123685 -0.004860215 5.9900246 2.922478 1.1999066
4.0603957 1.8096757 1.318014 1.6691834 1.9791851 5.263072 5.7300572 3.5753138
0.011920049 5.1425033 7.4286547 5.016303 0.0040123686 7.203814 4.297193 7.7223268
1.782233e-05 4.013322 4.475902 4.094903 0.069565736 4.305435 0.010372062 8.172882
2.0165205 6.3516374 0.61259556 1.4719644 1.1104531 2.3490727 6.563531 2.5842614
0.007615815 0.79600453 0.75577223 1.8382393 8.6543045 3.287045 5.584244 5.443962
4.5416255 5.4042583 1.0841275 4.887116 0.3904622 0.26981592 5.896979 1.6901116

transformer.h.0.ln_2.bias f4 [128]
00000000: b2d4 2b3e 73cc bcbe 0742 a13f 800f 80bf
00000010: 3718 d2be bdc7 243f 4848 0fc0 953c 1b3f
00000020: 28d7 413f 5eb0 063f b062 0fbf 4738 223d
00000030: c517 b4bf bb0f 1abf 2759 ee3f c9b4 41bf
00000040: c314 23bf f28f 81bf 2d16 75bf 2273 e6bf
00000050: 363c 04bf a405 32bf 9f94 60bf 7f88 87bf
00000060: e9d0 16bf cf5b 863f 472a bebe b03c 423f
00000070: ca41 46bf 662a 343f 5a4b d93f f6c2 f43e
00000080: 8fd2 ffbc bf51 25be 3bc1 96be 26dc ccbf
00000090: 90ec 85bd 9dfd bd3e 94b6 45be 23c5 163f
000000a0: 8cf8 933f 0c92 6abf bc35 1640 7431 e73e
000000b0: 7c1b b8bb 768a b4bf 875e 903f 5bbf 313e
000000c0: 2616 85bf e3e8 0fbc fcce a63a 7005 64bb
000000d0: 2ff4 e53f 86e9 9a3c 31cb 4dbb 5fdb 973f
000000e0: 3701 babf a0fe e1bf 5cd6 7f3c c805 ca3a
000000f0: 60b7 1abe 936b 94be 5701 22bf 6cfe 613d
00000100: b608 0aba 21d0 a9bf 8c28 0e3d 6e56 193e
00000110: e9f9 7d3f 91f3 f8bf 3783 6bbe 437b 643e
00000120: b12a b8bf 71f5 4ebf 99e7 cbba 4196 f0bd
00000130: ed2c 103c ef6c f9bf b040 7c3f 9844 a63e
00000140: 99b6 bd3f 0db4 1a3f 617e 943d ce3c 1cbf
00000150: a712 5cbe 2c6c 9bbe 54e9 a83f f9d5 313f
00000160: 0a58 a9bb 3ba5 aebe 6b3d 0a40 5eee d23e
00000170: 1239 a9ba ab72 d8bf fe03 83be c48f 0a40
00000180: a709 babb b5c5 a3bf dac4 9dbf aa6d 583f
00000190: 6695 883c 9fea 673f 5837 d6bb f842 12c0
000001a0: f3a9 28bf 1c2d 68bf 2808 3dbd 6170 6f3e
000001b0: b8d6 eebe 7486 62be 3eef a2bf 6db3 953f
000001c0: def7 36bc 2aba cfbe 3b94 a2be 7ed2 953e
000001d0: c944 1940 eed1 25bf 9c88 e4bf 10a0 ee3f
000001e0: 9bb3 48bf f2e1 ae3f 14ed 2bbf b721 b33f
000001f0: f6ca fbbc 5ae7 043d b55e 7d3f 9049 643e
0.16780356 -0.36874732 1.2598275 -1.000473 -0.410341 0.64367276 -2.2387867 0.60639316
0.7571893 0.52612865 -0.5600996 0.03960445 -1.4069754 -0.6018025 1.8620957 -0.7566648
-0.63703555 -1.0122054 -0.9573696 -1.8003886 -0.51654375 -0.69539857 -0.8772678 -1.058853
-0.5891252 1.0496768 -0.3714163 0.7587385 -0.77444136 0.70377195 1.697612 0.47804993
-0.031228332 -0.16144465 -0.29444298 -1.6004684 -0.06539261 0.37107554 -0.1930793 0.58894557
1.1560225 -0.916291 2.3470297 0.45154917 -0.005618511 -1.4104755 1.1278847 0.17358153
-1.0397384 -0.008783552 0.0012726481 -0.003479328 1.7965144 0.01891018 -0.003140163 1.1863822
-1.4531621 -1.765583 0.015615072 0.00154131 -0.15109015 -0.28988323 -0.63283294 0.055174276
-0.000526558 -1.3266641 0.034706637 0.14974377 0.9920946 -1.944933 -0.22999273 0.22312646
-1.4388028 -0.80843264 -0.0015556692 -0.11747409 0.008799774 -1.9486369 0.98536205 0.32474208
1.4821349 0.60430986 0.07250667 -0.6103028 -0.2149149 -0.30355966 1.3196206 0.6946712
-0.005167966 -0.34110436 2.1599987 0.41197485 -0.0012910685 -1.6909994 -0.25588983 2.1650248
-0.00567742 -1.279471 -1.2325699 0.84542334 0.016672801 0.9059238 -0.006537359 -2.2853374
-0.6588432 -0.9069383 -0.046150357 0.23382713 -0.46648192 -0.22121602 -1.2729261 1.1695381
-0.011167495 -0.4057172 -0.31753716 0.29262155 2.3948233 -0.6477345 -1.785419 1.8642597
-0.78399056 1.3662703 -0.6715863 1.3994664 -0.030736428 0.032447197 0.98972636 0.22293687
