warmup/warmup_3_113_+_1.pth (torch, 824633 bytes, 17 tensors)

transformer.wte.weight f4 [14, 128]
00000000: af61 a8bc 066c f9bb 2a08 44bc 0cd5 0a3b
00000010: 3d18 38bb f014 453c f7e5 ff3c 0a35 003c
00000020: fb80 0aba 20bf 9abb bfee 5abc 4507 dbbc
00000030: 8db7 59bb 303a 333b 0f18 a6bc c19c 3f3c
00000040: ce6d a93c 83e0 2e3d 8633 6039 e921 31bb
00000050: beae 5fbc 30fd 51bc 6949 80bc 3758 b7bc
00000060: 1078 4ebc 1530 52bc 8ae0 593c b52c 4d3a
00000070: 7a60 cdbc ba35 99bb d20e c53b 87d7 b33b
00000080: 4204 8cbb e156 e83c 7925 56bc 8223 953c
00000090: 3dc6 bfba 5a6a f7b9 cf60 aabc 1d94 e73a
000000a0: a541 8c3b e756 abbc 9141 8f3a 421c d7bc
000000b0: 2d6b 613c 947b 673c e100 c63a 3216 d2bc
000000c0: 2952 c9ba d6d8 d03b e290 47bc a37e cdbb
000000d0: a0d8 4c3b 6bb7 18bc 1998 213b 8160 8cbc
000000e0: 1d40 a1bb 13da 3ebc 9bd6 843c 0631 7fbc
000000f0: b534 103c 0ea8 223b aed9 02bd 28ab 903c
00000100: 1d2a cebb ae6f 5f3c 0dd6 8fbc b2b1 9a3c
00000110: 8864 01bd b3f9 f4ba cc30 1f3b 2500 d2bc
00000120: 906b 333b aab7 523b 5fe4 08bc 7a0d 3a3b
00000130: c3dd 61bc 0fa0 003b 6157 60bc 7af2 abbb
00000140: 83a3 03bc 2ce7 46bc a610 53bc 80c0 03bc
00000150: 727f 89b8 c1f7 69bc 801d 4c3c 7a70 2e3c
00000160: 77be 70bb fa43 e33a b34c a23c c19a 30bb
00000170: efd1 22bc f6ff 99bc dcab d43b a753 65bc
00000180: 2941 17bc 56fb 34bb 80c9 d7bb 4f8c 8cbc
00000190: 6703 34bc 2e42 363c ca03 5dbc a44d 8fbb
000001a0: 035d fcbb 35cf 05bc a622 de3a 0b8c 9a3c
000001b0: ddf2 43bb 9590 9cba 03c3 8b3c ce8b e2bc
000001c0: ec55 97bc 086e 6dbb 42d0 07bc f554 18bd
000001d0: 65d5 22bd ca63 05bc de86 51bc eae8 603c
000001e0: 5146 60bc 0bcb 6d3d 914f 583c 1bf3 d13b
000001f0: ae50 c2bc 7863 2bbb e792 60bc d003 f8bb
00000200: 377d 1abb d218 d83c 0c4a 00bc cd6c 933c
00000210: c7b7 193c 66e0 7b3c ca79 593d ee1f ddbb
00000220: 7d63 fb3b 7d52 763c 03cb 23bc 7b64 b2bc
00000230: c6d0 30bc ef05 cabb c4aa b3bc fa33 ffbb
00000240: 1601 b6bc 061f 1ebd f89d 0cbd 5402 4e39
00000250: d521 0bbc 1c02 ffbb 3377 87bc 3b0a 52bc
00000260: 7bed 01bc 0fdd 30bc c5ec dcbc f150 c4bc
00000270: 864c 1bbd 6d42 a0bb f33a 283d 6cd6 28bd
00000280: 490e 36bc 5c9c d0bb e856 f8bb 18e0 04bc
00000290: ba74 3b3d 5b1a b1bc f897 643b b356 993b
000002a0: b0d9 7b3b 4122 83bb 7e16 ab3b a03a 53bd
000002b0: eb0f a7bc 51f5 163c c1c0 853c 7f9c fb3c
000002c0: 4746 e43b 3d9d e5bb ecc2 00bc 72c7 48bd
000002d0: c765 b8bc 77d5 26bd 40c1 50bc e6e5 8ebc
000002e0: eae8 90bb d3c1 70bc 0961 e53b 382d 1bbc
000002f0: 345f 1abb c328 6f3b 4622 133b e5e8 cf3b
00000300: a74f 03bc bfcb 453b f137 73bc a369 babc
00000310: e491 e0bc f937 733b 035e c8bb 3d1b e63c
00000320: 49ec 04bd b5bf 69bb e4df f93b ae34 21bd
00000330: ffec ddba 48cd d63c 2d91 32bc 32c3 18bc
00000340: e254 3a3b c898 e4bc 49bf f1bb 227c 27bd
00000350: 270a 173c 23bb 28bc c600 d8bc 44ae 683b
00000360: 7dc4 b0bc 24ef 89bb a152 02bc 284c 3e3b
00000370: 99a4 26bb 43bd 7dbd 6e9f c1bc 1927 20bc
00000380: 13b7 be3b eb1f cc3b 382c 4abb eeba a1bc
00000390: e4ae 823b 9337 eb3b f49d 27bc 1ec2 86bc
000003a0: 0f6c b9bc 87da 273b 60af 10bd 68e1 153d
000003b0: acec 703b 49a9 f7ba dfc3 143c 907f 8fbc
000003c0: 61c7 71bb e099 d6bb 2227 eb3c 9c84 1cbd
000003d0: 1e8d 64bc d6c0 873b b0e0 10bc 6e09 de3c
000003e0: 1f0a 55bc 8e0b af3d 93ad 8fbc 0377 1abc
000003f0: b43c babc 06c8 913c 89d6 37bc 7dee 833b
-0.020554392 -0.0076117544 -0.011964837 0.0021184115 -0.002809062 0.012028918 0.031237585 0.0078251455
-0.0005283502 -0.004722491 -0.013362586 -0.026736865 -0.0033220977 0.0027347915 -0.020275144 0.011695088
0.020682242 0.04269458 0.00021381499 -0.0027028269 -0.013652502 -0.012816712 -0.015660005 -0.022380931
-0.012601867 -0.012828846 0.013298163 0.0007826791 -0.025070418 -0.004675594 0.0060137296 0.0054883393
-0.0042729685 0.02836174 -0.013070458 0.018205408 -0.0014631223 -0.0004719075 -0.020798115 0.0017668043
0.0042802864 -0.020915462 0.0010929574 -0.026258592 0.013758463 0.014128584 0.0015106463 -0.02564535
-0.0015359569 0.006373505 -0.012180539 -0.0062712 0.0031257048 -0.009321074 0.0024657308 -0.01713586
-0.004920973 -0.011648673 0.016215613 -0.015575653 0.008801629 0.0024819407 -0.031945877 0.017659739
-0.0062916414 0.013637466 -0.017558122 0.01888356 -0.031590015 -0.0018690139 0.002429056 -0.025634835
0.0027377345 0.003215293 -0.008355229 0.002838938 -0.013785782 0.0019626652 -0.013692708 -0.0052474113
-0.00803459 -0.012140077 -0.012882387 -0.008041501 -6.5564076e-05 -0.014280261 0.012458205 0.010646934
-0.003673462 0.0017338984 0.019811964 -0.002694771 -0.009937747 -0.01879881 0.006490214 -0.013996995
-0.009231844 -0.0027615628 -0.0065853 -0.017156748 -0.010987139 0.011124177 -0.013489673 -0.004373269
-0.0077015175 -0.008167078 0.0016947582 0.018865606 -0.0029899396 -0.0011944944 0.017060762 -0.027654555
-0.018473588 -0.0036228914 -0.008289399 -0.037190396 -0.03975429 -0.008141467 -0.0127885025 0.013727406
-0.01368864 0.058054965 0.013202564 0.0064071543 -0.023720112 -0.0026151817 -0.013706899 -0.007568814
-0.002357317 0.026379023 -0.007830154 0.017996216 0.009382195 0.015373325 0.053094663 -0.006748191
0.007671772 0.015034315 -0.009997132 -0.021776428 -0.010791963 -0.006165258 -0.021932013 -0.0077881785
-0.022217315 -0.038603805 -0.03433034 0.00019646558 -0.008491953 -0.007782234 -0.01653633 -0.012819822
-0.007930155 -0.010794892 -0.02696837 -0.023964377 -0.037914775 -0.004890731 0.041071843 -0.041220114
-0.011111804 -0.0063662957 -0.0075787194 -0.008110069 0.045765616 -0.021619013 0.003488062 0.004679525
0.0038429312 -0.004001886 0.005221187 -0.05156958 -0.020393332 0.009213761 0.016327264 0.030714272
0.0069663855 -0.0070072697 -0.007858973 -0.04901833 -0.022509469 -0.04073092 -0.012741387 -0.017443608
-0.004422297 -0.014694649 0.007000093 -0.00947123 -0.002355528 0.0036492802 0.0022450848 0.006344902
-0.008014596 0.0030181257 -0.01484488 -0.02275545 -0.027413316 0.003711222 -0.0061147227 0.02808916
-0.0324519 -0.0035667245 0.007625567 -0.03935688 -0.0016931592 0.026220933 -0.01089887 -0.009323882
0.0028431942 -0.027904883 -0.0073775393 -0.040889867 0.009218729 -0.010298523 -0.026367556 0.003550426
-0.021578068 -0.004209416 -0.007954271 0.0029037092 -0.0025427698 -0.061948072 -0.023635592 -0.009774947
0.005820164 0.006229391 -0.003084911 -0.019742455 0.0039881337 0.007178256 -0.01023053 -0.016449984
-0.022634534 0.002561243 -0.0353235 0.036591917 0.0036762161 -0.0018895055 0.009079902 -0.017516881
-0.003689252 -0.006549105 0.028705183 -0.038212404 -0.013949661 0.004142861 -0.008842632 0.027104106
-0.013002901 0.08547126 -0.017538821 -0.009427789 -0.022734024 0.017795574 -0.011220583 0.0040262328

transformer.wpe.weight f4 [32, 128]
00000000: 3ca4 3ebb c8c9 ab3b e121 94bc e21c 61bc
00000010: 69a8 163d bc4a cebb 4e08 bfbc 02c5 09bc
00000020: 5ce3 ef3b cec0 77bc ec84 92bc 54fb 823c
00000030: 7690 763c e44e a03c 1c1e 4b3c dadc 36bc
00000040: b259 63bc f5ea d7bc 462c b1bc 8f02 bfba
00000050: 8738 87bc 30a6 75bc 422e 1e3c 293d 533b
00000060: 6a4c 38bc 2d89 6fbb 063f 88bc 8acc 86bb
00000070: 7186 393c cd20 da39 9c0d 4f39 7dd1 1cbc
00000080: c2ba 37ba b5ee 81bc e68f cebc 65cb 90bb
00000090: 0b21 8fbc 848f 1b3b 60f0 ddbb 0c5e 653b
000000a0: ea22 bbba 1353 15bc 7c24 cb3c 762f 36bc
000000b0: 052d 75bc 3c81 8fbc 752f fe3b faf1 44bc
000000c0: ad70 44bb 68c2 cd3b f37c 83bc f625 6cba
000000d0: 908a b63b 7436 e0bb 688d ce3c c1b4 f8bb
000000e0: 22e0 24bb 2ba5 763c deb9 b6ba 60bf 4ebc
000000f0: f91f 983b a1a5 f5bb 2306 da3a 822b d8b8
00000100: eeac fdbc 5e78 dabb b01b 043c b770 edbc
00000110: 0c92 c3bb b586 4fba 2201 313c 6092 74bb
00000120: 72b7 0cbc 881d 183c a77b aa3c 8eca 40bc
00000130: 6237 95bb 635d 09bb 6b99 90bc 38c4 d1bb
00000140: e655 96bc d12c 1a3c f4b6 c9bc 95b2 dc3b
00000150: fdf5 62bb 7ded a0ba 9a62 37b9 c257 c93b
00000160: 7e7b 1e3c b2d9 19b9 9f44 2d3c 9ccc 3ebc
00000170: 1a6c 0d3b aca3 723c 3820 42ba 1825 d2bb
00000180: 725d 32bb 1e37 d6ba e8f8 b7bc 43d5 fc3b
00000190: 3c47 52bc 32bf 87bc 0d7e 72bc f470 ac3c
000001a0: 6835 4f3b fe42 f73b f832 73bb f6e0 4abc
000001b0: c104 0e3c ccf5 e8bb fcb0 a5bc de55 5aba
000001c0: 2471 6dbb 1b30 2b3b 5518 16bb 1877 2c3c
000001d0: d8c6 6a3c 6886 01bc 3296 a3bc 4edf 66bc
000001e0: 6a7a 24bc b692 963d 0e36 bfba b744 893b
000001f0: 8d47 c3ba 7b88 1e3c 8570 49bc 65ab ae3c
00000200: 4960 abbb 8fa2 adbb 558a 70bc 5123 a23b
00000210: ae08 d43b a6c7 f73c 2db5 c6b9 f85e afb8
00000220: 31c1 563b 830c a93b 986b 12bc 4290 c4bb
00000230: c56a 50bd b9b4 623c 91f7 09bc f504 9f3b
00000240: bcc9 92ba 5003 9c3c ac39 27ba 0d55 06ba
00000250: 7388 93bc c2be 65bc 4d8c 65bc 1fb0 153a
00000260: ddc0 35bc 35ec adba dafb 8e3c 99f7 86bb
00000270: ce94 b8bc f3ee 4ebb 92f2 bf3b 9588 3d39
00000280: 1d9a 7b3c d415 093c 1916 8abc 8ff2 a03b
00000290: ecd8 b23c 543e 65bc 485b 1dba 5b98 683b
000002a0: 6475 fb3b 342c a03b 962b aaba 7e23 7fbc
000002b0: a486 393b 484a 9e3c b82e 70bb f9d9 443c
000002c0: 5fc3 bd3a c32f c23a e418 8abc 206f 86bc
000002d0: 68ec 38bc 781a ebbb d21e 893c 1952 abbb
000002e0: f8aa d53a a57c bd3b ca2c b23c 4dad 47bc
000002f0: 2511 0f3b afed 6d3a e070 363b b85e 183b
00000300: 5a4a 48bc 1a58 633b 3a67 29bc 2490 0d3a
00000310: ceb6 25bc 3514 90ba f2ef 3fbc eaeb 383b
00000320: cb24 193c 9ec2 193c 963c 8fbb 3e27 2c3b
00000330: ea13 f0ba d9d2 003c 574a 16bc 9f11 8e3b
00000340: 11ad 503c 8c98 fdbc b386 8ebc 17e1 9dbc
00000350: b7f9 193b baa4 08bb b8ce d4ba c9d6 f4bb
00000360: f3bf cdb9 0eb3 a23a 2f14 38bc 6c67 f0ba
00000370: 9aa7 ddbb 793d 10bd 66f0 a13c 1716 23bc
00000380: e086 3a3c 4734 3fbb 5432 713c e116 94bc
00000390: fb13 c83b 3777 a33d 3eaf 0cbc 94ed 3d3c
000003a0: 1f52 f3bb 7737 ffba a8be 0cbb 2f36 733c
000003b0: d236 dc3a def9 26bc c7a5 b73c ea65 e6bb
000003c0: 6c79 9cbc df6d 3cbb 7ac2 88bb b4da 93bc
000003d0: 00b3 96bc 7cfe d13b e434 06bc b17e a43c
000003e0: e657 01bc 9495 e6bb 80be 87b9 f3f0 57bc
000003f0: a817 223a 8075 8ebb 26e7 c9bb d8b6 f6bb
-0.002908959 0.00524256 -0.018082561 -0.013739796 0.036781702 -0.00629553 -0.02331939 -0.008408787
0.0073208045 -0.015121652 -0.017885648 0.015988983 0.015049091 0.019568868 0.012397315 -0.011161054
-0.0138763655 -0.026357153 -0.021627557 -0.0014572906 -0.016506447 -0.0149932355 0.009654583 0.00322325
-0.011248687 -0.003655027 -0.016631614 -0.0041137384 0.011323557 0.0004160464 0.00019746128 -0.00957143
-0.0007008725 -0.015860895 -0.0252151 -0.004418778 -0.01747181 0.0023736665 -0.0067730397 0.0034998683
-0.0014277373 -0.009114045 0.02479767 -0.011119714 -0.014964347 -0.017517678 0.007757122 -0.012020582
-0.0029974387 0.0062792785 -0.016050791 -0.0009008342 0.005570717 -0.006842429 0.025213912 -0.007589907
-0.0025158008 0.015054028 -0.0013940891 -0.01261887 0.0046424833 -0.007496551 0.0016633909 -0.000103077866
-0.030966248 -0.006667181 0.008063242 -0.02898441 -0.005968338 -0.0007916496 0.010803493 -0.0037318692
-0.008588659 0.009284385 0.020810915 -0.011767043 -0.0045537213 -0.0020960204 -0.01765128 -0.006401565
-0.018351506 0.009410099 -0.024623372 0.006735156 -0.0034631484 -0.0012277808 -0.00017488972 0.0061444947
0.0096729975 -0.00014672315 0.010575443 -0.011645462 0.0021579326 0.01480953 -0.00074053137 -0.0064131133
-0.0027216342 -0.001634333 -0.022457555 0.0077158525 -0.012834366 -0.016570661 -0.014800561 0.021049954
0.0031617526 0.007545828 -0.0037109237 -0.012382736 0.008668126 -0.0071093794 -0.020225994 -0.0008328835
-0.0036230767 0.0026121202 -0.0022902687 0.010526441 0.014329635 -0.00790558 -0.01996908 -0.014091326
-0.010038951 0.07352202 -0.0014588253 0.0041890997 -0.0014898643 0.009676094 -0.012294893 0.021321962
-0.005229984 -0.0052989195 -0.014681418 0.0049480577 0.0064707613 0.030246567 -0.0003790049 -8.3623396e-05
0.003276896 0.005158962 -0.008936785 -0.005998642 -0.050883073 0.013837033 -0.008420841 0.004852886
-0.0011199038 0.019044548 -0.0006379138 -0.0005124368 -0.0180094 -0.014022531 -0.014010501 0.0005710143
-0.0110933455 -0.0013269248 0.017454077 -0.0041188714 -0.022531893 -0.003157553 0.005857774 0.00018075325
0.015356568 0.008367021 -0.01685624 0.0049117277 0.021831952 -0.013991911 -0.00060026767 0.0035491202
0.007673906 0.004888082 -0.001298296 -0.015572427 0.0028309012 0.01932253 -0.003664894 0.012014859
0.0014477781 0.001481526 -0.016857572 -0.01641041 -0.011286832 -0.007174786 0.01673833 -0.0052282927
0.0016301563 0.005782681 0.021749873 -0.012187314 0.0021830287 0.000907625 0.0027838275 0.0023249816
-0.012224758 0.0034689964 -0.010339553 0.0005400202 -0.010114385 -0.001099235 -0.011714922 0.0028216788
0.009347151 0.009384779 -0.004371236 0.0026268507 -0.0018316482 0.00786277 -0.009172997 0.0043355967
0.012736575 -0.03095653 -0.017398214 -0.01927237 0.002349479 -0.0020850138 -0.0016235923 -0.0074718934
-0.0003924366 0.0012412982 -0.011235281 -0.0018341369 -0.0067643644 -0.035214875 0.019767951 -0.009953997
0.011384696 -0.0029175447 0.014721472 -0.018077316 0.0061058975 0.07981723 -0.008586703 0.011592288
-0.007425561 -0.0019471486 -0.0021475945 0.014844461 0.0016801006 -0.010191409 0.022417916 -0.007031192
-0.019100867 -0.0028752012 -0.004173574 -0.018048622 -0.0183959 0.0064085107 -0.008191321 0.020079942
-0.007894492 -0.007036874 -0.0002589114 -0.013180005 0.00061833346 -0.004347503 -0.0061615882 -0.007529121

transformer.h.0.ln_1.weight f4 [128]
00000000: 4192 f53f 5347 303f 9035 0b3b 0fbb fe3e
00000010: 4e90 9f3f ba28 883f 4d58 2040 62d6 b83f
00000020: ca2d 4a3f 50b0 c63e 6d81 543a b3ff d03f
00000030: e1d4 5b40 834e ca3e 3c3b 343f b976 c23e
00000040: 328c 5440 562e 003f 6f76 113f 34f2 433e
00000050: f26c 9039 77a8 063b 63e2 ee3f 84d1 1340
00000060: 6ad0 b5ba 7f2d 343f 321c 553f 7abd 1240
00000070: e426 283f c13c 8b3f a835 463f 8ab1 273f
00000080: ac12 3b3f e5c1 473f b2be 723b 8a5b 233e
00000090: 8874 ac3f f5ad b73f 26e5 1440 5c90 e83f
000000a0: 77d8 de3e c8e1 1f40 3a6c 2e3f 7a90 d33e
000000b0: 3881 253f aebe 093f 1885 8b3e 7cd4 303f
000000c0: 3ea6 2f40 b63b 093e 74b5 613a a3cd 023f
000000d0: ac5e 443f 06f0 4b3f 03f6 f43e fbe6 033f
000000e0: 3cf5 0d3e 333e 9c40 7930 713f d0b0 573b
000000f0: 2a7a 6f3f 7b6e b13e b0e5 6640 bcd7 c63f
00000100: 51a4 123f f01b 3140 f3dd f9ba 5c9a 2b3f
00000110: 358d 3f3f dce5 223e 9c24 7140 f75b 0f3f
00000120: 5b31 3b3f 64e9 123f 9dc4 063f fc23 733f
00000130: 298f 9d3e 767f 183f a557 e439 0327 813f
00000140: af8e 4f3f 759a 283f c9ac fc39 2eb8 523f
00000150: 1f74 243e db06 3b3f d932 403f 9c8b 123f
00000160: f2f7 373f d32a 043e 8b60 143f cbf1 873f
00000170: 63d8 1b3f 1f96 263f 0383 ef3e 74af 0b3a
00000180: d6ef 7c3f 9636 1e3e 4b28 803f 3274 1c3f
00000190: eb6f 2d3f efb5 8340 70f7 c0ba 2675 4d3f
000001a0: 9955 353f 7bc7 173f f615 933f d9bc 803f
000001b0: 9dfe 453f 7ce9 983f 46e8 083f 7a8f 063f
000001c0: ce1c 093f 2476 fa3d 00a0 b03e f0b2 1240
000001d0: 3cb2 b53e c999 273f 229d fd3a 92cf cd3f
000001e0: 8782 90bb 8ba3 ad40 9bf2 0640 b614 9e3f
000001f0: 4261 563f 02ee 273f 951b 1bbb 8907 9a3f
1.9185258 0.6885883 0.0021241643 0.4975209 1.2465913 1.0637429 2.5053895 1.4440424
0.7897612 0.3880639 0.0008106444 1.6328033 3.434868 0.39513025 0.70402884 0.37981203
3.3210568 0.50070703 0.5682134 0.19135362 0.0002754699 0.002054719 1.8662838 2.3096628
-0.0013871316 0.7038192 0.8324615 2.2928147 0.6568434 1.0877916 0.7742562 0.6550528
0.73075366 0.78030235 0.0037039933 0.15952888 1.3473063 1.4349962 2.326486 1.8169055
0.43524525 2.4981556 0.6813389 0.41321164 0.646503 0.5380658 0.2724998 0.69074225
2.7445216 0.13401684 0.00086101075 0.51095027 0.7670696 0.7966312 0.47843942 0.51524323
0.1386308 4.8825927 0.9421459 0.0032911785 0.9354578 0.34654602 3.607769 1.5534587
0.57281977 2.7673302 -0.0019063338 0.6703241 0.7482484 0.15907997 3.7678595 0.559997
0.73122185 0.57387376 0.5264376 0.9497678 0.30773285 0.5956949 0.0004355285 1.009003
0.8107709 0.6586068 0.0004819392 0.82312286 0.16059922 0.73057336 0.7507759 0.57244277
0.7186271 0.12906961 0.5795981 1.0620664 0.60877055 0.65072817 0.46779642 0.0005328574
0.9880346 0.1545051 1.0012296 0.611148 0.677489 4.1159587 -0.001472218 0.8025688
0.70833737 0.5928876 1.1491077 1.0057632 0.77341634 1.1946254 0.5347942 0.5256268
0.5355958 0.12229565 0.3449707 2.2921715 0.35487545 0.6546903 0.0019349197 1.607897
-0.0044100913 5.4262137 2.1085575 1.235007 0.83742154 0.65597546 -0.0023667563 1.203355

transformer.h.0.ln_1.bias f4 [128]
00000000: 764e 463d 8da0 633d 1a8e 4c3a e987 363d
00000010: 0a05 1bbe 169d 45bc c3c4 9a3e be36 5c3e
00000020: adcf 52bd 231b 593d 3923 8fba b008 8c3e
00000030: bf6f 26bf 4afb fa3b 11eb 433d a8bf 233d
00000040: ced9 9a3c 08e9 313c e5bb a2bd 5792 283d
00000050: 2205 feb9 8853 2b3b 4090 eb3d 0dae e9bd
00000060: fbe9 ccb9 7d6a 87bc 29bf c83d 32b4 033e
00000070: efce e0bd c9db 033c 06af ff3d fdee 68bd
00000080: e343 c03d 9044 373d 89e4 97ba 72e3 2d3c
00000090: 79b4 df3d f133 cdbd 2ca0 0abe fcb0 0fbe
000000a0: 5556 193e ee11 393c 5e19 69be 3f89 9dbd
000000b0: 6e00 ac3d 6de9 6a3d d08a 423d 307e 533e
000000c0: 230f 9e3c 650c d83b c144 033b 6455 4dbd
000000d0: aa87 11ba 1a39 2bbe 439a 8bbc d7e4 473d
000000e0: ad6b bd3b 09b2 613d bafa 9ebd 631e 903a
000000f0: 4dd2 243e f4c5 583d 2dd0 05bf 84fc 0dbd
00000100: 180a 353d 87a4 8ebd df03 263b 5482 0cbc
00000110: 336c 253e 1590 8c3c 1fce cbbd 25bf 533e
00000120: 7bd0 b9bc 4b84 4abc ffdd 2dbd a9b2 f4bd
00000130: 0fa6 eb3d a30d 363e 3cd6 a93a 568b 613d
00000140: e5cf a13d 8ae0 15be 4bae a83a b7fc 71be
00000150: 024c a83c cc32 8bbd 219d 5cbc 9040 063e
00000160: f3d2 0b3e bac9 ab3b a9ee ea3d 0f6a 443c
00000170: c64e 803d 31e4 98bd c960 52bc c2e9 08b9
00000180: efe6 203e c1e3 933c 2bc7 1d3e 51f3 773d
00000190: a404 90bc b43a 4c3f 7060 56bb 58b7 c5bd
000001a0: fb21 08bd ce45 15bd 1500 f2bc 81a3 cbbc
000001b0: 9ae4 1e3e 58d5 923d 4ced b43d bf84 dc3c
000001c0: 4674 393e 2b8a ab3b e09f 0f3e f8e2 4f3d
000001d0: 8dc0 e7bb 0540 9b3d 6adf ce39 511d 453e
000001e0: 6981 c2bb 9782 a93e db43 b3bd d42e 013e
000001f0: f0d2 e5bd d959 3b3e 58f0 88bb bac2 0bbe
0.04841467 0.055573035 0.0007803157 0.044563208 -0.15138641 -0.012061378 0.30228242 0.21505257
-0.051467586 0.053004395 -0.0010920531 0.27350378 -0.6501426 0.0076593505 0.0478316 0.0399777
0.018902685 0.010858782 -0.07945994 0.041155186 -0.0004845048 0.0026142318 0.11502123 -0.11410151
-0.0003908424 -0.01653027 0.09802086 0.12861708 -0.109769695 0.008048006 0.12484555 -0.056868542
0.09387948 0.04474312 -0.0011588495 0.010613309 0.10923094 -0.10019673 -0.13537663 -0.14032358
0.1497434 0.011295779 -0.22763583 -0.07692193 0.083985195 0.05735152 0.047495663 0.20653605
0.019294327 0.0065932744 0.0020029994 -0.050130263 -0.00055515266 -0.16721001 -0.017041331 0.048802223
0.005780658 0.05510143 -0.07762666 0.0010995384 0.16095848 0.052923158 -0.52270776 -0.034664646
0.04419908 -0.06964975 0.0025331897 -0.0085759945 0.16154556 0.017158547 -0.09951424 0.20678385
-0.022682419 -0.012360643 -0.04244804 -0.11948139 0.115062825 0.1777864 0.0012957524 0.05506452
0.07900981 -0.14636436 0.0012869326 -0.2363156 0.020544056 -0.06796798 -0.013465197 0.13110566
0.1365469 0.0052425535 0.11471302 0.011988177 0.06265025 -0.07465399 -0.012840458 -0.00013057052
0.15713094 0.018052937 0.15408008 0.06053478 -0.017580338 0.79777074 -0.003271129 -0.09654111
-0.03323553 -0.036443524 -0.029541055 -0.024858238 0.15516892 0.07169598 0.08834323 0.026918767
0.18110761 0.0052349768 0.14025831 0.050753564 -0.0070725144 0.0758057 0.00039457838 0.19249465
-0.005935837 0.33107445 -0.08753177 0.1261552 -0.11221874 0.18295993 -0.004179042 -0.13648501

transformer.h.0.attn.c_attn.weight f4 [384, 128]
00000000: 1c72 493b 5c50 4abb 791a 7abc 3c61 143b
00000010: 716a 003a 2b5a 143a c7ca e1ba 5cb2 0d3a
00000020: 83b3 6cb9 817a 883b 20cc c13b 7e6b a6bb
00000030: 3c5d c03a f35c 06ba 43dd 5e3b a702 bd3b
00000040: 65e7 1ebc 7baf 0c3b 4ca6 cdb8 cdd9 e5bc
00000050: 93e8 bc3b 849e 073c 7c48 ae3a bf3b 573b
00000060: dc51 123c 1a18 4a3b c7a9 00bb 64dd 95bb
00000070: 44a8 ad3b f068 bb3a 673d 253b f7c3 00bc
00000080: 68f1 40bb 691a 01bb ebe7 2dbc 0010 1bbc
00000090: a8e7 9fba 606c e4ba 6c4f 06bb 4091 b7ba
000000a0: 4471 633b 103a d7ba 48ff c5ba 7841 223b
000000b0: fb4b 4cbb d38d 54bb b970 93bb 0983 993a
000000c0: 632b 0abb 5fae 96bb d528 c5bb fe85 98ba
000000d0: b43d 2cbb 6b30 d23a 1d88 44ba c0ff 783b
000000e0: d9cb 263c 6171 25bb 4723 b0ba 48f5 95bc
000000f0: eafd 0abb 17c3 10ba 57be 943c ef18 853b
00000100: 533c 00bb 61cc f1ba 0b8b 15ba 66fb 87ba
00000110: 0b42 30bc a7b2 263b 0a85 9a39 de0c 7f3b
00000120: 8070 05bb 2a0e 96bb d522 3f3b 575a e1bb
00000130: 30d9 c93b e60d b2bb bdb0 473c 9b70 8d3b
00000140: be48 c4bb a146 953a 36bb ee3a 7b1f d13a
00000150: 4318 39bc 3bb5 10bb d066 bd3a 5bd6 133b
00000160: 5d5b ebba d629 23bc 100c b83a 912d 60bb
00000170: 555d 163b d86b 943b ea63 ac3a 3560 c13b
00000180: 5acb fe37 c397 ca3b 8d85 83b9 cb50 733b
00000190: 12f5 003b f4b0 9aba fab7 183d d9ab d439
000001a0: fdd4 87ba d938 b73b d6de d7bb a0f0 933b
000001b0: c3bc 0b3b 57f7 0dbb 3f52 cd3a 8706 6e3b
000001c0: 7e99 61bb 4def 79bb 88af b3bb 45c5 b83b
000001d0: 2088 c337 7bce 123c 9d1c 1fbc 1773 d83a
000001e0: a170 0cbc 873d 37b9 c1d9 343b 548f dc3a
000001f0: 85a0 16bb 67af 7fbb f987 40bb 00a7 f939
00000200: a78a b3bc a3c4 f03b bd74 23ba 49b9 efbc
00000210: b3b7 89bc f61f a33b f264 98bc 6a5d f2bc
00000220: c51d 1f3c 6a61 f43c 8657 8b3c aefe b4bc
00000230: b8f1 a8bb 5b40 2ebc 52e8 bdbc c51a 4cbc
00000240: a5db 93bb cad5 96bb f038 bdb7 12b7 86ba
00000250: 2022 d83b b459 bebb b8d2 703c 762d e1bc
00000260: fdb3 b1ba 92b4 2bbc fca3 1a3d 1eaf 113d
00000270: 01ef ebbc 5f43 b63c 08e5 6f3b ef6d c8bc
00000280: 75ed 1ebd c513 e6bc 5ff1 80bc e077 1b3d
00000290: bf89 c93b 0f6e fd3c 72fc 6fbd 7a8b 25bd
000002a0: e99d 323b 7252 1fbd 2576 d63a 977b 1aba
000002b0: 0f01 9c3c cc94 1b3d 94d9 c03c 012e 193d
000002c0: 2b99 dd3b 2f9a 48bc 6b9f 2f3a d293 a83c
000002d0: 60c9 52bd e87c e53b 5264 e8bc cdd3 8c3d
000002e0: bdd3 2fbc a906 6d3c 58de 39bb 6474 10bc
000002f0: 1eb8 143d 2b8e 8d3b 5313 f3bb 0bb5 1bbc
00000300: 22be 4c3c 9f82 9dbc fb19 ae3b 3026 d43c
00000310: ccb6 423b e300 023d 9753 843c a9c7 2fbc
00000320: e309 88bc 2783 03bd b487 b3bc 726e ed3b
00000330: f67e be3c d57b be3c 2864 b9ba 9c0c 4b3c
00000340: 718c 543d 3128 96bc 09d2 67bc 83a9 0bbd
00000350: 06c3 583d 1878 80bb 747d eabc a3f9 933c
00000360: a5bb 143c 3111 613c d4c0 0a3c a0e2 e93c
00000370: c4f1 293d 4d4a c2bb 2347 42bc d71b ddbb
00000380: 278c cebc 6aa3 563c 9c54 56bc 8a97 84bc
00000390: 29b5 c6bc 7487 9d3b e8ff 093c f762 afbb
000003a0: 0ae6 e93a 35ec 4b3c d868 413d 7e92 273c
000003b0: be91 80bb df5b 1d3d e63a 71bc 6d16 0fbd
000003c0: 17bf cf3c 7dd7 753c 143b 6a3c 3445 bebc
000003d0: f5c7 d3bc 9bfa 0bbd 3117 b5b9 1aec dabc
000003e0: 2647 763c 7567 8a3c 2919 84bc a51e 423d
000003f0: d258 01bb 8f69 ff3c 696d 7a3b 7d26 10bd
0.003073818 -0.0030870652 -0.015265101 0.0022640964 0.00048986735 0.0005659188 -0.001722657 0.0005405301
-0.00022573587 0.004164994 0.005914226 -0.005078732 0.0014676224 -0.0005125545 0.0034006394 0.0057681384
-0.009698723 0.00214669 -9.806137e-05 -0.028057957 0.0057650297 0.008277539 0.0013296749 0.0032842008
0.00893065 0.003083712 -0.0019632445 -0.004573511 0.0052996 0.0014298242 0.00252136 -0.007859222
-0.0029440764 -0.001969958 -0.010614376 -0.009464264 -0.0012199776 -0.0017427318 -0.0020494116 -0.001400508
0.0034704963 -0.0016420502 -0.0015105987 0.002475826 -0.0031173218 -0.0032433167 -0.0044995216 0.0011712025
-0.002108299 -0.0045984234 -0.0060168304 -0.0011636612 -0.0026281895 0.0016036158 -0.0007497089 0.0037994236
0.010180437 -0.002524458 -0.0013438248 -0.018305436 -0.0021208473 -0.0005522235 0.018157167 0.00406181
-0.0019567206 -0.001844775 -0.0005704618 -0.0010374605 -0.010757933 0.0025436075 0.0002947229 0.0038917582
-0.0020361245 -0.004579325 0.0029165049 -0.0068772244 0.006159924 -0.0054337857 0.012188134 0.004316402
-0.005990117 0.0011388847 0.0018213752 0.0015954816 -0.011297288 -0.0022080678 0.0014450196 0.0022558186
-0.0017956306 -0.009958705 0.0014041681 -0.0034206847 0.0022943814 0.0045294575 0.0013152335 0.0059013613
3.0373852e-05 0.006182642 -0.0002508577 0.0037127014 0.0019677323 -0.0011802004 0.03728483 0.00040563827
-0.0010363158 0.0055914936 -0.0065878434 0.0045147687 0.0021322228 -0.0021662319 0.001566477 0.0036319809
-0.0034423764 -0.003813702 -0.0054835714 0.0056387507 2.33092e-05 0.008960362 -0.009711412 0.0016513792
-0.008571775 -0.0001747516 0.0027595612 0.0016827383 -0.002298386 -0.003901446 -0.002937792 0.00047617406
-0.0219167 0.0073476597 -0.0006235352 -0.029263156 -0.016811227 0.0049781753 -0.018602822 -0.029585559
0.009711687 0.029831607 0.017009508 -0.022094097 -0.0051557682 -0.010635461 -0.023182068 -0.012457554
-0.0045122677 -0.0046031224 -2.255707e-05 -0.0010277948 0.006595865 -0.0058090333 0.014698677 -0.027487498
-0.0013557669 -0.010480063 0.037754044 0.035567395 -0.02880049 0.022248922 0.003660502 -0.024466483
-0.038800675 -0.028085599 -0.015740095 0.03795612 0.006150454 0.03093627 -0.05859036 -0.04041622
0.0027254766 -0.038896985 0.0016362114 -0.000589305 0.019043474 0.0379837 0.02354125 0.03739739
0.006762644 -0.0122437915 0.00066994753 0.020578299 -0.051461577 0.0070034154 -0.028368149 0.06876335
-0.010731635 0.01446692 -0.0028361287 -0.008816812 0.0363084 0.0043199263 -0.007418075 -0.009503613
0.012496503 -0.019227324 0.0053131557 0.025897115 0.0029711006 0.031739127 0.01615314 -0.010728755
-0.016606277 -0.0321075 -0.021915294 0.007245832 0.023253899 0.023252407 -0.0014144229 0.012393143
0.051891748 -0.018329712 -0.014149197 -0.034097206 0.052920364 -0.0039205663 -0.028624274 0.018063372
0.009077941 0.013737009 0.008468825 0.028550446 0.04149033 -0.0059292675 -0.011857781 -0.0067477035
-0.025213314 0.013100484 -0.013081696 -0.01618554 -0.024256306 0.004807407 0.008422829 -0.0053523737
0.0017845046 0.012446453 0.047219127 0.010227798 -0.003923624 0.038417693 -0.014723515 -0.034933496
0.025359673 0.01500499 0.014296312 -0.023226358 -0.025852183 -0.034174543 -0.0003454029 -0.02672391
0.015031612 0.016895035 -0.016125279 0.047392506 -0.001973678 0.031178264 0.0038212186 -0.035192955

transformer.h.0.attn.c_attn.bias f4 [384]
00000000: 5794 2dbb 720a 283f 6434 d3bf db8d c63b
00000010: 8192 c43b cec7 083d 3604 a13a 5ac2 8b3f
00000020: caeb e63e 6918 843b 6391 b43f 776b d4bf
00000030: 1508 35bc 5c9e 013c dfb3 97bf 22fc 183c
00000040: 62cc b23f 2556 d83d 9a13 a8bf 2509 303e
00000050: 4e2d 0140 edea 4d3f e705 353b 964a 333a
00000060: 91e3 1e3b e39c cabf f08f f53f 4c5a bcbf
00000070: c784 debe ccfa e43a 882d 61be e4e8 c13f
00000080: 6a40 c9bf b398 d53f 4f8e a1bf d7a8 3abf
00000090: e6e2 e63f 921a d1be e116 d73e 4470 b23f
000000a0: 52f6 c83f 56e3 7ebf 028d d2bf ca46 8e3e
000000b0: 2c4d 153f feee cebf 205c 3b3e 8b18 52bf
000000c0: 332f a0bf 8b21 ec3e c021 8b3f ca20 d13f
000000d0: 9563 c13f fa92 c13f 2347 763e 99d4 223f
000000e0: 68b6 40bf 2f15 1a3e 4cf5 33bf 2cdc fabe
000000f0: 458f c6bf a729 d9bf d89c 603f 399a 433f
00000100: 36b4 af3f 7549 b53c 03c0 bc3e 7da7 0cbe
00000110: b4bc aa3f 68a4 0dbe 6ba1 0c3f 4f00 903e
00000120: 61b0 66be 9c55 58bf 5017 48bf e2f1 a9be
00000130: 29ea 803d 7989 953f 3be7 a03f 139b 13bf
00000140: 0434 8d3d fdf6 b5be e8a5 4f3f 7d80 dbbd
00000150: 34e4 2d3d 1049 adbe e8a2 5ebe 376a 93bf
00000160: 90ec 6b3e 95e6 febe 43d8 223f c4ee 833f
00000170: 49af 65bf fdc0 25be c31b f43e 9d3d 21be
00000180: f252 b0be 91ee 51bf d981 90be 003c 6cbf
00000190: 1b31 8a3e ca4e 5dbf 36c0 debd 03f6 dc3e
000001a0: d8d8 91bf c686 35be 5a65 83bf ff24 5abf
000001b0: 5061 393e bd15 5c3f 2c9f e73e 5c2f 433f
000001c0: 944e 2d3f 8a5d 7e3e d4e1 c63e faaa 3abf
000001d0: 10c6 2dbf 823b ae3e fa13 cabf 60fd 283c
000001e0: 7e75 a2be 6993 1fbf ac2f 59bf 2974 d1bb
000001f0: 0f80 3cbf e769 25bf 48ea a2bf 00e8 083e
00000200: 4189 343e 37ab 1a40 e394 f8c0 8fbc 2d3e
00000210: fff5 eb3d 60c1 803e a2b6 403e b840 d940
00000220: 6f80 3640 ce6e d73d 2abe 9c40 b61d fec0
00000230: 8f44 503e 6ce6 3ebe 19f0 d3c0 d058 dfbd
00000240: b514 de40 856f 06c0 edb3 d4c0 4d24 803f
00000250: 80f5 0141 479c 8b40 705a 403e 852a 053e
00000260: d843 9fbd 5ae6 efc0 fc02 0341 0e92 a6c0
00000270: 8e61 1b3e ce2d ac3d cce7 1540 398e f040
00000280: 8153 2dc1 3fe1 0b41 6df6 0ac1 d899 cbc0
00000290: fc53 1841 0fbc 52c0 95bc d83f 24fd 0441
000002a0: adbf ac40 bca6 cdc0 988e 0cc1 7ddf 8140
000002b0: 408a 6640 1281 25c1 5a27 003f 7fc4 8dc0
000002c0: f5f1 edc0 d993 fd3f 9ae9 d040 44f0 1741
000002d0: 05c2 1141 c395 0741 0406 1540 50d7 6740
000002e0: 066e 92c0 fb70 d53f 7017 a0c0 8233 89c0
000002f0: 0ac6 b5c0 8657 28c1 fdaf c140 450f c840
00000300: c0a6 3f41 ec5f b43e 7c52 393f 6ce1 8ac0
00000310: 90f9 3d41 2fb0 82bf b72a 313f 7ddf d7bf
00000320: 4ea8 72c0 1527 2cc0 e932 20c1 b5ab e6bf
00000330: ada7 24c0 b509 3a41 2cb4 3b41 233f 5abf
00000340: f3ab a7bf cdff 1fbf f257 2f40 e19b f4be
00000350: a5f5 51bf 50ec 1bbe 9a10 1c40 426f 36c1
00000360: c24a dd3f b97d eebe 021e 943d de21 9540
00000370: 51d1 3ac0 8e2f 4d3f 1bc7 8640 2b50 933c
00000380: 7133 8ebf 2102 b2c0 a2cb b3be fb2a 9fc0
00000390: b8f2 7440 3a49 08c0 a497 53c0 fcda 8840
000003a0: e327 b3c0 9847 debf 5bba a7c0 4705 8bc0
000003b0: 2727 b73e 6575 1f40 5f06 163f d4e4 ab40
000003c0: a143 9340 7c1a afbd 00ad 5340 4499 85c0
000003d0: 438a 51c0 7b41 853e 66c9 85c0 e1a4 163f
000003e0: f01c 2ac0 466a 53c0 20e3 67c0 ff5b 07bf
000003f0: 6aed 40c0 43f1 abc0 5624 49c0 b380 e7bf
-0.0026486123 0.6564094 -1.6500363 0.006059391 0.00599891 0.033393674 0.001228458 1.0918686
0.45101768 0.00403123 1.4106869 -1.6595296 -0.01104929 0.007911291 -1.1851767 0.009337457
1.3968623 0.10563306 -1.3130982 0.17190988 2.0183902 0.80436593 0.0027621926 0.0006839422
0.0024244527 -1.5829128 1.9184551 -1.4715056 -0.43460676 0.0017469763 -0.21990025 1.5149198
-1.5722783 1.6687225 -1.2621554 -0.7291388 1.8037994 -0.40840584 0.42009643 1.3940511
1.5700171 -0.9956564 -1.6449282 0.27788383 0.5832088 -1.6166685 0.18296862 -0.820687
-1.2514404 0.4611934 1.0869675 1.6338131 1.5108515 1.5122979 0.24050574 0.6360565
-0.7527833 0.15047143 -0.7029617 -0.48996103 -1.5512472 -1.6965836 0.87739325 0.764072
1.3726871 0.022129754 0.36865243 -0.13735767 1.3338838 -0.13832247 0.54933804 0.28125235
-0.2252822 -0.8450563 -0.7816057 -0.33192354 0.062946625 1.1682578 1.2570566 -0.576585
0.06894687 -0.3554 0.8111253 -0.107178666 0.04245396 -0.33844805 -0.21741831 -1.1516789
0.2303946 -0.49785295 0.6361124 1.030724 -0.8972059 -0.161869 0.4767743 -0.1574616
-0.34438282 -0.8200465 -0.28224066 -0.9227905 0.2699059 -0.8644835 -0.10876505 0.43156442
-1.13943 -0.17727193 -1.0265305 -0.852127 0.18103528 0.8597067 0.45238626 0.7624414
0.67698026 0.2484037 0.38844168 -0.7291714 -0.67880344 0.34029776 -1.5787346 0.010314316
-0.31730264 -0.62334305 -0.84838367 -0.006392021 -0.736329 -0.6461472 -1.2727747 0.13369751
0.17630483 2.4167001 -7.7681746 0.1696646 0.115215294 0.25147533 0.18819669 6.78915
2.851589 0.10519181 4.8982134 -7.941127 0.20338653 -0.18642586 -6.623059 -0.109056115
6.9400277 -2.1005566 -6.6469636 1.0011078 8.122437 4.362827 0.18784499 0.13004501
-0.07776612 -7.496869 8.188229 -5.205329 0.15173933 0.08407174 2.3422728 7.517361
-10.832887 8.742492 -8.685163 -6.3625298 9.520504 -3.2927282 1.6932551 8.311802
5.398398 -6.4266033 -8.784813 4.0585313 3.602188 -10.344011 0.50060046 -4.4302363
-7.435786 1.9810745 6.528516 9.496159 9.109868 8.474063 2.3284922 3.6225166
-4.5759306 1.6675104 -5.002861 -4.2875376 -5.6804247 -10.521368 6.052733 6.251864
11.97821 0.35229433 0.72391486 -4.3400173 11.873428 -1.0210017 0.692058 -1.6865078
-3.7915225 -2.6898854 -10.012429 -1.8021151 -2.572734 11.62737 11.731487 -0.8525259
-1.309935 -0.62499696 2.7397428 -0.47775176 -0.8201545 -0.15226865 2.4385133 -11.402163
1.7288439 -0.46580294 0.07232286 4.660384 -2.9190257 0.8015069 4.211805 0.017982563
-1.1109449 -5.56276 -0.35116297 -4.9739966 3.8273144 -2.1294694 -3.3061304 4.2767315
-5.598619 -1.7365599 -5.2414985 -4.344394 0.35772058 2.4915402 0.5860347 5.371683
4.6020055 -0.08549973 3.307434 -4.174959 -3.2740638 0.2602652 -4.180835 0.58845335
-2.6580162 -3.3033614 -3.6232376 -0.5287475 -3.0144906 -5.373201 -3.1428428 -1.8086151

transformer.h.0.attn.c_proj.weight f4 [128, 128]
00000000: ce6c 91bb 8fd6 c2bc 56a1 2abb 2729 9a3c
00000010: 98eb 013c eba5 8ebb c5b8 cfbb 687c 873c
00000020: 61e2 88bb d578 08bc fc35 57bb 47c8 9b3c
00000030: 2f40 51bc 5478 abbc 1948 a23c cc6c 163c
00000040: 3aef 023d 574c e5bb 03e3 ea3b ee3a 4e3a
00000050: 0cdb 88bb 0671 9bbb b605 72bb 18d1 e33c
00000060: 28e3 35b8 a008 caba 9f8f d6bc d4fe 0e3b
00000070: e316 453a 5e6d 2ebc d72c e1bb a934 d739
00000080: afde 2839 689a e6ba 5a0a 62bb b923 f23b
00000090: 0c9f 83bc 440e 773a e12b 0abb 808e 5a3b
000000a0: 2552 9e3c 6184 6d3b b008 4ebc 16bb 983b
000000b0: fd55 4d3c aa17 363b 370a 48bc f840 b9ba
000000c0: e429 a7bb 41f9 bfbb ce7b 413b fed4 3b3a
000000d0: 4e75 94bc 5e59 8a39 de1f 02bc e7ff 3b3c
000000e0: 0698 c13b 67ee 813b eefd 5e3b 0494 973b
000000f0: c8dc 57ba bf57 b6ba 825e 8dbb cee6 07bc
00000100: 1088 413c 6bf1 a73b 20cb 8437 e87d ac3a
00000110: 8ed4 bebc e5cd 68bb fa38 29bb 3b53 e73c
00000120: c869 ca3a 7657 a23b 5b92 d5ba 7af4 a3bb
00000130: 2da6 fbbb ddec 11bb 7ef9 393c 532a b5bc
00000140: 1692 353b 4ee5 9c3c 48de 963b d5a5 8abc
00000150: 8ba2 3bbc f701 013a 34ce d8b9 e0dc 8a3b
00000160: 3103 a7ba ca79 7e3b 987e 633a 3101 05bd
00000170: ab14 a1ba 48ba 623b 97a1 453c 493e 3b39
00000180: bd8b 753c ee58 d2bb b508 923b 1e1d 933b
00000190: 84d8 ba3b 9c04 18b9 b400 06bc 0a83 6b3c
000001a0: 58ef 023c 7db3 2fbc 3320 d2ba ed29 913b
000001b0: ff54 e63b 647f 683b 7b40 e9bb 6c9c 013c
000001c0: 7525 323d 1c73 10bc a5c3 e7bc 7175 2ebc
000001d0: ae8e aabc e48a c4bc 63ad 9c3c c905 393b
000001e0: c9c0 b53b db0a 8b3b cb21 55bb 7a97 973b
000001f0: 51be 163c 44ad 083d 29bc 02bc 21c9 5b3c
00000200: 269d 7bba 469e 0839 76ac 84bb a12e 173c
00000210: 7814 a5bb 4cc6 f5b9 010d c7bc e375 4d39
00000220: 6c4c 7abc 64a4 bb3c 5c2b ba3b 0759 66bc
00000230: b84d a73c 7e22 afbc 3b3b 093c 388d ba39
00000240: c5cc 2bbc 38c1 5b3b b4f6 23bb 0a99 89bb
00000250: 0f4a 0bbc a89b 6bbb 4cd8 3dba e95d 20bd
00000260: 46a6 683b 6def 7bbb 1bbf 8ebc 13b1 90ba
00000270: 8a4e ad3a 3e45 2d3d 5bfc 26bc 9c00 be3b
00000280: 1766 403c d4dd aaba 5131 ccb9 e62a 99bb
00000290: 595a ab3c ec11 d539 dadb 95b9 fcf2 423c
000002a0: 6732 c1ba 87cb b339 bd07 8a3c f098 89bb
000002b0: 5169 03bd 4059 6c3a a1ad 34bb 0dae 013c
000002c0: 083f 80bc 0ff8 0d3b 8bcc 86bc bf2d 8fbb
000002d0: 7bc8 05bc 67fc 51bb e7d9 bdbb fb85 443b
000002e0: be15 a3bb d78b d0bb 90f1 f03b cf7c a8bb
000002f0: 7358 35bc 7ab4 37bb 818d b93b 3388 88bc
00000300: 2a68 603c 58b2 50bb 2011 abbb 1e73 2a3b
00000310: 8762 4abc edda caba c755 5bbc ee97 003c
00000320: 033f d83c 3e5c 9b3b 2aea debb ee38 7bbc
00000330: 1fbd c53b e95f 4fbb 1812 b53b 6b1d 64ba
00000340: a831 533b 44d9 fb3c 8351 b93a d3db 673c
00000350: 8cb3 703c be94 2f3a 5813 d63b 127b bcbb
00000360: 2026 eeb9 9c82 4f3c 12ef e3bb 3e60 f33c
00000370: 70cb cdb7 c90d cdbb 68fb bf3c a810 afb9
00000380: a952 c1bb 7183 82bb bc15 42bb 5aa4 a63b
00000390: cd5b 383d 9450 14bc 1ffb d13b 1c54 cf3c
000003a0: 24c2 36bb 8cf3 56bb bb03 3d3c 7578 07bc
000003b0: b321 ce3a 423e 083c 39a5 213c 7b2b fc3c
000003c0: 8695 13bd 32aa ffb9 1c7e b5ba ad27 aa39
000003d0: c603 9c3c d110 f1bc 3380 c7bc 581a f0bc
000003e0: c936 a3bb a19e 563a f487 18bb 75ba 05bc
000003f0: 00b7 033c 6680 8cbc e266 fa3b ff87 f63c
-0.0044380194 -0.02378395 -0.0026036105 0.018818451 0.007929705 -0.004353275 -0.006339165 0.016538814
-0.004177377 -0.00832959 -0.0032838574 0.019016398 -0.01277165 -0.0209314 0.01980977 0.009181213
0.031966425 -0.006997626 0.007168175 0.00078670576 -0.004176503 -0.004743698 -0.0036929674 0.027809665
-4.336532e-05 -0.0015413947 -0.02619153 0.002181937 0.0007518364 -0.010646192 -0.0068718004 0.0004104723
0.00016104685 -0.0017593624 -0.0034491033 0.0073895124 -0.01606705 0.0009424428 -0.0021083283 0.0033349097
0.019326279 0.0036242234 -0.012575313 0.0046609743 0.012532708 0.00277851 -0.012209467 -0.0014133742
-0.0051014293 -0.005858571 0.0029523256 0.0007165222 -0.018122341 0.00026387995 -0.007942168 0.011474586
0.005908015 0.0039651874 0.0034025866 0.004625799 -0.0008234498 -0.0013911648 -0.0043142447 -0.008294774
0.011812225 0.005125215 1.5830214e-05 0.0013160082 -0.023294713 -0.0035523113 -0.0025821314 0.02823793
0.0015442902 0.004954274 -0.0016294228 -0.005003509 -0.007679722 -0.0022266426 0.0113509875 -0.022114908
0.0027705482 0.01915231 0.0046041347 -0.016924778 -0.0114523275 0.0004921252 -0.00041352364 0.004237756
-0.001274204 0.0038829916 0.0008678227 -0.03247184 -0.0012289485 0.0034595896 0.012062452 0.00017856913
0.0149869295 -0.0064192927 0.0044566044 0.004489555 0.00570208 -0.00014497567 -0.008178879 0.014374504
0.007991634 -0.010723946 -0.0016031325 0.004430047 0.0070291753 0.0035476321 -0.0071182824 0.007910829
0.043492753 -0.008816507 -0.028291533 -0.010648117 -0.020819988 -0.02399201 0.019125646 0.0028232208
0.0055466634 0.0042432374 -0.0032521363 0.0046262117 0.009200648 0.033368364 -0.007979431 0.013414652
-0.0009598307 0.00013028932 -0.0040488793 0.009227426 -0.0050378405 -0.00046877784 -0.024298193 0.0001959424
-0.015277009 0.022905536 0.0056814384 -0.014059312 0.020422801 -0.021378752 0.008375938 0.000355819
-0.010485833 0.0033531915 -0.0025018873 -0.004199152 -0.008501544 -0.0035950933 -0.00072420086 -0.03915206
0.0035499497 -0.003844227 -0.01742511 -0.00110391 0.0013222259 0.042302363 -0.010192002 0.0057984125
0.01174309 -0.0013036081 -0.00038946656 -0.0046743033 0.020917105 0.0004063988 -0.00028583297 0.011898752
-0.0014739753 0.0003429318 0.016849393 -0.00419914 -0.03208286 0.0009015985 -0.0027569311 0.007915032
-0.015655056 0.0021662747 -0.016454956 -0.004369467 -0.008165474 -0.0032041313 -0.0057937982 0.0029987085
-0.004976957 -0.0063643265 0.0073530152 -0.0051418315 -0.011068451 -0.0028031156 0.0056626205 -0.016666507
0.01369671 -0.0031844582 -0.0052205473 0.0026008557 -0.012352592 -0.0015476622 -0.01338715 0.007848723
0.026397234 0.0047412207 -0.006802817 -0.015333397 0.006034508 -0.003164286 0.0055258386 -0.00087018934
0.0032225642 0.030743249 0.0014138672 0.014151531 0.014691245 0.00066978845 0.0065330677 -0.005751976
-0.00045423303 0.012665417 -0.0069559896 0.029708978 -2.4532637e-05 -0.006257747 0.02343531 -0.0003339101
-0.0058997464 -0.003982954 -0.0029615005 0.00508551 0.045009423 -0.009052414 0.00640811 0.025308661
-0.0027886713 -0.0032798974 0.011536534 -0.008268465 0.0015726596 0.008315625 0.009866052 0.030782452
-0.03603127 -0.00048764196 -0.0013846788 0.00032454488 0.019044768 -0.029426964 -0.024353122 -0.029309437
-0.004980896 0.00081870897 -0.0023274394 -0.008162131 0.008039236 -0.017151069 0.007641659 0.030094145

transformer.h.0.attn.c_proj.bias f4 [128]
00000000: c4f3 bcbb b695 a33c 96e6 b5ba 1a29 bd3a
00000010: 0a7d c4bc 624f 34bc 65e7 923c e190 30bc
00000020: 94df a7bb 6f00 74bc b02e 5ebb 335d 91bb
00000030: 3c13 143c f14b 55bc 9916 87bc d70c 2abc
00000040: f183 893c 1b0c 76bc 6313 af3b bb32 fa3c
00000050: cf9e afb9 709a 8e3c 62b1 193c f476 3fba
00000060: a7c1 3fbc b0df 6dbc e656 3c3b 728e 1dbc
00000070: dea6 b23c 08b2 813c 3890 84bc b30a bd3c
00000080: 67bc 2ebb 161b 4dbc 40e6 2c3b 5867 783a
00000090: 9fa6 a83c ac18 82bc 1a34 683c b238 2dbc
000000a0: 89db 7ebc d1a3 7f3c c6f0 fcbc 28fb fcbc
000000b0: 5eb2 253b ed22 873c 8ff2 9dba 0eed cabb
000000c0: e8a7 a53c 5c38 d738 7f3e 36bc 0f7c 9fba
000000d0: a702 b73c c8de 49bc 8cec 24bd b993 583c
000000e0: c312 54bc db86 f4ba 5025 53bb b8b5 7d3c
000000f0: 61bb 9abc f8a8 95bc bfd1 f2bc 3307 313c
00000100: eae2 81bc d91f 3c3c abc7 173d 8b93 003c
00000110: 8554 09bc fe16 b93c de1b bbbb 9c14 4ebc
00000120: 2398 c1bc 5a7c 4a3a ebe4 6dbb 0f52 1f3d
00000130: 56a7 073c da4a c53c 9987 e1bb 2c5b 41bc
00000140: fc24 31bc 075b 12bb 26c0 013b 79d4 f7bc
00000150: 3ff1 603c b7cd a63c 9148 d83b d6c7 643c
00000160: ed69 c7bc 9a12 0c3d eef0 d5b9 2be6 aa3b
00000170: e82d 3abc fc8b fc3c 72e1 233d 6b31 d3bb
00000180: 809d 21bb df2f 803d 5788 fb3b 1faa b5bc
00000190: f231 adbb 4c60 493c f730 453c 2b98 c7bb
000001a0: ca9f 673c 0782 31bb cf42 223c ea30 6abb
000001b0: d466 55bc 6ae9 9cbb 341b bfb9 f1b7 a43c
000001c0: bb96 9fbb 3893 eeba 5175 6a3d 4ede c83a
000001d0: cfb9 bfbc db17 cb3c da85 b93c 7401 ddbb
000001e0: 5db8 dc3c 898a 2dbd 7e12 cc3c 5181 58bc
000001f0: 9c83 74ba fac4 3abb 7a03 0b3d 37ae 99bc
-0.005766364 0.019968849 -0.0013877924 0.0014431805 -0.023985405 -0.011005254 0.017932603 -0.010776729
-0.005123088 -0.0148926815 -0.003390234 -0.004436159 0.009037789 -0.013018594 -0.016490268 -0.010379038
0.016786547 -0.015017535 0.0053428872 0.030541768 -0.00033496923 0.017407626 0.00938067 -0.0007303797
-0.011703885 -0.014518663 0.002873832 -0.009616481 0.021808084 0.015831962 -0.01618205 0.02307639
-0.002666259 -0.012518665 0.0026382357 0.00094758486 0.020587264 -0.015880905 0.014172578 -0.010572599
-0.015555271 0.015603022 -0.030876528 -0.03088148 0.0025283317 0.016496146 -0.0012050438 -0.00619281
0.020221666 0.00010262497 -0.011123299 -0.001216771 0.022340132 -0.012321182 -0.04026465 0.013218814
-0.012943926 -0.0018655913 -0.0032218285 0.01548522 -0.018888177 -0.018269047 -0.02964103 0.010804939
-0.015855271 0.011482202 0.037055653 0.007847677 -0.008381967 0.022593971 -0.005710109 -0.012578156
-0.023632115 0.00077242183 -0.0036299776 0.038896617 0.008279642 0.024083544 -0.0068826196 -0.011801522
-0.01081204 -0.0022332089 0.0019798367 -0.030252682 0.013729393 0.020361764 0.0066004475 0.01396366
-0.024342502 0.034197427 -0.00040806032 0.0052154264 -0.011363484 0.030828469 0.040009923 -0.0064451
-0.0024660528 0.06259131 0.007676165 -0.022175847 -0.005285495 0.012291025 0.0120356 -0.006091138
0.014137218 -0.002708556 0.009903624 -0.0035734721 -0.013025004 -0.0047885673 -0.00036450627 0.020107241
-0.0048702634 -0.0018201834 0.057240788 0.0015325041 -0.02340403 0.024791649 0.022646833 -0.006744558
0.02694338 -0.042368446 0.024911162 -0.013214425 -0.00093274727 -0.0028498755 0.033938862 -0.01875983

transformer.h.0.ln_2.weight f4 [128]
00000000: c593 9440 1f42 4b40 bac7 623f 3e77 d440
00000010: 02cb 11bf ae9c 23ba e634 c440 9859 e040
00000020: 8dac 8d3b 4202 1a40 f4a4 a53f e695 f640
00000030: 1896 9140 6049 153f 8ecd b140 81ba c940
00000040: 05b1 cd40 8406 d840 2cd9 2a40 ae1d 763f
00000050: f9a8 873f 14d2 b23e d1f1 7240 f60a d640
00000060: dca6 9f3f 689f 5840 845b 4f40 1b85 8a40
00000070: 3a98 6140 b912 6640 df5e 8e40 2957 cd3f
00000080: 0f0a 6140 0d82 d240 e23b 983a e273 0140
00000090: 46e7 2440 22e2 7940 abc6 b140 2f68 ba40
000000a0: ed42 6d40 0b65 cb40 8926 f83f 05a3 1640
000000b0: 1bea 7540 15cd b83f 9f68 5440 53dd b340
000000c0: ec8a be40 494e c73f 8e1b 953f ad5a 413f
000000d0: 748f fc40 5832 ad40 d83c 333f 4941 3b40
000000e0: 1058 7d40 cb7b 9940 a20c 2a40 8585 683f
000000f0: 8c85 f040 4e6c e33f 10b7 fd40 3558 6340
00000100: b5b5 843f 9b57 bf40 f890 eb40 47cb 1240
00000110: 5fd6 ea3f 1a6f da3f 4867 de40 467f 9c40
00000120: 0dcc da40 ac7f d83f 3e11 1640 a918 fd40
00000130: 41db da3f e4b9 fd3f 81ba a53f 937e 9740
00000140: a0a0 8940 dc0a 2e40 5969 233c 8ead 0041
00000150: 7b9c 0040 8ac9 8e40 ae4f d840 0aed d640
00000160: 7f7f 7740 cc4a 313f 867b b040 aed4 ba40
00000170: 0c24 6e40 fd58 2b40 7530 953f 9822 9b3f
00000180: 555a 5f40 b968 913f 2f4f 8940 4c1f 5240
00000190: 8107 0e40 885c e940 94bd 853f 7828 6a3f
000001a0: 41d3 9840 268d cd3f 6e58 4c40 e5a0 d73f
000001b0: c5e4 6140 dc06 5340 12a6 c940 e94d ac40
000001c0: 1701 0240 283b 183b 9ba8 0840 786f 0941
000001d0: d2ef 3240 1cb3 5c40 a4da ab3f 9446 8340
000001e0: a0af 3240 d46b be40 ce46 5440 53b6 6f40
000001f0: 61f3 3940 8254 0040 4494 0340 8ddf 9540
4.6430383 3.1759107 0.8858601 6.639556 -0.5695039 -0.00062413036 6.1314573 7.0109367
0.004323548 2.4063878 1.2940965 7.705798 4.549572 0.58315086 5.556342 6.3040166
6.427859 6.7507954 2.6695051 0.9613904 1.0598441 0.34925902 3.7960093 6.688838
1.2472796 3.3847294 3.2399607 4.328748 3.5249162 3.5948927 4.449081 1.6042224
3.516239 6.5783753 0.0011614526 2.022698 2.5766158 3.904427 5.5555015 5.8252177
3.7072098 6.3560843 1.938676 2.3537 3.8424137 1.4437586 3.3188856 5.620767
5.954458 1.5570766 1.1649034 0.75528985 7.8925114 5.4123955 0.70014715 2.9258597
3.9585 4.7963614 2.657021 0.90828735 7.516302 1.7767427 7.9285965 3.5522587
1.0367953 5.979444 7.3614464 2.293657 1.8346671 1.7065156 6.9501076 4.8905363
6.8374085 1.6913962 2.3448024 7.9092603 1.7098161 1.9822354 1.2947541 4.734201
4.3008575 2.7194128 0.009973847 8.042372 2.0095508 4.462102 6.7597265 6.7164354
3.8671567 0.69254756 5.5150785 5.838462 3.7209501 2.6773064 1.1655413 1.2119932
3.4898884 1.1360084 4.290916 3.2831602 2.219208 7.2925453 1.044848 0.91468
4.775788 1.60587 3.1928973 1.6845976 3.529588 3.2972937 6.3015223 5.3845105
2.0313165 0.002322862 2.1352909 8.589714 2.7958875 3.448432 1.3426099 4.1023655
2.7919693 5.9506626 3.3168216 3.7455032 2.9054797 2.005158 2.0559244 4.683539

transformer.h.0.ln_2.bias f4 [128]
00000000: 373c 733f da8e c9bf a794 903e 8052 fbbf
00000010: 4169 553d 5d1d 253b 3cdb 23c0 3817 0140
00000020: fc36 c2bb 0fc4 c53f 3aaa d63e 2555 0c40
00000030: 78e2 02bd b1e3 eb3c af1e 0340 35dd 91bf
00000040: c92d 1fc0 7c71 ecbf 7a12 373e c0a4 17bf
00000050: 06bd 743e 7399 4dbe 6bef 0fbf 73f7 71bf
00000060: 4ecc 373f b6e0 b83f c713 8b3f 9f5a 043f
00000070: 0ba3 8dbf 569f 99bf 2319 60bf 049f 21bf
00000080: 7b15 6bbe d726 e3bf 76f8 01bb dad6 703e
00000090: 67e7 bfbf c5f5 803f 8065 cebf 2485 083f
000000a0: aa42 9e3f 76ae a9bf 987b a03f cdea d83f
000000b0: f916 b93e 4b39 02bf 67c6 af3f d1ba c43f
000000c0: fa87 0ec0 3bde 0abe 1a66 083f a4c2 e93d
000000d0: 6954 0b40 7ea1 9abf 47a2 ff3e d517 d3be
000000e0: 88d4 9c3f 2d3e 61be 40d7 44bf d89d eabd
000000f0: 21b6 c8bf 32f1 5a3f 6c6d 13c0 afc4 92be
00000100: c3f9 7b3f 3504 e6bf 3e4a e43f c2aa d73e
00000110: 1504 423f e3fd b7bf 44c6 09c0 ab37 0240
00000120: acf8 c9bf d194 20bf bea9 91bf e5a5 ca3f
00000130: 866c 5e3e 105f 7bbf a2ee 303f 74d8 4b3f
00000140: cc29 de3f 5f86 363e 8443 0c38 f086 04c0
00000150: c6ef d0be 528f a1bf f48f 0b40 cf4a f83f
00000160: 7763 cb3f ee28 22bf a358 de3f fc1f a3bf
00000170: 0a78 9d3f af92 c4bf 877c a7bf 5070 163f
00000180: 7add 5b3e d9d3 bdbf 3dae 183f 0a09 bf3f
00000190: 5072 043f 951c 2840 da3b 533b 1783 e5be
000001a0: f26b 07c0 cc68 8b3d e230 22bf 2ddb 3d3e
000001b0: bbd7 923f f946 773f c535 0ac0 5cf0 c33f
000001c0: bd8d 5f3f 9694 3cba 08ff 02c0 3646 1640
000001d0: 5376 963f 4d9a 87bf 2146 23bf 5e35 b43f
000001e0: 9a96 b6bf 281a 4a3f fef3 9cbf e6c9 913f
000001f0: 43f6 87bd 64b2 0b3e b4dc aebf 6ab6 1b3f
0.95013756 -1.574672 0.28238413 -1.9634552 0.05210233 0.0025194504 -2.560256 2.0170422
-0.005926965 1.5450457 0.41926748 2.1926968 -0.03195426 0.028795095 2.0487478 -1.1395632
-2.4871695 -1.8472133 0.17878142 -0.59235764 0.23900232 -0.20078067 -0.562247 -0.945182
0.7179612 1.4443576 1.086541 0.51700777 -1.1065382 -1.200175 -0.87538356 -0.63133264
-0.22957413 -1.7746228 -0.0019831932 0.2351946 -1.4992493 1.0075003 -1.6124725 0.53328156
1.2364094 -1.3256366 1.2537718 1.6946656 0.3615034 -0.5086867 1.3732423 1.5369512
-2.2270494 -0.13561337 0.53280795 0.11414078 2.177027 -1.2080534 0.49928495 -0.4122912
1.2252359 -0.21996374 -0.76890945 -0.114558876 -1.5680581 0.85524285 -2.3035536 -0.28665683
0.9842798 -1.7970034 1.7835157 0.42122465 0.7578748 -1.4374355 -2.1527262 2.0346477
-1.5779014 -0.62727076 -1.1379926 1.5831877 0.21721086 -0.9819193 0.69114125 0.79627156
1.7356505 0.17824696 3.344148e-05 -2.070736 -0.40807933 -1.2621863 2.1806612 1.939783
1.5889729 -0.63343704 1.73708 -1.2744136 1.2302258 -1.5357264 -1.3084878 0.58765125
0.21471205 -1.4830276 0.59640867 1.4924634 0.5173693 2.6267445 0.003223172 -0.44826576
-2.1159635 0.06807098 -0.6335584 0.1854064 1.1472086 0.9659267 -2.1595318 1.5307727
0.8732565 -0.0007193772 -2.0468159 2.3480353 1.175486 -1.0593964 -0.63778883 1.4078786
-1.426471 0.7894616 -1.226196 1.138974 -0.066387676 0.1364227 -1.3661103 0.60825217
