warmup/warmup_2_113_+_1.pth (torch, 824633 bytes, 17 tensors)

transformer.wte.weight f4 [14, 128]
000000 04 ac 46 3c 61 10 91 bc 2e d1 2b bc ca 20 63 bc
       0.012125973 -0.017708005 -0.010486884 -0.013862798
000010 79 38 5c bc e2 42 85 3c 42 1c 8c bb 52 60 ac bc
       -0.0134411985 0.016267244 -0.0042758295 -0.021042023
000020 53 60 b9 3a a5 91 9b 3b 2d ae 71 3c 79 cd 36 3b
       0.0014143087 0.004747587 0.014750999 0.0027893467
000030 01 02 f3 bc eb b5 af 3c 4b 69 b5 3c 36 eb 5a 3b
       -0.029664041 0.02144905 0.022144934 0.0033404357
000040 d1 2c ee bb 0a 1d 60 3c 94 86 f5 3b 7d c1 7d 3c
       -0.007268526 0.013678798 0.0074928496 0.015488026
000050 65 78 5b bc 9b 22 98 bc 54 0a db 3c 89 ed ff 3b
       -0.0133954035 -0.018571189 0.026738323 0.007810299
000060 44 d7 be 3b 42 b2 32 bc 2a 30 60 bb b4 09 e9 bb
       0.0058240015 -0.010906758 -0.0034208396 -0.0071117524
000070 07 24 07 bd a7 19 45 bc 77 aa fe bc 61 65 7f 3c
       -0.032993343 -0.012030042 -0.031087143 0.015588135
000080 71 1b 4f ba 6e 39 66 3c f5 e9 0f 3c 1e 50 48 3c
       -0.00079005124 0.014051778 0.008783807 0.012226133
000090 11 d0 01 3d 12 c3 82 bc 11 26 23 3b ea ba f9 bc
       0.03169257 -0.015962157 0.0024894516 -0.030484635
0000a0 5b 99 2f 3b 07 59 ee 3c 2a 9d 5d bc c5 29 0e bb
       0.0026794288 0.029095186 -0.01352624 -0.0021692377
0000b0 21 1f 38 bc 88 36 3e bc 76 b0 6c bc 5b b3 56 bc
       -0.01123789 -0.011609681 -0.014446368 -0.013104285
0000c0 7f de a1 3c 5e 1e 0c bc 30 e2 a1 bb 04 3d ef ba
       0.019759415 -0.008552162 -0.0049402937 -0.0018252437
0000d0 18 4f 1a bc 6e 29 b1 3b cb d7 a3 bc 9d 28 07 bc
       -0.0094182715 0.00540655 -0.020000359 -0.008249429
0000e0 f4 6a 4b bc 00 5a b6 3b a7 f8 76 3c 77 10 43 bc
       -0.012415636 0.005564928 0.015073932 -0.011905781
0000f0 b1 a1 b1 bb 7e 18 7c 3d f3 b7 de 3c 22 af a1 bc
       -0.0054208864 0.061546795 0.027187323 -0.01973683
000100 5e da 6a bd 2f a9 a1 3b 0e db c5 3c fe fe 82 bc
       -0.057337157 0.0049334983 0.024152305 -0.01599073
000110 95 e4 07 3c 96 8a cc 3c 5e dd 88 39 48 1d 81 bc
       0.008294244 0.024968427 0.00026104873 -0.015761033
000120 13 1c cb 3c 2f 77 6e bc fd dd 39 bd 23 88 a2 3c
       0.02479366 -0.014554783 -0.04537772 0.019840306
000130 c4 15 d9 3c 9e d0 0c bb a9 64 5c 3c 12 da 20 3d
       0.026499636 -0.002148665 0.013451734 0.039270468
000140 21 e9 24 3c c6 84 74 3c 60 2c 31 3d b5 30 be 3c
       0.010065348 0.014924234 0.04325521 0.023216585
000150 fb 21 1d 3c fc 4f 87 3b 0f 59 50 3d 93 5f 8e 3b
       0.009590621 0.004129408 0.050866183 0.0043448894
000160 ca 00 05 bc 21 6b 37 3c b3 93 6f bc 5f 76 3e 3c
       -0.008117864 0.011194975 -0.014622617 0.011624902
000170 ff 72 32 bc c6 8f 3e bc 6a da 9e bb af 61 27 bc
       -0.010891675 -0.011630958 -0.0048478143 -0.010216161
000180 b2 38 4b 3c f9 4b ba bb 02 ae 7c ba f6 01 dc bc
       0.012403654 -0.005685326 -0.00096389663 -0.026856404
000190 cb a7 12 bc 09 02 d6 bb b9 da 9c bb 13 8d 33 bc
       -0.008951138 -0.0065310043 -0.004786816 -0.010958928
0001a0 5c b3 13 bc 56 24 2a 3b d5 df 7f bc ba a7 bc 3c
       -0.009014931 0.00259616 -0.015617331 0.023029197
0001b0 a1 10 81 3c e0 f6 cb 3b bb 5f 57 3d fe 43 5e 3a
       0.015755 0.006224498 0.05258153 0.00084787596
0001c0 21 d5 03 bb 7d 30 5a bb 1b 46 fd bb 4c 26 ba bd
       -0.0020116048 -0.0033293061 -0.0077293045 -0.09089336
0001d0 f2 b5 84 3c af 4f 00 3b 5d 46 9f bb c5 ad 57 3c
       0.01620004 0.0019578745 -0.004860683 0.0131639885
0001e0 b8 a2 ac 3c fa 51 53 3c 49 9a 61 3c ae bc ff b9
       0.021073684 0.012897963 0.013769695 -0.00048777967
0001f0 fa 37 3d ba bd 87 35 ba 4d dc 1b 3c 96 30 00 bc
       -0.0007218119 -0.00069248286 0.009512973 -0.007824084
000200 66 54 cf 3c 59 3e 4d 3c 13 48 08 bd fa 63 0e 3c
       0.025308799 0.012527072 -0.03327186 0.008690828
000210 68 96 23 bd 58 c0 00 3d 21 91 18 bd 28 2f 79 bd
       -0.03993836 0.031433433 -0.03724778 -0.060835987
000220 64 17 a1 bd f3 88 da bb 17 74 11 3d 08 81 d0 3b
       -0.078657895 -0.0066691577 0.035511103 0.006363038
000230 50 fa b5 3c 44 c0 dd 3c 40 70 dd 3a c3 36 04 bb
       0.022214085 0.027069218 0.0016894415 -0.0020174242
000240 d1 58 0a bd 2f 62 51 bc 28 32 2d bc 24 43 d8 3c
       -0.03377611 -0.012779756 -0.01057104 0.026399203
000250 3d 9f 2a 3c 6c c2 33 bd 9f 9c 9d bc c1 88 fc bc
       0.010413942 -0.043886587 -0.019239722 -0.030826928
000260 13 23 c5 bc 7f 62 92 bd 0f b4 ff 3c 90 dc f4 bc
       -0.024064576 -0.07147693 0.031213788 -0.029890329
000270 c3 71 16 3d ad b8 9c 3c a2 90 1b 3c 76 40 f1 3c
       0.036729585 0.019131029 0.009494932 0.029449683
000280 46 d3 8f bb cf 23 ff 3c 10 71 76 3b a4 22 58 3b
       -0.0043891994 0.031145005 0.0037604012 0.0032979632
000290 18 87 3d 3d 8d ab 1a bd fc a9 bd 39 9f 97 af 3b
       0.046271414 -0.03776126 0.00036175537 0.005358651
0002a0 fc cf b0 3b 4b 18 48 3c b1 fe 1f bd f5 0a 3a bd
       0.0053958874 0.012212823 -0.039061252 -0.045420606
0002b0 45 72 32 bd c1 0a 8f bd ee 04 25 bb ea 2d 2a bd
       -0.043566007 -0.06984473 -0.002517994 -0.041547693
0002c0 df bf 68 bc 04 fe b2 bc 6f 03 34 bc 92 f7 53 3c
       -0.014205902 -0.02184964 -0.010987147 0.012937443
0002d0 c0 8e c1 3c 95 1b 5f bc 53 56 cd 3c cb fe 94 3b
       0.023627639 -0.013617416 0.025065577 0.0045469753
0002e0 bd 92 33 bd c7 d4 99 bc 70 25 0e 3d bc 1b 0e bd
       -0.043841112 -0.018778218 0.034703672 -0.03469442
0002f0 a6 ee 15 bd 65 98 82 3c 82 74 06 bb 52 9a 86 ba
       -0.036604546 0.015941808 -0.0020516221 -0.001026938
000300 5f 13 a1 3c 7a 8e 90 bc 1f fc 08 3c 70 1c 18 bd
       0.019662557 -0.017646063 0.008360892 -0.037136495
000310 13 27 32 bc 29 35 e8 3c 67 85 7c bc fa 64 3c 3c
       -0.010873574 0.028345661 -0.015412665 0.011498684
000320 e5 a4 04 bd 6a 46 4b bd 8f 98 d6 bb 0d c0 c4 3c
       -0.03238382 -0.0496277 -0.006548948 0.024017358
000330 e9 a7 15 bc 75 2d a2 bc 57 22 39 bd 9a 74 65 bd
       -0.009134271 -0.019797066 -0.045198765 -0.056019403
000340 b7 c3 67 3b 5e ab 35 bd cf 89 c2 bc 6b c9 3c 3d
       0.0035364458 -0.04435288 -0.023747353 0.046090525
000350 49 ff 43 bc 43 2d 9d bc 9f 4f 18 bc c5 1a c0 3c
       -0.01196272 -0.019186622 -0.009296327 0.023450265
000360 30 92 b8 3c 13 3f 57 ba 3f bb dd bb a3 69 95 bc
       0.022530645 -0.0008210998 -0.0067667062 -0.018238848
000370 57 d1 04 bb f1 c5 12 bd ea 12 00 bb 4b a6 10 bd
       -0.0020266378 -0.035833303 -0.0019542524 -0.03531484
000380 07 36 51 bd 2a ef 8c 3c b4 2e 8f 3b 86 19 00 bc
       -0.051076915 0.017203886 0.004369581 -0.007818585
000390 8f f6 66 3b 87 64 fb bc a3 b4 cb 3c 48 ca 0e bd
       0.0035242175 -0.030687584 0.024866408 -0.03486088
0003a0 68 90 cf bc 5c 5e 1a 3d 33 54 6e bd 48 f2 1a bc
       -0.025337413 0.037687644 -0.058185767 -0.009457178
0003b0 51 f7 8e 39 44 62 4a 3c f9 3c 3a 3b 22 d2 8e bc
       0.00027268616 0.01235253 0.002841769 -0.017434184
0003c0 a8 29 a9 bc ae 36 0c bb 70 3b d0 3c 0e d3 94 bc
       -0.020649746 -0.0021394896 0.025418967 -0.018167045
0003d0 e4 0f 22 3d 2c 04 03 bc 6f 29 33 bc b0 3d f5 3c
       0.039565936 -0.0079966 -0.0109351715 0.029936641
0003e0 f0 a6 35 bd d8 33 f0 3c 3d 83 7e 3c af 78 02 bc
       -0.044348657 0.029321596 0.015534219 -0.0079633435
0003f0 33 44 88 bb 57 6f e0 bb 47 5e ab bb e4 28 08 bd
       -0.0041585206 -0.0068492102 -0.0052297446 -0.03324212

transformer.wpe.weight f4 [32, 128]
000000 d1 2b a3 bb 16 59 bc 3d 82 62 78 ba 1d 20 e4 bb
       -0.0049795886 0.09196679 -0.0009475128 -0.006961836
000010 ac 68 3f bc a2 c3 f7 b9 c1 d6 5e bc 04 1a 68 bc
       -0.011682671 -0.0004725727 -0.013601006 -0.014166359
000020 9b b7 f4 bb 1e f3 1b 3c 60 d0 8c ba c2 7e 6b ba
       -0.0074681765 0.009518413 -0.0010743253 -0.0008983427
000030 e3 73 d8 bb fc d3 7e 3a ab 03 69 3c d5 da 0b bb
       -0.0066056116 0.0009720919 0.014222066 -0.002134015
000040 b2 96 dc bb 8b a9 fc 3b 5b c3 b8 3a 26 4d 95 bb
       -0.0067318315 0.007710641 0.0014096306 -0.004556316
000050 4f 9a ad bb 7e e9 4a bc 81 a2 d7 3b d3 10 2c 3c
       -0.005297936 -0.01238477 0.0065806513 0.010502058
000060 91 39 f0 3b ad c5 85 bc 89 32 2f 3b 97 0f bb 3b
       0.007331081 -0.01632961 0.0026733002 0.0057086456
000070 3e 5a 75 3c 2b 38 a3 3a fe 93 55 3a 90 00 3a bb
       0.014975129 0.0012452652 0.0008147358 -0.0028381683
000080 58 b2 33 38 2d 57 b0 ba 65 ca 1e bc 8a 2f 58 3b
       4.284302e-05 -0.0013453715 -0.009691809 0.003298732
000090 50 75 89 ba 7a dd f5 ba 5e b5 c6 bb dc b2 7b ba
       -0.0010487232 -0.0018758022 -0.006064101 -0.0009601542
0000a0 f8 90 7d bc 9f 83 2f 3c 67 af 5e bc 64 6b 6c bc
       -0.015476458 0.010712533 -0.013591624 -0.014429901
0000b0 f7 a9 3d bc 56 01 d2 bc 59 f5 64 3a 60 fb 83 bc
       -0.011576167 -0.025635403 0.00087340694 -0.016111076
0000c0 06 5d a5 b9 6a 28 10 b9 8d 28 0b bc 7d 53 02 bc
       -0.0003154056 -0.00013747966 -0.008493555 -0.0079544755
0000d0 d8 0c e1 bb 7b 12 12 bb af dc 47 bc b7 10 2d 3b
       -0.006867986 -0.0022288847 -0.012198611 0.0026407668
0000e0 f5 ff 60 bc 98 f4 c6 bb 1b a6 17 3c 8b aa 53 bb
       -0.0137329 -0.0060716383 0.009255911 -0.0032297696
0000f0 7e ec 08 bc 57 3f 4e 3c 7b 0b 17 3c f4 0a 02 3b
       -0.008357165 0.012588344 0.009219046 0.0019842954
000100 02 9d 93 bb 63 77 92 bc b5 ad 22 bc ea 3e b1 ba
       -0.004504801 -0.017879194 -0.00992911 -0.0013522778
000110 a3 2e 42 bc ae aa 32 ba b0 4a 81 3c bc c0 6f b8
       -0.011851939 -0.00068155944 0.015782684 -5.716154e-05
000120 73 bd 39 bb 28 36 c9 bb 5d 73 23 3c a8 87 c4 3a
       -0.002834168 -0.006140489 0.009976235 0.0014994042
000130 7f 69 e5 bb 37 74 40 bb 4f 05 c3 bb ed 56 af 3b
       -0.0070011015 -0.0029366144 -0.0059515606 0.0053509385
000140 12 04 68 bb 05 f8 0a 39 34 c6 a6 3c 18 05 ae 3c
       -0.0035402817 0.000132531 0.020358182 0.021242663
000150 ff 4b 00 bc d1 1a 2b 3c 1c db 7d bb 47 5a 1c 3b
       -0.007830619 0.010443405 -0.0038735336 0.002385752
000160 10 41 b6 3b b2 56 9e ba 84 2a cc 3b a6 7f 2e bc
       0.0055619553 -0.001208028 0.006230654 -0.010650551
000170 3a 65 1a 3c 7a f4 04 bc 91 cf 23 bc 93 df 58 bc
       0.009423548 -0.008114928 -0.009998218 -0.013236898
000180 7f a8 3f ba 3b e5 51 3c e3 f6 06 3b a5 8f 3a b9
       -0.00073111797 0.012811 0.0020593933 -0.00017791854
000190 cd 6f 80 bc 49 bf 2a bc 06 1e 8e 3c 6e 2a a9 bb
       -0.01567831 -0.0104215825 0.0173483 -0.0051625287
0001a0 55 65 fe 3a 51 8e b2 3a 6d af 17 bc b3 3a 43 bc
       0.0019408861 0.0013622736 -0.009258133 -0.01191585
0001b0 79 5b 9a 3b 61 46 9a 3b ed c8 a7 3b ff 66 be 3c
       0.0047106114 0.004708097 0.0051203878 0.023242472
0001c0 c9 27 6d 3b 22 b2 3c bc de 6f c8 bc e3 bc 65 bc
       0.0036187044 -0.01151708 -0.024467405 -0.014022085
0001d0 22 58 0e 3c f9 af a8 bc 09 b0 25 bc a7 75 4a 3b
       0.008688005 -0.020591723 -0.010112771 0.003089288
0001e0 2e 85 04 bc 55 7e 2f bb 76 54 7e bb 80 6c 51 bc
       -0.008088393 -0.002677818 -0.0038807667 -0.012782216
0001f0 b8 67 9b bb df 12 b8 3b 28 7d 90 3a 1b 37 d0 bb
       -0.004742589 0.005617484 0.0011023628 -0.0063542253
000200 98 ee 12 3c c9 62 07 bc 30 bc ea bb 00 dc ab b4
       0.008968018 -0.008263298 -0.007163547 -3.2011303e-07
000210 55 67 32 bc ab 5e 85 3b 99 3c 94 bc 67 d0 42 bc
       -0.010888894 0.004070123 -0.018095301 -0.011890507
000220 10 43 7a bb e4 ef 8c 3a b8 55 63 3b 7f 1f ee bb
       -0.0038186945 0.0010752645 0.0034688544 -0.007266938
000230 40 3f 26 3b e2 e1 c4 3a 99 89 be bc d9 04 7f bb
       0.002536729 0.0015020932 -0.023258971 -0.0038912802
000240 c3 19 82 bb f0 cb 80 bc 61 c4 c3 3b f4 31 c6 3b
       -0.003970356 -0.015722245 0.005974338 0.0060484353
000250 52 a7 d2 3a 39 92 8b 3b 5d 16 0b bc 63 e7 69 bb
       0.0016071594 0.0042593745 -0.008489219 -0.0035690896
000260 d9 97 d6 3a f6 72 2f bc 2d 2a f8 bb f2 f3 00 bc
       0.0016372158 -0.010708561 -0.007573387 -0.007870661
000270 2c e9 19 bc bd 2e e0 b9 7d b1 f6 3a 8f 4d ff 3b
       -0.009393971 -0.00042759432 0.0018821206 0.007791228
000280 f4 9a 92 ba 82 d9 68 3b 29 7d c3 3c 8d 94 eb bb
       -0.0011185096 0.0035530035 0.023863392 -0.0071893395
000290 dc fe 16 3c 51 86 fa bb 82 1b af 3b e0 6f ab ba
       0.009216037 -0.0076454063 0.0053438554 -0.0013079606
0002a0 c5 2f 6b 3c bb ac f9 bb eb fa 67 bc 7b c3 13 3c
       0.014354651 -0.007619468 -0.014158945 0.009018774
0002b0 e4 51 b9 3a 2a 41 86 ba ee 92 fc bb 4e f7 83 38
       0.0014138785 -0.0010242809 -0.007707945 6.292631e-05
0002c0 71 88 03 bc df a3 e3 bb 3d ad e9 bb 93 98 4c 3c
       -0.008028136 -0.006947025 -0.0071312473 0.012487548
0002d0 5b 17 91 3b 4d fe 91 bb 2b 43 36 3c c9 d5 80 3a
       0.004427833 -0.004455364 0.0111244125 0.0009829338
0002e0 8f 4d b5 3b 02 9d ee 3a 00 c5 21 3a 03 75 cb bb
       0.0055329273 0.0018204751 0.0006171018 -0.0062090172
0002f0 82 f3 b6 ba fd af 47 bc aa 19 87 bc 84 0e 5b 3b
       -0.0013958069 -0.012187955 -0.01649173 0.00334254
000300 4a 49 1f 3b f0 db 0c b9 6e 2a 4a 3c e8 00 95 3b
       0.0024305158 -0.00013433374 0.012339218 0.004547227
000310 45 04 89 3a 60 d9 bf ba 76 c1 ac 3b e0 93 1b 3a
       0.0010453543 -0.0014636926 0.005272086 0.0005934816
000320 a3 72 83 bb 4f 4f bd bb b3 ce 33 bc 2a 63 e5 38
       -0.0040114685 -0.0057772766 -0.010974574 0.00010938042
000330 b1 39 55 ba b9 0a c2 bc 94 1d 8d ba c4 0d 34 bc
       -0.0008133902 -0.023686754 -0.0010766261 -0.01098961
000340 2c 81 cd ba fc c7 6b 39 9c 1f 6d bc 85 5c a8 bb
       -0.0015678755 0.00022485846 -0.014472868 -0.0051379823
000350 ca 0e 23 3b d1 e7 51 bc e6 e7 b2 3b e4 cf ca 3c
       0.002488064 -0.012811617 0.0054597734 0.024757333
000360 1c e5 86 bb 0e c1 de 3b 9e 7a 0c bb 3f f5 49 3a
       -0.0041166674 0.0067979163 -0.002143539 0.0007704086
000370 a3 d5 8b bc 74 d8 fb bb 1c 11 d1 bb d5 ff e4 bb
       -0.017069643 -0.0076857153 -0.0063802134 -0.0069885054
000380 10 d3 ab 3a 32 18 a2 bb 86 e0 14 bb ee 7d ba bb
       0.0013109166 -0.004946732 -0.0022716834 -0.0056912815
000390 aa 51 ce 3d 5a cd c8 ba 1d 4e e9 bc 80 70 25 bc
       0.1007417 -0.0015319989 -0.02847963 -0.010097623
0003a0 98 aa 30 bb 60 ce 92 3b fd 3d 9f bc b7 f7 8a 3c
       -0.002695715 0.004480168 -0.019438738 0.016963823
0003b0 59 e8 86 bb f4 0e f1 b7 f1 e3 07 3c a5 9f a2 bc
       -0.0041170535 -2.8736402e-05 0.008294092 -0.019851515
0003c0 20 d8 8d bc 1d 17 94 bb 81 f6 a4 bb db 96 48 3c
       -0.01731497 -0.004519357 -0.0050342684 0.012242998
0003d0 7e a5 49 3c 0f dd 42 3c 98 17 39 bc 42 a3 d1 3a
       0.012307523 0.011893525 -0.011297129 0.0015994089
0003e0 61 8a 4f bc e0 f7 08 3b d5 49 b0 3a 1c 88 d7 3a
       -0.012667269 0.0020899698 0.0013449738 0.0016443762
0003f0 51 d3 1e 3b 64 78 35 bc c3 b5 0b bb 5d 40 89 bb
       0.002423484 -0.011076067 -0.0021318055 -0.004188581

transformer.h.0.ln_1.weight f4 [128]
000000 58 31 9f 3e bf ac 96 40 a0 dc c3 3e d2 b9 20 3f
       0.31092334 4.708587 0.3825426 0.6278354
000010 b4 2a ea bd 6a b2 9f 3e 08 6d 3f 3e 7f 56 2d 3e
       -0.11433926 0.31190807 0.18693936 0.16927527
000020 e1 b5 e5 3e bb b9 d8 3e 84 85 98 3e b3 f5 53 3e
       0.44865325 0.423292 0.29789364 0.20699196
000030 82 82 30 40 7f d4 17 3e 58 82 9a 3e b0 19 79 3f
       2.7579656 0.14827155 0.3017757 0.9730482
000040 03 0a 77 bd 90 b5 45 3e ed aa 83 3e 17 a4 ae 3e
       -0.060312282 0.19307542 0.25716344 0.34109566
000050 8c 1b 20 40 46 2f 04 3e 29 c0 49 3f 5b 61 f6 3d
       2.5016813 0.12908658 0.7880884 0.12030288
000060 6a 77 3e 3e 58 c2 14 3f 4e 7b a9 3e 78 ee 70 bb
       0.1860024 0.58109045 0.33101887 -0.0036763232
000070 d3 fc 56 3f 6a 07 29 40 e6 be 67 3f b1 a3 af 3e
       0.8397953 2.6410775 0.9052566 0.34304574
000080 72 5e 36 3f 90 fb 9b 3e 7d 52 cd 3e 23 38 ef 3f
       0.7123786 0.30465364 0.40101996 1.8689007
000090 30 f6 8d 3e 34 94 d6 3c 2e 73 10 3e 88 5d 33 3f
       0.2772689 0.026193716 0.14106438 0.7006459
0000a0 5f 07 1d 40 e3 0b 61 3f 6e bb 0e 3e f1 28 53 3f
       2.453575 0.8790876 0.13938686 0.82484347
0000b0 83 44 03 3e 62 68 07 3f 0c 12 05 3f 35 ac 18 3e
       0.12819104 0.5289365 0.5198066 0.14909442
0000c0 76 32 f8 3e 14 11 0b 3e bd 7d 78 3f 54 c8 b3 3e
       0.48476 0.13580734 0.9706686 0.35113776
0000d0 ad fa aa 3e e7 29 49 3f f3 a9 b0 3f 5a ed c6 3f
       0.33394375 0.7857956 1.3801864 1.5541184
0000e0 8a bc 02 3e b6 79 93 3d d5 52 9b 3e 2f 73 0b 3e
       0.12767234 0.07200949 0.30336633 0.13618158
0000f0 07 d9 ce 3d 30 f4 55 3f 38 4a 73 3f 5b ab 13 40
       0.100999884 0.83575726 0.95035124 2.3073337
000100 3c 3f 1a 3f 52 ed 09 3e 16 48 ae 3e d3 62 87 39
       0.6025274 0.13469437 0.34039372 0.00025822836
000110 0e da 50 3f cf 50 96 3e 81 3a d5 3e 6c 7f a7 3f
       0.81582725 0.29358527 0.41646197 1.3085761
000120 d2 61 92 40 d8 11 08 3f c2 4b 5b 3f 1f 35 ac 3e
       4.574441 0.5315223 0.8566247 0.33634278
000130 f5 03 d9 3f 7f c1 e2 3e 5e dd cc 3e 76 52 f5 3e
       1.6954333 0.4428825 0.4001264 0.47914475
000140 0c 25 85 3e 35 12 b7 3e 88 22 e3 3e f1 8d 9d 3f
       0.26004827 0.35756078 0.44362283 1.2308942
000150 1b 01 d0 3f dc 47 34 3e 5e 78 12 3f 59 d2 a8 3e
       1.6250337 0.17605537 0.57214916 0.32972983
000160 89 f8 96 3e da 38 ab 3f 31 66 fd 3e 97 2f 8f 3f
       0.29486492 1.3376725 0.49492028 1.1186398
000170 09 6b c8 3f cb c6 e8 3d 33 0f 3f 3f 2d 9e c1 3d
       1.5657665 0.11366042 0.7463257 0.09453998
000180 64 7f 61 3e eb 83 4c 40 9b a3 ad 3f 7e a7 45 3f
       0.22021252 3.1955516 1.3565553 0.772087
000190 18 e1 ac 40 41 06 8e 3d 19 b7 39 40 13 87 56 3e
       5.4024773 0.069347866 2.9018004 0.20949964
0001a0 e8 72 e2 3d e7 31 aa 3e c1 8e f1 3e 27 b2 7f 40
       0.11057073 0.33241197 0.47179225 3.9952486
0001b0 80 b2 37 3e e2 68 15 40 1e 37 38 3f 50 9a a0 3e
       0.17939186 2.3345265 0.719591 0.3136773
0001c0 7b fc 7c bf fe 3b 20 3f 7f ee 2c 40 e7 2e 52 3f
       -0.98822755 0.6259154 2.7020566 0.8210282
0001d0 ab be 1b 3f dd c4 3a 3e 52 45 5f 3e 16 62 92 3e
       0.6083781 0.1823916 0.21803787 0.2859046
0001e0 7c b2 3a 3f 67 5e bb 3e 9c e7 89 3f 8c 11 70 3f
       0.72928596 0.3659546 1.0773807 0.93776774
0001f0 2c e2 b6 3f b5 40 14 40 a7 bb 80 3e 97 53 74 3d
       1.4287772 2.3164494 0.25143167 0.05965003

transformer.h.0.ln_1.bias f4 [128]
000000 20 a0 1b 3e c0 a6 ac 3e 02 b9 ec 3c e0 94 91 bc
       0.15197802 0.3372097 0.028896812 -0.017771184
000010 56 67 5d 3d 22 a1 1d 3e e8 25 e6 bd fe a7 b4 bd
       0.054053627 0.15393499 -0.11237699 -0.088211045
000020 58 a0 2d 3d d3 e0 47 3d f2 07 03 3e 48 bc 61 bd
       0.042389244 0.048798393 0.12796 -0.0551112
000030 1e 9a 75 3e 9d 4a ed 3c 2f 1c 02 be 41 66 36 3e
       0.23984572 0.028966242 -0.12706064 0.17812444
000040 41 1c 7f 3c 6b fc bb bd 89 c7 be bc e0 ff 3f 3e
       0.015570701 -0.09179004 -0.023288505 0.18749952
000050 15 a6 a5 3b 52 3b 22 bd 4d c7 c2 3b 3c dc 7a 3c
       0.005055199 -0.039607354 0.0059441687 0.015311297
000060 6c ae 11 3c 34 17 8f 3d 1e 5c 85 3c 5e 6e 23 3b
       0.008891683 0.069868475 0.016279276 0.002493761
000070 31 05 11 bd 44 95 b4 3d cb 86 6a 3d 68 e0 5a 3e
       -0.03540534 0.08817533 0.057257455 0.21374667
000080 c2 13 ca 3c 68 03 20 3e a0 6c 87 3e be d2 a8 3d
       0.024667624 0.156263 0.26450062 0.08243321
000090 ac 67 9b 3d a5 af 95 bb 14 05 ab 3c 81 b0 c3 bd
       0.07588133 -0.0045680576 0.020876445 -0.0955515
0000a0 33 d4 b2 3c e7 b9 9e be 1c 4b 9f bd 36 95 de 3e
       0.0218297 -0.31001207 -0.07777998 0.43473214
0000b0 1f eb 3f bd 86 80 cd 3c b1 29 1c bd 57 b6 49 bd
       -0.04685509 0.025085699 -0.038125698 -0.04924616
0000c0 46 b5 f9 bc ba c3 4d bd 15 63 92 3d c3 2e 66 3d
       -0.030481946 -0.050235488 0.07147805 0.05619694
0000d0 7d a8 4d bd 89 38 1e 3d 58 d1 15 bc c2 17 dc 3d
       -0.05020951 0.038628135 -0.00914415 0.10746719
0000e0 a7 68 1a bd 9a 2f 94 bc 54 0b 20 3e a1 3e 4d bd
       -0.03769746 -0.018089104 0.15629321 -0.050108556
0000f0 3e ee 32 bd 27 61 67 be b2 81 8b 3c 75 c9 cc 3c
       -0.043684237 -0.22595654 0.017029617 0.024998406
000100 4f 3d ca bd 77 00 dd bc 2e 51 4c 3e f9 d0 bc ba
       -0.09874975 -0.02697776 0.19952843 -0.001440554
000110 5f 11 39 bb 39 6e ac 3d 27 ac e7 3d 25 aa c0 bc
       -0.0028239114 0.08419461 0.11312132 -0.023518631
000120 65 e8 70 be e1 9c 99 bc 68 eb 64 3e 0b 43 ff 3d
       -0.23526151 -0.018751564 0.22355425 0.12463959
000130 75 db 19 3e 58 bb 38 be b7 0c d1 3b 69 c7 65 3d
       0.15025122 -0.18040216 0.0063796896 0.056098375
000140 ac 5c 12 3d de cc 14 3d 28 82 21 be b4 85 d8 3d
       0.03573291 0.03632819 -0.15772307 0.10572377
000150 12 83 d0 bd 82 6b 8b bd c8 54 0e 3e 56 de 43 3e
       -0.1018125 -0.06807615 0.13899529 0.19127783
000160 ef 35 48 3d 1c 47 64 3d 74 2e 41 bd 04 aa 95 bb
       0.04887956 0.055731878 -0.04716344 -0.0045673866
000170 06 77 cc 3d 4d 80 0e bd e1 5e 74 3e 72 35 07 bd
       0.099836394 -0.034790326 0.23864318 -0.033009954
000180 cb 9a 71 3d 6a 3a df bd 6d f1 c5 3d e2 aa 92 3c
       0.058985513 -0.108998135 0.09665189 0.017903749
000190 7e 63 29 3e d1 17 87 bc 13 c4 74 be 35 45 74 bd
       0.1654186 -0.016490849 -0.23902921 -0.059636313
0001a0 f1 df de bc e2 c4 41 bb 3b 27 d7 3c 70 6c bf 3d
       -0.027206393 -0.0029566814 0.026263824 0.09346855
0001b0 1d 02 76 3c 71 9d a3 3e 71 62 d2 3c b3 d3 f5 bc
       0.015015152 0.31956056 0.025681706 -0.030008173
0001c0 74 e8 df bd 09 5d 1b bd 48 48 11 3d 04 31 13 3e
       -0.10933009 -0.037930522 0.035469323 0.14374167
0001d0 73 b2 c5 bd 36 c1 4a bc 0d 94 97 bd 34 62 0a 3e
       -0.09653177 -0.012375167 -0.07401285 0.13514024
0001e0 e7 e7 2f 3e b0 30 4b 3e 03 13 bb 3d 70 42 a2 3d
       0.17178307 0.19842792 0.091344856 0.07922828
0001f0 94 9b 6b be d4 e8 d9 3d ba 89 20 3c 32 64 91 bc
       -0.23008567 0.106401116 0.009798462 -0.017747972

transformer.h.0.attn.c_attn.weight f4 [384, 128]
000000 1c d4 45 3b c4 f3 9f 3b 7e f0 10 bc 11 e5 ea 3b
       0.0030186241 0.004881354 -0.0088464 0.00716842
000010 4b 32 34 3b e9 6b 76 bc 5d 23 a5 bb 79 c1 a9 bb
       0.0027495797 -0.015040376 -0.005039616 -0.0051805344
000020 40 56 19 3d 52 68 65 3c fc e2 a4 bc 02 de a5 3c
       0.03743577 0.014001923 -0.020127766 0.020247463
000030 08 31 a2 3d b9 d9 98 ba 7e f5 8e 3c 08 11 68 bb
       0.07919508 -0.0011661566 0.017451044 -0.0035410542
000040 93 c4 c2 3b 64 f2 07 bc 3b 09 f3 bc 15 48 f6 3a
       0.0059438436 -0.0082975365 -0.029667487 0.0018789793
000050 fb d8 62 bd 46 f4 58 bc 61 9f 8a bb dd ce 02 bc
       -0.05538271 -0.013241833 -0.004230425 -0.00798389
000060 35 25 11 bc 1a e3 12 3c 60 46 ca bc a4 3c 8b bb
       -0.0088589685 0.008965278 -0.02469176 -0.0042491723
000070 1c 7c d8 3a 4d 5e cb 3c 16 2b 3a bd 4e d2 42 3b
       0.001651648 0.02482524 -0.045451246 0.0029727402
000080 95 65 5b bc 01 3d 83 3c 9d ed 42 3c 82 20 da 3b
       -0.013390918 0.0160203 0.011897472 0.0066567073
000090 7d cd 29 bc 77 28 93 bc c1 b8 bd ba e8 f1 86 bd
       -0.010363934 -0.017963631 -0.0014474617 -0.06589109
0000a0 6e 31 bc 3c 70 ed ae 3c 30 1b db ba 9e b1 24 bd
       0.022972789 0.021353453 -0.0016716477 -0.04020845
0000b0 f5 2b 90 bb d5 03 d8 3b 5c c8 78 bb 26 83 ed bb
       -0.0043997713 0.0065922537 -0.003796122 -0.0072483
0000c0 9b 13 8a bc b8 7b a5 bc 67 de 4e 3c 4c d3 41 bd
       -0.016855052 -0.020200595 0.012626267 -0.04732065
0000d0 fc b1 dd bc f6 eb fe 3c 7a b7 30 bd 67 25 90 bb
       -0.027062409 0.031118374 -0.043143727 -0.00439899
0000e0 dc 1f 0d 39 77 9a 21 3b 6e 0b c8 b9 17 ff e2 bb
       0.00013458676 0.0024658719 -0.00038155488 -0.0069273817
0000f0 93 e1 96 3b 88 18 bf 3c e7 ad 82 bc b0 95 f0 3b
       0.0046045273 0.023327127 -0.015952064 0.007342063
000100 3c ae 92 3c a9 27 1b 3c 1d c4 15 3c 30 48 58 bc
       0.017905347 0.009469905 0.009140995 -0.013200805
000110 66 67 30 bd d5 b2 f2 bb 36 cd 88 bb 93 41 12 3d
       -0.04306736 -0.0074065723 -0.0041748537 0.035707068
000120 55 0e 48 ba b2 c3 cd 3c 22 40 01 3c 26 d3 22 3d
       -0.000763153 0.025117729 0.007888826 0.039752148
000130 13 d5 82 bc 0a 9b bf 3c 4f fe d7 3b ec 8e 9c 3c
       -0.015970742 0.023389358 0.0065915952 0.01911112
000140 6e aa df 3c 00 9b 7d bc 77 47 03 bc 3b ef 90 bb
       0.027302947 -0.015478849 -0.008012644 -0.0044230497
000150 4f 2c 44 bb ee a7 d3 bb ac 88 e3 3c 27 2c 76 bc
       -0.0029933637 -0.0064592278 0.027775131 -0.015025175
000160 ca 99 05 3d 3d b0 6e bb 8a 1f bb bc cd 04 fd 3b
       0.032617368 -0.0036420964 -0.022842187 0.0077215196
000170 85 06 06 3c 9a be ff 3b 26 df 30 3d 84 65 3d bc
       0.008180265 0.007804704 0.04318156 -0.011559848
000180 a1 7d 49 3c 1c 67 f4 ba 37 85 2f 3d 6a 5a 4d 3d
       0.012298019 -0.0018646452 0.042851653 0.050135054
000190 b5 d1 82 3c e3 19 5e 3c 07 d2 ac bb ce 8b 97 bc
       0.015969137 0.013555977 -0.0052740606 -0.018499281
0001a0 1c 26 4e bc 80 97 df bc 51 d2 93 3c 53 70 51 bc
       -0.012582328 -0.02729392 0.018044623 -0.012783128
0001b0 8a e9 34 3d 86 62 9b bb 62 71 74 bb d8 29 aa bc
       0.044168033 -0.0047419695 -0.0037299027 -0.020771906
0001c0 4b f4 86 3c 10 93 a7 bb ec 09 de bc 9a 4a a6 bc
       0.01647391 -0.0051139668 -0.02710434 -0.020299245
0001d0 a3 a0 8f bc 18 5b ce 3b 2f 88 0a bc 75 d0 46 bb
       -0.017532652 0.0062974803 -0.00845532 -0.0030336652
0001e0 82 35 22 3b a7 48 c3 bb 70 ac fc bc 17 c4 b9 3c
       0.0024751131 -0.0059595886 -0.030843943 0.02267651
0001f0 c9 c6 0e bc 4e 30 4f 3c 74 f6 d4 3c 04 40 ae 3a
       -0.008714386 0.012645794 0.025996424 0.0013294225
000200 e0 9f 46 bd e8 72 5a 3c f9 e4 e6 3b 65 07 ad bb
       -0.048492312 0.01333306 0.0070463386 -0.0052804225
000210 5d 43 e2 3b b0 3d a3 bc 37 99 3d 3b 57 15 f9 bb
       0.006905003 -0.019926876 0.0028930434 -0.007601421
000220 f9 87 00 bd 38 05 38 3c b4 09 8a bc 97 56 56 bc
       -0.031379674 0.011231713 -0.01685033 -0.013082168
000230 20 6b 3a bc 51 97 f1 bc d7 ca 03 3d 56 a2 83 3b
       -0.01137808 -0.029491099 0.032175865 0.0040171547
000240 6b c4 f1 bb be fb bc 3c bc e2 2e 3c ef 62 6a bd
       -0.007378151 0.023069259 0.010674175 -0.057223257
000250 b4 fb 26 3c b2 45 c6 bc 43 8f 66 3b cd 0b 80 3c
       0.010191847 -0.024203155 0.0035180605 0.015630627
000260 8a e2 8e 37 c0 e3 92 bc 01 ba 93 3c f0 2d c1 3a
       1.703321e-05 -0.017930865 0.01803303 0.0014738422
000270 4c 18 8c 3c 79 84 12 bc 4e fc 6a ba 9d 4f 3c bd
       0.01710143 -0.008942717 -0.0008963988 -0.045974363
000280 86 6e 51 3c e7 5f 91 bc 50 4d 38 bd 7f 80 f7 3b
       0.0127826985 -0.017745925 -0.044995606 0.0075531597
000290 d1 09 34 bc ac 80 ae 3c 01 0c 21 bc 38 d4 03 3c
       -0.010988669 0.02130159 -0.009829522 0.008046202
0002a0 5b af 72 bc 3e 64 4c bb 1d 84 8f bb 9b ba 00 3c
       -0.014812316 -0.0031187679 -0.004379763 0.00785699
0002b0 93 68 49 bc b5 88 c7 bc 9d 62 86 3c a4 9e 52 bc
       -0.012292999 -0.02435718 0.016404444 -0.012855206
0002c0 49 22 44 3c 72 e4 2d 3d 33 54 0b 3c 20 43 e6 bc
       0.011971065 0.04245419 0.008503961 -0.02810818
0002d0 5a f7 2d 3c ca 55 a0 3b 26 b6 32 bc fb 5e d8 3b
       0.010618055 0.0048930394 -0.010907685 0.0066031194
0002e0 04 b0 e4 bc 8c 5f 92 bc 7b c8 95 3b 31 06 04 3c
       -0.027915962 -0.017867826 0.0045710183 0.008058117
0002f0 59 b8 43 3b 3b aa 89 b9 81 60 0b 3d 52 c1 b5 3a
       0.0029864518 -0.00026257508 0.03402758 0.0013866818
000300 e0 80 2a 3c 37 c7 a3 bc db 61 4c bd 58 a4 04 3c
       0.010406703 -0.019992454 -0.04989801 0.008095823
000310 3a f5 40 bc de 72 59 bc 4c 02 29 3b 30 17 3a bc
       -0.011777217 -0.013272015 0.0025788723 -0.011358067
000320 73 2b 36 3c f5 00 10 bc 95 4b ae 3c b5 5d 83 bc
       0.011118758 -0.008789291 0.021276275 -0.016035894
000330 8d f1 c6 ba e8 46 dc 3b 76 16 86 bb 20 51 02 3d
       -0.0015178189 0.00672232 -0.004092033 0.031815648
000340 a3 39 9b 3b bf f0 6a bb 39 38 9e 3c 84 8a 8b 3c
       0.0047370954 -0.0035849062 0.019313918 0.017033823
000350 7a 11 14 3c 21 77 1a 3d ba ca ca bc ae c7 c3 bc
       0.00903737 0.037711266 -0.02475487 -0.023898926
000360 b2 62 3f bc 66 08 5b bc 8f ad 38 3c 91 9f 63 bc
       -0.011681246 -0.013368702 0.011271848 -0.013893024
000370 c1 dd 6f 3c 83 cc 1b 3c ae 0e 08 bc bd 85 c2 bb
       0.014640273 0.009509209 -0.008304281 -0.005936353
000380 ea bd 09 bd 28 9f 76 3b 1c 27 a4 b8 41 7d 03 bc
       -0.03362838 0.0037631486 -7.827414e-05 -0.008025468
000390 a1 7e dd bd 07 83 9c bc 69 93 66 3d 60 04 b5 3c
       -0.10815168 -0.019105447 0.056292925 0.022096813
0003a0 39 d4 d9 3c aa f2 71 3c 60 df f7 3b fa 69 56 bc
       0.026590453 0.014767328 0.00756447 -0.01308679
0003b0 28 e4 ea 3b e9 45 80 bb 8a d9 a5 bc 07 c9 08 3d
       0.0071683116 -0.003914584 -0.020245332 0.03339484
0003c0 8d 4e 0a bd a3 5e 54 3c e0 a8 e0 3c 61 dd 20 bc
       -0.033766318 0.012962016 0.027424276 -0.009818406
0003d0 55 b4 5f bb b3 d7 e8 bc 1f b5 b6 3a 9e f0 40 bc
       -0.0034134586 -0.028423166 0.0013939476 -0.011776118
0003e0 c3 fa 4d 3b 4e 39 6d bc 44 96 11 bc 70 de a2 bc
       0.0031429983 -0.0144789945 -0.008885924 -0.019881457
0003f0 69 ea 26 3c d5 64 6b 3c b5 68 83 3b dc 30 75 3b
       0.010187724 0.014367302 0.004010285 0.0037413156

transformer.h.0.attn.c_attn.bias f4 [384]
000000 90 87 e3 bd 00 5d 72 bf c8 b4 bb 3c bd ba 2f 3e
       -0.11109841 -0.94673157 0.022913352 0.17161079
000010 60 fe fe be a2 64 20 bf dd 75 75 3f 70 48 fb 3e
       -0.49803448 -0.62653553 0.9588297 0.49078703
000020 45 d5 02 3f aa 44 22 3f b0 41 6b bf 8c 18 9c bf
       0.51106673 0.63386023 -0.91897106 -1.2194991
000030 be ff 98 3f 89 fa 80 bf 02 81 28 3e b6 15 4d bf
       1.1953046 -1.0076457 0.16455463 -0.80111253
000040 9e 6a 48 bf 73 aa b5 be b0 22 18 bc f2 15 66 3e
       -0.78287685 -0.35481605 -0.009285614 0.22469309
000050 31 d9 58 3e 77 a8 8a 3f 30 d0 84 3f 14 60 7f 3e
       0.21176602 1.0832661 1.0376034 0.24938995
000060 a9 64 6b 3f 04 89 2c 3f f3 9d 8b bf cf c6 0d 3f
       0.9195047 0.6739657 -1.0907577 0.5538148
000070 b4 d1 9c be dd 39 a2 3b d5 64 cf 3e 42 b3 40 3f
       -0.3062874 0.0049507455 0.40506616 0.75273526
000080 17 96 13 3f 28 e4 8b 3e 73 ab 2b bf 56 ca 99 bf
       0.57650894 0.27322507 -0.67058486 -1.2014873
000090 74 a2 b5 bf f1 99 b6 3f 59 64 7c 3f 47 5f c7 3f
       -1.4190202 1.4265729 0.9859062 1.5575951
0000a0 3b ea ca bf 3d 1a 1f 3f de 43 95 bf f2 d5 cc bf
       -1.5852731 0.6214941 -1.1661336 -1.6002791
0000b0 32 5e 8c 3f 4a c5 9e 3f 82 4e 62 bf c8 bb cf bf
       1.0966246 1.2403958 -0.88401043 -1.6229181
0000c0 a4 c4 c9 bf 70 7b a1 3f aa 99 8b bf eb 9c b2 bf
       -1.5763135 1.2615795 -1.090627 -1.3954138
0000d0 51 56 c3 bf 1b 6c e0 3f 27 69 4f 3f 07 ac 39 bf
       -1.5260717 1.7532991 0.81019825 -0.7252812
0000e0 c4 f8 ac 3f c7 02 2d bf 6a cc 8c bf a4 27 90 bf
       1.3513417 -0.6758236 -1.0999882 -1.1262097
0000f0 be 90 ac bf cf 91 9f bf e6 9e a0 3e 1d b5 5a bf
       -1.3481672 -1.2466372 0.3137123 -0.85432607
000100 65 57 7d 3f 44 d7 b3 3e b7 b0 60 3f 80 0f 13 bf
       0.9896148 0.35125172 0.87769645 -0.57445526
000110 72 ba 66 bf 22 d1 53 3f e4 16 94 bf 12 59 43 3f
       -0.9012824 0.82740986 -1.1569486 0.76307786
000120 ea d6 86 3e 5d 15 5b 3e b5 2e b8 bd 8e 6a 29 bf
       0.2633584 0.21394868 -0.08993284 -0.66178215
000130 1b e5 4e 3f 9e 7b a7 be b6 64 2c 3f 56 a5 ed 3f
       0.8081834 -0.327115 0.6734117 1.8566082
000140 0b 7d 97 be 19 b0 4f 3e bf d9 48 3e fd 7b 52 bf
       -0.29587588 0.2028202 0.19614314 -0.8222044
000150 08 d6 d0 3e f8 16 9f be ef 22 05 3f 89 e9 a9 bf
       0.40788293 -0.3107221 0.5200643 -1.3274394
000160 7c d3 02 bf 79 bb 76 3f fb 90 e2 3d a8 3f 26 bf
       -0.5110395 0.9637981 0.11062809 -0.6494088
000170 6a 79 05 bf ec 24 0b 3f fb 46 0f bf 8f db e0 3e
       -0.5213839 0.54353213 -0.5596768 0.4391751
000180 dc 5d 36 be fa 33 b9 3f 32 0f 98 be 9d 44 c4 bf
       -0.17809242 1.4468987 -0.29699093 -1.5333439
000190 12 62 a6 3f 32 e9 30 3f 0a 0e 50 3e e0 b5 0f 3f
       1.2998679 0.6910583 0.20317855 0.56136894
0001a0 3e 7d fe bd fe 0d 7c be 18 4e 81 3b 31 4c ec bd
       -0.12426232 -0.24614713 0.003946077 -0.1153797
0001b0 49 18 70 3f a7 04 a8 3f b3 b9 84 3e d9 58 95 3e
       0.93787056 1.312642 0.25922927 0.29169348
0001c0 fe 4f fe be 68 c8 8b bf 34 e6 ab 3e 5a ff 8a be
       -0.49670404 -1.0920534 0.3357407 -0.27147943
0001d0 16 f3 4e 3f 2d 70 a3 be fb b1 72 3f 14 38 01 3e
       0.8083967 -0.3192152 0.94802827 0.12619048
0001e0 d5 2d b9 3f be 75 b5 37 60 d1 96 3e 9f 00 04 3f
       1.4467112 2.163171e-05 0.29456615 0.5156345
0001f0 7a 31 b7 bf a2 ba 73 bd 21 b2 0f bf 0f 2c 80 3f
       -1.4311974 -0.05950416 -0.5613118 1.0013446
000200 a9 fd ca 3e 18 89 77 c0 f3 97 c5 bd 9d 1c f2 3f
       0.39646652 -3.8677425 -0.09648123 1.8914982
000210 8d 97 36 c0 2d c2 3f c0 a9 6b 6e 40 b0 27 3c 40
       -2.853 -2.9962265 3.725321 2.9399223
000220 46 1f f5 3f 73 d0 4c 40 c3 8a 47 c0 3d 06 26 c0
       1.9150169 3.2002227 -3.1178443 -2.5941308
000230 26 f9 2c 40 84 8e 00 c0 95 4b 1f 3f 13 d3 5c c0
       2.7027068 -2.0086985 0.62224704 -3.450383
000240 5a 16 67 c0 91 10 fe bf 4e c1 6f bf e6 d1 a1 3f
       -3.6107392 -1.9848806 -0.93654335 1.2642181
000250 f7 f1 da be c8 c5 29 40 db b1 81 40 49 75 c1 be
       -0.4276273 2.6526966 4.052961 -0.37784794
000260 3d cf 53 40 1d 08 42 40 f4 ba 17 c0 9b 8c 16 40
       3.3095238 3.0317452 -2.3707857 2.3523319
000270 79 43 e0 bf c8 14 4d be e0 eb 62 3f 6f 5d 53 40
       -1.7520591 -0.20027459 0.88641167 3.3025777
000280 72 df 6e 40 8d 3e 58 3f cf ad 83 c0 60 39 93 c0
       3.732388 0.84470445 -4.114967 -4.600754
000290 f4 9d c4 c0 a6 46 dd 40 6b fa ba 40 c9 45 b7 40
       -6.1442814 6.914874 5.8430686 5.7272687
0002a0 37 63 bd c0 db 56 5d 40 f6 a9 c2 c0 14 72 ad c0
       -5.918361 3.4584262 -6.083247 -5.4201756
0002b0 53 05 c8 40 a3 ec c7 40 34 3a 50 c0 7a dc ca c0
       6.25065 6.2476363 -3.2535524 -6.3394136
0002c0 21 a2 9f c0 17 f3 93 40 92 4f c4 c0 49 ab e6 c0
       -4.988541 4.623424 -6.134713 -7.208409
0002d0 a4 17 cd c0 ee 72 c0 40 3d 27 2c 40 72 26 84 c0
       -6.409136 6.0140295 2.689895 -4.129693
0002e0 17 b4 d3 40 00 b3 06 c0 a6 41 b6 c0 cd 9a b5 c0
       6.6157336 -2.1046753 -5.6955137 -5.6751466
0002f0 37 1d 96 c0 90 85 9b c0 c5 52 04 40 39 b0 8a c0
       -4.6910663 -4.860054 2.0675519 -4.3340116
000300 2e 9c 83 40 ea e5 06 40 c0 8d 8b 40 a5 44 8d c0
       4.112815 2.1077828 4.3610535 -4.4146295
000310 2d aa 66 c0 01 37 9d 40 e5 43 3a c0 0d da 0b 40
       -3.6041367 4.9129643 -2.910394 2.1851838
000320 ee da 45 bf 63 c6 33 40 68 31 18 c0 eb b7 83 3f
       -0.77287185 2.8089836 -2.3780155 1.0290502
000330 3e 31 92 40 98 f9 59 c0 79 28 6f 40 4d 40 7f 40
       4.568511 -3.405859 3.7368453 3.9882996
000340 0e 17 2d c0 91 ae b3 bf d5 68 fc 3f 71 ec 95 c0
       -2.7045321 -1.4037648 1.9719492 -4.6851125
000350 eb 6e c3 bf 22 f6 25 c0 42 cf 30 40 63 4e 05 c0
       -1.5268224 -2.5931478 2.76265 -2.0829093
000360 fb 93 ba bf 13 6a ab 40 4a 54 00 40 25 2a 55 c0
       -1.457641 5.3566985 2.0051446 -3.3306973
000370 29 1b 8c c0 51 20 81 40 b2 70 37 c0 ed 73 4a 40
       -4.3783154 4.035195 -2.8662534 3.1633255
000380 3c 38 6d 3f b5 25 47 40 a9 40 f3 bf d0 d4 86 c0
       0.9266393 3.1116765 -1.9004108 -4.213478
000390 73 03 3c 40 2a 72 b1 3f 9b 41 0c 3f 84 d0 e2 3f
       2.9377105 1.3862965 0.54787606 1.7719884
0003a0 0d 5c f4 bf 1f ee da 3d 34 b2 62 3e 5d f8 b8 3e
       -1.9090592 0.10689949 0.22138292 0.36126986
0003b0 70 3b 06 40 5a 3e 31 40 22 ee de 3f 2c f2 59 3d
       2.0973778 2.7694306 1.7416422 0.05320947
0003c0 3c dc a6 bf c4 68 17 c0 c3 9d 17 bd c4 a3 7e 3f
       -1.303596 -2.3657694 -0.037015688 0.99468637
0003d0 48 b3 d2 3f 9a 7e 0d 3d c6 51 41 40 dc 7f 0d 40
       1.6460962 0.034544565 3.020616 2.210929
0003e0 b4 df 82 40 9a 42 11 3d 75 6f 43 3f 7f 9c fb 3f
       4.0898075 0.035463907 0.76341945 1.9657134
0003f0 23 37 86 c0 2f d8 1d 3f f3 7d 83 bf 10 2e 20 40
       -4.1942306 0.61657995 -1.0272812 2.5028114

transformer.h.0.attn.c_proj.weight f4 [128, 128]
000000 37 49 67 3c 64 e6 81 bc be 0d 15 bc 7d a2 38 3b
       0.014116577 -0.01585693 -0.009097515 0.0028173022
000010 1f a3 d7 bc 2d 94 be 3b 11 70 ca 3c 92 64 21 bc
       -0.0263229 0.005816004 0.02471164 -0.009850638
000020 af 1e 7a bc 04 a8 92 3b 38 92 3f 3b 1c 8a 6a bb
       -0.015266105 0.0044755954 0.002923144 -0.0035787886
000030 54 57 d0 bb 8c cd 84 bc 01 87 42 3d f7 8a 8c 3c
       -0.0063580666 -0.016211294 0.04749203 0.017156107
000040 f4 cd fd 39 c1 de 68 3b 03 c0 57 bb 4b 66 ce 3b
       0.00048409367 0.0035533162 -0.0032920844 0.0062988154
000050 85 74 b4 39 4b e8 08 39 a9 7a 82 3b d7 df f7 bc
       0.0003441909 0.00013056507 0.0039819074 -0.030258102
000060 ce 3f 08 bc 38 60 4c 3a 7a 56 e9 3c e9 74 5e 3c
       -0.0083159935 0.000779632 0.028483618 0.013577678
000070 dd 0a dd bc 3e b0 16 3c b8 d3 22 bd 50 d4 df bc
       -0.02698272 0.009197293 -0.039752692 -0.027322918
000080 fb 14 ed bc f2 05 04 bc 6a 22 07 bd b2 aa f5 ba
       -0.028940668 -0.008058058 -0.032991804 -0.0018742888
000090 7c b8 f4 3b 5f 91 5c bb aa bd 35 bb 0a dd a4 bb
       0.0074682813 -0.0033655984 -0.0027731457 -0.0050312327
0000a0 95 a7 87 ba 8e f6 06 bd 4d 00 ec ba 54 8a df bb
       -0.0010349626 -0.032949977 -0.0018005461 -0.00682191
0000b0 00 6d b4 b9 6e 8b 5f ba 67 f6 62 39 de f1 f0 3a
       -0.00034413487 -0.00085275515 0.00021644832 0.0018382629
0000c0 80 a0 6c bb 22 ff e2 3b 51 d0 0a bb 64 53 fa 3b
       -0.0036106408 0.006927387 -0.0021181295 0.0076393355
0000d0 06 b4 be 39 79 a2 27 bc d9 be bd 3c 4f 70 ac 3c
       0.00036373752 -0.010231608 0.023162292 0.021049647
0000e0 1f 68 87 3b 10 46 a2 ba b3 44 28 bd 7a 2a 47 bb
       0.0041322852 -0.0012380499 -0.04108114 -0.0030390308
0000f0 01 9a 58 bc 16 ef 34 3b 60 a8 88 3b 5a e7 6d bd
       -0.013220311 0.0027608327 0.0041704625 -0.058081962
000100 1f 08 6a bc 52 82 10 bd bb 7f 1c 3b 35 71 69 bd
       -0.014284163 -0.035280533 0.0023879844 -0.05699273
000110 04 75 0f 38 c3 1e be bb 03 85 33 bc 2a 97 08 3a
       3.4202836e-05 -0.005802007 -0.010957005 0.00052105135
000120 87 a3 05 bc d0 4a ae ba 63 d8 17 3c 7b 7c 0e 3b
       -0.008156664 -0.0013297442 0.009267899 0.0021741677
000130 ce a3 e5 3b d3 54 48 3c 4e d5 dc 3a 47 64 bf bb
       0.0070080524 0.012227255 0.0016848238 -0.0058408114
000140 3e a5 66 3c 6f e7 65 3c e7 0d 53 bd 1c 04 64 3b
       0.014077483 0.014032229 -0.05152693 0.0034792488
000150 ed 19 d0 3c ec f4 6e ba 9b b9 c6 3c c6 ed b7 3b
       0.025402987 -0.00091154757 0.024258425 0.0056130616
000160 9e 7d 1c 39 0e 74 dc 3c 4c 5b d9 3c 69 6a 9b 3b
       0.00014924115 0.026910808 0.026532792 0.0047429097
000170 bc 67 5f 3b bb 34 92 3b e2 61 24 3c ae 0d a2 3c
       0.003408893 0.0044618524 0.010033103 0.019781914
000180 bd 23 29 3c a4 48 8b 3b e3 7c c7 3a 61 2b 14 3d
       0.010323462 0.004250603 0.0015219714 0.03617418
000190 84 d6 41 bd 97 45 93 bc 5a 5d 99 bb d8 a1 2b ba
       -0.04732372 -0.017977519 -0.004680318 -0.0006547249
0001a0 7d 11 45 bb 3d d4 74 bb 91 d1 8f bc a2 14 0a 3d
       -0.0030070238 -0.003735795 -0.017555984 0.033711083
0001b0 51 5e db bb d3 f7 3f 3c c4 b0 b4 3c d9 25 e3 bb
       -0.006694593 0.011716801 0.022056945 -0.006932002
0001c0 7a 50 e5 3c 1e b6 b7 3c 05 e8 d0 3b 68 02 c9 3b
       0.027992476 0.022425707 0.006375315 0.00613432
0001d0 c6 71 07 bc 82 eb d8 bc 45 28 04 3c a4 bc 9e 3c
       -0.008266872 -0.026479486 0.008066242 0.01937706
0001e0 77 75 e2 bc f2 77 1a bd eb 97 27 bd c1 06 50 bb
       -0.027643902 -0.037712045 -0.040916365 -0.0031742307
0001f0 cf a9 45 3b 03 a3 07 ba 74 43 36 bc c8 ff 29 3b
       0.0030161028 -0.0005174132 -0.0111244805 0.002593981
000200 ed f1 94 bb 7d 4a 2e bb 06 02 66 bc 30 b0 13 3c
       -0.0045454414 -0.0026594691 -0.014038568 0.009014174
000210 f2 30 1f 3d ec b8 86 ba 1c 58 4d bc 40 d9 0a 39
       0.038865037 -0.00102785 -0.012533214 0.00013241637
000220 41 ac e3 b9 aa 6f 7f 3c 94 b3 cb bc 25 14 0e 3b
       -0.00043425153 0.015590588 -0.024865903 0.0021679488
000230 b0 8c 38 ba 99 76 50 bb b9 fe 14 3d c2 cb 0f bd
       -0.0007040007 -0.003180897 0.036375735 -0.035106428
000240 ce c1 6c 3b 93 4b 97 3b b6 66 1a 3d dc 75 e2 3b
       0.0036126259 0.0046171634 0.03769561 0.0069110226
000250 ee 77 f3 bc 7a 3d 28 ba 45 c8 80 3b 1e 68 19 bd
       -0.029720273 -0.0006417852 0.003930124 -0.03745281
000260 dc 3e 61 3b c6 32 16 bc 75 df 15 bc e5 6e 58 3b
       0.0034369742 -0.009167379 -0.009147515 0.0033025083
000270 12 ff 8c 3b 4c bb da 39 fa ad 89 bb 9a c0 35 3c
       0.0043028677 0.00041719747 -0.004201648 0.011093283
000280 75 ed 87 bb a1 3d 17 bc 65 87 85 bb 09 b7 e4 39
       -0.00414818 -0.009231002 -0.004074978 0.0004362392
000290 da 80 21 bc 5a 1e 0e bc b9 f8 7f 3b 99 eb 65 3a
       -0.009857381 -0.008674229 0.0039058162 0.00087707635
0002a0 e9 1a aa 3a 7c 52 21 bc 76 b8 71 3a e6 fb 77 3c
       0.001297799 -0.009846326 0.0009220907 0.015135741
0002b0 79 1d 0d bc 41 6e 1c 39 51 4b 13 3c e1 60 fb ba
       -0.008612984 0.00014918392 0.008990125 -0.0019178652
0002c0 5c 4a 03 bb f7 8c 68 bb d6 e4 69 bb e3 26 b2 3a
       -0.0020033335 -0.0035484412 -0.0035689375 0.0013591911
0002d0 ec d9 00 3c d1 37 42 3d 21 f9 04 3c 8b 0c 2e bc
       0.007864457 0.047416512 0.008116038 -0.010623108
0002e0 bc 14 3e 3c 50 e2 17 bb 27 23 d0 39 f7 de 0a bc
       0.011601623 -0.0023175664 0.00039699042 -0.0084760105
0002f0 ae 67 fc 39 8a ba 24 bb f5 bd 14 bb 17 82 51 bd
       0.00048142433 -0.00251356 -0.002269623 -0.051149454
000300 92 54 d2 3c 87 92 9c bc de a8 b7 3b ae 01 d9 ba
       0.025675092 -0.019112838 0.0056048473 -0.0016556287
000310 94 c1 df ba a2 3a 05 bb f4 c5 77 3b 76 cc d9 bb
       -0.001707124 -0.0020329137 0.0037807198 -0.006646688
000320 a4 2a 23 3c d7 e6 f3 3b e9 ee 06 bc 46 63 c6 bb
       0.009958897 0.0074432897 -0.008235672 -0.006054315
000330 08 ae 8b bb ee 59 d3 3b 8c f4 05 ba 24 e3 9b bc
       -0.0042626895 0.0064499294 -0.00051099877 -0.019029208
000340 6d c1 e2 3c 2b f5 e9 ba 33 08 c1 3c b5 60 c1 bb
       0.027680123 -0.0017849555 0.02356348 -0.005901421
000350 99 05 1a bc f6 8c 44 3b 42 8b 59 3c 84 af e3 3b
       -0.009400749 0.0029991246 0.013277831 0.0069484133
000360 b3 df 13 3b 16 b4 4a 3c 0f 5d 06 bd d2 25 47 3b
       0.0022563755 0.012372037 -0.03280359 0.0030387533
000370 3c 22 a7 ba 29 50 d0 39 42 11 d7 bc ce fc b7 3b
       -0.0012751292 0.00039732576 -0.026253346 0.0056148535
000380 92 9e 66 bd a0 c4 7d b7 94 e5 05 3b aa a2 04 bc
       -0.05630357 -1.5125755e-05 0.0020431029 -0.008095423
000390 72 56 82 3c 80 ca 2d bb ce 12 48 3b 04 e7 53 bb
       0.015910361 -0.0026518404 0.0030528787 -0.003233374
0003a0 71 55 05 bb 03 40 af ba 55 fa 92 3c 1b c1 45 bc
       -0.0020345116 -0.0013370517 0.017941633 -0.012069966
0003b0 ca 65 ad ba 2e 97 9d bc 38 4e e2 3c 07 3c bc bb
       -0.0013229188 -0.019237127 0.027625188 -0.0057444605
0003c0 28 24 36 bc 4a 1a 5c 3c 51 0b 15 bc 5e d4 06 b9
       -0.011117019 0.013434002 -0.009096936 -0.00012858349
0003d0 60 d5 63 3a d3 ad c1 bb 6a 0f b3 39 23 c9 62 3d
       0.0008691158 -0.005910614 0.00034153025 0.0553676
0003e0 7a 62 3b 39 cc f3 7e bc 58 d5 c5 bb 01 1d c9 bb
       0.00017870395 -0.015561055 -0.0060373954 -0.0061374907
0003f0 c4 a3 08 bb 38 54 87 3d d5 2b 69 3c 08 18 33 bc
       -0.0020849565 0.0660786 0.014231642 -0.010931022

transformer.h.0.attn.c_proj.bias f4 [128]
000000 25 3c 7b 3c 1c 53 83 bd de 10 a0 3c a2 52 a9 bb
       0.015334164 -0.06412336 0.019539293 -0.0051673213
000010 cc 95 6e bb 76 2a 23 3c 64 31 66 3d 63 10 51 3c
       -0.0036405204 0.009958854 0.056199446 0.012760255
000020 2b c9 fe 3b 6b 4e 8d bc 51 7b f8 3a 81 93 a9 3c
       0.007775446 -0.017249307 0.001895765 0.020700218
000030 74 5a 3d 38 b9 92 4a 3c 00 b0 72 3c e1 77 a0 3c
       4.5145352e-05 0.012364083 0.0148124695 0.019588413
000040 ab f2 c4 3c ac 6f fe ba c9 ae c5 bc 4f af fe bc
       0.024041494 -0.0019411943 -0.024131196 -0.031089453
000050 23 42 8d 3b 4f b6 37 3b 84 31 c7 3b ae c9 5b bd
       0.0043108626 0.0028032248 0.006078901 -0.053659134
000060 46 68 df bc 06 e1 6a bb 6f 38 db 3b 7e cf 3f 3c
       -0.027271401 -0.003583969 0.006690077 0.011707185
000070 f6 77 ec 3b cc 32 d7 3b dc 33 9b bc 2f d2 97 3c
       0.007216449 0.0065673348 -0.018945627 0.01853284
000080 c5 01 f8 3b 23 91 3e b9 18 03 46 bc 21 1a c4 bb
       0.0075685703 -0.0001817388 -0.012085699 -0.00598456
000090 46 ad a4 bc 91 8f 14 bc 62 11 b8 bc bc de a1 3b
       -0.020102154 -0.009067432 -0.022469226 0.004939882
0000a0 f4 9d 76 3b 49 88 27 bb 63 27 4c bb f9 70 e3 bb
       0.0037630768 -0.002556341 -0.0031151406 -0.0069409576
0000b0 32 f2 4f bc 15 b3 99 3c bb f1 74 3c 28 5b e6 bc
       -0.012692021 0.01876215 0.014950211 -0.028119639
0000c0 63 27 a8 3c 1e 9c f8 3b 88 14 82 3c 7a db cf 3b
       0.020526594 0.00758697 0.01587893 0.0063433023
0000d0 c2 3b 89 3c 92 29 ef 3c 74 7d b4 3c f3 9d 0f 3b
       0.016752128 0.029194627 0.022032477 0.0021914213
0000e0 a9 84 23 bc ae 46 c2 bb 3f 79 c5 bb 69 60 b2 3c
       -0.009980359 -0.005928836 -0.0060264166 0.021774488
0000f0 18 51 01 bd b3 2f 29 3c 98 e6 b9 bb 1b 2d 9e bb
       -0.031571478 0.010326314 -0.005673241 -0.0048271543
000100 11 e4 c5 bc d3 9c b0 bc 6d 02 19 bc 7d 88 ec 3c
       -0.024156602 -0.021559155 -0.009338957 0.028873676
000110 8d 05 42 3c a6 26 74 3c 9b 92 8a bc 58 a2 71 3c
       0.011842144 0.014901793 -0.01691561 0.014748178
000120 55 cf c0 bc 1f 4e 63 bc 1f f0 7c bc 90 d5 b6 3b
       -0.023536364 -0.013873606 -0.015438109 0.005579658
000130 1c 27 6d ba 6a a0 bc 3c cd 95 2d bc f1 8f 84 bc
       -0.000904666 0.02302571 -0.010594797 -0.016181918
000140 25 9c 55 bc a0 85 7a 3b d8 42 a2 ba 5e 3f 9f bc
       -0.013037716 0.003822662 -0.001237954 -0.019439396
000150 0b 2c 89 3b c3 b0 01 bc 77 1d 8e bc d9 22 89 b9
       0.0041861585 -0.007915678 -0.017348034 -0.0002615664
000160 54 1c 35 3c f5 bd 86 bc 45 69 a8 bc 19 97 37 3c
       0.011054117 -0.016448 -0.020558009 0.011205458
000170 08 4c 8d 3c 8a 16 bc 3c 50 d6 e1 ba ef 4f 8d bc
       0.017248169 0.022959966 -0.0017230008 -0.01725003
000180 75 43 aa 3c 25 35 3c bb 1c b5 63 bb 7e 5c b9 39
       0.02078412 -0.00287182 -0.00347454 0.00035354862
000190 cf bb c1 bc 02 ee d9 3a b0 48 bf 3b 20 ff eb 3c
       -0.023649124 0.0016626718 0.0058375224 0.028808177
0001a0 47 cf b0 3c ee 8e 9c bb 00 7b 18 bb 3e d7 60 3c
       0.021583213 -0.0047777807 -0.0023266673 0.013723193
0001b0 90 df 43 3c 77 26 cd ba 6e 4c 8d 3a 3b 69 df bc
       0.011955157 -0.0015651722 0.0010780224 -0.027271857
0001c0 e1 56 8f bc 40 1e 91 bb 98 3c ac 3c 20 9b 89 3b
       -0.017497482 -0.004428655 0.021024987 0.0041994005
0001d0 f7 f4 6d 3c ba 8b c2 3c 6f 94 03 bd 51 6e f7 3c
       0.014523736 0.023748267 -0.03212398 0.03020397
0001e0 50 97 a5 3b 63 e3 1a 3d a4 51 b3 3b 34 2d 23 3b
       0.0050534382 0.03781451 0.005472379 0.002489877
0001f0 cb bf 12 3a 3d 31 fb 3b b2 ff 3b bc f1 72 56 3c
       0.00055980374 0.007665782 -0.011474537 0.013088928

transformer.h.0.ln_2.weight f4 [128]
000000 32 63 ca 3f 81 fe 83 40 29 53 87 40 1d 92 6e 40
       1.5811522 4.1248174 4.2289014 3.727668
000010 48 d8 82 3a 64 87 99 3f fa c0 80 3f e1 c4 99 3f
       0.000998267 1.1994443 1.0058892 1.2013208
000020 c9 89 d1 40 04 d6 8a 40 a5 13 4e 40 d6 b9 40 40
       6.5480695 4.338625 3.219949 3.0113425
000030 2d 20 c5 40 34 81 81 3f 8c 0b a8 3f b1 57 86 40
       6.1601777 1.0117555 1.3128524 4.1982045
000040 fb 97 9b 3f d5 ca 7d 3f c6 e0 46 40 84 9c 07 40
       1.2155756 0.9913762 3.107469 2.118928
000050 6f 5f d9 40 4f 49 ee 3f 8f 1b 95 40 4f 45 cc 3f
       6.7928996 1.8616122 4.659614 1.5958651
000060 4d d0 14 40 e9 d6 c1 3b e0 be c4 40 c8 01 80 40
       2.3252137 0.005915512 6.1483 4.0002174
000070 13 20 e2 40 aa b4 d8 40 0d 74 98 40 b0 ea c8 3f
       7.0664153 6.7720537 4.7641664 1.5696621
000080 cd b6 e0 40 da f9 6b 3f 93 db d1 3f 91 7f 9f 40
       7.0223145 0.9217812 1.6395134 4.984322
000090 3c e2 e5 40 cc 69 b2 3f f9 42 c5 3f c7 ac b6 40
       7.1838665 1.3938537 1.5411063 5.708591
0000a0 f0 d8 c1 40 80 9a 09 40 51 e2 1f 3a fb ea 0d 40
       6.0577316 2.150055 0.00060990924 2.217467
0000b0 e6 d7 b3 3f 07 b9 01 40 d1 98 8f 40 ee 87 00 40
       1.4050262 2.0269182 4.4874043 2.0082965
0000c0 f6 d7 78 40 3a ea 07 40 39 d4 2f 40 77 ac b3 40
       3.8881812 2.123671 2.747328 5.614803
0000d0 d0 19 8d 40 bb dc 74 40 91 07 85 40 ad c0 94 40
       4.409401 3.8259723 4.1571736 4.64852
0000e0 43 98 af 3f e7 a8 a3 3f cf bf 98 3f 6f 8c cb 3f
       1.3718342 1.278592 1.1933535 1.5902232
0000f0 f6 cf cd 3f a8 30 7f 40 a8 17 d3 40 11 3b aa 40
       1.607909 3.9873447 6.5966377 5.3197103
000100 7e 9e 01 41 2f b8 d6 3f b8 7f e7 3f 19 25 ee 40
       8.101194 1.6774958 1.8085852 7.4420285
000110 bc 9f 81 40 0a f8 ed 3f a8 44 20 40 a9 ec e3 40
       4.050749 1.859132 2.5041904 7.122639
000120 40 7b 29 40 3d 09 f7 3f 48 39 ef 40 db 25 00 40
       2.6481476 1.9299694 7.4757423 2.0023105
000130 4e 46 b7 40 60 8f fd 3e 5a 64 ce 40 14 6c d3 40
       5.727332 0.4952345 6.44975 6.606943
000140 d6 73 05 40 8f be ee 40 6f 6a a4 3f 45 25 fd 40
       2.085195 7.4607615 1.2844981 7.9107995
000150 de 33 b4 40 7e e4 0d 3f 36 d1 00 41 df 89 36 3b
       5.6313314 0.55426776 8.051077 0.0027853174
000160 46 8f ce 40 a3 b9 62 40 af 81 c9 40 cb ff 8a 40
       6.4549894 3.5425804 6.2970805 4.3437247
000170 82 a4 da 40 35 39 ba 3f 22 b9 91 40 60 99 47 3f
       6.8325815 1.4548708 4.553849 0.77968407
000180 a0 80 9e 40 cc a1 a4 40 45 38 a2 40 d4 7f 90 40
       4.9532013 5.1447506 5.069369 4.515604
000190 bc b5 8f 40 f0 ba b8 3f 10 33 a3 40 65 67 84 3f
       4.4909344 1.4432049 5.099983 1.0344054
0001a0 e4 1d 8b 3f 0e 07 9e 40 19 d6 93 bb 44 ab 8e 40
       1.0868497 4.938361 -0.0045116064 4.4584064
0001b0 0a 4f b8 40 d8 56 e8 40 9d a2 a9 bb 9d bd 0e 40
       5.7596483 7.260601 -0.0051768557 2.230323
0001c0 f4 31 07 40 54 b9 7b 40 b3 4d fe 40 3a 9a c6 3f
       2.112424 3.9331865 7.946985 1.5515816
0001d0 91 c1 4e 3f 32 20 f2 3f a2 91 a3 3f bf c1 a2 3f
       0.8076411 1.8916075 1.2778819 1.2715377
0001e0 52 4c 19 40 aa ef bd 3f b7 66 3e 40 db 13 97 40
       2.3952832 1.4838765 2.9750192 4.721174
0001f0 49 37 b9 40 fb 47 cf 40 c0 c9 d9 40 49 e2 d2 3f
       5.7879987 6.4775367 6.8058777 1.6475307
