warmup/warmup_2_97_+_1.pth (torch, 824611 bytes, 17 tensors)

transformer.wte.weight f4 [14, 128]
00000000: deaa bebb 3832 b83c e672 d73c b6c9 e0ba
00000010: 826b 673c 5026 643c 001c b83a 83ea be3b
00000020: dbcb f6ba fe98 5c3c 437f 5d3c 8a0f e2b8
00000030: 2a84 c6bc 19b8 3bbb 3f13 873c a8ae d13a
00000040: 5dec ad3b bc9a 56bc bcc8 503c d05b 713c
00000050: 70e3 f3bc 894b 5f3c 642f 22ba bb7c 463b
00000060: 6be7 6d3c b8ef 643c f519 663c 61ec 06bc
00000070: 1ed1 63bc a9af 823c e7d9 7dbc 128d 9dbc
00000080: fa68 dbbb 4754 173c 1d78 a9bc 22c5 2a3c
00000090: 234b 5d3c 7615 fb3b e86d 80bb 161c 04bc
000000a0: 9b0b 793c fa8d 5b3c 5b0c 5e3c 37fc d2bb
000000b0: 389a 5a3c c78e 8b3c b422 113d d18f 623c
000000c0: 5251 633c eee7 6bbc 95de 7b3b 0759 613c
000000d0: 9120 683c f1c4 c7bc 278a ab3c 0551 52bc
000000e0: 2be2 613c 7f0a 4f3c 9afd 59bb 9e85 1f3c
000000f0: 0a2f 50bc 97a0 b13b 2bb0 04bc 9d52 0fbb
00000100: 9414 5f3c 9083 593c ef23 8dbc 1e93 673c
00000110: 4c0d 843b ee15 03bd 06ce 613c face a639
00000120: f9f1 e53c 6bf9 5c3c 557a 673c 91ba 5f3c
00000130: 6e67 ba3b 06d1 47bb 5967 ee3c e23b 8ebc
00000140: a7cb 5c3c d6df 3e3c af1e e0b9 9f24 6e39
00000150: 0a59 6ebc 9215 a23c f275 76bc cbb6 50bc
00000160: 2ff1 78ba 150c 5f3c 4361 3a3c ba42 da3c
00000170: d818 5e3c 10d4 ae3c 779d a03c fa9a 5a3c
00000180: 169b 913b 4627 303d 1edf d43a 8045 77bb
00000190: 7642 253b 86b5 0c3b 8628 023d bbf5 f63c
000001a0: fc2c 223c 501c 78bc 26c5 0cbc 6ef5 813c
000001b0: 2cdf 263c 77be d1bb cafc 423c 3de9 59bc
000001c0: 0857 733c 98d3 3dbb 9aeb 5a3c c787 75bc
000001d0: cb5a 8e3c 5e14 553c 889f 103c c087 123c
000001e0: c2e5 c43c 1dff 38bc bed2 313b 4780 a1bc
000001f0: c26a 603c c153 d6bc 11f4 42bb be9f 0e3c
00000200: 37c9 6abd b39c 8a3a 9f04 ca3b 5ba4 acba
00000210: 2c7f 35bd 05ed 30bd 5fb1 2b3c 740a 2dbd
00000220: 0cbc 633b cac9 39bd 5787 2fbd ee19 063d
00000230: 5735 5bbd 112f 993c d0cd 1a3c fb54 c2bb
00000240: 6de4 40bd 4032 ecbb 21c4 37bd b7b3 15bb
00000250: 8fec de3c 87eb 31bd 3c20 9cba b2d2 eb3b
00000260: ff2d 493d 544f 37bd 5323 41bd 5748 06bd
00000270: 7b3e 593d 8f30 30bd 6406 593a 74a5 3bba
00000280: 03a2 863c 5b4d 163d 0378 203d c709 a53a
00000290: 31d5 2fbd b340 33bd b574 39bc 819b 5f3b
000002a0: ca84 abb9 113c 32bd 3190 32bd 6a01 c0bb
000002b0: 0758 343b 4bc6 923a cab1 4d3d d582 35bd
000002c0: b6df 36bd 8c34 323d c2e8 463b 5a88 34bd
000002d0: 45c1 34bd 0b00 3b3d 45c1 f9bc 6b1c 653d
000002e0: c1e4 35bd 5ede eaba d743 debb f574 8c3a
000002f0: 3d81 8cbd 3e1c 263e 18d6 5c3c 480e d03c
00000300: 6a2e 36bd d8f4 303b 4615 d53c 6e70 9cba
00000310: 90a7 da3b 11d4 03bc e309 33bd 5194 7dbc
00000320: ec37 f5bc 553c 3bbd 98c6 39bd d22b 32bd
00000330: 1b0e c0bc f009 613c 367c a73d 2d76 bebb
00000340: e4fa 39bd 310d 3cbd 274c a13c 9de8 ebb9
00000350: 637d aa3c fedb a7bd 902b ff3b 67e2 f4bb
00000360: 5c07 15bb 6b47 31bd 27e8 b9bb 8b81 c3b9
00000370: f95d 31bd 5194 f0bc b2dd e1ba 47de 32bd
00000380: 42c2 55bd 7c53 bdbc a6ef 9bbb 53f6 67bb
00000390: 32c1 b8bb bb67 86bb 77aa c6bc 131f 063b
000003a0: 88a9 1c3d 1195 893b a7de 063d 8ac0 8e3b
000003b0: f05e 04bc b4ed 073d a8b6 45bc 9d57 10bc
000003c0: e8bf 38bd b199 d93b af62 31bd 22cb 233a
000003d0: df94 023b 32bb 38bd ff73 bcbc 2707 b1bc
000003e0: bac7 24bc 9951 e43b 0440 563c 4011 ed3b
000003f0: e3b3 30bd e37a c53b 18af 18bb 7faf dfbb
-0.005818709 0.022484884 0.026299905 -0.0017149958 0.014124753 0.01392515 0.0014046431 0.005826296
-0.0018829064 0.013464211 0.013519111 -0.00010779414 -0.024232943 -0.0028643666 0.01648867 0.0015997486
0.0053077177 -0.013098415 0.012743171 0.014731362 -0.029771537 0.013628849 -0.00061868713 0.0030286747
0.014520506 0.013973169 0.014044275 -0.008235068 -0.013904838 0.015952902 -0.0154938465 -0.019232307
-0.006695864 0.009236402 -0.020687157 0.010422977 0.0135066835 0.0076624705 -0.003919352 -0.008063337
0.015200521 0.013400549 0.01355275 -0.0064387578 0.013342433 0.017035855 0.035433486 0.013828234
0.013874369 -0.014398558 0.003843223 0.013754136 0.014167921 -0.024385901 0.0209399 -0.012836699
0.013786833 0.01263678 -0.003326273 0.009736447 -0.0127065275 0.005420755 -0.008098642 -0.002186931
0.013615746 0.013275996 -0.017229049 0.014134197 0.0040299054 -0.032003336 0.01378203 0.00031816197
0.028069483 0.0134872 0.014128287 0.013655321 0.0056885993 -0.0030489578 0.029102014 -0.017362539
0.013476289 0.011650046 -0.0004274747 0.00022711091 -0.014547596 0.019785676 -0.015042769 -0.012738894
-0.00094963884 0.01361372 0.011375728 0.026643146 0.013555728 0.021341354 0.019606335 0.013342613
0.0044435365 0.043006204 0.001624081 -0.0037730634 0.0025216616 0.00214705 0.031776927 0.03014647
0.00989842 -0.015143469 -0.008591926 0.0158641 0.010185044 -0.006400879 0.01190109 -0.013300237
0.014852293 -0.002896523 0.013361836 -0.014985985 0.017377278 0.013005344 0.008827098 0.008943498
0.024035338 -0.0112912925 0.0027133669 -0.019714488 0.013697328 -0.026162984 -0.0029747526 0.008705078
-0.0573208 0.0010575264 0.0061651017 -0.001317154 -0.044310734 -0.04319479 0.0104793 -0.042246297
0.0034749536 -0.045358457 -0.04285368 0.032739572 -0.053517666 0.0186992 0.009448484 -0.0059305406
-0.047092844 -0.0072081387 -0.044864777 -0.0022842714 0.02721241 -0.043437507 -0.0011911462 0.0071967477
0.04911613 -0.044753388 -0.04715283 -0.032783832 0.0530381 -0.04301506 0.00082788453 -0.00071581383
0.016434675 0.036694866 0.039176952 0.0012591415 -0.042927925 -0.043762874 -0.011319329 0.0034119787
-0.00032714597 -0.043514315 -0.043594543 -0.0058595436 0.0027518289 0.0011198012 0.05021838 -0.044314224
-0.04464694 0.043507144 0.0030351137 -0.044075347 -0.04412963 0.045654338 -0.030487666 0.055935305
-0.04440761 -0.0017919054 -0.0067829895 0.0010716008 -0.06860588 0.16221711 0.013478778 0.025397435
-0.044477858 0.0027001407 0.02601112 -0.0011935362 0.006672807 -0.008046166 -0.0437106 -0.015477256
-0.029933892 -0.045711834 -0.04535541 -0.04349882 -0.023444226 0.013735279 0.08177988 -0.0058124275
-0.045405284 -0.045911018 0.019689633 -0.00044996003 0.020811742 -0.08196257 0.0077871755 -0.0074732783
-0.0022739982 -0.043281 -0.0056734267 -0.00037289815 -0.04330251 -0.029367598 -0.0017232208 -0.04366901
-0.05218721 -0.023111098 -0.004758793 -0.0035394623 -0.005638265 -0.004101721 -0.024251206 0.00204653
0.038247615 0.0041986783 0.03292718 0.0043564485 -0.0080792755 0.033185676 -0.012067474 -0.008809951
-0.04510489 0.006640636 -0.043307003 0.00062482257 0.001992516 -0.0451004 -0.02300453 -0.021609856
-0.010057384 0.006967735 0.013076786 0.0072347224 -0.043140303 0.006026612 -0.0023297723 -0.0068263407

transformer.wpe.weight f4 [32, 128]
00000000: 638f 13bc 30ed 4d3c 2e38 693c 73dd 37bb
00000010: 683c 753b 386c e1b9 6894 9cbb 5813 a838
00000020: b75d 02bc 4e52 2f3b f969 f33a bc04 ee3b
00000030: 9b4e 193c 41a2 a43c 0bba 263b 25c6 9ebb
00000040: 6791 573b ca8f 3b3c e889 2439 1614 243c
00000050: d771 673d 7098 f239 4aa4 033d 0c50 d939
00000060: ad69 a2bb ad24 943b 01ee a3ba 34d6 4c3b
00000070: caa4 573c d8b8 29bb 07c5 a13b de73 36bb
00000080: 9c62 25bc 4775 6f39 870a c8bb 2b90 593c
00000090: 232c 0ebb 1354 86bb d006 e5bb c7a2 bbbb
000000a0: d89a 93bb ef41 aebb 62b2 f2ba edeb d83c
000000b0: 7b04 87bb 6070 b8bb a80f d4bb 812f 1cbb
000000c0: 276d 7a3b 2ed5 8cbc 79ae a239 96e9 ab39
000000d0: cff2 87bb 375b 9a39 408a d7bb e159 023b
000000e0: 08cf 87bb 5749 1f3c a2f2 abbc fa31 7e3c
000000f0: 30e3 b93b 530e 1ebc eb4e c13c 4b9e 703d
00000100: f498 1db9 34bb 73bb b166 373b f7bc ddbb
00000110: dc85 2bb9 560e 2fbb fdc1 a2bb 6efd 8fbd
00000120: f04c 253c 4069 d43a 2e39 26ba c60f 5bbb
00000130: 641f 993a 9068 303c e23e d33b e6a4 80bb
00000140: 7e49 1d3b ad5a 1e3c b147 ba3c f950 eebc
00000150: a225 64bb 762b c0bb d09d 18bc aba2 953b
00000160: ac98 4f39 dfd8 c53a c00c 10bc c073 a93b
00000170: 7c0f c6ba a1cb 5dbc fb43 0a3c d5fe 0bbb
00000180: 655e 5fbc 47c2 2fbd 64dd 9ebb 1a96 3a3c
00000190: dc72 4dba 0a28 50bc 4031 13bb 9829 14bb
000001a0: 19e4 893b ad55 09b9 ba64 f93c b090 24bc
000001b0: 6f0a 1ebc 79fa 69bc 3bb6 6c3b 6793 273c
000001c0: 18f0 bbbb 3baa 4b3b bda9 8abb d137 0b3b
000001d0: 62df a8ba b9a9 9b39 d095 733c b981 6dbc
000001e0: 0e7e 99ba 16ec a2bc 45fe 3e3c 475e 023d
000001f0: 931b 2bbb 0e72 093b 0e22 fdbb 4623 d339
00000200: af86 0c3c ac7c 46bc bd27 19bc 4ea4 253c
00000210: 8cb1 8bbb a67d 1ebb b04f 1a3c 981e 063a
00000220: 6649 893b d963 7cbb da6e 9abb 6b55 cb3a
00000230: c5f6 a1bb 690d bbbb 020c 8d3b edb5 6a3b
00000240: 93e6 69bb 3dff 86bb 9f2d d1bb 6b70 2cbb
00000250: 997e b13b 7783 cfbb fe1f cebc 2af0 f03b
00000260: 9101 a73b a5c8 d0ba fe71 703b 15d8 903a
00000270: c698 243c ba6c d9ba 72fe dcba aae4 613b
00000280: ae60 e53b 97fb f9b8 4139 4c3c d2bc 75bc
00000290: 05ed 83bb e776 57ba 5c3c 3d3c d311 403c
000002a0: fd32 92ba 34a1 08bb ea7d 7ebb bc06 cabc
000002b0: 5fc2 ecba 1979 c3ba d816 f73b aeac 62ba
000002c0: 3b1e 9dbb cb91 483c 3664 193b 9fcf 26bb
000002d0: fad6 60ba e73a 463c 2fef 77bc 9903 933b
000002e0: 9af5 78ba 3aa3 a1bc 65ba e23c c2f0 73bd
000002f0: d41e e9bb 5e8b d73b 1c59 c6bb 183d 393c
00000300: 4f10 cd39 e53a 8a3a c25d 2b3b 0cb7 843a
00000310: 476a ffbb 7bea 863a 5382 9ebb f99c c83b
00000320: af47 88bc ff00 e0b9 cb71 c0ba 4acb a8bb
00000330: d9a8 1ebc 4caa 44bc 8263 29bc 1992 af3b
00000340: 2058 6439 cc05 85bb 7e58 ab3a 0da7 da3c
00000350: 61a1 183c 8aa2 78bb c325 953c 6008 6f3a
00000360: e8b1 463c b359 92bb af95 203c 446f c6bb
00000370: e099 33bb 183b 2bbc 7f9d 06bc 5749 70bb
00000380: 171a 89bc 3977 29bc 2344 dcba 4809 1fbc
00000390: 99f8 513b c0bf 8b3c 2063 28bb b56b ceb9
000003a0: c485 283a b6ad 23bb 493c 543b ea57 a33c
000003b0: 5bfd 403c 2d99 623c c6cf 673b c6bd 1bbc
000003c0: e77c ca3b 46d4 11bc 089a 70bb d17e 803b
000003d0: c5c4 aebb 3b52 383a a2bd 75bc d31b 3abc
000003e0: e3b3 553a 099d e73c 6d0f eab9 39a3 acbb
000003f0: 44ef 8fbb ac67 2e3c 8f6f fd3b 4a9b 91bb
-0.009006354 0.012568757 0.014234586 -0.0028055578 0.0037420038 -0.00042995973 -0.0047784336 8.014467e-05
-0.007956914 0.0026751938 0.0018571011 0.007263748 0.00935712 0.0200969 0.002544048 -0.004845398
0.0032893063 0.011447856 0.00015691633 0.0100145545 0.05650505 0.00046271412 0.0321391 0.00041449105
-0.004956445 0.0045209737 -0.0012506844 0.0031255605 0.013161847 -0.002589753 0.0049368176 -0.0027840058
-0.010094311 0.00022836505 -0.0061047706 0.013279001 -0.0021693788 -0.004099378 -0.0069893375 -0.0057261917
-0.004504543 -0.0053179185 -0.0018516297 0.026479686 -0.004120407 -0.0056286305 -0.006471593 -0.0023832025
0.0038212033 -0.017191496 0.0003102904 0.00032789697 -0.004148818 0.0002944113 -0.00657776 0.0019889998
-0.004144553 0.009722075 -0.02098972 0.015514845 0.005672835 -0.00964697 0.023597201 0.05874471
-0.00015029666 -0.003719044 0.0027984793 -0.006766911 -0.00016357697 -0.0026711426 -0.004966973 -0.0703076
0.010089144 0.0016205683 -0.0006340918 -0.003342615 0.0011682329 0.010767117 0.006446705 -0.0039259074
0.0024000104 0.0096651735 0.022739263 -0.029091345 -0.003481247 -0.005864556 -0.009314969 0.0045665107
0.00019797933 0.001509454 -0.008792102 0.005171269 -0.0015110816 -0.013537318 0.008439059 -0.0021361609
-0.013633345 -0.042909887 -0.004848169 0.011388326 -0.0007837245 -0.012704859 -0.0022459775 -0.00226078
0.0042080996 -0.00013097255 0.030443538 -0.010044262 -0.009646042 -0.014280909 0.003611936 0.010228015
-0.0057354085 0.0031076807 -0.00423166 0.0021242986 -0.0012883956 0.00029690357 0.014867261 -0.01449626
-0.0011710541 -0.019887965 0.011657302 0.03182819 -0.0026108965 0.0020972523 -0.007725007 0.00040271337
0.008577033 -0.012114685 -0.009347853 0.010109974 -0.0042631086 -0.002418378 0.009418413 0.0005116253
0.004189658 -0.0038511662 -0.0047129216 0.0015513127 -0.0049427473 -0.0057083857 0.00430441 0.0035814003
-0.0035690411 -0.0041197822 -0.0063836123 -0.0026312124 0.005416703 -0.0063328105 -0.02516174 0.0073528485
0.0050966223 -0.0015928937 0.0036689038 0.0011050726 0.01004619 -0.0016588189 -0.0016860499 0.003446857
0.0070000505 -0.000119201075 0.012464822 -0.014998632 -0.0040260577 -0.0008219317 0.011550035 0.011723
-0.0011154112 -0.0020848038 -0.0038832375 -0.024661414 -0.0018063298 -0.0014913409 0.007540565 -0.0008646947
-0.0047948635 0.012241791 0.0023405678 -0.0025453342 -0.0008576956 0.012099004 -0.015132709 0.004486513
-0.00094970467 -0.019731153 0.02767677 -0.059555776 -0.0071142707 0.006577893 -0.006053103 0.01130607
0.00039112798 0.0010546116 0.0026148413 0.0010125353 -0.0077946517 0.0010293269 -0.004837313 0.006122228
-0.016635744 -0.00042725352 -0.001468235 -0.005151187 -0.009683811 -0.012003493 -0.010338666 0.0053579924
0.00021776604 -0.004059529 0.0013072637 0.026690984 0.0093158195 -0.0037938678 0.018206483 0.00091183744
0.012127377 -0.0044662594 0.009801312 -0.0060557444 -0.002740495 -0.010451101 -0.008216261 -0.0036664808
-0.016736073 -0.010343366 -0.0016804974 -0.009706803 0.0032039045 0.017059207 -0.0025693849 -0.0003937163
0.0006428624 -0.0024975366 0.0032384566 0.019939382 0.011779155 0.013830465 0.0035371645 -0.009505695
0.0061794403 -0.008900708 -0.0036712904 0.0039213677 -0.0053335153 0.0007031296 -0.014998825 -0.011359173
0.00081521104 0.028273122 -0.0004464345 -0.005268481 -0.0043925364 0.0106448345 0.007734246 -0.0044435607

transformer.h.0.ln_1.weight f4 [128]
00000000: 4f68 893e 6c06 003f 9cca 923f 3e49 0840
00000010: 009f 95ba 62f4 a5ba 944d 303f 9c46 843a
00000020: cbe9 4f3f 4a41 893a 1c90 a43a e2e8 753d
00000030: ecd9 ce3e 5a8d 2b3f 6b8a 073f 169a 3340
00000040: ffd9 5e3b ef4b 2c3f 982b 32bb be4d c53f
00000050: a107 413f b826 02bb f244 933f 468d 313f
00000060: 9b58 823e 250b 3c3b b993 41bb e442 253f
00000070: 5e41 853e ab47 6eba fa25 3a40 3cc0 2e40
00000080: ba14 053f e205 6f3d 900f 023f 0a5f 973f
00000090: 2a0a 7939 32db 163a 4c6a 2940 c562 2a3f
000000a0: 8d43 603f 4284 723b bf74 6db9 7cf1 893f
000000b0: 3b63 cc3f 3212 2a3f 5ce7 a53e 9438 a3ba
000000c0: b0ba 79b8 af34 f13e 669f 0f3f e9a3 3abb
000000d0: 5aca 6c3a 6a10 613f 401e 013f 2591 1e3f
000000e0: 2c8f 093b 155c 513f 4bdf 8240 76af 8840
000000f0: 307e d53e 1055 2640 16f4 c23f f3f8 653f
00000100: 9ec9 bcba 38f6 4d3f b3ed a43e 5103 bb3e
00000110: 505f 4a3f a766 9c3f a09d bcbb 4117 8a40
00000120: 3ba8 113f ed6d b73a 9bdd 2c3b 514d 0c3a
00000130: 7a40 013f 6ab3 463f d8e3 033f 032d ed3f
00000140: 2201 503a fecd 3a3b 3871 4e3f a5b3 c23f
00000150: 4208 303f ffd4 ba3e dc6d 0f3f e253 543f
00000160: 4604 a73f d6eb cdb8 8871 1e3f ac1c be3f
00000170: a8bc 0539 9df6 063f 4d26 8d3f ee1c 1f3b
00000180: 6c47 e53e 4682 063f d43e 953f 3196 b13f
00000190: 0231 ed3f 9fe4 343f abef 0f3f d1be 2e40
000001a0: ed5d 953d 0c7b 8d3f b4a2 2c3f be1e 4d3f
000001b0: 54aa 1140 3b4f 0b3f e776 fb3e d9e6 bd3f
000001c0: 8860 cdba 7f9b d83f 7020 3bbb e1ff f83f
000001d0: 3d9a 4e40 96fb fcba 1727 193f bfcf 213f
000001e0: 2f1b 473f dbed 243f 4bb8 2540 8066 8140
000001f0: 122d 293a 8e17 d33f ec99 c63e 778b 3b3f
0.26837394 0.500098 1.1468081 2.1294703 -0.0011415184 -0.0012661333 0.68868375 0.0010091844
0.81216115 0.0010471728 0.0012555155 0.060036547 0.40400636 0.6701256 0.52945584 2.8062797
0.0034004448 0.67303365 -0.0027186628 1.541435 0.75402266 -0.0019859504 1.1505415 0.6935619
0.25458226 0.0028693166 -0.0029537512 0.6455519 0.26026434 -0.0009089659 2.908568 2.730483
0.5198475 0.05835522 0.50804996 1.1825879 0.00023750277 0.00057547085 2.6471128 0.6655696
0.87603074 0.0037005101 -0.00022645573 1.077682 1.5967783 0.66434014 0.32403076 -0.0012452775
-5.9540092e-05 0.47110507 0.561026 -0.0028479046 0.0009032838 0.8791567 0.5043678 0.6194022
0.0020989878 0.8178113 4.0897574 4.2714186 0.41697836 2.5989418 1.5230739 0.8983299
-0.0014403348 0.80453825 0.322126 0.36525968 0.79051685 1.2218827 -0.005756095 4.3153386
0.56897324 0.0013994552 0.0026377204 0.0005352097 0.5048901 0.77617514 0.51519537 1.8529361
0.0007934739 0.0028504129 0.8064151 1.5211073 0.687626 0.36490628 0.5602701 0.82940495
1.3048179 -9.8190896e-05 0.61891985 1.48525 0.00012754148 0.5272005 1.1027313 0.0024278718
0.44781053 0.5254253 1.1659799 1.387396 1.8530581 0.7066135 0.5622508 2.7303965
0.072933055 1.1053176 0.67435765 0.80125034 2.276021 0.5441777 0.49114153 1.4836074
-0.0015669027 1.6922454 -0.002855327 1.9453088 3.228164 -0.0019301053 0.5982527 0.6320762
0.77775854 0.6442544 2.5893734 4.043762 0.00064535544 1.6491563 0.38789308 0.7325968

transformer.h.0.ln_1.bias f4 [128]
00000000: 2f8e 373d dffb 2abe a380 b6be e36d 4dbe
00000010: ea3a 8a3a 24fa f43a 1456 d53d 9570 10bb
00000020: 100e 3e3d 7063 d8b7 1b92 c6ba afd6 13bb
00000030: 70d4 0f3e 3d22 6c3d f2e3 02be 2317 793e
00000040: d3f3 253a 78e4 0b3e 7038 c5b9 1907 11be
00000050: 45ed 0a3f d03a 29b9 5b81 c3be 7277 393e
00000060: 58b1 90bd f473 1abb 2581 053b c5fa 283e
00000070: 375e cd3d 20b8 b6ba 880e 953e 864f 793c
00000080: 8422 053e 0ac2 8dbb 30e3 953e b99f 48be
00000090: d7c8 5cba cb47 a2ba af26 a13e d273 efbc
000000a0: f408 15bd e217 36bb 173e 43bb 304f cebe
000000b0: b22c 393e f27d 4cbd f38f 06be 6e9a 6b3a
000000c0: 4102 a83a a61a a6ba 6b43 d03c 7887 03b9
000000d0: d961 8dba 8df7 17bc 74b5 91be 7e28 ba3e
000000e0: f8c5 97ba c5e0 d0bd c9ab 40be b468 5cbf
000000f0: b6f9 f03c 333e 54bd f58b 8abe 150c ea3e
00000100: c3fc dc3a 7054 88bd a068 033e 9179 18be
00000110: 206d 04be 22a4 b2bd a4d1 183b 1fa4 3dbf
00000120: 0978 67be cecd 8dba 09f3 88bb ff16 04bb
00000130: 1604 55be 0711 8dbd 1354 c2be ef1f e33b
00000140: 42c4 d6ba 938b 14bb eb67 c23e 69c6 8e3d
00000150: cddc 7d3e b97c f3bd b869 5f3e f91c 03be
00000160: 67e9 71bd cff0 493b 89c1 04be 0657 0ebd
00000170: 803d 7238 040b b2be e292 dabc 6c57 3fba
00000180: 8899 61be 7154 a5be b3b1 6f3d d924 2e3d
00000190: f516 003e 4537 a63c 4746 8fbe 85d0 e9bd
000001a0: ca66 3abc 8b45 43bd bbb5 f83e d55e 2cbc
000001b0: 9719 39bd 48ec 463e 6047 c8bd c938 0bbc
000001c0: 8c8e a8ba fcfd a1bc c2fb 0d3b 978c 03bf
000001d0: b01c d7be 0995 4cba db88 80be c064 d0be
000001e0: 97aa 20be e1c7 a23e 89b1 b2bc 73c8 3ebf
000001f0: 084c 3eba 6df9 b8be d8a2 c73d 2da9 963d
0.04481333 -0.16697644 -0.35645017 -0.2006145 0.0010546122 0.001869027 0.10416809 -0.002203976
0.04640013 -2.579551e-05 -0.0015149744 -0.0022558381 0.14045882 0.05764984 -0.12782267 0.24325232
0.0006330583 0.13661373 -0.00037616817 -0.14162864 0.54268295 -0.00016139005 -0.38184628 0.18111971
-0.07065076 -0.0023567649 0.0020371166 0.16501911 0.10027736 -0.0013940372 0.2911265 0.015216714
0.13001448 -0.00432611 0.29274893 -0.1959218 -0.00084222615 -0.0012381015 0.31474826 -0.029230032
-0.03638549 -0.0027785231 -0.0029791647 -0.4029479 0.18083456 -0.0499248 -0.1314085 0.00089875504
0.0012818055 -0.0012672737 0.025422772 -0.000125436 -0.0010786607 -0.009275329 -0.2845875 0.36359018
-0.0011579385 -0.101991214 -0.18815531 -0.86097264 0.029415946 -0.05181713 -0.27059904 0.45712343
0.0016859997 -0.0665673 0.1283288 -0.14890124 -0.12932253 -0.08722712 0.0023318315 -0.74078554
-0.22604384 -0.0010818781 -0.0041793627 -0.0020155308 -0.2080234 -0.06888013 -0.3795477 0.006931297
-0.0016385394 -0.00226662 0.37969908 0.069714375 0.2479126 -0.11889023 0.21817672 -0.12804021
-0.05906048 0.00308137 -0.12964453 -0.03475096 5.7754572e-05 -0.3477403 -0.026681367 -0.00072990987
-0.22031224 -0.32290986 0.058519077 0.04251561 0.12508757 0.020290026 -0.27983305 -0.11416725
-0.011377046 -0.047673743 0.4857615 -0.010520657 -0.04519042 0.19426072 -0.09779239 -0.008497425
-0.0012859865 -0.01977443 0.0021664952 -0.513864 -0.42014074 -0.00078041904 -0.25104412 -0.40701866
-0.15690075 0.3179312 -0.021813171 -0.7452461 -0.00072592543 -0.36127797 0.09747857 0.073564865

transformer.h.0.attn.c_attn.weight f4 [384, 128]
00000000: 88fb 4d3c 6a74 06bb c830 82bb b6bf cb3b
00000010: 84e3 aeba 1ebd 9cb8 1198 fd3c c3e3 b33c
00000020: df0a f03c 0b06 66bc 7630 d93b c5a3 8e3b
00000030: 3cbe 753c 8c57 723c 9c9c a9bc ed5d 1a3d
00000040: 8daf 5bbc d531 47bd d43b d4bc 2602 e1bb
00000050: eaa0 7ebc 15b7 aabb d025 9ebc b663 483c
00000060: 7870 cf3c 917f d63b 3de4 363a b030 94bc
00000070: 9c2e 02bc 608b c8bb dbcd 00bd 3675 eebc
00000080: 8d86 85bc 1eef 803a b835 f3bc 5f76 3bbb
00000090: c0ef a63a 4b12 023c ca07 fc3b 2f17 e03b
000000a0: 2af5 da3c c505 403c d3dd ca3b 9e39 cebc
000000b0: c46a aa3b b614 aabc 2db6 f53c 7d0b 32bc
000000c0: d4b9 363a 59a6 dc3b f06d 07bd 0f10 9c3c
000000d0: b5ab c93b 5615 e4ba 056c c9bb 6bea 2fbd
000000e0: 0070 9abc 9e20 33bc ede6 9f3c 3297 93bc
000000f0: 269f 6bbc 0870 763c af9e 75bc a4c4 bebb
00000100: e5ca 0abc c687 133c fa00 d73b 20b6 cfbc
00000110: 2088 46bb 83cd 02bd 51d8 16bc a8af a93c
00000120: 1de3 c93c 0a9b f93b 67b6 afbb d2e9 00bc
00000130: c28e 71bc 4cf1 753d 8daa bebc 644d 26bc
00000140: d188 1c3c 2cea afbc d51b e23b af16 163d
00000150: 68fb 4cba 214c a23c 8425 353c d548 00bc
00000160: c7b1 14bd c42d 4f3a 7213 213d b6db 823c
00000170: 9675 68bb 9cc5 3d3c a7e8 9abc 3d5d 4d3c
00000180: 38a1 3dbb 4c96 a5b8 6f34 303d 7e91 ebbb
00000190: b2f7 2db9 c4a5 213c 645a d83c 6c14 6fba
000001a0: 687d 71bc ac61 23bc 1196 92bc 84c8 b93c
000001b0: 8f3b b2bc f55b 013d 4a3b 06bd a036 643c
000001c0: 4a32 a43c ae98 3abc aaa5 8abb cd0b 8f3b
000001d0: f47b 503d 2d01 673b 2101 02bd 4487 70bb
000001e0: f981 343d 7f6c 493c e8a1 08bd 7d5f cdbb
000001f0: daf5 9fbc b4c6 c03b 54c1 df3c 26b8 053d
00000200: 4069 8b3a a774 783a 86b5 b33b de14 5aba
00000210: 2ced d43c 8b5c 743c 6ce9 95bb b155 59bc
00000220: a48e 8cbb c32c debb f5c4 0ebd 316d cabc
00000230: 2a8f 74bb 205f e3bb 1d42 fc3b f4ea 303b
00000240: e4a5 6bbc 679c 2b3b 9c9d b2bc 0517 b63a
00000250: 5f42 ea3a 16e3 d73c 6c53 cdba 530e b8ba
00000260: e68a 2fbb 17ba 3abd 8721 043d cf2d 563b
00000270: d423 583c 31c6 af3c de22 d5bb a36b 4a3b
00000280: 2c81 cdb8 7957 8fbb e807 e6ba 3e4f ef3a
00000290: 667a 883c de29 fbbb ce7f 30ba 12ca cb3a
000002a0: f9c7 89bb a57a 85bc 3a2c 31bd 09f8 d5ba
000002b0: 07d7 0d3a 2e9d 74bb 39e4 9abb 8aa5 9e3b
000002c0: b1b6 ab3c 830a 0abb 8dc2 743b 5cd2 30ba
000002d0: d611 60bd da4e 51ba 3227 6dbb b2e2 6fbb
000002e0: 332a fb3c eda5 d93a 4c5d 11b9 041a 9e38
000002f0: c2e5 1c3b 19fd 163a 301d 7db8 299d 423b
00000300: 2118 253d 4192 49ba 7c21 eaba 6865 91ba
00000310: be08 3b3b 7f01 bc3b f5bc f13b 93bf 0dbb
00000320: b4d8 a2ba 3018 07bb 0ce1 c23b 1f95 d0bc
00000330: 508d 833a 7d8f ebbb 4f53 7a3b 8868 373b
00000340: 7e93 2dbb f229 9cbc bbfd 4b3b 62d3 633a
00000350: 8715 5aba 4712 05ba b0a7 7a3b 26a9 633a
00000360: e0b9 453b 2c15 21bc 866a 253a a05e be39
00000370: d0b8 dabb 0060 b8bb f248 903a ee89 9bbc
00000380: 5b26 8fbb 201d 07bb 0b40 f3bb 272b f739
00000390: 3b77 803b 4232 913a e9b2 3f3b b75f 5d3b
000003a0: d0e2 edba 9b04 af3b 1d07 aa3b 2b6f d33a
000003b0: e9cf d73a bd71 983a a93c c03b eac8 0ebb
000003c0: 2a7a 1bbc 0290 cf3b a910 543c e5fe 5ebb
000003d0: a33e 4bbb e7ab 20bd 1c2c 74bb e577 2bbb
000003e0: 0d55 27bb 0b52 663b 8d31 d33a 6b34 deb9
000003f0: 20c2 d5bc 5225 353a 7f7f 9aba 7521 62bb
0.012572177 -0.0020516166 -0.0039731003 0.006217922 -0.0013342951 -7.4738855e-05 0.0309563 0.021959191
0.029302059 -0.014039527 0.0066280914 0.004353019 0.014998969 0.014791381 -0.02070456 0.03768723
-0.013408554 -0.048631508 -0.025907435 -0.006866711 -0.015541295 -0.0052098134 -0.01930514 0.012230804
0.025322184 0.006545969 0.0006976759 -0.018089622 -0.007945683 -0.0061201304 -0.03144632 -0.029108625
-0.01629951 0.0009836887 -0.029688701 -0.002860449 0.0012736246 0.007938932 0.007691358 0.006838701
0.026728231 0.011720126 0.0061909943 -0.025173958 0.0052007157 -0.020761829 0.029994095 -0.010866997
0.00069704396 0.0067336974 -0.03306383 0.019050626 0.0061545023 -0.0017401378 -0.00614691 -0.042948168
-0.018852234 -0.0109330695 0.019519294 -0.018016431 -0.014381206 0.015041359 -0.014991446 -0.0058217812
-0.008471225 0.009004539 0.0065613957 -0.025355399 -0.003029354 -0.031934272 -0.009206847 0.020713642
0.024644429 0.007617359 -0.00536232 -0.007868247 -0.014743509 0.06004457 -0.023274684 -0.010150287
0.009554104 -0.021473967 0.0069002905 0.036642727 -0.0007819445 0.019811692 0.011056308 -0.0078298645
-0.036302354 0.0007903243 0.039325185 0.015973907 -0.0035470477 0.011582758 -0.018909765 0.012534437
-0.0028935205 -7.895808e-05 0.043018755 -0.007188975 -0.0001659084 0.009866182 0.02641029 -0.00091201696
-0.014739372 -0.009972017 -0.017893823 0.022678621 -0.021756915 0.031581838 -0.032771386 0.013929039
0.020043511 -0.011388941 -0.0042311745 0.0043654204 0.05089946 0.0035248504 -0.031739358 -0.0036701718
0.044069264 0.012293934 -0.03335753 -0.0062674866 -0.01952641 0.0058830623 0.027313866 0.03264632
0.0010636225 0.0009477832 0.0054842858 -0.00083191495 0.025991999 0.014914642 -0.004574945 -0.013265059
-0.004289465 -0.0067802384 -0.0348558 -0.02471027 -0.0037316778 -0.00693883 0.007698311 0.0026995512
-0.014382813 0.0026185752 -0.02180367 0.0013892358 0.0017872563 0.0263534 -0.001566512 -0.0014042355
-0.002678567 -0.045587625 0.032258537 0.0032681113 0.013192136 0.02145681 -0.0065044006 0.003088691
-9.799222e-05 -0.004374441 -0.0017549964 0.0018257869 0.016659927 -0.007664903 -0.00067329116 0.0015547893
-0.004204747 -0.016293833 -0.04325507 -0.0016324531 0.0005410765 -0.0037325132 -0.0047269133 0.004841511
0.020961137 -0.0021063394 0.0037347407 -0.0006745213 -0.05470451 -0.0007984467 -0.0036186692 -0.0036603627
0.03065977 0.0016605236 -0.00013863033 7.538873e-05 0.0023940657 0.00057597604 -6.0347083e-05 0.0029695726
0.040306214 -0.0007689335 -0.0017862762 -0.0011092843 0.0028539146 0.005737483 0.0073772618 -0.002162908
-0.0012424202 -0.0020613782 0.005947238 -0.025461731 0.0010036621 -0.007188736 0.0038196628 0.002798589
-0.0026485617 -0.01906297 0.0031126577 0.0008690861 -0.0008319248 -0.0005076271 0.0038246922 0.0008684568
0.0030170605 -0.009831708 0.0006310124 0.00036310125 -0.0066748634 -0.0056266785 0.0011008068 -0.018986668
-0.004368586 -0.0020616725 -0.007423406 0.00047143662 0.0039204634 0.00110776 0.0029250926 0.0033778974
-0.001814926 0.005341125 0.0051888363 0.0016131153 0.001646516 0.0011630576 0.0058666063 -0.0021787235
-0.009489575 0.0063343057 0.012943425 -0.003402644 -0.0031012676 -0.03922644 -0.0037257737 -0.0026163992
-0.0025532872 0.0035144116 0.001611279 -0.00042382194 -0.026093543 0.0006910163 -0.0011787264 -0.0034504805

transformer.h.0.attn.c_attn.bias f4 [384]
00000000: 7ca7 93bf cfd3 043b 4365 a23d fff0 713f
00000010: faa5 ed39 4e09 213f 97a6 ed3d f529 39bf
00000020: f258 533f 5d8b 323e 06df d33b 7187 b3bf
00000030: 2129 ccbf 6294 8f3d 6507 08bf ec91 403b
00000040: e785 093d 752f 243f 832d c1bf eecc 1b3e
00000050: cd9e 393c 91a8 a5bb 4234 723f f20e c03f
00000060: 7e9b 3e3f ad94 d1be 7784 ad3e 84d1 853f
00000070: c726 df3e 90bd d6bd a5df 1cbf ed86 55bf
00000080: 2ef8 653f 65e2 903e 3986 01bf 8d48 d63e
00000090: da7f 80bf 0215 e73f bb58 e2be 71c1 dabd
000000a0: 36af 2cbe d19d 5c3f bc03 c7be ca7a 063f
000000b0: 2312 d5bd 0959 2b3f 3916 303f e3cd bebf
000000c0: 19dc 8fbe 5441 00bf 1af9 28bf 9e6c 73be
000000d0: 3668 853e c7a5 a93e 4044 253f c8ff 3cbf
000000e0: 1f57 97bf fd8c 8e3e 09f5 f1be 3f9c 71bf
000000f0: 904f 153f 6a11 223e 8a33 94be a54c 713e
00000100: f5cf 7a3f d768 693f 2e70 2abf 222d efbf
00000110: 2c7a 5abf 7afd da3e 3005 463e b32d 4cbf
00000120: 80e7 7cbe 5618 30bf d7e1 283f fb41 c3be
00000130: 9d62 e23e b6ac 033f a595 b53a 03c2 13bf
00000140: d155 7ebf 63fe 28be 14f4 0cbf efce abbe
00000150: 6e7b ebbf 661b 1dbf 1aac 28bf 3d5c 0d3f
00000160: c141 093f b6a7 84ba 4e57 f5be 31d9 f3bf
00000170: 931c 7cbf a0a7 f63f 9912 663f fb94 00bf
00000180: 4b86 8b3f 9b8c 0e3f c7bb 463f 2844 90bf
00000190: 69aa 173c 3b64 72bf 0038 dd39 01f7 0d3f
000001a0: 1a52 863f 8681 873f c0fc 353e 4a5b 7a3f
000001b0: 402a 643d 186c 1d3f 39f5 a53f 2cad 843f
000001c0: f9b1 38bf 1e2e 3b3f 06a9 3abe ecc5 ae3f
000001d0: b448 8ebe 1aef 81bf 4613 3b3f a880 beb9
000001e0: 5aa9 9dbf 9c30 8bbf 392f 70bb 7fb3 a23f
000001f0: 7fc6 97bf 5e12 8f3f 82b9 193f 6ed6 993f
00000200: 6ba2 73c0 4c09 a63f ec75 2840 65ff 17c0
00000210: bff3 24bd 9a80 dc3f 48bd 1fc0 0299 6ec0
00000220: ecbb ed3f 4801 00c0 d14e 833e 383b 8ec0
00000230: ea7f 71c0 1aa5 01bf 719d 03c0 b86c bb3c
00000240: d471 2940 76e7 39c0 dc67 8bc0 d4d5 1e40
00000250: 7a6b a03d 1b5d 293d 1194 8040 6af6 8840
00000260: cde6 f13f 8dca 89be 414a 4040 2d11 22c0
00000270: 3dac 5540 4022 ee3f 368d 60c0 a6a4 60c0
00000280: 727d 1740 bc98 3c40 3905 a2c0 437d 673f
00000290: 5ec6 c7c0 3e15 1c41 8d25 a3c0 2ae3 83bb
000002a0: 175f 56c0 05e5 2d40 46ea 75bf 67ae 0440
000002b0: fb81 043e 8655 7940 84e5 8440 f18e 0bc1
000002c0: 54a1 ffbf 5229 fdbf 91a7 b3c0 641e 47c0
000002d0: 970b b33f 5105 a73e c68a 6040 a26f 38c0
000002e0: 00bc e3c0 0849 3c40 abc3 7dc0 1db5 33c0
000002f0: bd65 6a40 89fd 0740 d342 4fc0 341b 203f
00000300: 978d 2040 6f8a 2240 18ee dfbf 1e2a 9cc0
00000310: 4eb0 1fc0 1a28 e23e 2139 bc3e 989d 04c0
00000320: 0024 6dbf ab9c ddbf a089 f83f 367d a5bf
00000330: e305 5d3f 68de ce3f 0a23 0c3e 8ccb 05c0
00000340: c03a 26c0 af1b ddbe 9649 ffbf cac6 97bf
00000350: 0f4d 9dc0 c901 d4bf 183e e1bf 830b f83f
00000360: 31d8 f53f f1be 203e 1a03 e0bf 46a5 9dc0
00000370: 71e2 39c0 1dfb a040 e33c 4340 cda2 fabf
00000380: 07d5 7140 ddcc 9e3f 48db da3f d35e 2dc0
00000390: 9844 623e 28d6 5ec0 49cf 81bd a31b 723f
000003a0: 1990 1540 91a2 1b40 28f9 16bf bba4 f93f
000003b0: d76f 683f 8a01 e53f 29e0 7740 45be 6140
000003c0: 9a1e 90bf 2185 0540 34d3 cebf 1f06 0c40
000003d0: c756 bfbf 4427 c5bf 6d9e 2140 05df 1dbe
000003e0: 1c10 36c0 6cc6 1bc0 60ac 91bd 4e7f 0140
000003f0: 6b30 56c0 9c82 da3f e5ca 263f b189 6b40
-1.1535487 0.002026785 0.079294704 0.94508356 0.00045327825 0.6290482 0.1160404 -0.72329646
0.82557595 0.17435975 0.0064657954 -1.4025708 -1.5950052 0.07010724 -0.53136283 0.0029383851
0.033574965 0.64134914 -1.5092014 0.15214893 0.011329365 -0.005055495 0.9461099 1.5004561
0.7445601 -0.40933743 0.33890125 1.0454564 0.43584272 -0.10485375 -0.61278754 -0.83409005
0.8983182 0.28297725 -0.5059543 0.41852227 -1.0039017 1.8053286 -0.4420832 -0.10681427
-0.16863713 0.8617831 -0.38870037 0.5253111 -0.1040385 0.6693273 0.6878391 -1.4906582
-0.2809761 -0.5009968 -0.660051 -0.23771903 0.2605607 0.3313429 0.64557266 -0.7382779
-1.1823462 0.2784194 -0.4725726 -0.9437904 0.5832453 0.15826955 -0.2894557 0.23564394
0.9797357 0.911756 -0.6657742 -1.8685648 -0.8534267 0.42771512 0.19337916 -0.7975723
-0.24697685 -0.68787134 0.65969604 -0.38136277 0.4421586 0.5143541 0.0013853802 -0.57717913
-0.99349695 -0.16503291 -0.55059934 -0.33556315 -1.8397043 -0.6136993 -0.65887606 0.5521887
0.5361596 -0.0010120783 -0.4791817 -1.9050657 -0.984811 1.9269905 0.8987213 -0.50227326
1.0900358 0.55683297 0.77630275 -1.12708 0.009256938 -0.9468419 0.00042194128 0.55455023
1.0493805 1.0586402 0.17772198 0.97795546 0.055704355 0.6149306 1.2965461 1.0365348
-0.72146565 0.73117244 -0.1822854 1.3654151 -0.27789843 -1.0151093 0.73076284 -0.0003633548
-1.2317307 -1.087421 -0.003664924 1.2711028 -1.1857451 1.117748 0.6004869 1.2018564
-3.8067882 1.2971587 2.6321974 -2.374963 -0.040271517 1.7226746 -2.4959278 -3.7280889
1.8572974 -2.0000782 0.2564607 -4.444729 -3.7734323 -0.5064255 -2.0564845 0.02287899
2.6475725 -2.9047523 -4.356428 2.481801 0.078329995 0.041348558 4.0180745 4.28008
1.889856 -0.26912346 3.004532 -2.5322983 3.3386376 1.8604202 -3.5086188 -3.5100493
2.3670316 2.9468222 -5.0631375 0.9042551 -6.2429647 9.755186 -5.098334 -0.004024883
-3.3495538 2.7171032 -0.960606 2.0731447 0.12940209 3.895845 4.153017 -8.722398
-1.9971108 -1.9778235 -5.614205 -3.11123 1.3987912 0.32621244 3.50847 -2.8818135
-7.116699 2.9419575 -3.9650676 -2.8079293 3.6624596 2.1248496 -3.2384536 0.6254151
2.508642 2.5396993 -1.7494535 -4.8801413 -2.4951358 0.4417122 0.36762336 -2.0721188
-0.92633057 -1.7313436 1.9417 -1.2928836 0.8633711 1.6161623 0.13685241 -2.0905485
-2.5973358 -0.43185183 -1.9944332 -1.1857541 -4.9156566 -1.6563045 -1.7597075 1.9378513
1.9206601 0.15697838 -1.7500947 -4.926425 -2.904446 5.0306535 3.0505912 -1.9580933
3.7786272 1.2406269 1.7098169 -2.7089126 0.22096479 -3.481821 -0.06338365 0.9457342
2.33692 2.4317973 -0.5897393 1.9503397 0.90795654 1.7891095 3.8730567 3.5272381
-1.1259339 2.0862505 -1.6158204 2.1878736 -1.4948357 -1.5402608 2.5252945 -0.15417106
-2.8447332 -2.4339857 -0.07112956 2.023395 -3.3467052 1.7071109 0.6515334 3.680279

transformer.h.0.attn.c_proj.weight f4 [128, 128]
00000000: fe73 393c c5f4 40bb 203c 9b38 b018 1eb8
00000010: 9096 fa3b 033a 9b3a 4767 b2ba f769 223a
00000020: 015a c5ba 4576 23ba 86fc 303b 8551 abbc
00000030: 52ce 583b 4f2e 1f3b 6ec4 743a 67fa 023c
00000040: 3955 9bbc a651 28bc 9c51 2db9 ff56 afbc
00000050: c4a1 563b 4047 993a d5b3 75bc e0f8 8d3b
00000060: b7aa 5abb aa24 b939 7df0 0cbb d475 a73a
00000070: af4d b7ba ba9e 1d3a 4d05 04bc d0e3 9dbc
00000080: 53ec 433b 3436 b5bb 83a4 fcba 1253 083b
00000090: e470 adbb b67e 3d3c 8633 ac3c 0118 16bb
000000a0: 3dd8 09bb 4315 df3b 5c50 093b e4ac cd39
000000b0: 6726 abbc 96aa 8c3a 168e 0c3c df30 c3ba
000000c0: aa7b 1bbc ab4f 85bb a8a8 733b 170c 36bc
000000d0: 3fd4 43bb 76c9 2b3a 3a4c 60bb f019 d8ba
000000e0: 9ff8 fc3b 96c3 9fbb e806 68ba 7b8a 123d
000000f0: 091f 1b3a 1732 173c 5cb5 803c 03de a1bb
00000100: 3b09 6a3b 4a4e 60bc 7ff8 8a39 a65c 86bc
00000110: 1d72 c83c d662 513a c098 0e3c 4895 83bb
00000120: 60b3 d83b 8cbd 033c 80da 703b 371b 033b
00000130: 7271 19bc 8d82 e03c 80a5 003b 0855 afba
00000140: 9521 ba3b 5471 74bb ed6e 00bc 6cff 5c3b
00000150: 12bd fe39 309d 46bb f642 30bc ed2c d83a
00000160: 237b d53c e549 3cbb d8c3 07b8 928d 03be
00000170: eee3 703c 25a3 f63a 705b b4ba 0282 493b
00000180: 8088 b83b 88ff 1b38 583c 9e3c 7452 95bc
00000190: 85a3 503b 1e33 53bb 85f0 073d e85e c7ba
000001a0: c598 4cbb 9455 273b 9a9a 9d3b 20c9 fcbb
000001b0: 40e4 a83b f392 af3a b3ce e23b 10e5 6e37
000001c0: 181c 7bbb e446 2bbb 0d98 033b bfb5 c3ba
000001d0: e004 8bbc 90e7 86bb 41de ea3b 15fa c2bb
000001e0: 3e24 93ba 705f 003c 7643 e6bc 1bec babc
000001f0: 11d6 c8ba 1ef6 d23b fc77 f1bb fedb 32bc
00000200: b145 443c 7e57 19ba c7a0 c83b 3283 8dbb
00000210: baa0 8c3b e382 1e3d 8a56 acbb e677 d93b
00000220: 06e1 28bc a964 97bb bfa2 86bb a033 2c3d
00000230: dde6 be3b ba44 653c 2431 dab9 5f03 003b
00000240: 7755 b93b 168a 4ebd 22dd 2c3b 267d 703d
00000250: fa8d 42bc fffa 9f3b e7f2 d23b 88f4 41bb
00000260: b272 993c 5394 31bc f955 523a 1493 dbbb
00000270: 48ed ca3b ddc5 60bb 15b0 b3bc 25f1 f9bb
00000280: 0deb 4ebb 0e1a d8ba 3ee4 2e3b bafc 683b
00000290: 0fcf 7dbd 0d0c 013c 7647 a5ba 92f8 1a3b
000002a0: e262 9f3b d885 efbb 38d5 c0bb 964f 40ba
000002b0: da53 393c 6043 a2bb 5597 cd39 961d 2cbc
000002c0: d431 663b cd58 60bb acb3 50bb 61e7 433c
000002d0: e61e 063c a2af 06bc 6866 6a3c 1515 8d3a
000002e0: 456b e43b 940c 07ba e337 24bb aa57 6c3c
000002f0: c6a0 02bc 3f61 b8bb f657 e5b9 30ae 9b3a
00000300: adac bdbb 2e26 fdbb 5842 d93b 91fb 4bba
00000310: ce16 6ebb f30b 18bb eb70 c63b 605b 3fbb
00000320: bb25 593c a0f0 0fba 4cd4 bebc a54b c3ba
00000330: be50 3b3c 2012 78bd 813d 27bc fe25 8e3b
00000340: 42e4 b23a 79f1 acbb 32d7 03bd c2e3 ce3b
00000350: 5f59 cebb beb2 8d3b 5a05 c03a 8a66 0dbc
00000360: b63c 23b9 c15d 5e3b 23aa f73a 4fa7 bcbb
00000370: fe45 743c 62bf f9b9 ef64 66bc 66cf 683b
00000380: 6dc7 b93a 7db7 7abc a77b 793b dee8 72bc
00000390: 35e0 b8bb f5ef ffbb 47c1 953b 0439 1d3c
000003a0: 21bf b63b 366c aaba 460b 4f3c aee7 35bb
000003b0: 29d4 14bb a94b 53ba 8ba3 8fbb 5e24 3cbc
000003c0: a9f7 3abc dd07 e9bb 17f5 b3bb dc98 0dbc
000003d0: b324 1e3d a058 203b 3b29 113c f198 6f3c
000003e0: 6415 a73b 45af 31bc 4cc3 6bbc b256 fabc
000003f0: a9bc ee3b e181 0fbb 9a6c 92bb 0f98 313c
0.011319159 -0.002944277 7.402175e-05 -3.7693128e-05 0.007647343 0.001184285 -0.0013611101 0.00061955996
-0.001505673 -0.000623558 0.0027005984 -0.020912895 0.003308196 0.0024289077 0.00093371316 0.007994271
-0.018961536 -0.010273373 -0.00016528968 -0.021403788 0.0032750228 0.0011694208 -0.014996489 0.0043326467
-0.0033365914 0.00035313267 -0.0021505647 0.0012776204 -0.0013984944 0.0006012727 -0.008057904 -0.019273669
0.00298955 -0.005530143 -0.0019275103 0.0020801467 -0.0052929986 0.011565855 0.021020662 -0.002290249
-0.002103343 0.0068079545 0.002095244 0.0003922946 -0.020892335 0.0010731991 0.008578798 -0.0014891884
-0.009489933 -0.004068335 0.0037179384 -0.011111281 -0.0029881147 0.00065531523 -0.0034225122 -0.0016487222
0.0077200676 -0.0048756106 -0.0008851127 0.035776597 0.00059174054 0.009228251 0.015711479 -0.004939796
0.0035711068 -0.013690541 0.00026506555 -0.0164016 0.024468476 0.0007987445 0.008703411 -0.0040155984
0.00661318 0.008040797 0.003675133 0.0020005235 -0.009365426 0.027406001 0.0019629896 -0.0013376782
0.005680273 -0.0037298994 -0.007838947 0.003372158 0.00048587524 -0.0030306093 -0.010758152 0.0016492881
0.026059693 -0.0028730568 -3.2368902e-05 -0.12846974 0.01470278 0.0018816931 -0.0013760161 0.0030747657
0.0056315064 3.719286e-05 0.019315884 -0.018227793 0.0031835746 -0.0032226513 0.03318836 -0.0015210779
-0.0031218987 0.0025533186 0.0048096897 -0.0077144057 0.0051541626 0.0013395235 0.006921613 1.4239238e-05
-0.0038316306 -0.0026134783 0.0020079643 -0.0014931484 -0.016970098 -0.00411696 0.007167608 -0.0059502223
-0.0011226011 0.007835254 -0.02810834 -0.022817662 -0.0015322586 0.006438031 -0.0073690396 -0.010916708
0.011979506 -0.0005849524 0.006122682 -0.004318618 0.004291621 0.038699042 -0.0052593397 0.0066366075
-0.010307556 -0.004620154 -0.0041087563 0.04204142 0.005825861 0.0139934365 -0.00041616813 0.001953326
0.00565594 -0.050424658 0.0026376923 0.0587131 -0.01187467 0.004882216 0.0064376476 -0.0029595215
0.018731449 -0.010838586 0.0008023675 -0.0067008827 0.006192837 -0.0034297623 -0.021934548 -0.0076276236
-0.0031573207 -0.0016487257 0.0026686336 0.0035551027 -0.061965045 0.007876408 -0.0012609798 0.0023646695
0.0048640827 -0.0073096566 -0.0058847927 -0.0007336078 0.011311496 -0.0049518794 0.00039213398 -0.010505101
0.0035124915 -0.0034232617 -0.0031845374 0.0119570205 0.008186078 -0.008220585 0.014306642 0.0010763729
0.0069707953 -0.00051517156 -0.0025057725 0.014425198 -0.007972902 -0.005626827 -0.0004374382 0.0011877473
-0.005788407 -0.0077254986 0.0066302232 -0.0007781322 -0.003632951 -0.0023200482 0.0060559413 -0.002919875
0.013253625 -0.0005490873 -0.02329459 -0.0014899863 0.011432825 -0.06056416 -0.010207535 0.004338025
0.0013648348 -0.005277809 -0.032187648 0.006313772 -0.006297275 0.0043242862 0.0014650032 -0.008630404
-0.00015567508 0.0033930393 0.0018895309 -0.0057572494 0.014909266 -0.00047635572 -0.01406215 0.003552401
0.0014173813 -0.015302536 0.0038068087 -0.014826028 -0.005641962 -0.0078105875 0.0045701596 0.009596113
0.0055769836 -0.001300222 0.012636965 -0.00277565 -0.0022709465 -0.00080602855 -0.0043835095 -0.01148328
-0.011411586 -0.007111533 -0.0054918635 -0.008642402 0.038609218 0.0024466887 0.008859928 0.014623866
0.0050989855 -0.01084501 -0.014389824 -0.030558918 0.0072856736 -0.0021897482 -0.0044685127 0.010839476

transformer.h.0.attn.c_proj.bias f4 [128]
00000000: 3b39 8539 950f 8dbc 3a84 5c3b b51a d7bb
00000010: e5b6 5a3c 4230 fabb 3519 9d3c 2721 44bd
00000020: 4c4b 90bb 2ee5 63bb fced e5bb f695 c1bb
00000030: 2e72 09bd b633 b33b bcd2 dc3c f8bf 78bc
00000040: cbdb acbc 7906 1b3b 3265 f1bc a716 c1bc
00000050: b950 49bd 842a fbbb f637 513b f373 37bc
00000060: 8b9f 22bb 92ea 553c cbc4 a43c ec7d b93c
00000070: 36d0 14bc 4268 f5bb 0cef 403c ba2d 8cbb
00000080: f34a 9438 a042 a03b b818 0abc 6b3d c2bc
00000090: d125 dbbb 5c29 e7bc 781b 9e3b e0f3 863b
000000a0: 3de3 4bbc f391 633b 56d3 30bc d871 f63b
000000b0: 5d76 6ebc 49cd 2e3d a67a 6abc 0527 293c
000000c0: 9526 8a3c 246f 073d a6a8 4e3c a676 0ebc
000000d0: a91b 2b3c 5a2a 08bc b5d0 b23c 58f6 183b
000000e0: 7e56 7a3c c708 263c a4f2 053d 6394 f23c
000000f0: 7a2b 403c 77aa 153d 99e7 e4bc bf18 4cbd
00000100: a8f5 dd3c beca ad3c 010d 0ebd 55e0 3ebc
00000110: 6b2b 163c ccf2 6cbc 7834 5d3c c3c7 0f3d
00000120: f3f9 babc 02de 90bb 1cc4 3d3c 500a fdbb
00000130: 9843 0c3d 7d95 723b 777f e8bc a8ee 0ebd
00000140: bd80 96bb 1c76 12bd b873 2bbc 1777 ea3c
00000150: 4191 703b 85e2 aabc 976d bcbc c79e 57bb
00000160: f4cf 8abc 45bb e7bb 2716 313b 61c6 413c
00000170: 463b 16bc 7a8d d73c 977a 93bc 5c26 06bc
00000180: d217 42bc d421 923c dc0e 3cbc f05e 603a
00000190: dca6 60bc b71e 8e3c 3f8d c4bb 47cd 003c
000001a0: 75a2 4a3d 6927 ab3c 0004 18bc 7cda cebb
000001b0: 0fac bc3c fb1f e83b 99b7 973c bd13 1d3d
000001c0: e727 673c 9423 66bb 6a23 36bc d66c d63b
000001d0: 4944 4bbb fd99 513c 44b1 7fbc 5b5a fb3c
000001e0: 3926 c8bc beb6 7b3c d2e2 8e3b 4d44 5cbc
000001f0: 17ba fbbb 418c 453c f519 68bb f954 8f3c
0.00025410377 -0.017219344 0.003364815 -0.006564463 0.0133492695 -0.0076351473 0.019177059 -0.04788318
-0.0044035073 -0.0034774053 -0.0070168953 -0.0059077693 -0.033556156 0.005468811 0.026955955 -0.015182488
-0.0211009 0.002365498 -0.029467199 -0.023570372 -0.04914925 -0.0076649804 0.0031924224 -0.011197078
-0.0024814333 0.013056414 0.02011337 0.022643052 -0.0090828445 -0.007489235 0.011775743 -0.004277912
7.07115e-05 0.004890755 -0.008428745 -0.023710927 -0.0066878577 -0.028217964 0.004825052 0.0041184276
-0.012444315 0.0034724444 -0.010792574 0.0075208955 -0.014554587 0.042676244 -0.014311468 0.010324244
0.0168641 0.033064976 0.012613451 -0.00869528 0.010443606 -0.008310879 0.021828035 0.0023340192
0.01527941 0.010133929 0.032702103 0.029611772 0.011729116 0.03653952 -0.027942466 -0.049828287
0.027094677 0.02121484 -0.03468037 -0.011650165 0.009165625 -0.014462184 0.013501279 0.035102617
-0.022824263 -0.0044209966 0.011582401 -0.0077221766 0.03424415 0.0037015371 -0.028381092 -0.03489557
-0.0045929835 -0.03575717 -0.010464601 0.02862124 0.0036707672 -0.020859966 -0.023001475 -0.0032901035
-0.016944863 -0.007071885 0.002702126 0.011827082 -0.009169405 0.026312578 -0.018002791 -0.0081878565
-0.0118464995 0.017838396 -0.011478152 0.00085590687 -0.013711657 0.01734863 -0.005998283 0.007861442
0.049471337 0.020892816 -0.009278297 -0.0063126665 0.023031263 0.0070838905 0.018520163 0.038348902
0.014108635 -0.003511642 -0.011116842 0.006543736 -0.0031016043 0.012793061 -0.015606228 0.030682733
-0.024432288 0.015363393 0.004360535 -0.013444019 -0.0076820957 0.012057365 -0.0035415862 0.017496573

transformer.h.0.ln_2.weight f4 [128]
00000000: dc72 b540 278a 3940 7b7f 8b40 4ee4 d740
00000010: b02d 8c3f 3897 f13a a2dc c73f 1103 653f
00000020: 5852 6a40 1d4a 1b3f 95aa 003b ebec 8a3b
00000030: 5760 ec3f e43f 1940 3c11 1140 4668 c140
00000040: f85f c03f b272 a040 20bb 4f3f 441b a440
00000050: 165a 0a40 f615 203c 241f 6740 cf83 8140
00000060: a78d bf40 4a79 9f3f 5bb5 bd40 8abc 3940
00000070: e568 be3e d699 733f ce0b 5140 4249 ad40
00000080: c47c 2940 cdc1 0240 bde5 f63f b3a5 4240
00000090: 8b0e 83bb b04e 203f aa73 af40 4741 4240
000000a0: 5b28 fd40 9c07 2f3f 8761 15bc 1c8d f63f
000000b0: 121c 9940 8a60 1f40 3b7d da40 debf 7c3f
000000c0: a20a 803f ed53 2240 4ec0 3b40 8088 e73e
000000d0: 41cc 163f b571 b040 5678 4440 ddb3 4a40
000000e0: 7e55 823f 408f dc40 5e49 ee40 16a2 9840
000000f0: a11e 9240 3bdf fe3f 5e2b b040 0591 cd3f
00000100: b6e9 8d3f abab bf40 1c8f 0240 2c5c dc40
00000110: 478b 7540 a591 3740 3098 a63f cb03 9b40
00000120: cd59 7a40 f53b 553f 976e a33f 610d 12bc
00000130: 56c4 e53f 2237 2d40 6b41 9140 029f 0541
00000140: 5b0f 3f3f 2f0a 8f3f 50ce a43f c63d 8540
00000150: c6fb 3d40 718e 6640 75b8 d640 301a d940
00000160: ccef c840 a528 aabb 21bb d340 09e9 5a40
00000170: e1ef e43b 671f d33f f3ad 9140 d362 7ab9
00000180: bce9 3b3f e587 f63f 47a7 9240 a48e ae40
00000190: f9f8 6d40 bbfd 5d40 da2c a140 c2fb 7440
000001a0: 35bc 9c3f 9b53 6440 5f9d 0140 54b3 ad40
000001b0: dcce f040 c894 0040 a5f9 6240 c692 0741
000001c0: 37c5 be3f 711a a740 a664 4d3c 9e6b 9c40
000001d0: adcd bb40 fbbf da3f 9548 c840 6a85 0a40
000001e0: e1a8 de40 2176 3640 c525 b340 d53b c440
000001f0: df79 d63b 62f6 d63f 5a32 3a40 648f ce40
5.670271 2.8990571 4.3593116 6.746619 1.0951443 0.0018431908 1.5614207 0.89457804
3.6612759 0.6065996 0.0019632925 0.0042396686 1.84669 2.3945246 2.266677 6.0439787
1.5029287 5.014001 0.81144905 5.1283283 2.1617484 0.009770861 3.6112757 4.04734
5.9860415 1.245889 5.928388 2.9021325 0.37189403 0.9515661 3.2663455 5.4151926
2.64824 2.0430787 1.928886 3.0413635 -0.0039995364 0.6262007 5.482869 3.0352342
7.911176 0.68370986 -0.009117491 1.9261813 4.7846766 2.4902673 6.827787 0.98730266
1.0003245 2.5363724 2.9336123 0.4522133 0.58905417 5.5138803 3.0698447 3.167228
1.018234 6.8924866 7.446456 4.769786 4.566239 1.9911875 5.505294 1.6059881
1.1086948 5.9897056 2.0399847 6.8862514 3.8366258 2.8682644 1.3015194 4.844213
3.911731 0.8329461 1.2768124 -0.008914323 1.7950542 2.70649 4.5392356 8.35132
0.74632806 1.1174983 1.2875462 4.1637907 2.968492 3.602444 6.7100167 6.7844467
6.279272 -0.0051928335 6.616593 3.4204733 0.0069866036 1.6493958 4.552484 -0.00023878673
0.73403525 1.9260222 4.5829196 5.454912 3.718321 3.4686115 5.036725 3.827866
1.2244936 3.5676029 2.0252302 5.4281406 7.5252514 2.009081 3.546487 8.473333
1.4903935 5.2219777 0.0125362035 4.888137 5.868857 1.7089838 6.25886 2.164393
6.958115 2.85096 5.5983605 6.1323037 0.00654529 1.679394 2.9093232 6.4550037

transformer.h.0.ln_2.bias f4 [128]
00000000: ab08 bcbf 4db1 083f 64f5 90bf 2b98 f23f
00000010: a1af 0abf f99f 85b9 d2c6 2ebf 1beb 723f
00000020: c80b 4f3e 37a0 a9bd f3d9 03bc c9e7 3a3b
00000030: ed6f 883f 6166 87bf c9e8 b2bf 994b acbf
00000040: 5a3f 253f 2cff 503f f605 333f 77c7 e53f
00000050: b1af 433f 0803 93bb a616 a4bf 9fff 813f
00000060: c0d1 bfbf be97 0bbf 7634 a13f 470e 89bf
00000070: 62bd 253e 6de7 163e fbf8 5fbf 56f0 71be
00000080: 28f9 f63e fa98 edbd 6582 2e3f 6964 703f
00000090: a47b 4139 e9bf eb3e cd2c c23f 3d83 12bf
000000a0: 4a24 f2bf c3e3 fdbd 8333 823b 23c9 2fbf
000000b0: f754 663f 751d c7bf b84b 02c0 f3ce b3be
000000c0: 9d77 08bf 35d0 82bf e335 f7be 1b3b 703d
000000d0: 3d88 5dbe 38b7 c4bf 10f9 bbbf 4488 a33e
000000e0: 7bae b0be ea72 f93f 3b2e 1c40 b1b1 c8bf
000000f0: 1ff8 d13f 3fec 87bf 8ee6 babf f167 b43e
00000100: 96df 4bbf 53ba 4d3f 285b d73f 3044 fabf
00000110: 472e 2ebf 20a2 343f a879 02bf 0798 8b3e
00000120: 9fd8 a03f 1915 aebd 0ebc 02bf a4c3 bd3a
00000130: 3a71 a4bf be74 01bf 3f5c a0bf a3b6 d4bf
00000140: 927d 1ebe aac1 4c3f bf88 b23c 82a0 e8bf
00000150: 315a 9a3e a3ac b03f ee4c dcbf a894 d03f
00000160: 0e5d bd3f 0d1a 013b a7e7 cebf 8e89 d0be
00000170: b48c 83ba 47fc 50bf 569d ba3f d643 c73a
00000180: 84a2 cf3e 2a78 d63e 6e0c 9a3f 2a2c ab3e
00000190: 2d12 9b3f 9379 5cbf a412 cdbf 58cc 54bf
000001a0: 2239 abbf 5ff7 9bbf 3cd5 9bbe a141 85bf
000001b0: 65d1 a33f ba28 a83e 824d c8bf fc03 f43f
000001c0: ecd2 45bf b5f3 ea3e 2c66 75b9 38dc f7bf
000001d0: aa68 b2be e978 50bf a823 edbf 3e0f 45bf
000001e0: 7726 02c0 2553 1fbf 9396 d3bf 7621 ad3f
000001f0: 2e0c 80ba b285 0fbf 8580 193f 7f2d 6c3f
-1.4690145 0.5339554 -1.1324887 1.8952688 -0.5417424 -0.00025486926 -0.68272126 0.9488999
0.20219338 -0.08282512 -0.008047569 0.0028519502 1.0659157 -1.0578119 -1.397729 -1.346057
0.6454979 0.8163936 0.6993097 1.7951497 0.7643996 -0.0044864453 -1.2819412 1.0156134
-1.4985886 -0.54528415 1.2594135 -1.0707482 0.16185525 0.1473672 -0.8748929 -0.23626837
0.48236966 -0.116014436 0.68167716 0.93903214 0.00018451974 0.46044853 1.5169922 -0.57231504
-1.8917325 -0.12396958 0.003973426 -0.68666285 0.89973396 -1.5555865 -2.0358715 -0.35118827
-0.53307515 -1.021979 -0.482833 0.058650117 -0.21634002 -1.5368414 -1.4685383 0.319399
-0.34508118 1.9488194 2.4403217 -1.5679227 1.6403846 -1.0618972 -1.460161 0.3523555
-0.7963804 0.80362433 1.6824694 -1.9552059 -0.68039364 0.70559883 -0.5096688 0.27264425
1.2566108 -0.08500118 -0.510682 0.0014477861 -1.2847054 -0.5056876 -1.2528151 -1.6618236
-0.15477589 0.7998301 0.021793721 -1.8173983 0.30146936 1.3802685 -1.7210977 1.6295366
1.4794023 0.0019699365 -1.6164445 -0.40729946 -0.001003644 -0.81634945 1.4579265 0.0015202712
0.40553677 0.41888553 1.2035043 0.33432132 1.2114922 -0.8612301 -1.6021314 -0.83124304
-1.337681 -1.2184867 -0.30436122 -1.0410653 1.2798277 0.32843572 -1.5648654 1.9063716
-0.77274966 0.4588906 -0.00023403083 -1.936408 -0.34845477 -0.81434494 -1.8526506 -0.7697638
-2.0335977 -0.62236243 -1.6530327 1.3525836 -0.0009769255 -0.5606338 0.5996173 0.9225692
