warmup/warmup_1_113_+_1.pth (torch, 824633 bytes, 17 tensors)

transformer.wte.weight f4 [14, 128]
0	0xbbd23071	-0.006414466
1	0x3c3ccfad	0.011524123
2	0x3b9b0c25	0.0047316724
3	0xbb3da476	-0.0028937138
4	0x3b806108	0.003917817
5	0xbc8d7d0d	-0.017271543
6	0x3a23e1c0	0.0006251596
7	0x3b9b420e	0.004738099
8	0xbc7beaa3	-0.015375766
9	0x3bef7c4c	0.0073085185
10	0x3bf9fa40	0.007628709
11	0xbcb29a43	-0.021802073
12	0x3b64c988	0.003491016
13	0x3bdf7985	0.006819906
14	0x3c420df9	0.011844152
15	0xbc4cec5b	-0.012507523
16	0x3b9cf992	0.0047904933
17	0xbbf860bb	-0.0075798905
18	0x3c8402a9	0.01611455
19	0x3be69cfe	0.007037758
20	0xbc865ea2	-0.016402546
21	0x3bd26408	0.006420616
22	0x3bbd90b4	0.005785072
23	0xbc9eba13	-0.019375836
24	0xbbbaa716	-0.0056961877
25	0x3c2f98f0	0.0107176155
26	0xbb658633	-0.0035022616
27	0xbcd180d2	-0.025574122
28	0xbc57999c	-0.013159182
29	0x3c9e300f	0.019310025
30	0x3c2e754a	0.010648081
31	0x3cf83809	0.030300157
32	0x3bbc0891	0.005738326
33	0x3d0da5ff	0.034582134
34	0x3c881ced	0.016615355
35	0x3cd399d3	0.025830185
36	0xbbb491a9	-0.005510528
37	0xbb97d314	-0.004633317
38	0x3b3a51c6	0.0028430088
39	0xbc22c101	-0.009933711
40	0xbbf53b8f	-0.0074839066
41	0xbabaef39	-0.0014261968
42	0x3ab580ca	0.0013847586
43	0x3c9fb717	0.019496484
44	0xbc71bd95	-0.014754673
45	0xbb85b25c	-0.0040801
46	0xbb9cdfed	-0.004787436
47	0xbbbcef15	-0.0057658055
48	0xbb8aae28	-0.004232187
49	0x3c0fac52	0.008769112
50	0xbc35e251	-0.011101321
51	0x3c5e662a	0.0135741625
52	0x3bc72426	0.0060773073
53	0xbc359802	-0.011083605
54	0xbaa1ac81	-0.0012334735
55	0x3cb4250d	0.021990323
56	0xbb185b7c	-0.0023247888
57	0xbc957f74	-0.018249251
58	0x3bf21f4a	0.007388984
59	0xbc57db43	-0.013174835
60	0xbcb6d3c3	-0.022317773
61	0xbbfd0096	-0.007721017
62	0x3be127ef	0.0068712155
63	0xbb7c71f9	-0.0038520081
64	0xbd00b20c	-0.0314198
65	0xbc496040	-0.012291014
66	0x3bff6127	0.007793564
67	0x3be63cfb	0.0070263124
68	0xbc053049	-0.008129188
69	0x3c64e7b1	0.013971255
70	0x3cedb4a0	0.029016793
71	0x3a3728c4	0.00069869705
72	0x3cc54c89	0.024084346
73	0xbbed699b	-0.007245255
74	0xbbad7b58	-0.0052942447
75	0x3acadec7	0.001547777
76	0x3b5263ec	0.0032103015
77	0x3c110d4b	0.008853267
78	0xbd35d5ec	-0.044393465
79	0x3aae48c5	0.0013296833
80	0x3b6c598e	0.003606412
81	0xbcb6d91a	-0.022320319
82	0xbb14ca24	-0.0022703493
83	0x3cba8837	0.02277003
84	0x3c8aa2ff	0.016923426
85	0xbd33d4bf	-0.043904062
86	0xbc9e34a4	-0.01931221
87	0xbba94802	-0.0051660547
88	0x3c8f7156	0.017510097
89	0x3c5068c8	0.012720294
90	0xbcc481c8	-0.023987666
91	0x3c3a94d0	0.011388019
92	0xbbee75bf	-0.00727722
93	0x3bbdafe9	0.0057887924
94	0xbb80030f	-0.0039066146
95	0x3bedccdd	0.0072570876
96	0xbba2d179	-0.0049688187
97	0xbc86140d	-0.016366983
98	0xbcbba292	-0.022904668
99	0xbbcbba45	-0.0062172734
100	0xbc08263f	-0.0083099
101	0xbb80b6b3	-0.0039280294
102	0x3c14d665	0.009084319
103	0x3b29d5b7	0.0025914737
104	0x3c6832be	0.014172254
105	0x3c10b5ba	0.0088323895
106	0x3b934edf	0.004495486
107	0xbd0c05b8	-0.03418514
108	0xbc17af3e	-0.00925809
109	0xbb091fe2	-0.0020923545
110	0xbaedf244	-0.0018153866
111	0x3b9a7774	0.004713947
112	0xbe068c22	-0.13139394
113	0xbac3dc97	-0.001494306
114	0xbb0a3936	-0.002109123
115	0xbb1b6468	-0.002371097
116	0x3c7fc7cb	0.015611599
117	0xbc964f17	-0.01834826
118	0xba7351fc	-0.0009281931
119	0x3c63d069	0.013904669
120	0xbba9e197	-0.005184363
121	0xbc6d49a8	-0.014482893
122	0x3c59574c	0.013265442
123	0x3c933c75	0.017973164
124	0xbb0d801a	-0.0021591247
125	0xbca55f95	-0.020187179
126	0xbcbaef21	-0.022819104
127	0x3bd150c4	0.006387802
128	0xbc18e385	-0.009331589
129	0x3cc239e7	0.02370925
130	0xbd2cec9b	-0.042217832
131	0x3c49db18	0.012320302
132	0x3beb2ff0	0.0071773455
133	0xbce5499c	-0.027989201
134	0x3c296da3	0.010341081
135	0x3c2c9c9b	0.0105353845
136	0xbd1cfd7c	-0.03832768
137	0x3c83212a	0.016007025
138	0xbbf6bad4	-0.007529596
139	0xbd907ba0	-0.070548296
140	0x3cb739e0	0.022366464
141	0x3d090dad	0.033460308
142	0x3bed5b64	0.0072435606
143	0xbc8a3e7e	-0.016875502
144	0x3c171116	0.009220382
145	0xbd2819bc	-0.041040167
146	0x3d6e91f0	0.058244646
147	0x3ce0ea7e	0.027455565
148	0xbd0ddbbf	-0.034633394
149	0x3c0ee7ab	0.008722226
150	0x3ba50829	0.005036373
151	0xbd64a3d5	-0.055820305
152	0x3afb4b29	0.001917218
153	0x3c69b6f4	0.014264811
154	0x3b84a4ad	0.004047951
155	0xbd26c71a	-0.04071722
156	0xbd1d1115	-0.03834637
157	0x3d72f630	0.059316814
158	0x3c8f26b6	0.017474514
159	0x3d72c796	0.05927237
160	0x3d774725	0.060370583
161	0x3c8ec51f	0.017427979
162	0x3c5fcccf	0.01365967
163	0x3d455212	0.04817397
164	0xbba3e511	-0.005001672
165	0x3d2d2cd7	0.04227909
166	0xbbd662b9	-0.0065425304
167	0xbc30105f	-0.010746091
168	0xbb3c3aab	-0.0028721492
169	0x3b4fb977	0.003169624
170	0xbbb7514d	-0.0055944086
171	0x3d73b27a	0.05949638
172	0xbcd95522	-0.026529852
173	0x3d2f83ca	0.042850293
174	0xba964d44	-0.0011467119
175	0xbc6f2289	-0.014595636
176	0x3d2fa04f	0.04287749
177	0x3c67d4ba	0.014149839
178	0xbd045084	-0.03230335
179	0x3da57cb9	0.080804296
180	0x3cd35c7b	0.025800934
181	0xbcbb9b7e	-0.022901293
182	0x3a82f3e6	0.00099909
183	0x3d777c3f	0.060421225
184	0xbb607857	-0.0034251416
185	0xbd86c98f	-0.06581413
186	0x3d47ac7f	0.04874849
187	0xbb4a20d0	-0.0030842312
188	0xbda2ebc2	-0.079551235
189	0x3d232b47	0.039836194
190	0x3d4518b4	0.04811926
191	0xbc9180fe	-0.017761704
192	0xbda66b72	-0.08125962
193	0xbc9a342c	-0.018823706
194	0x3c6c65cd	0.014428568
195	0x3cd902a4	0.026490517
196	0xbcaf1de9	-0.021376567
197	0x3cf2b6aa	0.029628117
198	0x3d8efa3b	0.069813214
199	0xbb57491b	-0.003284997
200	0x3d1e719f	0.038682576
201	0xbc8de104	-0.01731921
202	0x3d2be05e	0.04196202
203	0xbb14838f	-0.0022661423
204	0x3c578881	0.013155104
205	0x3c321ff9	0.010871881
206	0xbc08417e	-0.008316396
207	0x3ba911e8	0.0051596053
208	0x3d5e79b7	0.054315295
209	0xbd4133cf	-0.04716855
210	0x3b838d5c	0.004014654
211	0x3d017efe	0.03161525
212	0x3b636fee	0.0034704166
213	0xbcafb97d	-0.021450752
214	0xbd237cf2	-0.03991408
215	0xbc3b0274	-0.011414159
216	0x3d193597	0.037404623
217	0x3c3385c4	0.010957185
218	0xbd8e554b	-0.06949862
219	0x3c272eb8	0.01020401
220	0xbba06d70	-0.0048958585
221	0xbc6c481f	-0.014421492
222	0xbc8cf4bd	-0.017206544
223	0x3b41da82	0.0029579704
224	0xbc14a683	-0.009072903
225	0xbd314134	-0.043275073
226	0xbd711947	-0.058861997
227	0xbcfadbea	-0.030622441
228	0xbbb7e87f	-0.0056124325
229	0xbd312231	-0.043245498
230	0x3c0d7a30	0.008635089
231	0x3c841f5f	0.01612824
232	0xbc02901b	-0.007968928
233	0x3bbfda90	0.005854912
234	0x3bf3916a	0.007433106
235	0xbda247ec	-0.07923874
236	0xbcbec4b4	-0.023287155
237	0x3b477236	0.0030433065
238	0x3d352ad4	0.044230297
239	0x3c41900f	0.011814131
240	0xbcab57d2	-0.0209159
241	0x3b0acfbd	0.002118095
242	0xbc207d2f	-0.009795471
243	0xbb7a87d6	-0.0038227937
244	0x3c0c5d09	0.008567103
245	0xbcdf7b6e	-0.027280536
246	0x3c416f17	0.011806271
247	0x3d29978e	0.0414043
248	0xbc3a47f7	-0.011369697
249	0xbd10c96b	-0.035348337
250	0x3b47069f	0.0030368937
251	0x3d82297a	0.06355567
252	0x3d34632c	0.04403989
253	0xbd8a7359	-0.06760282
254	0xbda16e31	-0.078823455
255	0x3d51ba2d	0.05120294

transformer.wpe.weight f4 [32, 128]
0	0xbbcbd6a2	-0.0062206546
1	0x3d0131d1	0.03154165
2	0xbbb14f46	-0.0054110615
3	0x3b3a1b1d	0.0028397508
4	0x3c29ee4c	0.010371756
5	0x3ba0276f	0.0048875134
6	0xbbc32396	-0.00595517
7	0x3bfc32a5	0.007696467
8	0x3c3e1e92	0.011603968
9	0x3c557252	0.013027744
10	0xbc2371a9	-0.009975829
11	0xbace10c3	-0.0015721548
12	0x3b99c401	0.004692555
13	0xbc3ce96a	-0.01153026
14	0x3b943ab5	0.0045236
15	0x3b124b01	0.0022322538
16	0x3bd8613e	0.006603389
17	0xbc58f241	-0.013241352
18	0xbaa9ca5d	-0.0012953986
19	0xbbdbb715	-0.0067051747
20	0xbc43df08	-0.01195503
21	0xbbc7274d	-0.006077683
22	0x3c885e42	0.016646508
23	0xbb934844	-0.0044946987
24	0x3c224e85	0.009906416
25	0xbb93d81f	-0.0045118476
26	0x3c8c3548	0.01711525
27	0xbd44404b	-0.047912877
28	0xbb6a545f	-0.0035755855
29	0x3c19437f	0.009354471
30	0xbb88ff42	-0.0041808197
31	0x3d387540	0.045033693
32	0x3aa70684	0.0012743031
33	0x3c3d9a77	0.011572472
34	0x3c8b6cba	0.017019618
35	0x3cc1a067	0.023636056
36	0x3c3cc65f	0.011521905
37	0x3b826cd8	0.0039802603
38	0xbc711b66	-0.014716005
39	0xba4dfaf8	-0.00078575267
40	0xba4d713a	-0.00078370015
41	0xbc8e71f1	-0.017388316
42	0xbbeb16a4	-0.00717433
43	0x3c1b850a	0.009492168
44	0xbc2c9bb7	-0.010535172
45	0x3bcb1ea2	0.00619872
46	0xbb411af5	-0.002946553
47	0x3c96cc71	0.018408032
48	0xbab90a79	-0.0014117501
49	0x3a040b30	0.00050370675
50	0x3bbbd1f4	0.0057318155
51	0x3b1d633f	0.0024015454
52	0x3c0ceb7c	0.008601066
53	0xbca53a84	-0.020169504
54	0xbcb210a0	-0.021736443
55	0x3c15c74d	0.009141755
56	0x3b1c2018	0.002382284
57	0xbc5bbe4c	-0.0134120695
58	0xbc538b2f	-0.012911602
59	0x3b500c37	0.0031745562
60	0xbb8250a1	-0.003976897
61	0x3aeec0d6	0.0018215429
62	0xbb43383d	-0.002978816
63	0x3c1033eb	0.008801441
64	0xbb31e263	-0.0027142994
65	0xba7fb7ec	-0.00097548845
66	0x3ca068f7	0.019581301
67	0x3cd6ab76	0.026204806
68	0x3c73c38d	0.014878166
69	0xbb701be8	-0.0036637727
70	0x3c17ab94	0.009257216
71	0x3bf364f5	0.0074278065
72	0x3c832ab7	0.016011579
73	0xbc3b7b47	-0.011442966
74	0x3b7c0586	0.003845544
75	0xbb2e9c9d	-0.0026643642
76	0x3c71a5b5	0.01474898
77	0x3c213b1f	0.009840756
78	0xbd6cb79a	-0.057792284
79	0xbb1ef1f2	-0.0024253097
80	0x3c1ae3d9	0.009453737
81	0x3c57cf8c	0.013172042
82	0xbc58f66b	-0.013242344
83	0xb9b1721e	-0.00033845095
84	0x3afd42c6	0.0019322268
85	0xbd8dd1da	-0.06924792
86	0x3b8f0d26	0.004365581
87	0x3c5d925b	0.013523663
88	0x3cf1930f	0.029489068
89	0x3c2813d1	0.010258631
90	0xbbcb5733	-0.0062054633
91	0x3ba8120f	0.005129106
92	0xbbea794e	-0.007155574
93	0xbc8b9b8b	-0.017041942
94	0xbc0d9a10	-0.008642688
95	0x3bf93f19	0.007606399
96	0xbb81a7de	-0.003956779
97	0x3bf6d6e7	0.0075329426
98	0x3b9b4bd5	0.0047392645
99	0xbbd267b5	-0.0064210542
100	0x3a4388f1	0.00074590655
101	0x3b34ba0b	0.002757671
102	0xba8b4b60	-0.0010627322
103	0x3ac345d4	0.001489813
104	0xbc8d0655	-0.017214933
105	0x3bf6ebe3	0.007535444
106	0xbc039c9b	-0.008032943
107	0xbbdd72bc	-0.006758062
108	0x3b4b2f01	0.0031003358
109	0xbb52e008	-0.003217699
110	0x3accfc6c	0.0015639192
111	0x3c21ee48	0.009883471
112	0x3a05b39b	0.00051003107
113	0xbd026329	-0.031832848
114	0xbb8952ca	-0.0041907774
115	0x3c4fe808	0.012689598
116	0x3c2b066b	0.010438542
117	0xb8921d6e	-6.967304e-05
118	0x3b98787d	0.004653035
119	0xbc89cdc4	-0.01682175
120	0xbb366a8d	-0.0027834505
121	0xbb6747f4	-0.003529069
122	0xbb915493	-0.004435131
123	0x3aeff7f0	0.0018308144
124	0x3b94e38f	0.0045437287
125	0xbbc4e5a2	-0.0060088197
126	0xbbcdba51	-0.006278314
127	0x3bdfa3e7	0.0068249586
128	0x3a15f5f4	0.0005720549
129	0x3b842c03	0.004033567
130	0x3caa0be5	0.020757625
131	0xbc2ff35d	-0.010739175
132	0x3c1f82a4	0.009735737
133	0xbcfd26dd	-0.03090232
134	0x3c799903	0.015234235
135	0xbc1703e0	-0.0092172325
136	0xbd19703c	-0.03746055
137	0xbbf33ca7	-0.007423002
138	0x3c914130	0.01773128
139	0xbb3340c5	-0.0027351838
140	0xbc4b7bba	-0.012419635
141	0x3cabbe90	0.02096489
142	0xbb0cf861	-0.002151035
143	0xbbb9afd7	-0.0056667137
144	0xbc02b396	-0.007977387
145	0x3c809d5e	0.015700039
146	0x399c8517	0.00029853798
147	0x3c1c5e6f	0.009543999
148	0x3ba069c5	0.004895421
149	0xbaada97d	-0.0013249364
150	0xbc6992ce	-0.014256192
151	0xb7e0f63c	-2.6817543e-05
152	0xbd068095	-0.03283747
153	0x3cb7c510	0.022432834
154	0xbcdc33f0	-0.026880234
155	0xbba941d0	-0.005165316
156	0xbaecbf44	-0.0018062373
157	0x3b57f114	0.003295009
158	0x3c2cb734	0.010541726
159	0x3c8c271e	0.017108496
160	0xbbe1f072	-0.0068951184
161	0x3c4d05b6	0.012513569
162	0xbb368b3f	-0.0027853993
163	0x3c8c1bf3	0.017103171
164	0xbbb16725	-0.005413907
165	0xbb9c4d1c	-0.0047699343
166	0x3bb9cebb	0.005670396
167	0xbc6a2e59	-0.014293277
168	0xb9b8b329	-0.000352287
169	0x3cd6416c	0.026154242
170	0x3c0a76cb	0.008451174
171	0x3b45be94	0.0030173408
172	0x3c2372fb	0.009976144
173	0xbbc3a1a8	-0.0059701987
174	0x3b771ba0	0.0037705675
175	0xbcdc091f	-0.026859818
176	0xbaa931a1	-0.0012908467
177	0xbc20964f	-0.009801461
178	0xbcae4d15	-0.02127699
179	0xbb0d31f5	-0.002154467
180	0xba4dbae6	-0.00078479794
181	0x3d032efd	0.032027233
182	0x3cf49b1c	0.029859118
183	0xbc15e419	-0.009148621
184	0xbb734241	-0.0037118348
185	0x3b13b45c	0.0022537922
186	0x3ca553e2	0.0201816
187	0x3ade6cee	0.001696972
188	0xba8bcdd6	-0.0010666202
189	0xbb834b58	-0.0040067844
190	0x3c06f4bd	0.008237061
191	0xbc8ec3d2	-0.017427359
192	0xbcf47896	-0.029842656
193	0xbc9fad84	-0.019491918
194	0xba6e3529	-0.0009086901
195	0xbc99be7d	-0.01876759
196	0xbcb61504	-0.022226818
197	0x3cbdae61	0.02315444
198	0x3c9afe07	0.018919958
199	0xbc94807a	-0.018127669
200	0x3c86a324	0.016435213
201	0xbb514064	-0.003192925
202	0xbc333a9f	-0.010939269
203	0x3baaf25a	0.005216879
204	0xb98dead8	-0.00027068588
205	0xbbf34520	-0.007424012
206	0x3c03b370	0.008038387
207	0xbbebed75	-0.007199938
208	0xbcb6e9d1	-0.02232829
209	0xbd1a8b76	-0.037730657
210	0x3c2b0d14	0.01044013
211	0x3cc610e8	0.024177983
212	0xbc03cd3c	-0.008044537
213	0xbbcd5551	-0.006266274
214	0xbc74ad6a	-0.014933923
215	0xbc60dddf	-0.013724773
216	0xba9ba300	-0.0011874139
217	0xbc7ef3e5	-0.015561079
218	0xbc0fb12e	-0.00877027
219	0xba3eac6f	-0.00072736194
220	0x3c43d3ef	0.011952384
221	0x3cfa979d	0.030589873
222	0xbb8ebcab	-0.004355987
223	0x3bbb4a8a	0.005715673
224	0x3a866d39	0.001025594
225	0xbccaa29e	-0.024735745
226	0xbd263e9a	-0.040587045
227	0xbbc1dad5	-0.0059159794
228	0xbbc46d86	-0.0059945015
229	0xb9d4d5d8	-0.00040595117
230	0xbb59e146	-0.0033245846
231	0xbc329e27	-0.010901964
232	0x3da631da	0.08114977
233	0x3c104234	0.008804847
234	0x3ba88366	0.005142617
235	0xbcbf8a1d	-0.023381287
236	0x3b77613b	0.0037747163
237	0x3c2f133d	0.010685739
238	0xbb7d31c2	-0.0038634394
239	0xbc382dbd	-0.011241374
240	0x3a3c4301	0.0007181615
241	0x3bdb55e2	0.0066935876
242	0x3b28ac2a	0.0025737383
243	0x3a65301e	0.0008742827
244	0xbcae40d4	-0.021271147
245	0xbd12634f	-0.03573924
246	0x3b488ed7	0.0030602717
247	0x3cc7d908	0.02439548
248	0xbc05bfe5	-0.008163427
249	0xbc77b6d1	-0.01511927
250	0x3b167e13	0.002296333
251	0x3c18d3f7	0.00932788
252	0xbb9bfd8b	-0.0047604493
253	0xbb31025c	-0.0027009463
254	0x3b2e1cd6	0.002656748
255	0xba1c121a	-0.0005953625

transformer.h.0.ln_1.weight f4 [128]
0	0x3f4a523b	0.79031724
1	0x3f226f8c	0.6345146
2	0x3e56949e	0.2095513
3	0x3f3e8df8	0.7443538
4	0x3e98d095	0.29846635
5	0x3f518147	0.81837887
6	0x3f0d08ab	0.5509135
7	0x3f5d6ccd	0.8649414
8	0x3f05b440	0.52228165
9	0x3f432a48	0.7623639
10	0x3ee8ea1c	0.4549111
11	0x3e4d6dfe	0.2006149
12	0x3f5ab8b1	0.85438067
13	0x3eb24cbf	0.34824178
14	0x3fb67e8f	1.4257373
15	0x3f0cbe67	0.5497803
16	0x4010bf73	2.2616851
17	0x3eb4838e	0.35256618
18	0x3ef77e0b	0.4833835
19	0x3f275cf7	0.6537623
20	0x3f028e92	0.50998795
21	0x3f4f78ff	0.81044
22	0x3f687d14	0.90815854
23	0x3ecde132	0.40210873
24	0x3ee5173f	0.44744298
25	0x40158ff7	2.336912
26	0x3fa9d626	1.3268478
27	0x3f36a86b	0.71350735
28	0x3f3ae399	0.73003536
29	0xbda9b444	-0.08286336
30	0x3fa692de	1.301357
31	0x3eaedc06	0.3415224
32	0x3e00b12b	0.12567584
33	0x40759e0d	3.8377717
34	0x3ed2be82	0.4116097
35	0x3f0cab81	0.54949194
36	0x3f9580e4	1.1679959
37	0x3a9ff366	0.0012203276
38	0x3f8b6f6b	1.0893377
39	0x4041b82c	3.026866
40	0x3fb75f4a	1.4325955
41	0x3e9e4d4e	0.30918354
42	0x4017794c	2.3667784
43	0x3dab65aa	0.08369
44	0x3ebb259b	0.36552128
45	0x39eb1134	0.0004483551
46	0x4015b771	2.3393214
47	0x3f2e40d0	0.68067646
48	0xbabb9454	-0.0014311173
49	0x3f9c1cf5	1.2196337
50	0x3ea823d8	0.32839847
51	0x3e93afc9	0.2884505
52	0x3f1b85f9	0.607513
53	0x3fa358a5	1.2761427
54	0x3f0bd3b3	0.546199
55	0x3edda986	0.432934
56	0x3f032921	0.5123463
57	0x3e199c33	0.15000992
58	0x3e81e679	0.2537115
59	0x3f38356d	0.7195652
60	0x3e955041	0.2916279
61	0x3b6da02a	0.0036258795
62	0x3e8ca393	0.27468547
63	0x3f174baf	0.5909986
64	0x3e8fdad1	0.2809663
65	0x3f2eda6a	0.68302023
66	0x3fff8e90	1.9965382
67	0x3f6da81d	0.92834646
68	0x3ee8df9c	0.454831
69	0x3f1955f5	0.59896785
70	0x3e3e12a1	0.18561794
71	0x3fa25c80	1.2684479
72	0xbf322651	-0.69589716
73	0x3f831460	1.0240593
74	0x3ba41490	0.005007334
75	0x3f733888	0.95008135
76	0x3f65fef0	0.8984213
77	0x3f8b8aa7	1.0901688
78	0x406a1d72	3.6580472
79	0x3fc206a7	1.515828
80	0x3e8f41ed	0.27979985
81	0x3ee44a4d	0.44587937
82	0x3eea6665	0.45781246
83	0x3f458314	0.77153134
84	0x403780f4	2.8672457
85	0x3ff76a24	1.9329267
86	0x3edf9dc8	0.43675065
87	0x3f31814f	0.69337934
88	0x3f126dfd	0.5719908
89	0x401bdd52	2.4353833
90	0x3e1637bf	0.14669703
91	0x3fa2a918	1.2707853
92	0x4015b17a	2.3389573
93	0x3eca29d3	0.39485034
94	0x401b8ac3	2.4303443
95	0x3fe38708	1.7775583
96	0x3f862604	1.0480351
97	0x3f046409	0.5171514
98	0x3ec8f0be	0.39246172
99	0x3db656c7	0.0890327
100	0x3f82f29d	1.023029
101	0x4036bc60	2.8552475
102	0x40067ef6	2.101499
103	0x3ef11a8e	0.47090572
104	0x40a266da	5.075055
105	0x3eb835df	0.359786
106	0x3f19fbd8	0.6014991
107	0x3ebaa3d1	0.36453107
108	0x3ec20ad9	0.378989
109	0x3fb9e9bf	1.4524459
110	0x3aed7471	0.0018116367
111	0x3f9ccbe0	1.2249718
112	0x4083f569	4.1237073
113	0x3f8bc387	1.0919045
114	0x3f312b93	0.69207114
115	0x3fa8d581	1.3190156
116	0x408f46be	4.4773855
117	0x3f543a58	0.82901525
118	0x40828326	4.0785093
119	0x3ec89632	0.3917709
120	0x3f32f41a	0.6990372
121	0x3f209e5b	0.6274163
122	0x3fdcedd3	1.7260078
123	0x3dbe2706	0.09284787
124	0x3ac71a04	0.0015190248
125	0x3e16adbb	0.1471471
126	0x3ef1b4ae	0.4720816
127	0x3d202772	0.039100118

transformer.h.0.ln_1.bias f4 [128]
0	0xbcc5ec05	-0.024160394
1	0x3e043bfa	0.12913504
2	0x3c60d2bc	0.013722118
3	0x3daddee8	0.084897816
4	0x3d379102	0.044816025
5	0x3d90b126	0.070650384
6	0x3d01f9b0	0.03173226
7	0x3e610937	0.21976171
8	0xbe272b44	-0.16325098
9	0x3db60e40	0.08889437
10	0xbd5c484e	-0.053779893
11	0xbc1ac54a	-0.009446451
12	0x3d42617e	0.047456257
13	0x3dc50af2	0.09621228
14	0x3db67c42	0.08910419
15	0xbd2539bc	-0.040338263
16	0x3dc99330	0.09842527
17	0xbd491187	-0.04908898
18	0x3e1d06fd	0.15334697
19	0x3e03e308	0.12879574
20	0xbc8b2e31	-0.0169898
21	0xbcddcb4e	-0.027074482
22	0x3e30b647	0.17257033
23	0xbdd17c88	-0.102288306
24	0x3d0b0b4d	0.033946324
25	0x3e2ee82d	0.17080756
26	0xbd9766d7	-0.07392662
27	0xbd588418	-0.05286035
28	0xbe68aed7	-0.22722946
29	0xbca986b7	-0.02069412
30	0x3e0d0bf3	0.1377409
31	0x3dee715a	0.11642714
32	0x3cc33dff	0.023833273
33	0xbf539d78	-0.82662153
34	0x3cc7ef2a	0.024406034
35	0x3d4af550	0.049550354
36	0xbe0fb382	-0.1403332
37	0xb990b1e6	-0.00027598365
38	0x3d781dac	0.060575172
39	0xbe0e227f	-0.13880347
40	0x3df8f5c2	0.121562496
41	0x3cc95bff	0.02458
42	0xbe4cebbd	-0.20011802
43	0x3cac10e9	0.021004157
44	0x3c8be8fc	0.017078869
45	0x3b0fc130	0.0021935217
46	0x3caa5539	0.02079259
47	0xbdd494cf	-0.103799455
48	0x3ae90e67	0.0017780781
49	0x3e05ff2b	0.1308562
50	0xbd1478fa	-0.036248185
51	0x3cd187f0	0.025577515
52	0x3de58d23	0.1120856
53	0xbd9aab04	-0.0755215
54	0x3d3845cc	0.04498844
55	0x3e00db12	0.12583569
56	0x3d56d2a9	0.052446995
57	0xbc9a2d0c	-0.018820308
58	0x3d3af6df	0.04564559
59	0xbea22f1e	-0.31676573
60	0xbd29653a	-0.041356303
61	0x3ad8216b	0.0016489452
62	0x3d39f9af	0.045404132
63	0xbcee48cf	-0.029087452
64	0xbde5a316	-0.11212747
65	0xbe1d9b72	-0.15391329
66	0xbdef81e9	-0.116947
67	0x3e0ba8b1	0.1363857
68	0xbda7d234	-0.0819439
69	0x3d831727	0.064009
70	0x3d811b0f	0.06303989
71	0xbd4554e0	-0.048176646
72	0x3d7f32c0	0.06230426
73	0xbe62c561	-0.22145607
74	0xb91a7bd1	-0.0001473271
75	0x3d61a175	0.055085618
76	0x3d6a6363	0.05722369
77	0x3d95c3ce	0.073127374
78	0xbec6a5ff	-0.3879852
79	0xbde83cc9	-0.11339719
80	0x3cf10116	0.029419463
81	0xbe4fd7a9	-0.20297112
82	0x3d050b0a	0.03248123
83	0x3e53c8f7	0.20682131
84	0xbe11f730	-0.14254451
85	0xbe85de50	-0.26146173
86	0xbd579861	-0.052635554
87	0x3c806c7b	0.015676728
88	0xbcbd4440	-0.023103833
89	0x3d76d89f	0.06026518
90	0xbcc5c1e6	-0.02414031
91	0x3e6b5a21	0.229836
92	0xbdcc45b7	-0.099742346
93	0xbc0c0827	-0.008546866
94	0x3ddcaacf	0.10774767
95	0x3e476035	0.19470294
96	0xbe50f42e	-0.20405647
97	0xbe5ed976	-0.21762642
98	0xbe103084	-0.14081007
99	0x3b29c4c7	0.0025904642
100	0xbdf55b50	-0.11980307
101	0xbe3842a2	-0.17994168
102	0x3e589c7e	0.21153447
103	0x3c04fc86	0.008116847
104	0x3eea8d49	0.45810917
105	0xbb749b64	-0.0037324065
106	0x3a889456	0.0010420184
107	0xbe65a821	-0.22427417
108	0x3a0eeb92	0.0005451973
109	0xbdac1a51	-0.08403457
110	0x3a941ec5	0.0011300674
111	0xbe1d15db	-0.15340368
112	0xbf819cc9	-1.0125972
113	0xbddae979	-0.106890626
114	0xbdc0f801	-0.09422303
115	0x3d71ab7b	0.059001427
116	0xbef19b30	-0.4718871
117	0x3dca0b9e	0.09865497
118	0x3920ccf4	0.0001533514
119	0x3df6b1d0	0.12045634
120	0xbd7e7d3f	-0.062131163
121	0xbdba895f	-0.09108233
122	0x3c8513a5	0.016244719
123	0x3c8b88e0	0.01703304
124	0x39713307	0.0002300256
125	0xbcd147d7	-0.025546951
126	0xbdf0e5f2	-0.117626086
127	0x3b8c4111	0.0042802175

transformer.h.0.attn.c_attn.weight f4 [384, 128]
0	0x3c36d941	0.011160196
1	0xbb51f033	-0.003203404
2	0xbc86debc	-0.01646363
3	0x3d0b1940	0.033959627
4	0x3bbc2b16	0.005742441
5	0xbbd4ac74	-0.0064902846
6	0xbd409cdc	-0.047024593
7	0xbc30b60c	-0.010785591
8	0xbc2ad377	-0.010426394
9	0xbbb8189a	-0.005618167
10	0xbd3177dc	-0.043327197
11	0xbca292be	-0.019845363
12	0xbb9cd26e	-0.0047858274
13	0x3c23df7c	0.010002013
14	0x3b0a1f4e	0.0021075788
15	0xbb578a51	-0.003288884
16	0x3ce7399e	0.028225716
17	0xbcdccfe1	-0.026954593
18	0xbbf40d31	-0.0074478616
19	0x3cd5dd41	0.026106479
20	0x3cfb907b	0.030708542
21	0x3c904bc1	0.017614247
22	0x3c8ce4c6	0.017198931
23	0xbc3b8d2c	-0.011447232
24	0x3ba44769	0.0050133956
25	0xbc11f95b	-0.008909549
26	0xbb3b6a66	-0.0028597354
27	0xb817d5a2	-3.6200167e-05
28	0xbb99345b	-0.0046754307
29	0xb9f59fa0	-0.0004684897
30	0xbbaf1256	-0.005342762
31	0xbb1b36f2	-0.0023683873
32	0x3c24fdb4	0.010070253
33	0x3c805345	0.015664706
34	0xbc334bc0	-0.010943353
35	0x3c552590	0.013009444
36	0xbc76f9f1	-0.015074239
37	0x3a8827ae	0.0010387802
38	0xbad578bf	-0.0016286595
39	0xb8e94d7b	-0.00011124738
40	0x3ce618f3	0.028088069
41	0xbc33cfec	-0.010974865
42	0xbce3ad61	-0.027792634
43	0x3a827d5a	0.000995557
44	0x3c3910a1	0.011295469
45	0x3c263af4	0.010145891
46	0xbdc99e67	-0.09844666
47	0xbc71fb37	-0.014769367
48	0x3bac1d99	0.0052525518
49	0xbc8d78df	-0.01726955
50	0xbc8a0cad	-0.016851747
51	0xbd17e961	-0.0370878
52	0x3c8a49de	0.016880926
53	0x3be42d32	0.0069633955
54	0xb9d355dd	-0.0004030903
55	0x3d2f481c	0.04279338
56	0x3d037980	0.032098293
57	0x3bf8917f	0.007585704
58	0x3a8c26d9	0.001069273
59	0xbbc7d537	-0.0060984152
60	0xbbc2dd85	-0.0059468173
61	0x3b88486f	0.0041590254
62	0x3c84a558	0.016192123
63	0xba94cce8	-0.0011352571
64	0xb8f4fdfa	-0.000116821335
65	0x3cd76112	0.026291404
66	0xbac5d7e1	-0.0015094244
67	0xbc37c19b	-0.011215593
68	0xbc04b7d9	-0.008100473
69	0x3c75349a	0.0149661545
70	0x3bd0a68e	0.006367511
71	0x3c856671	0.0162842
72	0xbc0f2532	-0.008736895
73	0xbcbac11b	-0.022797158
74	0x3b8acdca	0.0042359577
75	0x3cb57f8c	0.022155546
76	0x3cc021ae	0.02345356
77	0xbb8d8b6b	-0.0043195984
78	0x3b932134	0.004490042
79	0x3a3c8836	0.0007191928
80	0x3cf79f64	0.03022737
81	0xbaa7145b	-0.0012747155
82	0x3b7315cb	0.0037091847
83	0xbc96dc30	-0.01841554
84	0xbc7a7dd8	-0.015288793
85	0x3bb1eb4b	0.0054296604
86	0x3a9b2a6a	0.0011838202
87	0xbafa54e3	-0.0019098785
88	0x3942cc72	0.00018577444
89	0x3dbdd6c1	0.09269477
90	0x3c70d291	0.01469864
91	0xbc985c93	-0.01859883
92	0x3bc614f5	0.0060449787
93	0xbc31942e	-0.010838551
94	0xbb128496	-0.002235686
95	0x3c875b7a	0.016523112
96	0xbc86396d	-0.016384805
97	0xbbe4b68e	-0.00697977
98	0xbb00d5c8	-0.0019658674
99	0x3cf0f8a0	0.029415429
100	0x3b6d740c	0.00362325
101	0x3c107981	0.008818031
102	0x3bcfa0cf	0.0063363086
103	0x3d4b1dc5	0.049588937
104	0x3bfdc66b	0.0077446005
105	0xbcb022bb	-0.021500936
106	0x3cdd1091	0.026985439
107	0x3bb8defe	0.005641817
108	0xb8f842e8	-0.00011838024
109	0xbc3e5b98	-0.011618517
110	0x3a13e328	0.0005641454
111	0xbd4202d1	-0.047365967
112	0x3bd6df9f	0.0065574194
113	0xbc86d4c1	-0.01645887
114	0x3c35eb68	0.0111034885
115	0xbd13ae91	-0.03605515
116	0x3b3fcbe4	0.0029265815
117	0x3a9a9c18	0.0011795787
118	0xbb8bbe51	-0.004264631
119	0x3a361954	0.0006946523
120	0xbc5d197f	-0.013494848
121	0xbc45d257	-0.012074075
122	0x3ce1cb30	0.027562708
123	0x3c804c67	0.015661431
124	0x3bc76627	0.0060851756
125	0x3c22fa44	0.009947363
126	0x3d33a936	0.043862544
127	0xbba38507	-0.0049902233
128	0x3acb7728	0.0015523182
129	0x3aaf3c78	0.0013369462
130	0x3c055b10	0.008139387
131	0xbd3a3755	-0.045462925
132	0xbb092d91	-0.00209317
133	0xbb84328d	-0.0040343464
134	0x3bc47866	0.005995798
135	0x3d173bfa	0.036922432
136	0xbc6f1eff	-0.014594792
137	0x3cc4b67a	0.024012793
138	0x3cb76412	0.022386584
139	0xbc83a8d6	-0.016071718
140	0x3d7482d9	0.0596951
141	0xbc9c94f4	-0.019113995
142	0xbc9bc2bd	-0.019013757
143	0xbcee794d	-0.029110575
144	0x3ce737b4	0.028224804
145	0x3c6188e9	0.013765552
146	0xbcb407c0	-0.021976352
147	0x3cb1a2f3	0.021684146
148	0xbbe1a82e	-0.0068865037
149	0xbd01ee0c	-0.03172116
150	0xbd480b02	-0.048838623
151	0x3cb81ce7	0.02247472
152	0x3b360298	0.0027772542
153	0xbd030e29	-0.031995926
154	0x3c6277ae	0.013822479
155	0xbc0d9043	-0.008640352
156	0xbc4da222	-0.0125508625
157	0x3c00f680	0.00787127
158	0x3ac7b89b	0.0015237512
159	0xba156a6b	-0.00056997564
160	0xbc442b02	-0.0119731445
161	0x3c89dcb1	0.016828867
162	0xbcb4d71b	-0.022075227
163	0x3bb3a6eb	0.0054825447
164	0x3d166dfe	0.03672599
165	0xbc390197	-0.011291883
166	0xbb2cc160	-0.0026360378
167	0xb9a33247	-0.00031127242
168	0x3c06f6ec	0.008237582
169	0x3b6e7f65	0.003639185
170	0xbcf6fca7	-0.03014977
171	0xbbcabcce	-0.006187058
172	0xbcbcf1fd	-0.023064608
173	0x3ad7262f	0.0016414578
174	0x3be6a5ba	0.007038799
175	0x3b8e1d84	0.0043370146
176	0xbc37a402	-0.011208536
177	0xbcd35a64	-0.025799938
178	0x3cca1310	0.024667293
179	0x3cbe978a	0.023265619
180	0xbbc84a37	-0.0061123627
181	0x3c3870fd	0.011257407
182	0x3c054bd1	0.008135752
183	0xbc2fe504	-0.010735754
184	0xbd532ff3	-0.0515594
185	0xbc7c61b9	-0.015404158
186	0x3ccf79cd	0.025326634
187	0x3bca3f05	0.0061720633
188	0xbc3f5175	-0.011677136
189	0xbb63281b	-0.0034661356
190	0x3cb81f80	0.022475958
191	0xbc4bd7d1	-0.012441591
192	0xbc0928f0	-0.008371577
193	0x3d5252f7	0.051348653
194	0xbc79a654	-0.01523741
195	0x3c988c61	0.018621625
196	0xbb118ca0	-0.0022209063
197	0x3a803871	0.0009782446
198	0x3b16656f	0.0022948643
199	0xbd287c95	-0.041134436
200	0xbbc98b96	-0.006150673
201	0x3bd42cba	0.0064750584
202	0xbbd2379c	-0.0064153206
203	0xbcc5851d	-0.024111325
204	0xbcdd0984	-0.026982076
205	0xbcbd1ad8	-0.02308409
206	0xbba22768	-0.0049485452
207	0x3ca2f3a5	0.01989157
208	0xb9fc7a4e	-0.0004815631
209	0x3b8fc3c5	0.004387351
210	0x3bf27569	0.0073992503
211	0x3c55acbe	0.013041673
212	0x3c0f539c	0.008747961
213	0xbb84a5c2	-0.00404808
214	0xbb739144	-0.0037165442
215	0x3d2f61f8	0.04281804
216	0x3cb5be45	0.022185454
217	0xbbdcbe5e	-0.0067365607
218	0xbc90d373	-0.017678952
219	0xbcfd5071	-0.030922147
220	0xbc67b15d	-0.014141408
221	0x3b8627d0	0.0040941015
222	0xbca3e30a	-0.020005722
223	0xbd025d12	-0.03182704
224	0x3bf1f26a	0.0073836343
225	0xbb3e2bdd	-0.0029017844
226	0xbbf80390	-0.007568784
227	0x3cb528e9	0.022114234
228	0x3c9b8074	0.01898215
229	0xbc271820	-0.010198623
230	0x3ca50630	0.020144552
231	0x3c1044d4	0.008805472
232	0xbbac92ec	-0.005266538
233	0x3c4145b1	0.011796401
234	0x3c9f6aad	0.019460047
235	0x3c8803d9	0.016603397
236	0x3cfa58e4	0.030559964
237	0x3d478738	0.04871294
238	0xbc7f9e38	-0.015601687
239	0x3c212f91	0.009838001
240	0xbbeb9ea6	-0.007190543
241	0xbce86fe8	-0.028373674
242	0x3c522a38	0.012827449
243	0xbca545b8	-0.020174846
244	0xba72496f	-0.000924251
245	0xbbc4c26b	-0.0060046217
246	0x3d282416	0.04105004
247	0x3bb05bce	0.0053820377
248	0x3d27719d	0.040879834
249	0xbd15cbe7	-0.03657141
250	0xbc8823f4	-0.016618706
251	0x3c96db6a	0.018415172
252	0x3b2a4ebe	0.0025986875
253	0xbaa9d354	-0.0012956657
254	0xb87e6cae	-6.0659535e-05
255	0xbc84775d	-0.016170198

transformer.h.0.attn.c_attn.bias f4 [384]
0	0x3d9d72a2	0.0768788
1	0x3ccb0fbe	0.02478778
2	0xbb1990ab	-0.0023432176
3	0xbf3d1f4e	-0.7387589
4	0xbf02ea04	-0.5113833
5	0x3e82fdd2	0.25584275
6	0xbee74596	-0.45170277
7	0x3e09fe48	0.13475907
8	0xbe138800	-0.14407349
9	0xbe067875	-0.13131888
10	0x3f34c2fd	0.7061003
11	0x3efacc46	0.48983973
12	0xbf46397c	-0.77431464
13	0x3dea334e	0.11435567
14	0xbf8b6ee0	-1.0893211
15	0xbeb6cba0	-0.3570223
16	0x3f91936b	1.1373113
17	0xbe9fac94	-0.31186354
18	0xbe23293b	-0.15933697
19	0x3f603ae6	0.8758987
20	0xbca2fcf5	-0.01989601
21	0xbf3fe25b	-0.74954766
22	0xbf0e9427	-0.5569481
23	0x3e4b12ff	0.19831465
24	0x3e49c60a	0.19704452
25	0xbe20a410	-0.15687585
26	0xbed0d87d	-0.40790167
27	0x3e05eeef	0.13079427
28	0x3f785180	0.9699936
29	0x3ec37c16	0.38180608
30	0x3f4c64b8	0.79841185
31	0x3c1c82f3	0.009552705
32	0xbf85a47e	-1.0440824
33	0xbed8dad6	-0.4235446
34	0x3fb0c644	1.3810506
35	0xbf73ba1a	-0.95205843
36	0xbeab88d3	-0.33502826
37	0xbea1aab4	-0.3157555
38	0x3ce771e2	0.028252546
39	0xbb240d90	-0.0025032498
40	0xbf1a85ec	-0.603606
41	0x3a090558	0.00052269315
42	0x3e8b9e3d	0.27269164
43	0x3a5d509c	0.00084424927
44	0x3fa778e3	1.3083767
45	0x3d1653c5	0.036700983
46	0xbebe49cd	-0.3716568
47	0xbf9fa036	-1.2470767
48	0xbe5ed0b1	-0.21759297
49	0x3eec1b73	0.46114692
50	0x3ef868c0	0.48517418
51	0xbf740380	-0.9531784
52	0x3f3fabc0	0.74871445
53	0xbae526d9	-0.0017482891
54	0xbf9656e1	-1.1745263
55	0xbe04365c	-0.12911361
56	0x3ef7a73a	0.4836977
57	0xbeeeb736	-0.46624154
58	0x3f005217	0.5012526
59	0xbe87c69c	-0.26518714
60	0x3fb28a7a	1.394851
61	0xbf05a768	-0.52208567
62	0x3f49c41c	0.78814864
63	0x3b0c3ce2	0.0021398594
64	0x3fafae63	1.3725094
65	0x3aeca941	0.0018055813
66	0xbf791096	-0.97290933
67	0xbfce32eb	-1.6109289
68	0xbfa11ce1	-1.2586938
69	0xbfc289f6	-1.5198352
70	0xbf872aa6	-1.055989
71	0xbfabea8a	-1.3430951
72	0xbfa5cdef	-1.2953471
73	0xbed14b4c	-0.4087776
74	0xbf7ec4f5	-0.9951928
75	0xbe95c138	-0.29248977
76	0xbfb606c5	-1.4220816
77	0x3ddd3cbd	0.108026005
78	0xbfa421c2	-1.2822802
79	0xbf9927af	-1.1965235
80	0x3f8e470c	1.1115432
81	0x3fbd91f1	1.4810163
82	0x3fa12fe1	1.2592736
83	0x3f6a06a9	0.9141641
84	0xbfa899a7	-1.3171891
85	0xbf3a8c5c	-0.7287042
86	0xbf785dd9	-0.970182
87	0x3fb663eb	1.4249243
88	0xbf97bb68	-1.1854067
89	0xbf38d01c	-0.7219255
90	0xbf74eb5e	-0.9567164
91	0x3f943e70	1.1581554
92	0xbe50dd91	-0.20397021
93	0xbf2ffb6f	-0.6874303
94	0x3f6b0d02	0.91816723
95	0x3fd75076	1.682143
96	0x3b967ef2	0.00459277
97	0x3f7fd83d	0.9993933
98	0xbe0ab586	-0.13545808
99	0x3eed487d	0.46344367
100	0xbaefee3f	-0.0018305256
101	0x3b0b6e7d	0.0021275573
102	0x3f852f09	1.0404979
103	0x3b245f12	0.002508108
104	0xbc175208	-0.009235866
105	0x3aad262e	0.0013210231
106	0x3ac48fbc	0.001499645
107	0x3f5a7040	0.8532753
108	0xbbe9964b	-0.007128512
109	0xbb90d445	-0.0044198358
110	0x3d98d96b	0.07463344
111	0xbeb080c4	-0.3447324
112	0xbdf341be	-0.11877774
113	0xbe0529b5	-0.13004191
114	0xb9677d02	-0.00022076446
115	0x3f7ac199	0.97951657
116	0x3fa14461	1.2598993
117	0xbe09c42c	-0.1345374
118	0xbf86a6fa	-1.0519707
119	0x3b50102c	0.003174792
120	0xbfae0192	-1.3594229
121	0xbe6da4f5	-0.23207457
122	0x39839b0a	0.0002510178
123	0xbf954401	-1.1661378
124	0xbb34d028	-0.002758989
125	0x3b6f48ae	0.0036511826
126	0x3fa2ceae	1.2719324
127	0xbc457316	-0.012051364
128	0x3f5f3adf	0.87199205
129	0x3fc43584	1.5328832
130	0xbe44d0d7	-0.19220291
131	0xc01e9dee	-2.4783893
132	0xc04e26b8	-3.2211132
133	0x3f5fa0ae	0.8735455
134	0xbf9567da	-1.1672318
135	0xbef29046	-0.47375697
136	0x3ec921c0	0.39283562
137	0xbff5ded5	-1.9208628
138	0x402656a7	2.5990388
139	0x40520d31	3.2820551
140	0xc086f783	-4.217714
141	0x3eb92ff4	0.36169398
142	0xc092139d	-4.564894
143	0xbfdf55ca	-1.7448056
144	0x4093c9a3	4.618364
145	0xbf8f35e2	-1.1188319
146	0xbede63f8	-0.43435645
147	0x40499ee3	3.1503227
148	0xbfa5ea57	-1.296214
149	0xc085eb5d	-4.184981
150	0xc06cac53	-3.6980178
151	0x3f517112	0.81813157
152	0x3f2c4086	0.67285955
153	0xc0103ff0	-2.2539024
154	0xbf51fab2	-0.82023156
155	0x3f12634c	0.57182765
156	0x408ca88f	4.395576
157	0x401d6412	2.4592328
158	0x40894ef5	4.2908883
159	0x3fc7f44b	1.5621427
160	0xc0c4c65b	-6.1492133
161	0xbfd78da4	-1.68401
162	0x40fdf144	7.9357014
163	0xc0cb60a3	-6.3555465
164	0xc0463ec7	-3.0975816
165	0xbe21784a	-0.15768543
166	0x3faf3779	1.3688804
167	0xbe4d13b5	-0.20027049
168	0xc0901730	-4.5028305
169	0xbed2482d	-0.4107069
170	0x3f1fc55f	0.6241054
171	0x3eb563d1	0.35427716
172	0x40a2b049	5.084019
173	0xbf5c5d69	-0.8608003
174	0xc012af4e	-2.2919497
175	0xc0f39db7	-7.6130023
176	0xbf830189	-1.0234843
177	0x4028ebea	2.639399
178	0x404e93e2	3.227776
179	0xc0c9818d	-6.2970643
180	0x40597b20	3.39814
181	0x3e51ae8b	0.20476739
182	0xc0ee94f1	-7.4556813
183	0x3fac8d3e	1.3480604
184	0x4053cbd8	3.3093166
185	0xc0087ad5	-2.132497
186	0x4021a947	2.5259569
187	0xbf7b39b8	-0.98134947
188	0x40e8ddf9	7.2770963
189	0xc0aed67b	-5.4636817
190	0x40409dbb	3.009627
191	0xbe1b3793	-0.15157919
192	0x4114c8e8	9.299049
193	0xc03b2993	-2.9244125
194	0xc0fe1e46	-7.9411955
195	0xc1621ebb	-14.132503
196	0xc1419f33	-12.101367
197	0xc13b33b0	-11.700119
198	0xc1250e92	-10.316057
199	0xc139db51	-11.616044
200	0xc12670d6	-10.402548
201	0xc0a52720	-5.161026
202	0xc0bf8191	-5.984566
203	0x4053a3dd	3.3068764
204	0xc15294c7	-13.161323
205	0x3fdb2f94	1.7123895
206	0xc124bf8e	-10.296766
207	0xc113d6fa	-9.2399845
208	0x4126f9be	10.435972
209	0x41475273	12.457629
210	0x410652ca	8.395212
211	0x41117a88	9.092415
212	0xc14ef4e5	-12.934789
213	0xc0d3dfb6	-6.6210585
214	0xc11f4291	-9.953752
215	0x41543fe1	13.265595
216	0xc1288799	-10.533105
217	0xc0cb6edb	-6.357282
218	0xc1244172	-10.265978
219	0x411e68e5	9.900609
220	0x405cd69f	3.4505994
221	0xc104dce7	-8.303931
222	0x41277bc8	10.46772
223	0x414b388f	12.701308
224	0x3da12168	0.078677
225	0x3fb85066	1.4399536
226	0xbdfc4762	-0.12318303
227	0x3e9c72b0	0.3055625
228	0xbe1810a8	-0.14850104
229	0xbe266c13	-0.16252165
230	0x3fdf3c65	1.7440306
231	0x3da7936e	0.08182417
232	0xbbbd905e	-0.005785032
233	0x3d76af11	0.06022555
234	0xbd4341e0	-0.047670245
235	0x3fad8c0e	1.3558366
236	0xbeaa3f8e	-0.33251613
237	0x3c234f0b	0.009967576
238	0x3ec39bfb	0.3820494
239	0xbf399ab9	-0.72501713
240	0x3d8208a0	0.06349301
241	0x3d3c0026	0.04589858
242	0x3e5829d8	0.21109712
243	0x3f84cd98	1.0375242
244	0x3f9b3bba	1.2127602
245	0x3f1259e1	0.57168394
246	0xbfdeb620	-1.739933
247	0xbe9cf1b7	-0.30653164
248	0xbf975953	-1.1824135
249	0xbe1baafa	-0.15201941
250	0xbf121e12	-0.57077134
251	0xbfb6dd9d	-1.4286381
252	0x3da9b2b1	0.08286036
253	0x3d09a482	0.033604153
254	0x3fa37e75	1.2772967
255	0x3d1dd0d4	0.038529232

transformer.h.0.attn.c_proj.weight f4 [128, 128]
0	0xbbda7c3c	-0.006667642
1	0xb92843d8	-0.00016047002
2	0xbb428b41	-0.0029685053
3	0x3b26728f	0.0025397872
4	0xbb305abf	-0.0026909558
5	0x3ab0a61f	0.0013477242
6	0x3d01f9c8	0.03173235
7	0x39865583	0.00025622183
8	0x3c65266d	0.013986212
9	0x379aad98	1.8439066e-05
10	0x3c265752	0.010152655
11	0x3a4979bf	0.0007685683
12	0x39b024e0	0.0003359681
13	0x3aca4176	0.0015430886
14	0x3c16a481	0.009194494
15	0x39506f22	0.00019877826
16	0xbb5c5d32	-0.0033624885
17	0x3b95b348	0.004568491
18	0xbcc2162d	-0.023692215
19	0xbc71beee	-0.014754994
20	0xbb7e608a	-0.0038814866
21	0xbae277bc	-0.0017278115
22	0x3afa2812	0.0019085428
23	0x3c9c729e	0.019097622
24	0x3b941062	0.0045185545
25	0x3bee00cd	0.007263279
26	0x3c800b3d	0.015630359
27	0xbba184e6	-0.004929173
28	0xbb80d7fa	-0.0039319964
29	0x39b7c2d6	0.00035049644
30	0x3c85f24f	0.016350893
31	0xbc1b27f2	-0.009469973
32	0x3b85abf7	0.0040793377
33	0x3c5efd7f	0.013610243
34	0x3bcaa8d9	0.006184679
35	0x3bf252d7	0.007395129
36	0x3c88df6f	0.016708104
37	0x3bbb2d74	0.0057122055
38	0xbc78caec	-0.015185099
39	0xbb9365db	-0.004498226
40	0xbd25f6be	-0.040518515
41	0x3b2df698	0.0026544686
42	0x3bbc7a8b	0.005751913
43	0xbc184cf2	-0.009295689
44	0xbb8a784f	-0.0042257677
45	0xbc33ebb4	-0.010981489
46	0xbacff38c	-0.0015865429
47	0x3bd2f388	0.0064377226
48	0xbaf6017d	-0.0018768754
49	0xbc3655c5	-0.0111288475
50	0xbbb0dc68	-0.005397368
51	0xbc5fb4e2	-0.013653966
52	0xbb642278	-0.0034810584
53	0x3c20bf31	0.009811209
54	0xbaa4d6f3	-0.0012576267
55	0xbb1119da	-0.0022140653
56	0xbba0e088	-0.0049095787
57	0x3ca46121	0.020065846
58	0xbbeeff88	-0.0072936453
59	0xbb8c596a	-0.00428312
60	0x3b0022e1	0.001955204
61	0xb9bb3d09	-0.00035712894
62	0x3b226d28	0.00247843
63	0x39c08618	0.00036721
64	0x3b39e2e6	0.0028364002
65	0xbaa92120	-0.0012903549
66	0xbcffeed4	-0.031241812
67	0xbbeaa0ac	-0.007160267
68	0xbcbf379d	-0.023341948
69	0x3c19fc09	0.009398469
70	0xbc27ef22	-0.010249885
71	0x3c0c8834	0.008577395
72	0x3c350b99	0.011050128
73	0xbbb5f738	-0.0055531524
74	0x3c9fb66d	0.019496167
75	0xba30951e	-0.00067360874
76	0xbbceef06	-0.006315115
77	0x3bef1293	0.0072959154
78	0xbbaa0036	-0.0051880134
79	0x3d93d5be	0.072185025
80	0x3bdfb623	0.0068271323
81	0x3c290368	0.0103157535
82	0xbb36264d	-0.0027793825
83	0x3d9bf121	0.07614351
84	0xbb9fe6fa	-0.0048798295
85	0xbbf15c8f	-0.00736577
86	0x3cbf5460	0.023355663
87	0xbc59837f	-0.01327598
88	0x3bdbc3a8	0.0067066737
89	0xbb921986	-0.004458609
90	0xbba19dd7	-0.004932146
91	0x3c176f13	0.009242791
92	0x3b9b6aa8	0.004742939
93	0xba3b423d	-0.0007143354
94	0xbc5fbc17	-0.013655684
95	0x3da18a17	0.07887667
96	0x3bfa4d8e	0.00763864
97	0xbae4a5ec	-0.0017444468
98	0x3b4b3a61	0.0031010138
99	0x3c953685	0.018214474
100	0x3c58c1ce	0.0132298
101	0xbb979c1c	-0.004626764
102	0x3b72e349	0.0037061742
103	0x3b40e7f6	0.0029435134
104	0xbb69a800	-0.0035653114
105	0x3c9edf73	0.019393658
106	0xb9b5bf1e	-0.00034665404
107	0xbb825cd7	-0.0039783525
108	0xbbfdb8fa	-0.007742998
109	0x3c5a29e8	0.013315655
110	0x3c22d60e	0.00993873
111	0x3cdb370b	0.026759645
112	0x3c4ea963	0.012613627
113	0x3c1188f8	0.008882754
114	0xbc23eacf	-0.010004713
115	0xbb97e27e	-0.0046351543
116	0xbbd1faa9	-0.006408055
117	0xbcb1b872	-0.021694396
118	0xbb212926	-0.0024591177
119	0xbb10a07e	-0.0022068317
120	0xbb24d2f6	-0.0025150157
121	0x3ad44064	0.0016193506
122	0x3c0014ae	0.00781743
123	0xbc3f1cfd	-0.011664626
124	0xbbe610c5	-0.007021042
125	0xbb92f70b	-0.004485016
126	0xbbacff33	-0.0052794456
127	0x3bd330af	0.0064450125
128	0x3ca38c59	0.019964384
129	0xbbbbb029	-0.005727787
130	0xbabfbc8c	-0.0014628335
131	0x3ad829b8	0.0016491925
132	0x3c09cdb7	0.008410863
133	0x3c007f95	0.007842918
134	0x3cc382db	0.023866108
135	0x3c0a7fcb	0.00845332
136	0x3baf4ca3	0.005349712
137	0x3bc90386	0.006134453
138	0x3cb87f09	0.022521513
139	0x3caad847	0.020855082
140	0x3c136970	0.008997306
141	0x3c82ddfe	0.015974995
142	0x3bf5d397	0.00750203
143	0x3a2c0f8a	0.0006563595
144	0x3c01b8e9	0.007917621
145	0x3ca01074	0.019539095
146	0xbc4c5687	-0.012471802
147	0x3c6e73c1	0.014553965
148	0x3b587667	0.0033029558
149	0xbcb94573	-0.022616124
150	0x3bd77cc7	0.006576154
151	0xbbf5e2ee	-0.007503859
152	0xbd1afadf	-0.037836906
153	0x3b2d5016	0.002644544
154	0x3c8945f5	0.01675699
155	0x3d0ab2ef	0.03386205
156	0x3ba8d954	0.0051528607
157	0x3b494129	0.0030709004
158	0xbc24b49d	-0.010052827
159	0x3c2e3e03	0.010634902
160	0x3c0c8777	0.008577219
161	0xbb1f1e89	-0.0024279675
162	0xbc3baacd	-0.011454296
163	0x3ccf4564	0.025301643
164	0x3c248ad5	0.010042866
165	0x3d2b772c	0.041861698
166	0x3c884fbb	0.016639581
167	0x3bdb69d5	0.006695966
168	0xbcccf95c	-0.025021248
169	0x3bc32f7e	0.0059565892
170	0xbbdf00cc	-0.006805515
171	0x3b5ab965	0.0033374664
172	0xbbf007fb	-0.00732517
173	0x3b511ef2	0.0031909314
174	0x3c0a0d8a	0.0084260795
175	0x3b5b7b83	0.0033490367
176	0x3bd8c6d8	0.006615501
177	0xbceb5555	-0.028727213
178	0xb8efb461	-0.00011430006
179	0x3c812095	0.015762607
180	0x3cf1627c	0.029465906
181	0x3ca619d8	0.020275995
182	0xbc77aea8	-0.015117325
183	0xbb18f650	-0.0023340173
184	0xbca319e8	-0.019909814
185	0xbc452fa7	-0.012035287
186	0xbb8aca33	-0.00423553
187	0xbc2ac1fe	-0.010422228
188	0x3b8ad416	0.0042367084
189	0xba8c4271	-0.0010700953
190	0x3c40c383	0.011765364
191	0xbafdaa4d	-0.0019353122
192	0x3bea6928	0.007153649
193	0x3c2c3d57	0.010512671
194	0x3c133509	0.008984813
195	0xbc6bfc6b	-0.014403443
196	0x3c270320	0.010193616
197	0x3a860b18	0.0010226695
198	0xb6b4a3a0	-5.3834665e-06
199	0x3cdbfad8	0.02685301
200	0xbc3fb33f	-0.01170045
201	0xbbee4257	-0.007271092
202	0x3afd6010	0.0019330997
203	0xbc992634	-0.018694974
204	0xbc37e620	-0.0112243
205	0x3bf148d4	0.007363418
206	0x3cabd646	0.020976197
207	0xbc4e3158	-0.012585007
208	0xbad7a1fa	-0.0016451471
209	0x3c246803	0.010034564
210	0xbbe28b78	-0.0069135986
211	0x3b25b15d	0.0025282719
212	0xbbf93d57	-0.007606189
213	0x3c3bb2d4	0.01145621
214	0xbc11acdb	-0.00889131
215	0x3ad76178	0.0016432246
216	0x3c17ed99	0.009272956
217	0xbbcd3c69	-0.006263305
218	0x3bc733c8	0.006079171
219	0x3c50d803	0.012746814
220	0xbcacc95e	-0.021092113
221	0xba8a6784	-0.0010559415
222	0x39bc3d12	0.00035903655
223	0xbc20f40d	-0.009823811
224	0x3be62754	0.0070237312
225	0x3b8c9723	0.004290478
226	0x3b059417	0.0020382458
227	0x3c1e4b97	0.009661577
228	0xbc855612	-0.016276393
229	0x38a34a1a	7.786248e-05
230	0xbba90fd6	-0.0051593585
231	0x3b9a74bd	0.0047136233
232	0x3bf58875	0.0074930736
233	0xbc5c6855	-0.013452609
234	0xbc0abaac	-0.008467358
235	0xbb43cec8	-0.002987789
236	0xbc32fc31	-0.010924385
237	0xbb49f50d	-0.0030816228
238	0xbb383e20	-0.0028113201
239	0xbc082eaf	-0.0083119115
240	0xbc06618d	-0.008201969
241	0xbba5f2bf	-0.005064338
242	0xbbf882d2	-0.0075839544
243	0x3b46f3b3	0.0030357658
244	0xbc4770a9	-0.012172856
245	0x3a5a9e17	0.0008339597
246	0xbbedde3e	-0.0072591593
247	0x3c337e96	0.010955473
248	0xbbac1bd9	-0.005252343
249	0x3b4ebde7	0.0031546296
250	0xbbf02274	-0.007328326
251	0xbb5ea4da	-0.003397277
252	0x3ba32f4e	0.0049800044
253	0x38f314f2	0.00011591044
254	0x3bbd13d5	0.0057701864
255	0x3c98adb8	0.018637523

transformer.h.0.attn.c_proj.bias f4 [128]
0	0xbc506a4d	-0.012720657
1	0x3c80e7f9	0.015735613
2	0x3c8f223c	0.017472379
3	0xbca547f1	-0.020175906
4	0x3c080f57	0.008304439
5	0x3c47b7ab	0.012189786
6	0x3c986eb4	0.018607475
7	0xbc82279f	-0.015888033
8	0x3c8d15e7	0.017222358
9	0x3b746e9b	0.0037297371
10	0x3c96d73b	0.018413177
11	0x3cf40e5a	0.029792
12	0xbbc8fa29	-0.006133337
13	0x3cb45eab	0.022017797
14	0x3bd9fa59	0.006652158
15	0xbca5b35e	-0.02022713
16	0xbb78524a	-0.0037890845
17	0x3bb4b317	0.0055145132
18	0x3bf55ca9	0.0074878526
19	0xbbd8adf0	-0.006612532
20	0x3bd61e37	0.0065343636
21	0xbbcf7d68	-0.0063320883
22	0xbcb984ad	-0.022646273
23	0xbb8be823	-0.004269616
24	0xbba964e5	-0.0051694983
25	0x3c8aea52	0.016957436
26	0x3b9732e4	0.004614221
27	0x3d118dcc	0.03553562
28	0xbd1b5428	-0.037922055
29	0xbc2fe3fa	-0.010735506
30	0xbc964b6f	-0.018346516
31	0xbcc4d7b8	-0.024028644
32	0xbd0792d0	-0.033098996
33	0x3a7b703d	0.0009591615
34	0x3aee4f65	0.001818162
35	0xbc7c16cb	-0.015386294
36	0x3bb148d1	0.0054102917
37	0xbba20e10	-0.004945524
38	0x3ae68cc4	0.0017589559
39	0xbc0160e0	-0.007896632
40	0xbd183916	-0.037163816
41	0x3cc9558c	0.024576925
42	0x3c17692d	0.009241384
43	0xbc2208fe	-0.009889839
44	0x3d1c6e6f	0.038191255
45	0x3c05c9fb	0.008165832
46	0x3b704bdf	0.0036666316
47	0x3c7c0d55	0.015384038
48	0x3ca8fe3e	0.020629045
49	0x3c5b8bf6	0.0134000685
50	0x3b3a7b56	0.0028454862
51	0xbcc728be	-0.02431142
52	0xbb161c3b	-0.002290501
53	0x3c950de7	0.018195106
54	0x3c16df5c	0.009208526
55	0x3d25276e	0.040320806
56	0x3be76526	0.0070616184
57	0xb9851fa4	-0.0002539131
58	0xbba6ef9b	-0.005094481
59	0x3c13ad10	0.009013429
60	0x3c0c6445	0.008568828
61	0x3c61e9e2	0.013788672
62	0x3c9f7cf4	0.019468762
63	0xbc86da6a	-0.01646157
64	0x3c947d27	0.018126084
65	0xbb3ffd21	-0.0029295164
66	0xbbc6eafd	-0.0060704933
67	0x3d0a442a	0.033756413
68	0xbbbe7944	-0.005812796
69	0x3c4488b3	0.011995482
70	0xbcb9c9f2	-0.022679303
71	0x3b6ae7e8	0.0035843793
72	0x3bf8541b	0.0075783855
73	0xbbeb8159	-0.0071870503
74	0x3c0c2914	0.008554716
75	0x3bbcc9b6	0.0057613505
76	0xbb944711	-0.0045250733
77	0x3be1fc3f	0.006896525
78	0x3d52c708	0.051459342
79	0x3c3c8bdb	0.0115079535
80	0xbd01259c	-0.031530008
81	0x3cff010a	0.031128425
82	0x3b6ef72f	0.003646325
83	0xbb91c73c	-0.0044487994
84	0x3b06694d	0.0020509542
85	0x3d278d17	0.040906038
86	0xbcf993e7	-0.030466033
87	0xba9cec71	-0.001197232
88	0xbc5875ce	-0.013211681
89	0xbc520f45	-0.012821023
90	0x3c91d9ff	0.017804144
91	0xbbbeaeda	-0.005819184
92	0xbb6bb021	-0.0035963135
93	0x3c26dd39	0.0101845795
94	0xbc554650	-0.013017252
95	0xbc2bf30e	-0.0104949605
96	0xba468ed6	-0.0007574385
97	0x3ca30e9b	0.019904425
98	0x3b3fc21f	0.0029259992
99	0xbc80c85f	-0.015720544
100	0x3bbd2265	0.0057719224
101	0xbc91a006	-0.0177765
102	0xbae924c3	-0.0017787445
103	0xbcd4a5a3	-0.025957888
104	0xbcc106f2	-0.023562882
105	0x3cc8a89e	0.024494465
106	0xbd371e8b	-0.044706862
107	0x3b4612ec	0.003022368
108	0x3cd5228f	0.026017455
109	0x3a4e874e	0.00078784383
110	0xbc2f0bc1	-0.010683955
111	0x3bb8cbcd	0.0056395293
112	0xbc91f032	-0.01781473
113	0x3b37da03	0.002805353
114	0xbc53d221	-0.012928517
115	0x3c4972d8	0.012295447
116	0x3c063180	0.008190513
117	0x3c127dbb	0.008941109
118	0x3c74c4f4	0.014939535
119	0x3c2c6e66	0.010524368
120	0xbc19b169	-0.009380677
121	0x3c0f22a0	0.008736283
122	0xbb6a83dc	-0.003578416
123	0x3c2f5db6	0.010703495
124	0xbc4761da	-0.012169326
125	0x3d15cc88	0.03657201
126	0xbb8f5d8e	-0.0043751663
127	0xbbbc0165	-0.005737471

transformer.h.0.ln_2.weight f4 [128]
0	0x40c861dc	6.2619457
1	0x3fa69833	1.3015198
2	0x3fee5c75	1.8621966
3	0x4090f46c	4.5298367
4	0x408776c4	4.2332478
5	0x3fc2683b	1.5188059
6	0x40334ca3	2.8015525
7	0x40701611	3.7513468
8	0x3fed2c26	1.8529098
9	0x403f4b8c	2.988986
10	0x3ff1bea4	1.8886304
11	0x40231884	2.5483713
12	0x40a0aa22	5.020768
13	0x4036d42d	2.8567002
14	0x40abd743	5.370027
15	0x40ea94f4	7.3306828
16	0x40b6071f	5.6883693
17	0x4023a2ca	2.5568109
18	0x40d57e3b	6.671659
19	0x40e7e64d	7.246863
20	0x4083c096	4.117259
21	0x40909f2f	4.5194316
22	0x4077ac53	3.8698928
23	0x40d5d2de	6.6819906
24	0x40514d58	3.2703457
25	0x409b6307	4.8558383
26	0x3fe22fbd	1.7670819
27	0x3f6e1840	0.9300575
28	0x4105cb8b	8.362193
29	0x3c01dd33	0.007926273
30	0x4027984c	2.6186705
31	0x3e504e61	0.20342399
32	0x3fb24b24	1.3929181
33	0x4068f993	3.6402328
34	0x3f8d827d	1.1055447
35	0x4021f1a4	2.5303736
36	0x40800a7e	4.001281
37	0xbad1400a	-0.001596452
38	0x408da1d9	4.426007
39	0x40af79b7	5.483608
40	0x410c238b	8.7586775
41	0x400b5b49	2.1774466
42	0x40b70fca	5.7206774
43	0x3a9bfda3	0.0011901151
44	0x3fa85385	1.3150488
45	0x3f5fe0b2	0.8745223
46	0x408da809	4.426762
47	0x3fd646b2	1.6740324
48	0x3f80b072	1.0053847
49	0x40f30cbf	7.595306
50	0x40891a9d	4.2844987
51	0x40e371ad	7.1076264
52	0x40b84010	5.75782
53	0x402d3ba3	2.706765
54	0x3fcd970c	1.6061721
55	0x40db06be	6.844573
56	0x408a9f52	4.3319483
57	0x3f4588b9	0.7716175
58	0x3fe27722	1.7692606
59	0x3fcfc3a2	1.6231577
60	0x40882ab4	4.255213
61	0x3fa170f7	1.2612599
62	0x3fa94f23	1.3227276
63	0x3ff9902d	1.9497124
64	0x3fb32089	1.3994304
65	0x4048ba79	3.1363814
66	0x40f233a3	7.5688033
67	0x40ed9ceb	7.425405
68	0x3fe0ccc4	1.756249
69	0x3fbadaea	1.4598057
70	0x3fb990d9	1.4497329
71	0x4080d161	4.025559
72	0x3fafbaf8	1.3728933
73	0x40aaa121	5.332169
74	0x3fdeae74	1.7396989
75	0x40c742d0	6.226906
76	0x407f477e	3.9887385
77	0x40cf587f	6.4795527
78	0x40a0ce99	5.0252194
79	0x408dddc0	4.433319
80	0x4005f4f0	2.0930748
81	0x4006326e	2.096828
82	0x3fbb4a66	1.463208
83	0x3fb0a74c	1.3801055
84	0x409d830d	4.9222474
85	0x4085b052	4.1777735
86	0x41069154	8.4104805
87	0x4040dda5	3.013528
88	0x4001c97d	2.0279229
89	0x40a60e51	5.1892476
90	0x3fbd800f	1.4804705
91	0x405fdf1f	3.4979932
92	0x40be9d81	5.9567266
93	0x3fcf9fba	1.622062
94	0x4081c7a1	4.055619
95	0x409c7c4d	4.8901734
96	0x4071b9b8	3.7769604
97	0x40897187	4.2951083
98	0x3fc23c07	1.5174569
99	0x3f605238	0.87625456
100	0x40a1edc4	5.060274
101	0x40bb8f18	5.8612175
102	0x40f0a729	7.5204053
103	0x401b0a96	2.422521
104	0x40bb7c6a	5.8589373
105	0x401293a1	2.2902606
106	0x3f81748b	1.0113691
107	0x3f79b6e8	0.9754472
108	0x40e388a2	7.110429
109	0x405f1f61	3.4862902
110	0x3ebbdcf1	0.36692002
111	0x40ee130b	7.4398246
112	0x40cef380	6.467224
113	0x403bc810	2.9340858
114	0x40969b45	4.706454
115	0x402f701d	2.7412179
116	0x40a7ea87	5.247379
117	0x3f564c93	0.83710593
118	0x407ae96e	3.9204974
119	0x3fb5d391	1.420519
120	0x40d7bf02	6.7420664
121	0x3fd580ba	1.6679909
122	0x40896686	4.293765
123	0x3ffc7bd0	1.9725285
124	0x3d6e826f	0.05822986
125	0x3f67cb50	0.90544605
126	0x40c3b024	6.1152515
127	0x3f06bd69	0.52632767
