warmup/warmup_1_97_-_1.pth (torch, 824611 bytes, 17 tensors)

transformer.wte.weight f4 [14, 128]
000000 f3 66 67 bc 4f 1e c0 3b 75 bb b9 ba 7b 8d e6 3b
       -0.014123666 0.005862988 -0.0014170246 0.0070359088
000010 96 73 e3 3b d4 fe 87 bc ef a1 2d 3b 2e 14 94 bc
       0.006941269 -0.016601004 0.0026494225 -0.018076029
000020 ed c2 c0 3b ad e0 4e 39 06 f2 ec bc 74 41 3c b9
       0.005882612 0.00019729389 -0.028924 -0.0001795346
000030 83 76 1c bc 70 e8 18 bc 91 20 be ba b4 d8 86 3b
       -0.00954974 -0.009332761 -0.0014505555 0.0041151885
000040 49 05 a2 bb aa 36 6f bc 95 a7 45 bb aa 1b de 3b
       -0.0049444777 -0.014600435 -0.00301597 0.0067782
000050 e6 4e 5d 3b 0f 31 52 bc 57 e8 66 3b 3a d9 1c bc
       0.003376895 -0.012829079 0.00352337 -0.009573275
000060 69 65 07 bd b3 eb 98 3b 69 ec c2 3b bb d9 ee 3b
       -0.033055697 0.0046667694 0.0059485924 0.007289139
000070 70 f7 4f bc 36 e3 d5 bb 61 4f 8e bb cf a9 21 bb
       -0.012693271 -0.00652733 -0.004342959 -0.0024667864
000080 44 60 78 bb 36 3b ef bb e2 cb be 3b 22 98 28 3c
       -0.0037899176 -0.0073007597 0.0058226446 0.010290178
000090 4d a8 14 3c 52 5d 4a bc dc 0d 28 3c 75 3c 0b 3c
       0.009073329 -0.012351351 0.010257211 0.008498301
0000a0 e7 c3 d6 3b a5 ed e2 3a 7f 3d ed 3b 69 04 cd 3b
       0.006554115 0.0017313255 0.007239997 0.0062566292
0000b0 80 e8 38 3c ee 6e a9 bb 8e a7 1d 3c e8 d8 02 3c
       0.011285901 -0.0051706946 0.009622468 0.007986285
0000c0 9b 09 85 3b a7 42 97 3c 5a 95 fd bb 2e 37 0f bc
       0.004059983 0.0184644 -0.0077387514 -0.008741183
0000d0 a1 66 f7 bb b5 f9 e1 3b 5e 12 81 bb 30 e7 b8 3b
       -0.007550076 0.0068962225 -0.003938957 0.005642794
0000e0 92 c3 62 bc e5 66 8f 3a cb 86 cc 3b 62 76 35 ba
       -0.013840573 0.0010940699 0.0062416545 -0.00069222425
0000f0 b6 64 d2 3b 1f 9b b7 3b 13 c6 62 bc 49 49 b9 3b
       0.006420697 0.0056032087 -0.01384117 0.005654488
000100 53 93 b2 bc be 05 e3 bc 5b 56 bf 3c 6b cb a9 bc
       -0.021798765 -0.027712699 0.023356607 -0.02072688
000110 df e9 f9 3b 58 6d fd 3b 37 1b 80 bc e5 86 e2 3b
       0.0076267566 0.007733982 -0.015637977 0.0069130533
000120 00 a0 cd 3b 40 25 ba 3b b8 06 b6 ba 68 18 c9 3c
       0.006275177 0.00568071 -0.00138875 0.02454777
000130 e8 cf 90 bc 9a fe e8 bb ae 4e 02 3c 6c 64 33 bc
       -0.017677262 -0.007110429 0.007953329 -0.010949235
000140 c8 ea 9d 3b 62 96 80 3c b5 f1 00 bc 18 b9 49 bc
       0.004819248 0.015696708 -0.007870127 -0.012312196
000150 d9 14 46 bb 8c e3 dc bb aa 11 01 3d 01 ad 63 3b
       -0.0030224829 -0.006740993 0.031510986 0.003474057
000160 a5 61 f1 3b 01 c7 97 bc bf 65 d6 3b 58 8f a1 bc
       0.0073663765 -0.01852751 0.006542891 -0.019721672
000170 b7 b3 bb 3c 54 91 23 bb be ec 03 3c d9 b2 13 bc
       0.022912843 -0.0024958448 0.008052049 -0.009014809
000180 f5 7e d3 bb 3b b2 b5 3b 08 7a bf 3b 55 8a 0c 3c
       -0.0064543434 0.0055449284 0.0058434047 0.008577903
000190 38 37 82 bc 87 9c 85 bc 74 e6 e9 bb f1 59 34 bc
       -0.015895471 -0.01630999 -0.007138068 -0.011007772
0001a0 1c 85 7a 3b d1 84 81 bc cd a8 43 bc ad 1d 85 bc
       0.0038226312 -0.015810402 -0.011942101 -0.016249502
0001b0 e2 d2 f9 3b b0 7f b5 3b 58 78 81 bb fe dc 09 3d
       0.007624016 0.005538903 -0.0039511137 0.03365802
0001c0 05 29 cc bb 24 10 12 3c 2e 36 12 3c 45 19 6a 3c
       -0.006230476 0.008914981 0.00892405 0.014288251
0001d0 45 f6 95 bb 94 52 4e 3c 1d 07 77 bc 0b 13 b0 3c
       -0.0045764768 0.01259293 -0.0150773795 0.021493455
0001e0 d1 80 81 3c cf 7c 63 3b f1 f8 f9 bb 11 df 39 3c
       0.015808495 0.0034711843 -0.007628553 0.011344687
0001f0 35 07 6f 3b ba 0d d1 3b 65 5a 15 bc b5 ef d5 3b
       0.0036472802 0.00637981 -0.00911579 0.0065288194
000200 fa 50 05 3c 06 bc cf 3c d4 1f 2a 3c e9 cf dd 3c
       0.008136982 0.025358211 0.010383565 0.027076678
000210 7d 44 da 3c 5c 6c e1 3c 9a 20 97 3c 9b c6 a1 3b
       0.026643986 0.02751749 0.018448163 0.0049370057
000220 f7 cf f1 bb 14 5c 12 bc c8 e7 e6 3c 02 4e 41 bb
       -0.0073795277 -0.008933086 0.028186694 -0.002949596
000230 f4 c9 14 3c f8 15 3a bc fd ce 81 bb a6 93 1a 3d
       0.0090813525 -0.011357777 -0.0039614425 0.037738465
000240 ee b0 8e bb a1 b3 17 3d e0 49 e9 3c 32 d7 d2 3c
       -0.0043545878 0.03703654 0.02847761 0.025737379
000250 a7 f9 00 3c ca 21 87 3c 8d 88 8a bd ff 82 42 3d
       0.007872022 0.016495604 -0.06764326 0.04748821
000260 29 dd 46 3c c0 cf d3 3c ce 66 11 bc ec b3 f5 3c
       0.01213769 0.025855899 -0.008874608 0.02999302
000270 07 cd 66 3c 43 29 ac bc d2 85 b3 ba dd 77 88 ba
       0.014086968 -0.021015769 -0.0013696498 -0.0010411699
000280 72 e8 ce 3b 4c 06 08 bc 0f 1c d0 3c 71 c7 44 3c
       0.0063143307 -0.008302283 0.025404004 0.012010441
000290 a3 52 fe 3c 24 e4 e9 3b 94 97 36 be f1 56 b2 3c
       0.031045264 0.007137792 -0.1783126 0.021769973
0002a0 da df 20 bd db d2 80 bc 61 d6 de 3c 9a 62 d1 3c
       -0.03927598 -0.015725544 0.027201833 0.025559712
0002b0 be 90 80 3a c3 16 09 bd 23 c1 17 3d a5 ed f8 3c
       0.0009808762 -0.033468973 0.037049424 0.030386755
0002c0 6d e4 a4 bc 7f 80 0d bd 2a 0b b3 3a 5a d4 a6 3b
       -0.020128453 -0.03454637 0.0013659943 0.0050912322
0002d0 20 89 0f 3e 74 84 d7 bc c9 01 50 3b cf 72 d0 3c
       0.14017153 -0.026308276 0.0031739345 0.02544537
0002e0 6d b7 14 3b e6 a7 70 bd 2b 28 d3 3c 8b fe 36 bd
       0.0022692338 -0.05875387 0.02577599 -0.044676345
0002f0 02 f6 d0 3c c8 c0 ce 3c 65 e8 ae bd 59 4e c6 3c
       0.02550793 0.02523841 -0.085404195 0.024207281
000300 54 17 c7 bc c1 0d 98 bc 08 32 63 3d 3e 3c 5b bd
       -0.024303116 -0.018561246 0.055467635 -0.05352425
000310 a7 42 d2 3c 29 93 dc 3c b4 c5 b1 3a 7d 77 de 3c
       0.025666548 0.02692564 0.0013562948 0.027156586
000320 2d 72 d7 3c 0b c6 d6 3c c1 47 e8 3b 1a 3d f3 bc
       0.02629956 0.026217481 0.007088632 -0.029692221
000330 e0 15 bc bc 85 56 be 3b f9 55 ea 3c 9d 81 de bb
       -0.02295965 0.005808654 0.028605448 -0.0067903535
000340 ac cd cb 3c f0 37 cb 3b f8 98 91 bd 1d 6d 70 3c
       0.024878345 0.0062017366 -0.071092546 0.014674452
000350 9b 0e 80 3c 77 83 1c bc 28 ed c3 3a 78 db ae bb
       0.015631964 -0.009552828 0.0014947997 -0.0053362213
000360 b4 ca de 3c c5 04 98 bb c4 6a d7 3c fa 09 82 bb
       0.027196266 -0.0046392404 0.026296027 -0.0039684745
000370 a6 4f 15 3d 64 f8 34 3c 0a cd de 3c 66 ea a9 3c
       0.03645291 0.011045549 0.02719738 0.020741653
000380 f0 1d 1d 3c 0f 45 d5 3c a2 e1 d5 3c 04 59 b5 bc
       0.009589657 0.026033906 0.026108567 -0.022137173
000390 8c 39 c8 3b d6 2a 3d 3d 90 e3 14 3c 2a 71 56 3b
       0.0061103757 0.04618343 0.009087458 0.003272126
0003a0 7e 9a c1 3b 3d 1c ef bb 8e 1a 79 bd ab 9d c1 3c
       0.0059083095 -0.0072970674 -0.06081634 0.023634752
0003b0 cb 0f c3 3c 7d 40 d0 3c 74 ab ec bb 12 53 ad bc
       0.023811242 0.025421375 -0.0072225872 -0.021157775
0003c0 9b 69 b9 bb b6 78 8b bc 81 10 62 bc c8 09 12 bd
       -0.005658341 -0.017025333 -0.01379788 -0.03565386
0003d0 cb 8a ed bb b9 e9 d1 bb 0a c4 92 bc ff 77 cc bb
       -0.0072492114 -0.0064060357 -0.017915744 -0.0062398906
0003e0 dd ad 59 3b c8 b9 55 3d a2 8b 65 bc 02 c6 6e 3c
       0.0033215203 0.052179128 -0.014010342 0.014573576
0003f0 7c 28 93 ba bb 9c d7 3c 7b e6 13 3c c8 57 d5 3c
       -0.0011227275 0.026319852 0.009027119 0.026042834

transformer.wpe.weight f4 [32, 128]
000000 7b c8 86 bb 3c b3 12 bc 1a d9 84 3c e6 8b ca bb
       -0.0041132546 -0.008953866 0.016216803 -0.006181228
000010 af f8 80 bb e5 e2 c7 ba 14 0c b1 3b dc 8c 50 bc
       -0.0039358954 -0.0015250115 0.005403051 -0.012728896
000020 75 31 16 3c 8c 6d 83 bb d3 2f 71 3c ae 4f a9 3c
       0.009167065 -0.0040108617 0.014720875 0.020667877
000030 df 4d 08 39 6f cc 08 3b d1 bb fd bc 3e 00 ed ba
       0.0001299898 0.0020873805 -0.030973347 -0.0018081737
000040 52 4d 85 bc 58 be b5 38 60 dc 88 3c b0 d0 1b bc
       -0.01627222 8.666207e-05 0.016706645 -0.009510204
000050 d9 81 69 3c 22 49 93 3c 4b 09 80 bc 37 99 2d bc
       0.0142521495 0.017979208 -0.015629431 -0.010595611
000060 e3 f4 aa 3b 0e 4c b3 bb 23 e3 43 bb 5f b7 af bb
       0.005217181 -0.005471713 -0.0029890023 -0.0053624357
000070 21 c1 12 bc d5 12 99 bb 56 84 85 bb bd 51 0d 3a
       -0.008957178 -0.0046714344 -0.0040746136 0.0005390903
000080 a2 92 f2 3c 3f a6 12 bc 43 47 f4 bb f1 cd 19 bd
       0.029610936 -0.008950769 -0.007454784 -0.037549917
000090 bb 10 3c bb d5 84 ac ba cf a5 7b bc 5a 7b 30 bc
       -0.0028696496 -0.0013162146 -0.015359356 -0.010771597
0000a0 06 0a ae 3b f0 e6 b9 3b 52 78 f1 bb 70 61 03 bc
       0.0053112535 0.005673282 -0.0073690796 -0.008018836
0000b0 c8 1f af bc 9b 8e b5 bc 75 2a e0 3c a7 5f 86 bb
       -0.02137746 -0.022162726 0.027363995 -0.004100758
0000c0 ad 4c 2e bb 15 e9 19 3c f1 c7 a3 3d dc f8 74 bb
       -0.0026595995 0.00939395 0.0799712 -0.0037379777
0000d0 ef b2 86 3c e4 6c ea bc 67 f7 7b 3c 99 ee 07 bc
       0.016442744 -0.028616376 0.0153788095 -0.008296632
0000e0 8c cf b0 3c 95 e7 3c bc f1 c5 32 bc d1 53 2f 3c
       0.021583341 -0.011529823 -0.010911451 0.010701136
0000f0 83 83 1a bc 93 62 f7 bb 0d 7e e8 3b c1 98 ea bb
       -0.009430769 -0.0075495928 0.0070951045 -0.007159323
000100 2b 69 3b bc eb d4 f8 bb 53 04 d9 3c b2 b7 c6 bc
       -0.011438648 -0.007593741 0.02649132 -0.024257515
000110 a0 6e cf bb 66 69 18 bb 60 13 13 bc ea 7d dc bb
       -0.006330326 -0.0023256182 -0.008976787 -0.0067288773
000120 e7 c6 19 bc ec db 02 bc 29 78 92 bb 69 34 83 bc
       -0.009385801 -0.007987004 -0.0044698906 -0.016016202
000130 b0 68 83 3c 5b 9b 31 3c e5 3a 22 bc 94 8b 65 bb
       0.01604113 0.010840262 -0.009901737 -0.0035025822
000140 18 08 fa bb 1e 3b 87 3c f0 ae 6f 3b af 99 a8 3c
       -0.0076303594 0.016507681 0.0036572777 0.020581095
000150 4f 4f 8e 3b 78 74 91 bc f1 a9 e1 3b 15 36 8b bb
       0.0043429504 -0.017755732 0.0068867137 -0.0042483904
000160 23 4e de bb 3f a1 68 3c 1e 8e dd bb e6 0e ce bc
       -0.006784217 0.0141986 -0.0067613265 -0.025153589
000170 61 ba 8c bb 06 ed 6b bb 2d 84 14 bc 61 91 e2 3b
       -0.004294679 -0.0035999431 -0.009064716 0.006914303
000180 48 ff 0f bc 4a a4 d2 bb 8d b9 fa bb 61 c4 1a bc
       -0.008788891 -0.006428276 -0.007651514 -0.009446234
000190 f2 18 67 bb bf a6 88 3b 69 54 2c bc f5 68 8a bc
       -0.0035262671 0.0041702683 -0.010518172 -0.01689575
0001a0 04 ef 1c bc c7 94 d4 bb c3 56 da bb ef 49 0e 3b
       -0.00957847 -0.006487462 -0.006663175 0.0021711548
0001b0 c1 41 6c bb e4 e2 e1 bb 65 aa c5 bc 7b 51 b7 b9
       -0.0036049935 -0.0068935025 -0.024129102 -0.00034965188
0001c0 98 58 19 bc 57 38 13 bc f4 11 d0 bb 35 72 ef bb
       -0.009359501 -0.0089856 -0.0063497964 -0.0073073157
0001d0 7c ee aa bb e3 28 2e bc a1 5f 0a 3b 9b 6e 95 3a
       -0.005216418 -0.010629865 0.0021114128 0.0011400761
0001e0 80 c9 d7 bb 75 57 03 3b ab 4c 93 bb 8f 09 d2 bb
       -0.0065853 0.0020041142 -0.0044952235 -0.006409831
0001f0 b1 05 52 3c b9 69 b3 bb c8 a4 b2 ba 64 b8 a4 bb
       0.01281874 -0.0054752496 -0.0013629431 -0.005026864
000200 2d d0 e3 3b 4b c1 92 3b d0 16 73 bd ac 53 39 3b
       0.0069523067 0.0044786087 -0.059347928 0.0028278632
000210 d8 6a eb 3a 9a 93 12 3d f7 9e bc bb b0 3a 03 3d
       0.0017960919 0.035785295 -0.005756255 0.03203839
000220 50 12 d0 bc d5 5f 13 bb af a3 e9 3b 52 5b 42 bb
       -0.025399357 -0.002248754 0.0071301083 -0.0029656482
000230 58 4c a7 39 28 67 07 bc 40 36 97 3c 5d e9 ab bb
       0.00031909603 -0.00826434 0.018458486 -0.005246325
000240 17 4e d0 3a 4c 7a 86 bb 8e 00 6a 3c ea 49 dc 3b
       0.0015892413 -0.0041039344 0.014282359 0.0067226784
000250 a8 a7 01 bc 18 5e 31 bc c0 b9 bb 39 69 14 a1 3c
       -0.0079135075 -0.010825656 0.00035805814 0.019663053
000260 44 7d f8 bb c1 8c 60 3b c9 b8 42 3c dd 06 22 3b
       -0.007583292 0.0034263583 0.0118848765 0.002472333
000270 5b 1c 15 3c 61 5f 47 3b 70 58 02 38 81 4a 96 3a
       0.009100999 0.003042184 3.107678e-05 0.0011466296
000280 02 65 00 ba 57 39 0a 3b 5e b5 20 3b 66 4e 1b 3c
       -0.0004897864 0.0021091306 0.0024522166 0.009479141
000290 ec f2 15 3a 7b 3a 31 bb 52 6e 3d 3c 16 29 ac bb
       0.0005720097 -0.0027042914 0.011561947 -0.0052539213
0002a0 29 56 24 bc fa 2f dc bc 26 24 da 39 f2 b9 4e 3b
       -0.010030308 -0.026878346 0.00041607133 0.0031543938
0002b0 28 a9 78 3b 9c 4b eb 3c ed 04 5b 3c 23 b0 83 3a
       0.0037942622 0.028722577 0.013367874 0.0010047
0002c0 f8 a0 57 3b 9f 7d a5 bc 54 41 5d bc 1f ed 70 3b
       0.0032902341 -0.020201502 -0.013504345 0.003676243
0002d0 86 d3 35 bc 1f 8f 42 3c a1 15 82 bb 2c 5f 81 3b
       -0.011097794 0.011874943 -0.0039698635 0.003948113
0002e0 78 5d b7 bc 42 2a 4c 3c 1b 56 0c 3b 57 9b a2 bc
       -0.022383437 0.012461247 0.0021413628 -0.019849462
0002f0 e0 a0 89 3b 8a 49 7c 3b b1 52 5a bb 2c 69 09 3b
       0.004200086 0.003849598 -0.0033313448 0.0020967228
000300 ca 79 d6 3c d4 d9 2a 3b ce c3 ff 3b 72 70 b7 bb
       0.02618112 0.0026069777 0.007805324 -0.0055981213
000310 92 9c 47 3b 37 ae 14 bb 33 b3 b9 3b 82 eb 8f 3a
       0.0030458313 -0.0022686848 0.005667114 0.0010980221
000320 c0 d3 95 3b d0 0a ae 3b fc 2a e8 3b be c0 92 bc
       0.0045723617 0.0053113475 0.0070852023 -0.017914172
000330 25 5e 0c bc 21 4b 2f bc 84 c5 13 3b 0d e4 de 3a
       -0.008567368 -0.0106990645 0.0022548148 0.001700522
000340 80 e3 41 3b ce 7f a8 bc cc 9b f8 b9 2b 5d 4f bc
       0.0029585063 -0.020568755 -0.00047418324 -0.01265649
000350 d6 78 09 3c 6e 5f 10 3d 54 00 a4 3a c8 05 6f 3b
       0.008390626 0.03524726 0.0012512305 0.0036471952
000360 2f 1e 84 3b 22 95 6f bc 3a 7f 9f 3b 72 30 22 3d
       0.0040319185 -0.014622958 0.0048674615 0.039596982
000370 ab d3 cc 3b 94 e0 d4 ba fb 68 8e 3b 07 9e 10 3c
       0.0062508187 -0.0016241246 0.0043460107 0.008826739
000380 cb a0 a6 3c fc 9c a5 3b 52 5b 2c 3b 79 5f db 3b
       0.020340344 0.0050541144 0.0026299548 0.006694731
000390 f3 9f fb 3a 54 0c 55 bc be 13 8a 3c 31 af 89 3c
       0.0019197449 -0.013003428 0.016855117 0.01680717
0003a0 85 5a 54 3c 5f 7e 5b 3b 67 47 9f 3b fa 77 7c 3b
       0.012961035 0.003349207 0.0048608067 0.003852366
0003b0 9f 87 33 3b c7 9c 05 3b 7e 49 14 3d 45 88 22 3b
       0.002739407 0.0020387636 0.0362029 0.0024800461
0003c0 ce cb 19 3a c6 49 51 ba 49 7a f7 b9 ce a2 b2 3b
       0.0005866856 -0.00079837104 -0.0004720262 0.0054515367
0003d0 ae 4d 4b 3c 56 d1 c1 3c 04 5e 5a bc b9 a0 57 ba
       0.012408657 0.02365939 -0.013328079 -0.00082255487
0003e0 4c 50 1a b9 99 ca 5c 3c 4b b8 f1 3a dd 5f eb 3b
       -0.00014716497 0.013476037 0.0018441764 0.0071830587
0003f0 fe 4c 80 bc de 28 27 3b 03 31 4e 3b d4 01 a3 3b
       -0.015661713 0.0025506536 0.0031462319 0.004974583

transformer.h.0.ln_1.weight f4 [128]
000000 8f 6b f9 3e 2e de dd 3a 37 e8 99 40 48 b9 bf 39
       0.48714873 0.0016927177 4.8095965 0.00036568404
000010 8c 01 b0 bb 16 19 a7 3e 50 4e 6f 3f 37 e8 b4 3f
       -0.005371278 0.32636327 0.9347887 1.4133366
000020 03 cb be 3e c3 0b 96 3f eb d6 2f 40 1a 4a df 3f
       0.3726426 1.1722339 2.7474926 1.7444489
000030 d3 c0 b1 3e 7a 82 67 40 99 69 38 3f 81 15 87 3d
       0.34717426 3.6173387 0.7203613 0.065958984
000040 a0 df 85 3f 69 cf ad 3e 79 70 13 3f 0d c0 d6 3b
       1.045887 0.33947304 0.57593495 0.006553656
000050 c9 f3 b0 3f 2e 2a 2f 3f e1 e9 8e 3e d4 64 d6 3e
       1.3824397 0.68423736 0.2791281 0.418738
000060 58 46 29 3f ab 66 88 bb 05 81 4c 40 87 23 6f 3a
       0.6612296 -0.0041626296 3.1953747 0.00091224205
000070 5c a6 de 3f 9a c5 7a 3d 2c 1c 1e 3f 40 7d e1 3f
       1.7394519 0.061223604 0.61761737 1.7616348
000080 8e 64 77 3f 69 0e 3c 40 66 1f 60 bb 06 87 88 3f
       0.9663781 2.9383795 -0.0034198402 1.0666206
000090 15 40 83 3a 2e 05 19 40 c9 9c 92 3f 2e bd ee bd
       0.0010013605 2.3909411 1.1454097 -0.11657177
0000a0 2a f8 35 3f 98 1c 56 3f 69 48 07 3b b9 93 29 3b
       0.71081793 0.8363738 0.0020642525 0.0025875403
0000b0 32 dc 8b 3f 0b 7b dc 3e c3 dd c5 3e 90 ce 14 ba
       1.0926573 0.43062624 0.38645753 -0.0005676532
0000c0 1e 60 1a 3f a6 9c d3 3e 65 0a 8b 40 aa 1f 78 3d
       0.60302913 0.4133045 4.345019 0.060577072
0000d0 a3 a8 0b 40 3f dc da 3e 21 ba 17 3f 49 61 cb 39
       2.1821678 0.4274616 0.59268385 0.0003879166
0000e0 1d 65 1f 3f c2 3d 51 3f 59 2c 27 bb e2 6a ea 3e
       0.6226366 0.8173486 -0.002550861 0.4578467
0000f0 eb 9b 83 3a 56 8b 1a 3b 52 55 c8 3e 26 af 05 b9
       0.0010040974 0.0023581586 0.39127594 -0.00012749116
000100 80 b5 ba 3e 2e f1 65 3e 63 1a 96 3e c4 39 99 3e
       0.364666 0.22455284 0.29317006 0.29926884
000110 cc 21 33 bb 38 42 18 3a 1e d7 e4 3e ee ca 0f ba
       -0.0027333377 0.0005808207 0.4469537 -0.0005485256
000120 c8 71 11 3b aa 06 3f ba cc 14 6a 3f 5b d6 6d 40
       0.0022193063 -0.0007287065 0.91437984 3.7162082
000130 60 64 33 3f 4b e4 4b 3f 72 30 04 bc c5 6b 84 40
       0.70075035 0.7964522 -0.008068191 4.1381555
000140 d1 09 dd 3a ba d3 34 3f 5b 78 c9 3e 29 8c 32 3f
       0.0016863887 0.7063557 0.39349636 0.6974512
000150 3a 50 3f 3f ce 27 93 3f 9e 63 6f 3f 43 bc 77 3f
       0.7473179 1.1496522 0.9351138 0.9677164
000160 9f 3f 89 39 3c 90 8f 3f 78 95 4f ba 4a 48 32 3f
       0.00026178078 1.1215892 -0.0007918696 0.69641554
000170 ff 5e c5 3e 92 19 2b 40 57 dd 5c 3b 82 25 0f 3f
       0.3854904 2.6734357 0.0033701265 0.5591661
000180 41 d1 59 3f 09 4e 4b 3b 4c 6e 27 38 33 3e 9d 3f
       0.8508492 0.0031021854 3.9918625e-05 1.2284607
000190 c5 82 a2 3e 23 aa d2 3e 70 e8 17 3f 9b 35 24 3f
       0.31740394 0.4114543 0.59339046 0.64144295
0001a0 bc 00 17 40 5a 75 5e 3f 8b d0 09 3f ba c6 25 3f
       2.3594198 0.86897814 0.53833836 0.6475636
0001b0 62 54 b1 3b 6d ee f7 3a 58 13 3e 3f 31 ee 6d 3f
       0.0054116705 0.0018915661 0.74248266 0.92941576
0001c0 c4 bf 3e 3f 95 a0 02 ba 79 a5 0d 40 3f 61 00 3f
       0.7451136 -0.0004983035 2.2132246 0.50148386
0001d0 b7 5b 25 40 63 e7 32 3f 83 9b 1f 3f c4 ab 39 40
       2.5837228 0.6988432 0.6234667 2.9011087
0001e0 72 30 56 40 43 42 21 3e 77 d8 64 3d 1f 35 c6 3e
       3.3467069 0.15747933 0.0558705 0.38712403
0001f0 cb 04 8e 3f fa 28 10 bb 7d 22 e7 3f c3 2f 07 3b
       1.1095213 -0.002199708 1.80574 0.0020627833

transformer.h.0.ln_1.bias f4 [128]
000000 4a c2 cf bd c3 3c 2f bb 8c 96 7a bf 98 1d a3 3a
       -0.101444796 -0.0026739098 -0.97885966 0.0012444733
000010 72 13 4c 3b 0c ea 14 3e 27 19 26 3d c3 f3 f2 3e
       0.003113952 0.14542407 0.04055133 0.474516
000020 05 77 62 be cd 32 1a be 73 03 e2 bc 1b 02 16 be
       -0.22115715 -0.15058441 -0.027589535 -0.1464924
000030 2b 80 cc bd 63 dd a5 bc 8f 15 c1 3d 38 f7 01 bc
       -0.099853836 -0.020247167 0.0942794 -0.007932477
000040 dc 4c 7a bd e1 bd 48 bd f1 ca 33 bd 4b 14 80 ba
       -0.061108455 -0.049009208 -0.043894712 -0.0009771673
000050 fb 5c fe bd 30 e7 c8 bd b9 6a 95 bc ea 0b 52 3e
       -0.12420078 -0.098097205 -0.018239366 0.20512357
000060 5a 87 9d bb 67 a4 06 bb 0e 98 13 3c f8 63 8a ba
       -0.004807395 -0.0020544769 0.009008421 -0.0010558357
000070 40 ca 3f 3e 9e 91 fd 3b d0 10 6e 3d 72 53 24 bd
       0.18729496 0.007738306 0.058121502 -0.040118642
000080 f5 53 ff 3d 74 4c 80 3b c1 22 ec ba 08 1f 91 3d
       0.124671854 0.003915364 -0.0018015729 0.07085997
000090 dc 5b 9a b8 35 c1 6c bd 2d 11 cb 3d 78 d7 63 3c
       -7.3604024e-05 -0.057801444 0.099153854 0.013906352
0000a0 bd 26 8e be 6b 09 84 3d 2f f4 82 39 00 de 81 3b
       -0.2776393 0.06447109 0.00024977463 0.003963232
0000b0 0c ba 33 bd f5 88 97 3e f8 19 d5 3d 20 85 7a b9
       -0.0438786 0.29596677 0.10405344 -0.00023891451
0000c0 21 67 89 bd 19 fa ea bd 78 dc ab 3e 84 bc c5 3b
       -0.067091234 -0.114734836 0.33566642 0.0060344357
0000d0 12 c7 9c bd a3 9e bc bc 0d c5 a6 3d a7 f0 96 3a
       -0.07655157 -0.023024863 0.08143053 0.0011515812
0000e0 30 a2 b5 3d 7a dc 10 bc 8f 79 61 3b 5c ed 85 be
       0.088688254 -0.008841628 0.003440473 -0.26157653
0000f0 6f 96 cf ba 76 9a 52 b7 04 dd 0f bd a6 33 d3 3a
       -0.0015837679 -1.2552939e-05 -0.035122886 0.0016113415
000100 8d e1 10 3e b9 f8 74 3d a5 6e 82 3d 5f 90 91 bc
       0.14148541 0.059807513 0.0636876 -0.017769037
000110 c4 15 23 3b 1a 9b ee ba 9d 68 03 3e 6e b0 3a 3b
       0.00248848 -0.0018204183 0.12832876 0.0028486508
000120 28 13 0a bb 96 d2 11 ba 97 3d ac bd b0 b2 a6 3e
       -0.0021068547 -0.0005562691 -0.08410185 0.32558203
000130 13 60 c7 3c 4a ce a9 bd ee ac a4 ba eb b3 53 3c
       0.024337804 -0.082913 -0.0012563744 0.012921314
000140 65 4d 89 3b 18 e5 9a be 69 b3 c6 bd 4e 8c 6c 3d
       0.0041901344 -0.3025291 -0.097021885 0.057750992
000150 ea 0d ce bd 41 fe 04 3e 58 e4 6c be dc a8 14 be
       -0.10061248 0.12987615 -0.23133981 -0.1451754
000160 6c f6 f4 ba ee b0 ef bd f3 37 36 bb d8 93 02 3f
       -0.0018689162 -0.117036685 -0.0027804344 0.5100684
000170 13 50 4e 3d 69 71 ae 3d 34 97 33 b9 79 92 99 3d
       0.050369333 0.08517725 -0.00017127098 0.074986406
000180 b8 b1 01 be 15 cd 07 bb e7 f9 20 3b 1a 60 7b bd
       -0.1266545 -0.0020721604 0.0024563016 -0.061370946
000190 a2 fb 92 3d 39 0c 80 bd 38 13 18 bd e1 9f bf 3d
       0.071769014 -0.06252331 -0.037127703 0.09356666
0001a0 d8 f6 47 3e c5 d5 2e 3c 71 56 7b 3d ae 06 00 3c
       0.19527757 0.010671084 0.061361734 0.007814093
0001b0 14 9f 32 ba 9f eb 40 3b 28 00 c5 3e 19 1d 17 be
       -0.00068138656 0.0029437316 0.38476682 -0.14757194
0001c0 8f 1f 1e 3e 46 ac 37 3b 61 f8 a2 bd cd e3 22 bd
       0.15441726 0.0028026267 -0.07957531 -0.03976803
0001d0 fc a3 bc bd a0 32 b4 3d 44 5e a1 bd 0d ba 5a be
       -0.09210965 0.087987185 -0.07879308 -0.21360035
0001e0 f9 47 f4 bd 2a fb e2 3c 3e 3e c9 3b de a7 1e 3c
       -0.1192779 0.027707655 0.006141453 0.009683577
0001f0 33 61 82 be 6a af d8 39 46 72 b8 be ce 4b 88 ba
       -0.25464782 0.00041329424 -0.36024684 -0.0010398568

transformer.h.0.attn.c_attn.weight f4 [384, 128]
000000 9d fa 2b bb b8 8c bf 3b 56 38 ab 3c a4 88 6b bb
       -0.0026241906 0.0058456324 0.020900887 -0.0035939598
000010 6a 8f 2a bb e3 de 9e bc 3d 35 31 3c 22 1b 11 bd
       -0.0026025423 -0.01939339 0.010815916 -0.035426266
000020 28 07 a1 3c 0a 1f e0 ba 4c 7d 6b 3b 7a 8a d8 3c
       0.019656733 -0.0017099094 0.0035932837 0.026433218
000030 67 13 cf bc 6b 9d a2 3b 76 1b 9d bb af e4 4b 3b
       -0.025277806 0.0049626133 -0.0047945334 0.0031111648
000040 db 39 a7 bc dc 6b d2 3c be ba ff 3b 7e d2 09 bc
       -0.02041333 0.025686197 0.007804244 -0.008412002
000050 98 7d 08 3c bc 0e cf 3c 77 68 74 bc b1 f8 db bc
       0.008330725 0.02527558 -0.0149174845 -0.026851984
000060 a1 ac 0c 3d 21 a7 94 3b 36 8d 22 3d 49 d6 d3 b9
       0.03434432 0.004536525 0.03968545 -0.0004040471
000070 9c 17 6c bc 67 5a 17 bb 02 01 b6 bc 4e d2 57 bc
       -0.014409926 -0.0023094655 -0.022217277 -0.013172699
000080 f8 26 d2 3b 81 94 a6 bb 31 66 a0 3a 99 c2 0f bc
       0.006413337 -0.005083621 0.0012237487 -0.008774423
000090 4a 6b a3 38 b0 99 84 3c 9f 6c f3 bc f4 a0 db 3c
       7.79243e-05 0.016186565 -0.02971488 0.026810147
0000a0 a9 4a 80 3d 33 38 aa 3c af 6d 93 3b e9 a6 15 3b
       0.0626424 0.020778751 0.0044991593 0.0022835082
0000b0 e9 ce 14 bc 86 2a b9 bc 32 a2 1e 3c f1 e8 65 bb
       -0.009082534 -0.022603285 0.009682225 -0.003508147
0000c0 4a e3 01 3d d9 c8 40 3c b3 88 92 3c 2f 60 80 ba
       0.0317109 0.011766636 0.017887449 -0.000979429
0000d0 95 05 bb 3c 15 f6 c1 bc c0 09 d9 3b f5 82 48 bb
       0.02282981 -0.023676911 0.0066234767 -0.0030595635
0000e0 8e 5b fc 3c 64 53 fa 3b e1 bd 16 3a d1 43 93 3c
       0.030805375 0.0076393355 0.000575034 0.017976673
0000f0 9f 52 40 39 a4 3b 10 bb 6e e1 ea 3b af da 55 b8
       0.00018341326 -0.0022008205 0.0071679866 -5.0986822e-05
000100 85 35 00 bd 80 2d 2f bb e2 8a 49 3c 0d e6 b8 bc
       -0.03130104 -0.002673 0.012301179 -0.022570634
000110 d7 af e4 bb 28 76 75 3b 15 61 8c 3b 8a e7 72 bb
       -0.0069789696 0.003745446 0.004284034 -0.0037064278
000120 c3 ca 24 3a cc e7 e7 bb 9a b1 93 bc 0e a0 5e b9
       0.00062863174 -0.007077193 -0.018029023 -0.00021231195
000130 db 66 77 3b 2f fb 80 3c 4e 86 08 3c 6b 6d a2 bc
       0.0037750516 0.015744774 0.008332802 -0.019827565
000140 47 a4 b8 3a 87 7a af 3c 97 0d f0 3c 83 84 b9 3c
       0.0014087044 0.02142073 0.029303355 0.022646194
000150 9a 9b b6 bb 7e 24 d1 bc 88 65 a8 3c 18 ef 7d bb
       -0.0055727484 -0.025530096 0.020556226 -0.0038747247
000160 a0 0e 41 3b 62 32 ea 3c cd 06 d9 b9 5f c0 ed bc
       0.002945818 0.028588478 -0.00041394532 -0.029022394
000170 cb 9b d5 bc 6a 8e c9 bb 99 39 ae 3b ad 19 68 3c
       -0.026075264 -0.0061510103 0.005316925 0.014166278
000180 bc 10 01 bd 84 18 c2 3a 8d 9d ea 3a 27 0b b6 bc
       -0.0315101 0.0014808332 0.0017899737 -0.022222115
000190 51 84 2d bc af 3d 0e 3c a6 e9 09 bd af 07 eb bc
       -0.010590629 0.008681699 -0.03367009 -0.028690187
0001a0 c9 f2 a1 bc f4 01 14 3d 01 71 6d 3c f0 67 b2 bb
       -0.01976909 0.036134675 0.014492274 -0.005444519
0001b0 f9 92 5c b9 19 3a 86 bb ad 65 0e bd 5f 35 ad 3c
       -0.00021035587 -0.0040962812 -0.034764934 0.021143613
0001c0 ee ef 77 3a be 9b 9a 3b 7d 20 91 bc ea 90 0a bc
       0.00094580546 0.004718273 -0.017715687 -0.008457402
0001d0 a6 ee cf 39 5c 84 e0 bc f4 20 6f 3c 71 24 b0 bb
       0.00039659924 -0.027406864 0.014595259 -0.005375438
0001e0 81 89 41 3b eb 10 f9 3b 35 ab 18 3b 94 50 0a bc
       0.0029531422 0.0076008937 0.0023295407 -0.008442063
0001f0 8b 5f aa 3b 64 fe 6a 3b df e9 4f ba 63 7e 9e bb
       0.005199378 0.0035857195 -0.0007931273 -0.004836844
000200 af fe 9d bb 98 ce bc 3b a0 0b 94 3b f7 89 d4 3b
       -0.0048216204 0.0057619326 0.0045179874 0.0064861733
000210 e5 c0 b8 3b 46 e4 d4 bb 91 fb e5 3a da 97 0a bc
       0.005638229 -0.006496939 0.0017546286 -0.008459056
000220 cf b8 24 3d 56 a2 44 bc 47 9d 60 bd eb 48 4b 3c
       0.04021531 -0.0120015945 -0.05483749 0.012407522
000230 7d 3d e2 3c e6 ae e2 bb c9 d1 60 bb 89 f9 06 bc
       0.02761721 -0.006917822 -0.003430473 -0.008238205
000240 77 62 b9 3b 63 f3 ba 3b e5 4e 0f bc f1 dc bc ba
       0.00565749 0.0057052835 -0.008746837 -0.0014409107
000250 49 c1 ac bc 02 25 e2 3b 26 23 55 3b f1 49 42 bb
       -0.02108826 0.0069013843 0.003252217 -0.0029646123
000260 02 fd 2b 3c 9d 6e e8 39 52 6b 10 3b 0b 3f 2d 3c
       0.0104973335 0.00044332902 0.0022036624 0.010574113
000270 e0 ec ba 3c 06 eb 57 bc 48 7c b7 bc 6f 3f 30 bd
       0.022818029 -0.013178593 -0.02239813 -0.043029245
000280 06 74 15 3c 6b da 05 3c 38 df cf bb 67 f6 8f bc
       0.0091219 0.008169751 -0.0063437484 -0.017573548
000290 32 86 15 3c 70 05 de 3c b7 1c 81 ba c0 33 18 3b
       0.009126233 0.027102202 -0.0009850477 0.0023224205
0002a0 f1 43 03 3c e0 e8 08 3c 12 57 5f 3a 01 95 0c ba
       0.008011804 0.008356303 0.00085197494 -0.00053627795
0002b0 64 c7 1d bc e6 8d 18 bb 58 eb 5d 3b ce 56 c3 bb
       -0.009630058 -0.0023277937 0.00338622 -0.0059612757
0002c0 fa e3 d7 3b 2c cf 3f 3c c4 cc 07 3b f8 d2 a6 bc
       0.006588456 0.0117071085 0.0020721415 -0.02036427
0002d0 92 bb 0f bb b8 ec 92 bc 35 1e 5d 3d 2d 93 67 39
       -0.002193187 -0.017935142 0.053983886 0.00022084704
0002e0 88 0e 11 3c 7f 76 25 3d cf 0f ba bb 11 73 cc 3b
       0.008853562 0.04039621 -0.005678154 0.006239303
0002f0 b8 92 74 3b 49 00 2a bb f2 c0 7f 3c d4 7f 00 3c
       0.0037318897 -0.0025940111 0.015609967 0.007842977
000300 08 bd 14 bd 16 b4 7e bc 37 51 72 3c cb 79 58 bc
       -0.036313087 -0.0155458655 0.014789871 -0.013212631
000310 32 3c 83 ba ba 82 1f bb 6a 56 12 bb bf 99 9e 3b
       -0.0010012446 -0.0024339394 -0.0022329339 0.0048401053
000320 50 af 42 bb 89 5b 3b 3b d9 cd d4 3b 85 1f 58 bd
       -0.0029706545 0.0028588495 0.0064942655 -0.052764434
000330 0d 5d a9 3b 6e 09 b5 3a a5 d5 17 bc 1f 8d 23 bc
       0.005168563 0.0013812014 -0.009267245 -0.009982376
000340 a0 d6 36 b9 a1 3c e7 3c c6 93 34 3b 76 0e 2e bb
       -0.00017436827 0.028227152 0.00275539 -0.0026558912
000350 fb cd 83 3b 17 a9 18 3c d7 ba d6 3c 8d fc 56 bc
       0.0040223575 0.009317658 0.026212139 -0.013121736
000360 4f d5 82 3b b3 7f c9 3b d0 82 13 3a 4b 1a 3a bc
       0.0039927135 0.006149256 0.00056270976 -0.011358808
000370 4b 71 de 3c fe 56 c5 b9 e5 5d 05 3b 9d 0d 16 3d
       0.027153632 -0.00037639582 0.0020350155 0.036634076
000380 02 aa 90 bc 80 bf 44 3b 5d 83 f1 3b 56 68 07 bb
       -0.017659191 0.003002137 0.007370396 -0.0020661554
000390 f3 07 04 bc 87 5c 11 3d 1a e3 45 3c 4f 1a b1 3b
       -0.008058536 0.03548863 0.012078071 0.0054047476
0003a0 f8 2e 58 bc a3 38 28 3c 14 c0 c0 3a ae df 96 bd
       -0.013194792 0.0102674095 0.0014705681 -0.07366882
0003b0 7b 75 17 ba 18 e1 bf 3a db 39 f0 bc d0 9f 5e 3c
       -0.0005777699 0.0014639227 -0.029324463 0.013587907
0003c0 3b d1 74 bb 05 b0 69 bc 06 37 a0 3c 7b a4 a8 3d
       -0.0037356156 -0.014263158 0.019557487 0.08234497
0003d0 f8 ca 97 bc 88 77 3c bb c8 81 cc bc bd 13 60 bc
       -0.0185294 -0.002875777 -0.024964228 -0.013676581
0003e0 cd f3 9e 3d 71 f2 f0 3b 3f d0 75 bb 97 04 d6 3c
       0.07761345 0.00735312 -0.0037508158 0.026125235
0003f0 3c 43 d0 bc 8d bd 96 3b 35 fc 0a 3c 9c 16 d3 bb
       -0.025422685 0.004600233 0.008482982 -0.006441904

transformer.h.0.attn.c_attn.bias f4 [384]
000000 3a c0 76 bf ca 90 92 be 2e d6 87 bf 76 ad 02 bf
       -0.96387064 -0.2862609 -1.0612237 -0.5104593
000010 6f 5f 51 bf 24 85 b2 be 30 c6 71 bf 50 ca a0 3f
       -0.81786245 -0.34867203 -0.94443035 1.2561741
000020 c0 9e ff 3e 29 54 81 bf 40 79 84 3f 4f 13 e4 bb
       0.49925804 -1.0103809 1.0349503 -0.0069603096
000030 2e b0 89 bf c6 b3 db 3e ad f9 2c bf ec 1d 3d 3f
       -1.0756891 0.42910594 -0.67568475 0.7387378
000040 40 26 56 3f d3 17 d2 3e df cc 28 bf 8a 78 9a bf
       0.83652115 0.410338 -0.6593761 -1.2068036
000050 73 c8 02 bf 6e 84 75 bf dd bb 97 be e4 6b a6 3e
       -0.5108711 -0.95905197 -0.29635516 0.3250419
000060 b7 ca 90 bf e8 64 1b bf c2 7f 2a 3c 20 90 3e 3f
       -1.1311864 -0.60700846 0.010406436 0.7443867
000070 15 67 59 3e 37 14 b1 3f cb 6b e3 3e 1d e7 f7 3e
       0.21230729 1.3834294 0.44418177 0.48418513
000080 dd e0 1b 3b a0 41 d1 bd af 0d 02 3f 46 ee 09 bf
       0.0023785152 -0.10217595 0.5080213 -0.538792
000090 33 5c 6d bf ff b1 f5 3d 7a 9e 1f bf 45 67 94 bf
       -0.9271881 0.11996841 -0.6235119 -1.1594015
0000a0 0e e4 21 bd d2 a5 92 3e 69 ee 3b 3f 28 49 26 3f
       -0.03952413 0.28642136 0.7341066 0.6495538
0000b0 e7 e1 46 bf a1 8e 7e 3e 0d 49 09 bf fe c2 ef 3e
       -0.7768845 0.24859096 -0.5362709 0.46828455
0000c0 12 65 29 bf 5a 46 9c bf 85 3f e7 bd 1d 4f cd 3d
       -0.66169846 -1.220897 -0.11291412 0.10024855
0000d0 91 54 b6 3e 8c 5e 19 3f c3 b1 49 bf 23 6a 5b bf
       0.35611394 0.5990989 -0.7878687 -0.85708827
0000e0 3c eb 99 3f 56 f6 f9 be fc ac a1 be c2 83 6f 3f
       1.2024913 -0.48820752 -0.3157729 0.9356042
0000f0 e7 ea 6e be f4 34 29 3f c3 47 89 3e b9 74 35 3f
       -0.23331796 0.66096425 0.26812562 0.7088123
000100 b0 b1 86 bf 6a 8a 98 bf 3e 42 f0 bf 33 ee 22 bf
       -1.0522976 -1.1917241 -1.8770216 -0.63644713
000110 e9 c9 b9 bd ff 53 fb 3e 14 d6 ae 3f 06 29 80 bd
       -0.090717144 0.4908752 1.3659081 -0.062578246
000120 e9 70 82 3d 61 d3 89 3d 1c 67 d7 3f 78 37 1e bc
       0.06369192 0.067297705 1.6828341 -0.0096567795
000130 c4 7c 82 3e c2 1c 06 c0 69 7d f7 3e ec 2c 84 3f
       0.25485814 -2.0955052 0.48337868 1.0326209
000140 6a fb 4e 3f f8 89 9d be 6b a3 cf bf f5 4c f2 bf
       0.8085238 -0.30769324 -1.6221746 -1.8929735
000150 b3 39 06 40 da 2f 49 3d 38 25 e5 3c 19 fc 9d 3e
       2.0972717 0.0491179 0.027971849 0.30856398
000160 ba 73 10 c0 49 12 eb bf 36 cd 7c 3e 98 5f f2 bf
       -2.2570634 -1.8364955 0.24687657 -1.8935423
000170 23 1b be bf ea 98 13 40 de 7c d1 bf 07 58 f9 3f
       -1.4852031 2.3062081 -1.6366231 1.9479989
000180 bd e2 f8 bf 1e b5 26 40 22 33 cf bd 39 e4 38 3f
       -1.9444195 2.6048045 -0.10117175 0.7222324
000190 8c 0f 22 c0 95 93 15 3e e3 07 0e c0 cb 31 17 3d
       -2.532199 0.1460708 -2.2192314 0.03691272
0001a0 b5 3d 0b 40 b2 b0 46 bd 76 7b a3 bc d5 b4 a0 3e
       2.1756413 -0.048508354 -0.019956332 0.31387964
0001b0 f8 ee a4 bd c2 25 21 c0 ca fb ae bf 79 d3 28 3e
       -0.08053392 -2.5179296 -1.367059 0.1648692
0001c0 59 29 b2 bf a2 98 32 40 da 20 a3 bb e1 dc ad 3b
       -1.3918868 2.790566 -0.0049782814 0.005305872
0001d0 be 60 2b 40 ff d2 2b c0 a1 cb 07 c0 30 04 21 c0
       2.6777797 -2.6847532 -2.1218035 -2.5158806
0001e0 8c 44 15 c0 68 3a 14 bd 50 6f 13 c0 f5 ed 27 c0
       -2.3323088 -0.036188513 -2.303669 -2.6238987
0001f0 b7 aa 92 3e 5e 32 04 c0 44 e2 d0 bc 47 c0 1d 40
       0.2864587 -2.0655742 -0.025498517 2.4648607
000200 5f 5c 5d c0 8a 66 d2 3b 18 2a 7d c0 66 de e3 bf
       -3.458763 0.006420915 -3.9556942 -1.7802246
000210 61 fb 95 c0 59 6f 06 c0 43 44 52 c0 ab 94 84 40
       -4.686936 -2.1005461 -3.2854164 4.143148
000220 a9 4e 73 40 23 c2 90 c0 5e 0d f3 3f b6 0e 17 bf
       3.801676 -4.5236983 1.8988454 -0.5900682
000230 50 68 b1 c0 76 a4 72 40 00 a6 71 c0 15 fe 8e 3f
       -5.5439835 3.791288 -3.7757568 1.117129
000240 ff e7 8e 40 7a ac 12 40 df 41 9e bf 1d 99 5d c0
       4.46582 2.2917771 -1.2363852 -3.4624703
000250 fd 16 20 c0 cd 4d 2d c0 c4 29 4d c0 07 b9 d4 3e
       -2.501403 -2.7078736 -3.2056742 0.41547415
000260 9e 21 75 c0 48 27 6b c0 7a 27 de 3e 0b 59 16 40
       -3.8301768 -3.6742725 0.43389493 2.3491848
000270 d2 b1 9b 3f f2 92 93 40 52 e2 54 40 16 9a bb 3e
       1.2163641 4.6116877 3.3263135 0.36640996
000280 16 6c 3f bf d5 54 bb 3f 40 74 48 40 0e c2 1a c0
       -0.747743 1.4635264 3.1320953 -2.4180942
000290 92 55 4d c0 90 2e 1d 40 aa 9b 73 c0 58 8d ac c0
       -3.2083478 2.455967 -3.806376 -5.392254
0002a0 84 df 71 3f 94 75 bf 3f f5 46 2b 40 71 06 8b 40
       0.9448168 1.4957757 2.6762059 4.3445363
0002b0 ce db a8 bf e2 d7 2d 40 f9 1b 80 c0 2d cb 56 40
       -1.3192079 2.7163014 -4.0034146 3.3561509
0002c0 fb 37 bd be 83 64 b1 c0 03 cb 1b 40 e7 e1 b4 3f
       -0.36956772 -5.5435195 2.4342659 1.413144
0002d0 02 28 c7 3f e7 d1 52 40 8a 75 95 c0 26 04 71 bf
       1.5559084 3.2940614 -4.670598 -0.94146955
0002e0 a1 75 a3 40 f3 1d 32 c0 ac 51 36 c0 e8 87 98 3f
       5.108109 -2.783078 -2.8487349 1.1916475
0002f0 68 64 1d c0 38 52 62 40 67 d6 35 40 0b cc 89 40
       -2.4592533 3.5362682 2.841211 4.3061576
000300 14 5a 3c c0 8e e0 1c c0 61 9f d5 be 3b 40 31 bf
       -2.942998 -2.4512057 -0.4172316 -0.6923863
000310 d2 7e 6d be 6f 1f 05 40 78 a9 a0 3e 76 26 9c be
       -0.2319291 2.0800436 0.31379294 -0.30498093
000320 77 ac f4 3c a1 83 be bc d6 e8 8f 40 48 94 eb bd
       0.029867394 -0.023256125 4.4971724 -0.11502892
000330 1a fc cf be 85 2d 3a bf d9 0a 94 3f f6 fe 1e 40
       -0.40622026 -0.7272571 1.156581 2.4843116
000340 3b ca 06 40 5f b8 10 bf 14 fa 93 c0 ff 8a 94 c0
       2.1060932 -0.5653133 -4.624277 -4.6419673
000350 20 5b 27 3f 5e 34 3a be 77 34 53 3f ea 29 0d 3e
       0.6537342 -0.18184039 0.8250193 0.1378552
000360 3a 6a 99 bf 1f d6 33 bf 4a 35 ba 3e 36 05 2f c0
       -1.1985543 -0.702486 0.3636878 -2.734693
000370 32 a6 8d c0 2d 3e 93 3f aa 62 95 c0 14 5a 35 40
       -4.4265375 1.150335 -4.668294 2.833623
000380 37 08 e5 c0 8d eb 1b 41 ab 36 57 be b8 2f 83 3f
       -7.157253 9.7450075 -0.21016948 1.0248938
000390 09 4c 2a c1 eb e6 a1 3d 84 4b 08 c1 c3 5d 8e bf
       -10.643563 0.07905372 -8.518436 -1.1122364
0003a0 d4 08 f5 40 23 e1 57 be dc e9 2c bf 87 39 20 3f
       7.6573277 -0.21081977 -0.6754434 0.6258778
0003b0 05 1f 7c be 32 59 24 c1 17 bb 9f c0 7a f5 9f be
       -0.24621208 -10.271776 -4.991588 -0.3124197
0003c0 9f 72 a3 c0 cd 11 32 41 86 03 10 be ce ba 1f 3e
       -5.107742 11.129346 -0.14063844 0.15598604
0003d0 cf 83 30 41 86 df 22 c1 54 1e f9 c0 c9 74 2a c1
       11.03218 -10.179571 -7.784952 -10.653512
0003e0 93 f1 21 c1 91 94 90 bf 2e 91 20 c1 77 f9 29 c1
       -10.121478 -1.1295339 -10.035444 -10.6234045
0003f0 a5 52 ba 3f 45 5e f7 c0 6b e2 ac 3d bd bd ff 40
       1.4556471 -7.7302575 0.08441623 7.9919114

transformer.h.0.attn.c_proj.weight f4 [128, 128]
000000 da f7 9d bb 18 d2 0f 3b 01 90 85 3b 2a 93 60 3b
       -0.004820806 0.0021945294 0.0040760045 0.0034267404
000010 78 3d 7f b8 06 23 4c 3b 70 35 88 bc 38 f3 49 3b
       -6.0853985e-05 0.0031148805 -0.016627043 0.0030815136
000020 68 0e a4 38 66 d2 b4 bb c4 df cb bb 0c ab b1 3a
       7.822813e-05 -0.0055182455 -0.0062217433 0.0013555004
000030 03 04 64 39 ec 50 c8 3b cd f4 04 3c 96 e5 5d 3b
       0.00021745269 0.0061131623 0.008115006 0.0033858768
000040 a0 0b 24 3c 6f b3 43 b9 a4 94 99 bb 4f a2 6d bc
       0.010012537 -0.00018663493 -0.004686909 -0.014504029
000050 d8 28 40 3c 79 93 25 3b 26 57 97 bc 9b 5a 59 bb
       0.011728488 0.0025264903 -0.018474173 -0.0033165577
000060 8d ec d8 bb c6 27 ba bb ef ac 48 3b 9d c2 d2 bb
       -0.006619996 -0.005681011 0.0030620655 -0.006431891
000070 de 24 8e bb 2b 95 c9 3a c5 1e 5b bb 59 ab 06 bc
       -0.004337891 0.0015379539 -0.0033435088 -0.008219563
000080 4b 8d 74 3c ce 3a cf bb 10 3f 2c ba 50 d5 a2 ba
       0.014926265 -0.0063241487 -0.00065706763 -0.0012423191
000090 6e 65 cd 3a db 73 07 bc 43 92 fc 3b 60 ab df 3a
       0.0015670487 -0.008267368 0.0077078654 0.0017064624
0000a0 ca 6b 10 3c 97 63 d6 3a 1d d1 b9 3a 96 02 2e 3c
       0.008814761 0.0016356584 0.00141767 0.010620734
0000b0 d8 a3 9b bb 56 89 d1 ba 6e 76 94 3c 78 e8 95 bb
       -0.0047497563 -0.0015986364 0.018122878 -0.0045748316
0000c0 fa 5f fe bb 6a b8 55 bc b6 8b 27 3c fc 7d d1 3a
       -0.007762906 -0.013044456 0.010226181 0.0015982981
0000d0 da 67 9b 3a 3a 2a 4e 3b dc 24 a2 3b b5 25 d1 ba
       0.0011856512 0.0031458274 0.0049482416 -0.0015956672
0000e0 12 99 1d bb 2d fa 83 3b aa 89 6e 3a 2c fe f1 3b
       -0.0024047536 0.004027626 0.0009099493 0.007385036
0000f0 af 3a 13 3c d2 21 0e bb 4f d0 0f 3c 00 92 ae bb
       0.008986159 -0.002168764 0.008777692 -0.005327463
000100 87 41 43 bb ea d0 61 3a 8a c5 5d bb 2f 8c e8 3b
       -0.0029793696 0.00086141995 -0.0033839666 0.0070967893
000110 1e d3 3d bc 82 c0 d6 b9 47 2a 41 bb bd 3c 4b ba
       -0.011585979 -0.0004096069 -0.0029474662 -0.0007752886
000120 94 3a e9 b9 19 52 97 ba bf 18 0a 3c ff 85 cc 3b
       -0.00044484867 -0.0011544853 0.0084287515 0.0062415595
000130 1e 42 1b bb bc e2 c2 3b e9 f6 3d 3c 5b e6 18 b9
       -0.0023690532 0.005947439 0.0115945125 -0.00014581664
000140 e5 66 8a bb 72 31 05 bc fa ed 40 bb da 7f ad bb
       -0.0042236918 -0.008129464 -0.002943872 -0.005294782
000150 25 e8 85 bb 7d f5 5b bb 5a 98 16 bb d0 4d b1 3b
       -0.0040865117 -0.003356307 -0.0022978992 0.0054108873
000160 a0 69 32 bc c0 27 73 b9 30 bc 0f bb 06 1d ef 3a
       -0.010889441 -0.00023189094 -0.0021932237 0.0018242903
000170 fc 42 b3 bb 6d bd 1d bb 37 ae 00 bc b6 40 37 3c
       -0.0054706316 -0.0024069205 -0.007854036 0.011184862
000180 00 54 da 3a b1 09 1f b9 d4 d8 34 bb 6b 52 47 bc
       0.0016657114 -0.00015167032 -0.002759506 -0.012165646
000190 2e b2 fb 3b 6f b3 b6 ba 35 3e 8c 3a 00 d5 1f 3a
       0.007681153 -0.0013938973 0.0010699691 0.0006097108
0001a0 33 28 77 bc 13 d9 a0 3b ab 4b de 3a ff 03 0e bc
       -0.015085268 0.0049086898 0.0016959807 -0.008667945
0001b0 14 65 5c 3a 74 d8 d6 bb 1c 02 39 3b 4a 06 a7 bb
       0.0008407396 -0.006556565 0.0028230017 -0.0050971853
0001c0 0a 1e 17 be 6d 53 c0 ba e5 23 ac bc 1f de 0e ba
       -0.14757553 -0.00146733 -0.02101321 -0.0005449969
0001d0 68 85 4c ba 6c 80 ac bc ca f5 2b 3c 3f 2e 58 3b
       -0.00078018615 -0.02105733 0.010495612 0.003298655
0001e0 0a a3 95 bc 1e 0f 8d 3b da 06 b3 bc 0a 9a 28 b9
       -0.01826622 0.0043047806 -0.021853853 -0.00016079113
0001f0 56 e1 7b 39 73 b1 51 bc 50 4a 48 bb c0 18 c7 36
       0.0002402117 -0.012798655 -0.0030561872 5.9335434e-06
000200 57 f7 29 bc 2e ed b2 3b e0 94 78 3c 2a f6 be ba
       -0.010373912 0.005460403 0.015172213 -0.0014569212
000210 94 44 6a bc 10 c2 3b 3c 2d f1 74 3c 32 5a ef 3b
       -0.014298577 0.011459842 0.014950079 0.0073044533
000220 52 fc 80 3b 55 9e f5 3b da 99 b6 bb 24 3f 3c bd
       0.003936329 0.0074956813 -0.0055725398 -0.045958653
000230 75 46 6a bc 41 31 5a 3b 49 f7 5a 3c 18 72 7d bc
       -0.014299025 0.0033293518 0.013364621 -0.015469097
000240 30 56 45 bc 7d 49 bb 3b e7 34 69 3b f2 55 01 b9
       -0.0120444745 0.0057155476 0.003558451 -0.00012334416
000250 fb e6 c4 ba a7 68 16 3c 96 c4 7d 3b 81 2d a6 bc
       -0.0015022451 0.0091802245 0.003872191 -0.02028537
000260 7e 7e c9 bb 05 cf 3a ba c2 ff d9 3b 03 fb 4c bb
       -0.0061491122 -0.0007126185 0.006652803 -0.0031277544
000270 30 4b a6 bb 30 f7 11 3a 36 f8 b8 3b a0 80 c3 bb
       -0.005074881 0.0005568145 0.0056448234 -0.005966261
000280 e4 a7 0f bc 82 18 aa 3c b4 57 24 3c a4 1d 40 bb
       -0.008768056 0.02076364 0.010030676 -0.0029314542
000290 b3 81 0f 3c 87 c0 e2 3b 0a e6 05 3c 4b c1 d7 3b
       0.00875895 0.0069199237 0.008172521 0.0065843216
0002a0 a1 7a 03 3b fc 34 7b 3b e2 41 82 bc 64 b8 52 3a
       0.0020062106 0.0038331142 -0.015900556 0.00080383406
0002b0 7f 7a 84 bb 23 69 ad bc cb ed 11 3c b5 bd 18 3c
       -0.004042923 -0.021168297 0.008906792 0.009322573
0002c0 d3 fa 38 bb 27 42 16 3c 97 9d 60 3a da 9b 95 bb
       -0.0028225675 0.009171045 0.00085684046 -0.004565698
0002d0 bf 23 55 bc de c4 a2 3b 0f 1c d4 3b af 06 86 bb
       -0.013009011 0.004967316 0.0064730714 -0.004090152
0002e0 b2 fd 88 3b 54 0c 9c bb 31 b4 cb 3b 4e a1 88 3c
       0.0041806335 -0.004762212 0.006216549 0.016678479
0002f0 5b 9b 4c bb 51 6b 01 bc bc 82 a3 b9 42 95 be 3c
       -0.0031220529 -0.007899121 -0.00031187187 0.023264531
000300 a2 28 77 bc c9 45 89 bb 14 75 3a ba 9a 57 65 3c
       -0.015085371 -0.0041892272 -0.0007112783 0.013997937
000310 99 0a e2 bc 02 18 69 3c 7d 81 aa bb 53 df e0 bb
       -0.027592944 0.014226915 -0.0052034245 -0.00686256
000320 eb bd 43 bc dc 37 84 bb 6c 81 53 3c 6f a3 a0 bb
       -0.011947135 -0.0040349793 0.012909275 -0.0049022953
000330 ce c8 28 39 22 48 d7 3b 93 d1 7f bb fb 17 f4 3b
       0.00016096534 0.006569878 -0.0039034828 0.0074491478
000340 cd 95 89 3a 98 65 0a 3b b1 24 25 bc 17 10 97 bb
       0.0010496915 0.0021117684 -0.010079549 -0.0046100724
000350 3e 7d 98 ba 36 d4 dd bb 1c aa a0 bc 3c 2d a9 3b
       -0.0011634005 -0.0067696823 -0.019612364 0.005162863
000360 71 ce c8 bb ab 20 28 bc 99 b2 9e 3c c1 30 21 bc
       -0.0061281254 -0.010261695 0.019372271 -0.009838284
000370 06 9e 12 bc 07 69 28 bc 91 d3 82 bb 1e 3c 0e bc
       -0.008948809 -0.010278947 -0.003992506 -0.008681325
000380 9a 1c 17 bc d7 38 0f 3c 1b ba cf 3b de 6f b0 3b
       -0.009223128 0.008741579 0.006339324 0.0053844294
000390 70 d1 0e 3d 47 21 18 3c 40 08 da ba 9e 22 24 bb
       0.034867704 0.009285278 -0.0016634539 -0.0025045048
0003a0 ae 94 b6 bb fc ac 81 3c 69 92 db 3c cd 7f f5 3b
       -0.005571923 0.015829556 0.026803212 0.0074920417
0003b0 f3 d9 88 3b 8f 90 83 bc ab cf 9f 3b b3 16 d3 bc
       0.004176372 -0.016060142 0.004877051 -0.02576766
0003c0 66 89 23 3b c3 89 a6 bc c2 5f 9b 3c 99 75 0c bc
       0.0024953722 -0.020329362 0.01896656 -0.008572959
0003d0 82 6f de 3b ed a2 80 bb b4 33 7d 3b 2f 4f bc 3b
       0.006788195 -0.0039256723 0.0038635554 0.005746744
0003e0 29 01 15 bc 27 85 45 3b cc 9c ad 3a e7 58 46 bc
       -0.009094515 0.003013918 0.0013245582 -0.012106157
0003f0 9a 7e 83 bb 97 ba 4f 3b c4 af bf 3c bb 77 bd 3c
       -0.004012895 0.003169691 0.023399241 0.023128381

transformer.h.0.attn.c_proj.bias f4 [128]
000000 49 35 d3 bc f8 1e 14 3b 19 0f 84 bc 97 a9 b0 39
       -0.025782244 0.0022601467 -0.01612048 0.0003369569
000010 72 13 6e 3d 47 4b 76 3a c7 6a 21 bb c4 cb 43 bb
       0.058124013 0.00093953725 -0.0024630295 -0.0029876092
000020 b8 08 de 3c ca 90 dd 3c cb c5 22 bc cf 2f fb 3a
       0.027103767 0.02704658 -0.009934853 0.0019164028
000030 b2 4e 8a bc 51 4f 83 bb d6 a1 ae 3c 55 67 23 3c
       -0.016883228 -0.004007258 0.021317404 0.009973367
000040 8c 9f 00 3c be ea 83 b9 e8 98 81 bd db 10 af bc
       0.007850539 -0.00025161164 -0.06327993 -0.021370342
000050 1a d7 94 bd fb b1 89 bc 9d cd 8d bc e7 36 77 b9
       -0.0726759 -0.0168085 -0.017309958 -0.00023576208
000060 a0 c7 a3 bb a0 00 f4 3a 8c 09 45 bb 1c 8c e9 3c
       -0.0049981624 0.0018615909 -0.0030065505 0.028509192
000070 4d 80 36 3c af 05 e4 ba 0b e4 ba 3b 9a c3 6f bc
       0.011138988 -0.0017396713 0.0057034544 -0.014634037
000080 d2 ff fc bc 19 f8 30 3b 78 81 75 3a 82 a8 b2 3c
       -0.030883703 0.0027003346 0.00093653006 0.021808866
000090 6d 93 1e 3d b2 25 61 ba 1c 6d f8 3c 3c c9 b5 bc
       0.038714815 -0.0008588686 0.030325465 -0.022190683
0000a0 b5 87 6d bb 3d 6d 93 3c df e1 cd 3c 1c bb da ba
       -0.0036244218 0.017996425 0.025132118 -0.0016687843
0000b0 7c d1 e8 3c a6 8e d2 3c 52 b0 79 ba 2d 6d 05 3d
       0.028420202 0.025702786 -0.000952487 0.03257482
0000c0 9b 94 9f 3c 71 5c ac 3c 88 ff 71 bd ba 75 01 bb
       0.01948004 0.021040173 -0.059081584 -0.0019754008
0000d0 69 e7 8f 3c 28 16 0b 3c 6f 52 13 bc d5 95 ce 3a
       0.0175664 0.008489169 -0.008991822 0.0015761206
0000e0 b1 9f d3 bc ee 83 2e bc 1d 76 ab 3a 86 eb 8b 3b
       -0.025832983 -0.010651572 0.0013081465 0.00427002
0000f0 4c 61 b3 b9 6b e9 28 bb 87 a7 e5 bc f5 83 58 3d
       -0.00034214032 -0.0025773894 -0.028033985 0.05286022
000100 0d 3f 08 3d 6b 85 9d 3c b1 09 61 bc 07 5d 1d bc
       0.033263255 0.019228658 -0.013735221 -0.009604699
000110 56 f4 db 3c 30 e5 50 3d a0 e1 0f 3c ab d2 e7 3b
       0.026849907 0.05099982 0.008781821 0.007074674
000120 98 9e 99 3a a7 6a b0 b8 1e 44 d0 bc c7 6e b1 3c
       0.0011720238 -8.4121995e-05 -0.025423106 0.021659268
000130 ad 98 d3 ba 7e da c0 bc fa b7 ec 3c 7c d6 8f 3b
       -0.0016143523 -0.023541685 0.02889632 0.004389582
000140 3d 05 9f b8 fe e9 da ba 40 b1 60 3c da a0 10 bb
       -7.5826865e-05 -0.0016701815 0.013714135 -0.0022068531
000150 61 7b d8 3c 70 19 00 3d dc 50 6b bc e5 c4 58 3a
       0.02642602 0.03127426 -0.01436254 0.00082690857
000160 15 09 2b 3c ba 57 de 3c d6 5f 19 3c d6 02 89 3c
       0.010439177 0.02714144 0.009361228 0.016724985
000170 b3 9f 02 3c af 6f d9 ba 42 4f 9b bc 7f a1 29 bc
       0.007972646 -0.001658907 -0.018958692 -0.010353445
000180 5b 99 8a bb de 06 91 ba 88 4c 05 3a cd d6 2b bc
       -0.004229707 -0.0011064669 0.00050849514 -0.010488224
000190 3d f4 9e 3c 09 73 ad bc 9f fb 89 3c 00 7f f2 3c
       0.019403571 -0.021173017 0.016843615 0.029601574
0001a0 42 dc 45 3c 10 32 b3 3c d0 0f ee bc ae b5 94 ba
       0.012076439 0.021874458 -0.029060274 -0.0011345649
0001b0 06 03 e2 bc ff 2f 2e bb 07 85 84 3c 9f 66 c9 3c
       -0.027589332 -0.00265789 0.016176714 0.024585066
0001c0 2a 65 2d 3b 5f d9 67 bb bb 7c 01 3c 04 03 bb bc
       0.0026458004 -0.0035377366 0.007903273 -0.022828586
0001d0 83 56 0b bb 66 ad 7e bc 13 61 be 3c 8d 8a cc 39
       -0.0021261282 -0.015544271 0.023239648 0.0003901314
0001e0 c6 61 04 3c 16 17 5f bd ed 0f 75 ba d2 4f c5 3a
       0.008079952 -0.054465376 -0.00093483814 0.0015053696
0001f0 2b 0b f5 3b 3f d3 b6 ba c0 18 61 3c 25 65 25 ba
       0.007478138 -0.0013948454 0.013738811 -0.0006309322

transformer.h.0.ln_2.weight f4 [128]
000000 1f d4 fc 40 e2 40 47 b9 cf 7a f4 40 20 4d b1 39
       7.9008937 -0.0001900229 7.6399913 0.00033817533
000010 e4 ca 97 3f d8 ec 6e 3f a1 87 37 40 4b 25 c4 40
       1.1858792 0.93330145 2.8676531 6.1295524
000020 34 44 52 40 f1 4d cb 40 d3 a6 ab 40 40 19 9c 40
       3.2854128 6.3532643 5.3641143 4.8780823
000030 9a 0d 8a 40 db 8e a1 40 e2 e1 ae 40 1f 05 db 3f
       4.3141603 5.0486884 5.4650736 1.7110938
000040 09 fc 36 40 12 4a 5b 3f 95 c2 84 3f e8 11 ec 40
       2.859133 0.856599 1.0371882 7.377186
000050 00 fd fb 40 d8 b3 50 40 81 03 96 3f f9 f8 d8 40
       7.874634 3.2609768 1.1719819 6.780392
000060 73 84 da 40 7f d7 3e bc 46 ad cc 40 7a 34 aa 3f
       6.828668 -0.011648058 6.3961515 1.3297265
000070 c5 45 86 40 18 c7 dc b9 e2 55 6c 40 25 e0 58 40
       4.196017 -0.00042110006 3.6927419 3.3886807
000080 67 35 43 40 98 8b 93 40 42 7e 1d bb 28 7f 5d 40
       3.0501344 4.6107903 -0.0024031554 3.460886
000090 1c 8c 84 3f e4 6c db 40 21 da 01 41 2f 0f 8e 3f
       1.0355258 6.8570423 8.115754 1.1098384
0000a0 d7 49 74 40 c5 9e b6 3f ac ea ba 3f 3b ef 1e 3c
       3.8170068 1.4267203 1.4602866 0.009700592
0000b0 2e 2d 71 40 f6 c9 c7 3e cf 67 a7 3f 7c a7 be 3f
       3.7683825 0.3902127 1.3078555 1.4894862
0000c0 48 41 83 40 eb 4c 04 41 69 76 d7 40 8b 6a ea 3a
       4.101719 8.268779 6.7332044 0.0017884535
0000d0 fa 9d 85 40 c1 89 f9 3f c5 fa 03 40 9f 55 16 bc
       4.1755342 1.9495164 2.0621808 -0.009175687
0000e0 79 d9 95 40 0f 02 ff 40 41 80 86 bb 6a ac 19 40
       4.682797 7.9690013 -0.0041046445 2.4011483
0000f0 a3 79 24 3c f5 0a 91 bb 3d e0 4c 3f 2b 27 66 3f
       0.010038766 -0.004426355 0.8002966 0.89903516
000100 a2 33 e1 3f 3c ee b6 3f a5 ed 5b 3f 57 0f 5c 3f
       1.7593882 1.4291453 0.8590949 0.85960907
000110 25 5a 0c 3f 52 a7 69 3f aa 8f 48 3f e8 a7 6c 3f
       0.5482505 0.91270936 0.78344214 0.92443705
000120 3b ca f4 ba 9c 64 25 bb 00 05 01 41 37 4a ca 40
       -0.0018675992 -0.002523697 8.063721 6.3215594
000130 ac 0d 90 40 ef 79 e8 3f bf 76 9a 3f 15 b6 b2 40
       4.501669 1.8162211 1.2067488 5.584727
000140 27 f3 00 bc 15 94 7a 40 11 1e cb 3f 66 ab 10 40
       -0.007870472 3.9152882 1.586855 2.2604613
000150 70 a3 9a 3f 1c e5 a3 40 34 64 93 40 2b 76 3c 40
       1.2081127 5.1217175 4.605982 2.9447124
000160 db f8 20 3f 74 da f0 40 32 17 5e 3e 01 45 12 40
       0.62879723 7.5266666 0.21688536 2.2854617
000170 6b c8 98 40 e0 d5 f1 40 8a 2b 9c 3f 0e 72 51 40
       4.774465 7.557358 1.2200787 3.2725863
000180 ac 97 bc 3f a3 33 43 bb 14 20 36 3c bd 95 87 40
       1.4733787 -0.0029785417 0.011116046 4.2370286
000190 fd c0 7d 3f 58 f5 ab 3f fd da ee 3f d1 70 62 40
       0.991226 1.3434248 1.866058 3.5381358
0001a0 35 77 a1 40 16 e5 e1 40 d9 d7 99 40 a9 27 90 40
       5.0458016 7.0592146 4.8075986 4.5048413
0001b0 72 44 0f 3f b8 94 b3 3a 54 5e 73 40 0b 26 03 41
       0.55963814 0.0013700938 3.8026323 8.196788
0001c0 42 27 94 bb a4 70 70 3a 9b 6e 52 40 73 e4 f1 40
       -0.0045212815 0.0009172058 3.2880008 7.559137
0001d0 6c e0 90 40 58 e7 96 40 5e 3c 91 40 06 67 ba 40
       4.5273952 4.71574 4.538619 5.825076
0001e0 f2 31 d3 40 9c 9f 90 3f b6 2a 00 3a 5d a1 8f 40
       6.599847 1.1298709 0.0004889177 4.4884477
0001f0 1f ea 39 40 23 7d 1e 3f 58 5b 73 40 a2 4f 47 bb
       2.9049146 0.61909693 3.8024502 -0.0030412455
