grokking/runs/3/grok_opt2.pth (torch, 219039 bytes, 17 tensors)

transformer.wte.weight f4 [14, 64]
00000000: f706 b5bd a103 ac3c debc c1bc b659 6dbc
00000010: 42e7 aebb 47e5 38be 15b6 b8bd 7c6a 8ebb
00000020: 05b8 4c3e c666 9cbd bd7f 8a3c cd5c 4dbc
00000030: 36dd 013d 27e0 6abb a40b 40bd d6cf 753d
00000040: 6618 84bd d543 2b3e e9f9 38bc 06da 81bc
00000050: e8f1 16bd 7a8b b1bc aa84 75bd e1ba f63c
00000060: 4d5c bc3d e1c0 78bc 9259 77bd 868d c2bc
00000070: 573b 79bd 423a 08bd c1cf 81bd 455c bdbc
00000080: e93a 3cbd 450f 253d fd09 8ebb 95ac dfbb
00000090: 96b3 76bb bc48 c13d e835 cabd 9d91 0c3e
000000a0: c386 b7bd 62c1 95bd 5b5d b8bd b507 09bd
000000b0: 8000 e737 8539 273b 7ad4 b5bb 2f21 dabb
000000c0: 3148 bfbd 937b 9cbc 4616 55bc fef0 c7bd
000000d0: 5aac 6ebd 3e28 00bd 0cf8 89bc 93f0 f03c
000000e0: eb90 bd3c f987 95bc 9ba8 88bd 7e44 c9bc
000000f0: 20fc 973d b017 1c3c c83c 913b 021b bf3c
00000100: 1ecd 2e3e 3044 c4b9 8750 b33d a4c6 843d
00000110: 7550 323d d0e5 e63b 5c8f c63d 249a 3e3c
00000120: a4d0 ea3c 74c2 f2bd c23e a93b e09e 46be
00000130: 154f 9dbe 4873 113d a1f8 adbb 8f29 bd3b
00000140: c774 343d 9ecd 85bc 7f32 3abc 648b f8bc
00000150: 116d 51bd 677c 81bd b73e f13c 78fc 38bc
00000160: a002 963c d38d 163d eb21 143d 4568 8f3a
00000170: f10c 8b3d 1b74 553d 1e6c 2f3d 34db b2bd
00000180: d678 973c f5ed d73b aa09 09bb 166d 903d
00000190: 7cfc 88bc 0e8b a63c a4ae e8bd 0e48 b23c
000001a0: 0fdc 283e 7a3d 6dbe e408 27bd 1c9b ba3c
000001b0: 9150 6cbc c3e6 653c 3e4a 0cbc 653f 403d
000001c0: d59c 9ebd ffbf 023e 9bd2 06bd 9669 8dbd
000001d0: ae39 c13c 3666 093d 55a4 a93d b4a7 343c
000001e0: fb43 133d 7f0e 5b3c 1c76 43be 3b0f 263d
000001f0: 4143 293c 4397 ed3b 5139 cb3d 1afd 5a3d
00000200: ddac 513b bae2 fd3c 1e65 ee3b 2cba 40bc
00000210: 1075 9f3b 0803 18bc 3204 023d 7483 dabc
00000220: b24e b4bc 34fc 4c3d 73dd c83c 38db a03d
00000230: 7645 943d 17f5 5d3d fd1e 9cbd 5666 3f3b
00000240: 5a6a ad3d 9098 423e 05e6 cd3c 6368 2abb
00000250: 29d2 193e 1da2 493d a4c6 bcbd 938b 67bd
00000260: e763 bcbd 0466 7bbc e192 c03d b985 1b3d
00000270: 2426 b53d 0c3e 1c3d 6b6d b13d 4b6f c93c
00000280: 3ef2 f5be e078 61bd af9a 993d dadd 66bc
00000290: 5668 883d d6e4 23bb 0df4 35bb d084 1cbe
000002a0: 0eed ca3c da91 713d 841d 493c 8179 0ebd
000002b0: d501 173d edaa b03c bf77 84bd 101e 163b
000002c0: 09fc 313b 3e3f f8bc b04c 25bd 5204 25bc
000002d0: c22d 4ebc 1435 ad3c f1ea ab3c 4cd4 72bc
000002e0: 744e 2a3d cfd4 9f3d 9ae2 8b3d c7a8 983d
000002f0: 830a debb fc16 29bc affb 93bc 8ce5 943d
00000300: 815d 043e b10a f53b 4803 90bd 6485 ddbd
00000310: 70d3 b03c c274 6d3c 33a7 2c3e 43c4 803c
00000320: 9b76 f73c 683a c0bc edf9 b23c ab98 fc3d
00000330: 7951 ec3c 3b15 bebe d484 963b 4f63 19bd
00000340: 34ed b53d 4cf7 04bc 2b04 043d a57e 20bd
00000350: c392 b03d 6e3b 183d e2aa 0f3d 4a6d 02bd
00000360: f2b9 653c e97c c8bc 144d 843d 2496 08bd
00000370: 2420 b43d 5bbc 353d 0bdf 783d addf a7bd
00000380: b675 c03c 3092 803b 03ac 0d3d 8c56 2a3c
00000390: 044e 52bc 2392 013e 2d55 0bbb c9c5 d63c
000003a0: a873 0e3e c676 1cbe 9f14 efbc 51ee 803c
000003b0: 4c93 b8bd 65f4 823d 5c33 cbbd b16f 663d
000003c0: 5e79 20bd 6f64 f9bc 664d 86bc 5a80 45bd
000003d0: 621f ef3c 6e6e fe3c 7b69 9c3d eb24 b43c
000003e0: f957 0f3d 5993 cd3d e1fe 30be 5629 543d
000003f0: 6279 86bd 325d 3a3c f3af 973c 588f 263d
-0.08839219 0.020997824 -0.02364963 -0.014486721 -0.0053376267 -0.18056212 -0.090191044 -0.00434619
0.19992073 -0.0763679 0.016906613 -0.012534332 0.031705104 -0.0035839172 -0.0468861 0.06001266
-0.06449966 0.16725095 -0.011290052 -0.015851032 -0.036851794 -0.021672953 -0.05994097 0.030118408
0.091972925 -0.015182705 -0.060388155 -0.023749124 -0.060847607 -0.033258684 -0.06338454 -0.023115287
-0.04595462 0.040297765 -0.004334687 -0.0068259933 -0.0037643663 0.09437701 -0.09873563 0.13727422
-0.08961251 -0.073122755 -0.09002181 -0.033454616 2.7537579e-05 0.0025516462 -0.005549011 -0.006656788
-0.09339941 -0.019101894 -0.013005799 -0.097627625 -0.058269836 -0.031288378 -0.01684191 0.02941159
0.023140391 -0.018253313 -0.06672784 -0.024568792 0.07421136 0.009527132 0.0044322945 0.023328308
0.17070433 -0.00037434837 0.08755594 0.064832 0.04353376 0.0070464388 0.096953124 0.01163343
0.02866394 -0.11853495 0.005164952 -0.19396544 -0.30724397 0.03551033 -0.00530918 0.0057727764
0.04405668 -0.016333397 -0.011364578 -0.030339904 -0.051129404 -0.06322556 0.02944885 -0.011290662
0.018311799 0.036756348 0.03616516 0.0010941109 0.06789578 0.05211268 0.042827718 -0.08733216
0.018490236 0.006589646 -0.0020910301 0.070520565 -0.016721956 0.020329978 -0.11361435 0.021762874
0.16490196 -0.23167983 -0.040779963 0.02277904 -0.014423505 0.014032069 -0.008562623 0.046935458
-0.07744757 0.12768553 -0.032915693 -0.069049045 0.023587074 0.03354474 0.08283297 0.011026312
0.035953503 0.013370155 -0.19088024 0.04054187 0.010330976 0.007250698 0.099230416 0.053464033
0.0031993904 0.0309919 0.0072752377 -0.011763137 0.00486625 -0.009278066 0.031742282 -0.02667401
-0.022010181 0.050045207 0.024519658 0.07854313 0.07239811 0.054188814 -0.07623098 0.0029205284
0.084675506 0.1900351 0.025134096 -0.002600216 0.15021576 0.04922687 -0.09217575 -0.056529593
-0.09198742 -0.015344147 0.09403015 0.037969325 0.08845165 0.03814511 0.08663448 0.024589201
-0.4803638 -0.055046916 0.07500207 -0.0140909795 0.066605255 -0.0025008223 -0.0027763874 -0.15285039
0.02477124 0.058976986 0.0122751035 -0.034783844 0.03686698 0.021565879 -0.06468152 0.0022906102
0.0027158281 -0.030303594 -0.040356338 -0.010071831 -0.012584152 0.021143474 0.020986052 -0.014821123
0.041578725 0.07804262 0.0683033 0.07454067 -0.0067761554 -0.010320421 -0.018064348 0.07270345
0.12926294 0.007478081 -0.07031876 -0.10816458 0.021585196 0.014493169 0.16860656 0.015718585
0.030207923 -0.02346535 0.02184769 0.123338066 0.028847443 -0.37125573 0.004593471 -0.037448224
0.088831335 -0.008115601 0.032230537 -0.039183278 0.086217426 0.03716605 0.035075076 -0.031842507
0.014021384 -0.024473624 0.06460014 -0.03334631 0.08795193 0.044369083 0.060759585 -0.0819696
0.023493629 0.003923677 0.03458787 0.010396611 -0.012835983 0.12653403 -0.0021260486 0.026217358
0.13911307 -0.15279683 -0.029184638 0.015738638 -0.0901247 0.06394271 -0.099219054 0.05625886
-0.039178245 -0.030443398 -0.016394328 -0.04821811 0.02918977 0.031058516 0.07637306 0.02199026
0.034996007 0.1003787 -0.17284729 0.051797234 -0.06566121 0.011374759 0.018516516 0.040664047

transformer.wpe.weight f4 [32, 64]
00000000: 3776 473d e680 8a3c f2e3 1dbd bc34 40bd
00000010: d28e 4cbd e900 cf3b 7f23 31bc f584 433c
00000020: 0362 383d 96c3 0f3d b78d 4d3c 912b 95bb
00000030: eaec 9c38 024c 343c 4198 0b3c f014 fe3c
00000040: 1946 ab3c 7237 6b3c a7cd 603c b57e acbc
00000050: f26f 90bd de0e c2bc e612 08bc 573a c03c
00000060: f3be 473b 1f64 633d 56bc 923d eee5 033b
00000070: 2a60 523d 459d 7e3c 477f 22bb 8d04 933d
00000080: 51df 453c 16f4 653c 7843 ebbb daf2 b53c
00000090: 100a fd3c a2fb d9bc 8ab2 423b 8641 ed3c
000000a0: aefd d0bc 492a e53b 49bc 133d 9f20 8bbe
000000b0: b4f7 823c abde 19bb a45d 4c3c 747b fb3b
000000c0: ad0e 053d 51a2 0abd 241b 923c d5b3 5d3c
000000d0: 77b9 0d3b 7eb2 be3b 6f4b 473d bdd0 203d
000000e0: 60ea 623c 957d 413b c88f ce3a 70c8 4c3b
000000f0: 7889 bb3c 9194 b33a 1d77 76bc 92c8 98bc
00000100: 2174 c2bd 5a0b 853c 237b 7f3c f11a e3bc
00000110: aa71 c8bc 99eb 473b 9435 c03d 78d4 4b3c
00000120: 4a56 413d cdd9 84bd c9c6 163d 6fdb b93c
00000130: a81d 56b8 0eff 6c3b 15cf 223c 0042 f93b
00000140: 8883 433d f126 233c 4a77 8abc a468 a23c
00000150: 3c05 083d 35bf 9f3c c1c2 14bc 0a3c 89bc
00000160: 9076 8239 758b 80bd cdaa 08be ee99 263e
00000170: 3b39 873d 05a5 99bc e776 003d 95cf d7bd
00000180: 8261 183c 8144 533c fd3c 74b9 4c4f 08bb
00000190: 71a9 f13c b528 7e3d 6a15 ad3b 7f8c f63c
000001a0: 6b63 97bd 09f2 993c ba4a 633d 6db5 063d
000001b0: dede d2bc 6b9d c5bc 4619 6bbd f875 0a3b
000001c0: 367e 423d 232d 2f3d 197b 613b 4911 8c3c
000001d0: 4136 703a ac80 bfbc 115f db3d 8bd2 9dbe
000001e0: 05a3 b13c 89cb 22bb c32e 703d f81c 813c
000001f0: 72a8 66bd 0d29 10bb 0e08 71bc 722d 063d
00000200: 3aaa b53c 9463 8dbc 5bf1 0d3e 780b f63d
00000210: 8768 e2bc 43f2 d6b8 99d0 413d ed1b d33c
00000220: 0b0a 653d 9c78 693c 4f72 10bd ae9a 293c
00000230: f13c aabb 1a00 3a3c c43d c8bb 148e b7bb
00000240: 9140 67bd 6c43 723b b157 593c 5215 dc3c
00000250: bafd 823c 300e 183e 13d5 fa3c 5812 5fbd
00000260: f7ff 7cbc 2650 983c 2c36 023b cfe3 8bbe
00000270: 9d87 cbbc 67c9 a43d c53e a53c 1bff d9bb
00000280: 6fe5 ef3b e28d c73a 6913 ce3c 857a 31be
00000290: 44ff 083c e75d 993d 973b 293d 4d05 0b3d
000002a0: b9eb 323d 14d2 773b 0b29 6ebd c141 143c
000002b0: c6c6 a6bc 0201 4f3c b142 92bc a1f8 62bb
000002c0: 8efc 2abd 0af2 e43b f8f6 1f3c 1c12 52bd
000002d0: 25bc f93b 1c5a 183d 4e01 b9bd b86e b23b
000002e0: 3ab6 b7bc d65f 37bc bf20 66bd 283f 0d3a
000002f0: 6678 873d ca36 babe e4c9 313d b682 093d
00000300: 8d17 4bbc dfa6 87bc 9db0 b8bd eca1 c2bd
00000310: 42fd ea3b ce7d babc 6813 87bc db11 2c3c
00000320: 9966 74bc 73fd 9b3b b269 e83c 1a68 433d
00000330: a766 443c 803a acbb f8a0 11bd 5dbc 22bd
00000340: 47e1 58bc 4005 e53b 65a1 5f3b cca4 d7bc
00000350: b6f7 36bb e7b3 b13c 136f 96bc 221d 1fbd
00000360: 6a1d 803a 66fe f3bc 28b3 3cbc b58b 4cbc
00000370: 3fdc abbc b4e6 673c 89c8 b0bc bb29 573c
00000380: 4c30 10bd 4c5d e23e 8023 87bc 7d5b 83bc
00000390: a3b1 693c 32cc ffbc d9b0 19bb e609 913c
000003a0: 6901 d73a fae8 ae3b 9372 a4bc bbfa 53bc
000003b0: 1121 7abb 4600 c53c 6951 7fbd f185 ca39
000003c0: c006 81bc 6532 8ebd eb89 08bd 1d47 ccbb
000003d0: 3095 50bc 6369 babb b51e c53c bb95 6b3c
000003e0: 51b5 c6bc 4f7a ae3c f9e5 8f3b 492b 313b
000003f0: 92d8 84bd fa0b a139 4026 43bd 9031 f2bb
0.048696723 0.016907167 -0.038547464 -0.04692529 -0.04994089 0.006317247 -0.010811686 0.011933555
0.045015346 0.035098635 0.0125459945 -0.0045523127 7.482788e-05 0.01100445 0.008520187 0.031015843
0.020907449 0.014356481 0.013720906 -0.021056512 -0.07052602 -0.02368873 -0.008305287 0.023465319
0.0030478805 0.055515405 0.071648285 0.0020126062 0.05136124 0.015540426 -0.0024795101 0.07178602
0.012077169 0.014035245 -0.0071796738 0.022210527 0.030888587 -0.026609246 0.0029708468 0.028961908
-0.025511589 0.006993566 0.036068235 -0.27173325 0.015987255 -0.0023478668 0.012473498 0.007674629
0.0324847 -0.033846203 0.017835207 0.013531645 0.0021625438 0.005819618 0.048655923 0.03926157
0.013849825 0.0029524316 0.0015759403 0.00312474 0.022892699 0.0013700892 -0.015043047 -0.018650327
-0.09494806 0.016240764 0.015593323 -0.027722808 -0.024468262 0.0030505417 0.09385219 0.012440793
0.047201432 -0.06486855 0.03681067 0.022687642 -5.1049195e-05 0.0036162767 0.0099370675 0.0076067448
0.04773286 0.009958015 -0.016902585 0.019825287 0.033208117 0.019500354 -0.009079636 -0.016752262
0.00024883868 -0.06276599 -0.13346405 0.16269657 0.06602713 -0.018755445 0.031363394 -0.1053764
0.009300591 0.012894751 -0.00023292373 -0.0020799218 0.029499741 0.06205054 0.005282094 0.03009629
-0.07392009 0.01879217 0.055491187 0.032887865 -0.025741037 -0.024122914 -0.05739715 0.0021127444
0.047483645 0.042767655 0.0034405647 0.017098086 0.0009163358 -0.023376785 0.10711492 -0.30824694
0.02168418 -0.0024840555 0.058638345 0.015760884 -0.056312986 -0.0021997124 -0.014711393 0.032758184
0.022175897 -0.017259397 0.13861601 0.12013906 -0.027637733 -0.0001024944 0.047318075 0.025770152
0.05591778 0.014249947 -0.035265263 0.01035182 -0.005195253 0.011352563 -0.0061108787 -0.005601654
-0.05645806 0.0036966456 0.013265536 0.026865635 0.015990127 0.14849162 0.03061918 -0.054460853
-0.015441886 0.018592905 0.0019868715 -0.27322242 -0.024844939 0.08046227 0.020171532 -0.0066527254
0.007321052 0.001522478 0.02515574 -0.17331894 0.008361641 0.074886136 0.041316595 0.033940602
0.043681834 0.0037814425 -0.05814461 0.00904888 -0.020358454 0.012634518 -0.017854067 -0.0034633058
-0.04174476 0.006986861 0.009763472 -0.0512868 0.0076213055 0.03719531 -0.09033452 0.0054453276
-0.02242576 -0.011192283 -0.056183573 0.0005388134 0.06614761 -0.36369926 0.04340543 0.03357192
-0.012395752 -0.016559063 -0.09018061 -0.095035404 0.007171304 -0.022765066 -0.016488746 0.010502304
-0.014917039 0.004760438 0.028370712 0.0477067 0.011987365 -0.005255997 -0.035553902 -0.03973042
-0.013237304 0.0069891512 0.0034123298 -0.026323698 -0.0027918643 0.02169223 -0.018363511 -0.038846143
0.0009774391 -0.029784393 -0.011517324 -0.012484481 -0.020979045 0.014154125 -0.021579998 0.013132508
-0.03520231 0.44211805 -0.01649642 -0.016034836 0.014263543 -0.031225298 -0.0023451357 0.017704915
0.0016403619 0.0053378316 -0.020074164 -0.012938197 -0.0038166682 0.024047982 -0.0623335 0.00038628237
-0.015750289 -0.06943206 -0.033334654 -0.0062340633 -0.012730882 -0.0056888326 0.024062494 0.01437896
-0.02425638 0.021298556 0.0043914285 0.0027033857 -0.0648662 0.00030717236 -0.0476439 -0.007391162

transformer.h.0.ln_1.weight f4 [64]
00000000: 80d7 483b 610e 2f40 9a95 353f 0a0e 583f
00000010: f5ab 893f c1a5 1e40 e0c7 a03d 2590 2440
00000020: 33b3 983f f24c 04ba 79e6 d13f 5c73 2d3f
00000030: dd6d 1040 c880 2340 0aac 3b40 3e78 8c3f
00000040: df71 7abb 9f81 5140 3c28 403f 2c26 533f
00000050: d34c 243f ce36 333f 6fb8 3340 917a 3d3f
00000060: 302f 0740 1976 133f c8d7 1a3a 8bb6 053f
00000070: 1e12 97ba aa98 4e3f 1dc5 abba e6ac 113f
00000080: 3147 0b40 872e 8240 2b0c 393f 9fd7 0f3f
00000090: 8489 8640 4d8f 513f cdf9 31ba 7680 5f40
000000a0: ccc3 883a 8756 29b9 10ba 6eba caf7 9540
000000b0: a23e 0d40 cde2 0040 e64e 203f fc81 3140
000000c0: 2408 75bb 22c2 6a3f e6b2 0d40 f824 4e3b
000000d0: bf9e 7b40 a26d e63f 9237 573f d0f1 5940
000000e0: 7e5e 923f 8ff4 1e3f 08de 9fba a944 263f
000000f0: f726 463f 5ac1 3240 f621 523f 49f8 0b40
0.0030646026 2.7352526 0.709314 0.8439642 1.0755602 2.4788668 0.07850623 2.571298
1.1929687 -0.0005046866 1.639846 0.6775415 2.2567055 2.5547352 2.9323754 1.0974195
-0.0038214845 3.2735364 0.7506139 0.8248012 0.64179724 0.700055 2.808132 0.74015146
2.112255 0.5760208 0.00059067877 0.52231663 -0.0011525785 0.80701697 -0.0013105009 0.5690445
2.1762202 4.0681796 0.7228419 0.56188387 4.2042866 0.81859285 -0.00067892374 3.4922156
0.0010434329 -0.0001614933 -0.0009106705 4.6864977 2.2069478 2.0138428 0.6262039 2.7735586
-0.0037388885 0.91702473 2.214044 0.003145514 3.931564 1.8002207 0.8406917 3.405384
1.1435087 0.62091917 -0.0012196908 0.6494852 0.77403206 2.7930512 0.8208307 2.1870291

transformer.h.0.ln_1.bias f4 [64]
00000000: 87e9 e1ba abc9 b8be 4b00 a6be 87cc 07bf
00000010: 5471 9cbd 968d 37be e8ed fa3c 110c d3be
00000020: 04d9 53bf 836e 7bba 9c2a 3e3e d493 f83e
00000030: 9514 603f 8b2b a4be 33e5 ccbe 4488 babe
00000040: b92e 203b dfa0 913e f818 1a3e 9c8b 293a
00000050: 0191 c3bd 2677 ca3e 2299 edbe dfb7 6dbe
00000060: adbf eabd 2630 a2bc f3c8 d8ba 93ad ddbc
00000070: 1c47 473a 5d06 703e f43b 853a be10 4b3e
00000080: e5a9 f4be ca7e d8be 338d bc3d 4bad 10be
00000090: ea71 91be 375c a8be 563d 96ba 2336 cbbf
000000a0: de0b d6ba 0e52 17bb 01d0 12ba 08a5 6bbf
000000b0: 7bd5 f4be 5e1b f33e bcf8 5cbe 8f49 abbe
000000c0: 6bd5 a53a 955f 19bf 0afc 49bf 04d4 b9ba
000000d0: a0cb 52bf a84f aa3d 66a7 ac3e b1e6 973d
000000e0: 0290 77be a4d6 1a3e f265 a139 be19 233e
000000f0: 1216 06bf 3a7f 69bd 5a3f 88be 222c a4bb
-0.0017235734 -0.3609136 -0.324221 -0.5304646 -0.07638803 -0.17925104 0.03063102 -0.41220143
-0.82753015 -0.00095913577 0.18570942 0.48550284 0.87531406 -0.3206447 -0.40018615 -0.36432087
0.0024441911 0.28443047 0.15048587 0.0006467642 -0.09549142 0.39544028 -0.46405894 -0.23214673
-0.114623405 -0.01979835 -0.001653938 -0.027060306 0.00076018437 0.23439927 0.0010164962 0.19830605
-0.4778587 -0.42284232 0.09206619 -0.14128606 -0.28407222 -0.32882854 -0.0011462371 -1.5875896
-0.0016330441 -0.002308968 -0.0005600453 -0.9204869 -0.47819123 0.47481817 -0.2157926 -0.33454558
0.0012652104 -0.5991147 -0.78900206 -0.0014177565 -0.8234196 0.083159745 0.33721465 0.07417048
-0.24176028 0.15120941 0.00030784268 0.15927789 -0.52377427 -0.0570061 -0.26610833 -0.005010144

transformer.h.0.attn.c_attn.weight f4 [192, 64]
00000000: fea6 24bd ec1d 9eba 2430 f1bb 0c7d f339
00000010: ef34 c33b 08f1 27bd 820e cd3a 6ef0 a63a
00000020: cdbf 1fbd 69c0 88bc 2406 413b 84ed 9f3a
00000030: 1ac9 c83b 1483 13ba 72ac 31ba 16d1 1dbc
00000040: 4d27 083d 5027 22bd e84f d13a 1574 a6bb
00000050: eef5 aa39 bbee a43b a8d4 fc3c b8ca 7e38
00000060: 75ae 09ba 0864 06bc 3d9b bc3c c1f1 96ba
00000070: dca3 9dbb 4d71 9bbb ec8b 87bd b8d1 16bc
00000080: 0be8 323b a541 953a 7a84 723b 1813 ac3b
00000090: 7792 193c d956 983a 4d76 47bd f277 453c
000000a0: c995 503c 8694 17bd 2906 8cbd 549a 4d38
000000b0: b74e 813b e9c3 bb3b 767e a0ba 1d2e 10bb
000000c0: 8586 083c 5189 90bb 35a7 873a 89b5 94bd
000000d0: cd60 3d3c da91 033c a555 55ba 53da c93a
000000e0: 3e61 ceba 3f58 e13b 29a6 5cbd 74a2 0339
000000f0: d5d1 9cbb 1efa a73a 59d7 dbbb 5202 bf39
00000100: 9482 9fbc 3aa0 363c eb48 923c cdf7 033d
00000110: 1c48 afbc 01e5 6ebc ff90 6d3d 1bb2 51bb
00000120: 8adc 553d 345b 923a 8dfb 0c3d 07de ad3c
00000130: c32a ce3c 96c3 cfbb c9bc 11bd 2003 1dbd
00000140: d6c4 e83b 25b5 1e3c 872c 1fbd 991f b73c
00000150: 0e1f 683d e024 a6bb c142 8abc edbf f1bc
00000160: 53ae 17bb 8aa8 b9bd 96a1 5fbb 9b5a 9f3d
00000170: 94ce ad3b a9bc 41bd 1eb9 83ba 55d9 a5bd
00000180: e122 d33c d67f 9a3b 6b17 723d 7ea1 c4bc
00000190: a87b 273b 99bb cb3d 38ca 77bb 9526 dfbc
000001a0: 90c4 21bc 594d 76bb cd5a b33a e79d 0e3e
000001b0: fcbe d3bc 76b1 2cbd 0698 0abd 81b6 a83c
000001c0: 474c 723b 5fd0 a63d d05f 7dbd c9af eaba
000001d0: fd1d f83a 34ee 01bd 509c 213d f7d7 50bd
000001e0: 8ba0 833d 871a 363d a4dc 203b 1878 6c3d
000001f0: ed1f 4cbc 1439 e8bc e65e 42bc 31d6 02bc
00000200: 6266 71bc 8161 88bc 0253 6dbb 88f5 eabb
00000210: 4598 33bb 9e5c 35bc f362 8dbb 40d4 9bbc
00000220: 0e2e 51bc fc9a b53c b0aa 8dba 63b3 b53b
00000230: 12bb b33a aef2 643b 5b59 c0bb 5eb4 80bb
00000240: 83f1 ad3d 2cab 433c fd68 dd3b 7173 923b
00000250: 6297 073b bec0 903b d88c e2ba 1cb0 813b
00000260: 27ad 163c 55e9 67bb b810 e3bc b147 12ba
00000270: a773 54bd 4e63 e5bb 2979 8d3c 5e2e 593b
00000280: 71ac c93b 082c e3ba b6f7 babb 4be0 e9bb
00000290: b7ee 70b9 d6f0 0cbb e68c 59bd c67b 2fbc
000002a0: 3fdb 383d 7ec2 22bd e8ed 593d 1c01 e7b9
000002b0: 707e 1abb 972e e4ba 6eb6 0c3a d7bc 093b
000002c0: 6e15 52bd bbaf bfba d83e b5ba 82d6 d9bd
000002d0: 73ca 933b 2606 22bb 0a35 52bb 1137 ce3a
000002e0: dce9 54bc 6324 bb3b d6b7 83bc e208 a6bb
000002f0: 46de 933a c29b f73b b2e5 803a 00ff 2f3b
00000300: bf78 763d 50fa b7bb dd79 9a3b f3c5 de3a
00000310: d102 6e3b d595 c73b 961e f9ba d570 553d
00000320: bd57 4fbc 0601 ec3c 6ed2 113b 7eda 34bb
00000330: e34b 643b 9ff1 a43b 8e51 95bb 60d9 1739
00000340: 203a aa3c 91de 1fbd c2e8 c33a 8bb8 933b
00000350: 825d 18bb 07a3 0e3b 88ca 1f3b 39a3 77ba
00000360: cfe9 a7bc 1b2b 1b3b af64 5b3b 2993 6e3a
00000370: 438e 61bd 21f3 6abc bce4 613c 84a7 32bb
00000380: 081b 003d afed 7cbc cea6 443b 1fa0 663b
00000390: 66cd 70bb b33d 19bc d1db 723d dc95 523d
000003a0: 7d91 56bd d765 acbb 354f 85bc b16d bd39
000003b0: f320 063c c655 d53a 5bf8 963b da3e e6bb
000003c0: a8dc 0d3c f2d7 d23a 0be3 afbb 0cbb 0abc
000003d0: 9b3f 8c3c 2560 96bb 284b dd39 a03f 79b8
000003e0: e45f d7bb acee 43bc 2a01 ed3a e386 5c3a
000003f0: 4a54 eeba 2a6c e23c 749c c1ba de7e 7ebb
-0.04019832 -0.0012063361 -0.007360475 0.0004644174 0.005957238 -0.04100135 0.0015644582 0.0012736449
-0.039001275 -0.01669331 0.0029453123 0.0012201522 0.006127489 -0.0005627137 -0.00067777105 -0.0096323695
0.033240605 -0.039588273 0.0015969248 -0.005079756 0.0003260816 0.0050333417 0.030863121 6.0747116e-05
-0.00052521314 -0.00820256 0.023023242 -0.001151614 -0.0048107933 -0.004743731 -0.06618485 -0.009205274
0.0027298953 0.0011387361 0.0037005232 0.0052512996 0.009373299 0.0011622562 -0.048696805 0.012052523
0.012731024 -0.037006877 -0.068371125 4.9019538e-05 0.003946151 0.0057301414 -0.001224472 -0.0022000142
0.008332853 -0.0044109006 0.0010349514 -0.072611876 0.011558724 0.008030379 -0.0008138067 0.0015400149
-0.0015745533 0.006876975 -0.0538694 0.00012553652 -0.004785756 0.001281563 -0.006709021 0.00036432088
-0.019471444 0.011146599 0.017857036 0.032218743 -0.02139669 -0.014580966 0.057999607 -0.0031997028
0.052212276 0.0011166097 0.034419585 0.021224035 0.025166875 -0.0063404543 -0.03558043 -0.03833306
0.007103543 0.009686743 -0.038860824 0.022353934 0.05667024 -0.005070314 -0.016877534 -0.029510463
-0.0023144677 -0.090653494 -0.0034123412 0.077809535 0.005304167 -0.04729906 -0.0010049676 -0.080980934
0.025773467 0.0047149463 0.059104364 -0.024002787 0.0025555883 0.09947891 -0.003780974 -0.027240077
-0.009873524 -0.0037582724 0.0013683677 0.13927422 -0.025847904 -0.042161427 -0.033836387 0.020594837
0.0036971734 0.081452124 -0.061858952 -0.0017905171 0.0018929836 -0.03172131 0.03945571 -0.05098721
0.064271055 0.044458892 0.0024545575 0.057731718 -0.012458784 -0.02834753 -0.011863446 -0.0079856375
-0.014733883 -0.016648056 -0.0036212807 -0.007170383 -0.0027403992 -0.011069445 -0.004314774 -0.019022107
-0.012767328 0.022168629 -0.0010808315 0.005545066 0.0013712368 0.0034934687 -0.005870027 -0.0039277514
0.0849333 0.011942666 0.0067569003 0.004469328 0.0020689596 0.004417508 -0.0017284406 0.0039577615
0.009196556 -0.003538688 -0.027717933 -0.0005580141 -0.051868107 -0.0070003634 0.017269688 0.003313921
0.00615459 -0.0017331848 -0.005705799 -0.0071373335 -0.00022977112 -0.0021505854 -0.053112887 -0.010710662
0.045130964 -0.039736263 0.0532054 -0.0004406058 -0.0023573898 -0.0017408904 0.00053677603 0.0021017098
-0.05128997 -0.0014624515 -0.0013827933 -0.10636617 0.004510218 -0.0024722903 -0.003207507 0.0015732964
-0.01299521 0.0057111247 -0.01607887 -0.005066977 0.0011281453 0.0075564096 0.000983408 0.0026854873
0.060173746 -0.0056145564 0.0047142343 0.0016996249 0.0036317597 0.0060908594 -0.0019006308 0.052109558
-0.012655196 0.028809082 0.002225067 -0.0027596052 0.003483527 0.0050336863 -0.004556841 0.0001448146
0.02077967 -0.039030615 0.0014946687 0.004508083 -0.0023249094 0.0021764652 0.0024382193 -0.00094466243
-0.02049723 0.0023676816 0.003347676 0.0009100908 -0.055067312 -0.014340193 0.013787445 -0.0027260492
0.03127578 -0.015437528 0.003000665 0.0035190654 -0.003674352 -0.009353089 0.059291665 0.05141245
-0.052384842 -0.0052611637 -0.01627312 0.00036130616 0.008186567 0.0016276173 0.004607243 -0.0070265355
0.008658566 0.0016086085 -0.005367642 -0.008467447 0.017120173 -0.004589098 0.000422084 -5.942548e-05
-0.0065727104 -0.011958759 0.0018082012 0.00084124337 -0.0018183079 0.027639467 -0.0014771358 -0.0038832943

transformer.h.0.attn.c_attn.bias f4 [192]
00000000: 6abd 4cbc 677b 57c0 bfdf cc3b 463a 18bb
00000010: 58bf bcbc 5f58 073e d353 243c 2901 5cbb
00000020: ae68 01c0 c718 913e 984f 893b 6d9d bfbb
00000030: 6de2 54bd de1a 14be 3b33 fabb e5c9 bf3b
00000040: 9839 11bd db88 543c 7f25 a1bc 0aa4 323a
00000050: 8e71 f2b9 d7e6 85bc 2d1a 633c 398e e6bb
00000060: 4213 9aba f6dd 2dbc 6d4b f13b c07b 2f3e
00000070: 3b15 27be 272e 823c dcb0 7c3f 4379 bc3d
00000080: 3320 233a 2c37 dc3d 6034 e3bb e1b0 823b
00000090: 842f 06bc a306 adbb 50a5 3638 4856 cb3f
000000a0: 318c b33e 164c 233c 0c5f d2ba 8001 4640
000000b0: 0c7f 60b9 4ac6 01bf db31 c93f a6c0 e33b
000000c0: 48e6 693d 7062 80bc 6231 2a3e 40bd c437
000000d0: 5bc3 e43b 7b36 fe3a 600a f93b 3b37 9f3e
000000e0: 3bce f6be 3135 91bb fd16 fa3d 7a81 4c3c
000000f0: 5914 b23e 7c70 c53a 6a2f d03b 1cb4 263c
00000100: ffa7 57be 4d9b 35c2 bc4c 1c3f face e540
00000110: 6d2f 2c40 27f3 b641 bdc6 2d3d f33d 4540
00000120: f599 03c2 b817 b641 e6c1 86bf 053c 4941
00000130: a0ba b840 879e 643f c6e5 ed3e ec29 74c0
00000140: b9e1 5841 f6c9 c8bf 7dcf 513f 0758 6040
00000150: 31b1 04c0 928f be3f fc8e 43c0 050a 9ebf
00000160: 9e9a 2040 ddde e1be 1782 1341 f659 f240
00000170: f0d3 f1c1 1870 82be dee3 0a42 7dcb e340
00000180: 86ec 08bf 1fd8 2941 8448 c7c0 d1b5 a1bf
00000190: 2916 483c 7228 7e3f 804b 94bd af9f 0d42
000001a0: 7c07 c541 4b9b 63c0 9b22 73be e514 c841
000001b0: 7f60 7f3e 1e1b 0ec2 9f89 1d42 92e7 a9be
000001c0: 7f18 b641 991f 853f 348a b341 d631 9f3e
000001d0: 9029 6b40 6ed2 5d3e fcfa 4cc0 e51a b541
000001e0: 9ebd fcc1 8032 2640 946c 4441 857c bc3e
000001f0: 2128 223f dbf3 04c1 970d 52be 1c81 3740
00000200: 1296 9639 fd70 07bc f103 f6bc 36c2 6cba
00000210: 9e5d ab3d 25e3 5b3c ca69 e73d 96b5 423c
00000220: aeab d7bd 0647 19bd 06e2 283d f772 553d
00000230: af93 ba3d 84cd 6f3d 28d8 6d3b 44eb 083d
00000240: 0588 67bd b3f0 9abd 8013 5a3b 8217 743d
00000250: 5011 9339 185d 543d fa74 293b bcf8 1f3b
00000260: 5e1c aa3d 0b05 c3bd 906c 54bd 5bc9 26be
00000270: c40c 063a 20f7 563c 8568 98bb 4726 a13d
00000280: 1558 843d 2aa8 053d 4dbe b4bd 47b5 c9bd
00000290: 2696 cb3d f99d a23d 8218 90bd c013 b3ba
000002a0: e332 283d ce89 ca3a 7652 eeb9 5777 9fbd
000002b0: 1c42 393e fd78 cb3d 5176 1f3c 68c3 933d
000002c0: ad6a edbd 9955 143b 41f3 0b3d 9a1e 56bd
000002d0: 0d6c 55bd e3d5 5cb9 981f ae3d f7aa f83b
000002e0: 29c1 e6ba 62f3 8dbd aae5 2d3e 168f 253a
000002f0: ab9e a1ba 9e3f 36bd bb82 70bd 9094 a13c
-0.012496332 -3.366907 0.0062522586 -0.0023228093 -0.023040459 0.13217305 0.010029751 -0.0033570027
-2.0220141 0.28339216 0.0041903965 -0.005847624 -0.05197375 -0.14463374 -0.0076355017 0.005852925
-0.035455316 0.012972082 -0.0196712 0.0006814605 -0.00046242442 -0.016345425 0.013861221 -0.007035997
-0.0011755007 -0.010612002 0.007363728 0.1713705 -0.16316693 0.015891148 0.98707366 0.09202816
0.00062227546 0.10752711 -0.006933734 0.0039883708 -0.00819004 -0.005280332 4.354614e-05 1.5885706
0.35067895 0.009966871 -0.0016050055 3.0938416 -0.00021409633 -0.5069319 1.571834 0.0069504557
0.05710438 -0.015671939 0.166204 2.3453147e-05 0.006981296 0.0019394899 0.0076001137 0.31096825
-0.48204216 -0.0044313897 0.12211416 0.0124820415 0.3478115 0.001506343 0.0063533084 0.010174777
-0.21060179 -45.40166 0.6105459 7.1815157 2.6903946 22.868727 0.04242586 3.081906
-32.90035 22.761581 -1.0527923 12.577153 5.7727814 0.89304394 0.46464366 -3.8150587
13.555108 -1.5686634 0.81957227 3.5053728 -2.073315 1.4887564 -3.055602 -1.2346808
2.509437 -0.44115344 9.21926 7.5734816 -30.228485 -0.25476146 34.722527 7.11859
-0.53485906 10.615264 -6.227602 -1.2633611 0.012212315 0.99280465 -0.07240963 35.40594
24.628654 -3.5563533 -0.2374367 25.010202 0.24939154 -35.52648 39.384396 -0.33184487
22.761961 1.0400268 22.442482 0.3109271 3.6744118 0.21662304 -3.2028189 22.638132
-31.592587 2.5968323 12.276508 0.3681375 0.6334248 -8.309535 -0.20512997 2.8672552
0.0002872204 -0.008266685 -0.030031176 -0.0009031625 0.083674654 0.013420855 0.112994745 0.011884114
-0.10530792 -0.03742125 0.041231178 0.052111592 0.091102 0.058545604 0.003629217 0.03342749
-0.056526203 -0.07565441 0.0033275783 0.05959273 0.00028050924 0.051846594 0.0025857077 0.0024409732
0.08306192 -0.09522446 -0.051861346 -0.16287749 0.00051135966 0.013120443 -0.0046511316 0.07868629
0.06462113 0.032631077 -0.088253595 -0.09849029 0.09940748 0.07940287 -0.070359245 -0.0013662502
0.041064154 0.0015452446 -0.00045456336 -0.07786434 0.18091625 0.09935186 0.009732799 0.07215005
-0.115926124 0.0022634028 0.034167532 -0.052275278 -0.052105 -0.00021060514 0.0850212 0.00758874
-0.0017605174 -0.06931187 0.16982141 0.0006315572 -0.0012330612 -0.044494264 -0.058718424 0.01972416

transformer.h.0.attn.c_proj.weight f4 [64, 64]
00000000: 761c 213e c49d 343d 4a43 b0bb 83d3 bc3b
00000010: 3ee6 d03d 4ed6 213d 8d09 f03d b0d3 05be
00000020: e88b c13d ce10 86bd ff85 9ebc f1de 42bd
00000030: 101f 773d cd66 66bc 8cde d4b9 7abe c1bd
00000040: 5379 0f3c 0875 debc c702 e0ba ae8a a13c
00000050: ed98 a53a 898b 203c 7035 33bb 3ab9 273b
00000060: 0664 183c 01aa 87bd 9686 b7bd 7645 0e3c
00000070: 76fa f2bb d731 243d 22eb 27bc e879 5abd
00000080: e960 21bc 3fb6 91bd 626a 94be 8afa f6bb
00000090: f0ce dc3d df1d 80bd 8762 42be 4239 8dbb
000000a0: 4129 14bd 7b2b 9cbb 4ae4 1abb 4dc4 a1bd
000000b0: c851 903d 4a4d 0cbd ef6a c13b f395 a2bb
000000c0: 081d 54bd 7feb cb3b cc77 6a3c a0d3 b63e
000000d0: 0432 2b3d 06e0 07bc a432 a93c 402d 243d
000000e0: 68ac be3a 732c fa3d 1992 4b3e eafc 843a
000000f0: db39 1abc 69ce 8cbd 0d03 e8bc c9c4 493d
00000100: ec6f 573d d93c f23b 19d5 9abc 58ee 09bc
00000110: 75ef 3ebd aada 313c 322e bbbc 5574 36bd
00000120: 6c69 9abc 8645 96bc 49db 133e 8bc3 03bd
00000130: 4473 cebc 670f 30bd c158 ccbb 094e 163e
00000140: dfd0 07bd 029e abbd 88fc 7cbc 9fb2 64bc
00000150: a2cb a03b 8cd6 06bb f00b 12bc 2578 55bc
00000160: ad16 123b 9349 533d 3f9b a7bc 5406 913d
00000170: 0f4d faba 5552 053d 7dac 283c e23b 3ebd
00000180: fb7a d0bc 19c6 6abd 6593 bdbc f0df f53d
00000190: 7141 c53d d60a 81bc d853 c53b 111d bd3b
000001a0: f37d a7bd d9e0 ca3b 3436 9cba 059e d5bb
000001b0: 4604 093d e117 7fbb 297b a23d ce05 e8bc
000001c0: 5b86 edbd 2ae8 98bb 6eac 823d c93a 89bc
000001d0: 4f0a 033d 1de7 b53b e919 80bd 5cbc fabd
000001e0: 61ed 983a 0f08 54bd 2422 cdbd 162d ddbb
000001f0: 6995 9f3b ac7f 993c e9e7 7fbd 3b13 d6bd
00000200: f48a ee3a 6c55 963d 536c a3bd 8e02 43bb
00000210: dd31 babd 3514 603d fe71 49bd 8cb4 cf3c
00000220: d7f9 3fbd ba7a d6bc 7288 9c3c f8ec 593b
00000230: 6f86 7c3d 5d64 423d 2654 583a 673d c43d
00000240: a172 893d 6652 44bc a333 f73b 9950 a0bd
00000250: c8c0 563b 1682 5abd 545c 45bb c826 2b3a
00000260: 676a aabd ea1d 073d e808 5b3d ae16 0c3c
00000270: 583e 423a 743f f23d 6baf c1ba 7bcb ce3c
00000280: d89b ad3c 7b5d 643d 250f 123c 670f 063d
00000290: 7271 453d c999 c6bc d6a8 94bb b8f7 923a
000002a0: 8617 b63d 60d2 36ba c47e 0f3c fdf8 19bd
000002b0: b336 8d3c 99b0 893c b916 9fbc ba2f cc3d
000002c0: d816 093e 3679 2fbb 25e9 7dbd 40e7 e9bd
000002d0: 76d3 37bc 24ee 933a 48c2 9bbd 167e b0bd
000002e0: c31a ba3a c76a 6abc 0824 2a3d d896 2bba
000002f0: c04d 9539 2dc9 2ebc 0b9a fabd 413a aabd
00000300: 589c 2b3e 8d00 11be 6941 e93c f298 f039
00000310: b566 053d b3c4 003d a87a bbbd a839 963d
00000320: 57e3 373d 14e0 b4bc cd77 16bd 567a 42bd
00000330: be89 b7bd 2d23 3abd 3e19 203c 6013 3d3c
00000340: c0fc 6c3c f8df 9538 38fb 44bb 5ac4 f2ba
00000350: 25c4 403c 545a 63bb b67c 9bbb 80a5 283b
00000360: bd18 c1bd e317 c33a 3663 63bc 3730 05bc
00000370: 3b0e 843b 8a63 053d 62e6 05bc 3c2c 943c
00000380: bd35 8fbc fb8d 713d 87dd f3bc 495b 06bc
00000390: cef5 c03d 751e 8dbd 2883 933d cca0 8abb
000003a0: 1ab0 72bd f871 d1bb 979f 0c3c 8334 123d
000003b0: 5201 3b3d aedf 2c3d 60ff aa3c 42c5 97bc
000003c0: 4041 003e 0d7a 043c 2f0d 903d c733 c7bc
000003d0: b12a 70bc 22e5 873a 7097 90bc 5b81 cb3a
000003e0: cf9b 20bb 75c5 efbc 9e26 653d 3256 983b
000003f0: 1af1 c3bb 5537 80bd f3b9 963d 6277 053e
0.15733513 0.04409577 -0.005379115 0.005762519 0.10200165 0.039511018 0.11720572 -0.13069034
0.09450513 -0.06546174 -0.019351004 -0.047575895 0.060332358 -0.014062596 -0.000406016 -0.09460159
0.008756953 -0.027155414 -0.0017090671 0.019719448 0.0012634076 0.009798893 -0.0027345084 0.0025592581
0.009301191 -0.066242225 -0.08961217 0.008683553 -0.007415111 0.040086593 -0.010248931 -0.053338915
-0.009849765 -0.07114839 -0.28987414 -0.007537191 0.10781658 -0.062556975 -0.18982898 -0.004309804
-0.036172155 -0.0047659255 -0.0023634606 -0.078987695 0.070468485 -0.034253396 0.00590264 -0.004961723
-0.0517855 0.0062231417 0.014310788 0.35708332 0.041795745 -0.008293157 0.02065403 0.040082216
0.0014547231 0.12215509 0.1987995 0.0010146175 -0.009413208 -0.06875307 -0.028321767 0.049259935
0.05259697 0.0073925075 -0.018900441 -0.008418642 -0.046615083 0.010855356 -0.022849176 -0.044544537
-0.018849097 -0.018343698 0.1443912 -0.032168906 -0.025201447 -0.04298344 -0.006236166 0.14678206
-0.03315818 -0.08379747 -0.0154410675 -0.013958602 0.0049070874 -0.0020574657 -0.008913979 -0.013029133
0.0022291348 0.051583838 -0.02045977 0.07081285 -0.0019096452 0.03254922 0.010295031 -0.046443827
-0.025449267 -0.057317827 -0.023141572 0.12005603 0.096316226 -0.015752237 0.006021958 0.0057712873
-0.0817832 0.0061913547 -0.0011918009 -0.0065190815 0.03345134 -0.0038924145 0.07933647 -0.02832308
-0.11597892 -0.004666348 0.063805446 -0.016751664 0.031992253 0.0055512325 -0.06254942 -0.12242958
0.0011667424 -0.051765498 -0.100162774 -0.0067497594 0.004870106 0.018737637 -0.062477026 -0.10452887
0.001819937 0.07340512 -0.079796456 -0.0029756161 -0.09091542 0.05470677 -0.049180977 0.025354646
-0.046869125 -0.026181567 0.019108031 0.0033252817 0.061651643 0.047458995 0.0008252285 0.09582024
0.06711317 -0.011982536 0.0075439974 -0.07827873 0.0032768715 -0.053346716 -0.0030114846 0.0006528911
-0.08321076 0.032987513 0.05347529 0.008550329 0.00074098026 0.11828509 -0.001477701 0.025243511
0.021192476 0.055753212 0.008914744 0.032729533 0.048203893 -0.024243252 -0.0045367284 0.0011212742
0.088912055 -0.00069740973 0.008758251 -0.03759097 0.017237997 0.016807841 -0.019420015 0.099700406
0.1338762 -0.0026775128 -0.061989922 -0.114210606 -0.01121985 0.0011286181 -0.076054156 -0.08617799
0.001419865 -0.014307684 0.04153827 -0.000654561 0.00028477423 -0.010668081 -0.122364126 -0.08311892
0.16758859 -0.14160366 0.028473573 0.0004589032 0.032568652 0.031437587 -0.09154254 0.07335216
0.044894543 -0.022079505 -0.036735345 -0.04747995 -0.08961819 -0.045443702 0.009771643 0.011540264
0.014464557 7.146591e-05 -0.0030056965 -0.0018521652 0.0117655145 -0.003469129 -0.0047450913 0.0025733411
-0.094285466 0.0014884438 -0.013878634 -0.008129171 0.0040300167 0.03256563 -0.008172603 0.018087499
-0.01748168 0.058973294 -0.029768718 -0.008200475 0.094218835 -0.06890575 0.072027504 -0.0042305943
-0.059249975 -0.00639176 0.008582971 0.03569461 0.045655556 0.042205505 0.020873725 -0.018526677
0.12524891 0.00808574 0.070337646 -0.024316682 -0.014658616 0.001036797 -0.017650336 0.0015526222
-0.0024506932 -0.02926896 0.05594503 0.004648947 -0.0059796693 -0.06260554 0.07359686 0.13033822

transformer.h.0.attn.c_proj.bias f4 [64]
00000000: 7aa7 37bd 89d1 263d fca0 69bd bcf8 83bd
00000010: 8c35 ebbd c113 a73c e567 a2bd 7090 793e
00000020: 2761 67bd 0a52 c63d d2e4 323d 8d5b 6c3e
00000030: 54a5 7ebd 1ea9 bb3c 6467 acbc 587d 5cbd
00000040: e565 963e 615a 493d 1e99 bfbe 10c0 2f3e
00000050: 811d 0b3d 14d8 2b3e 425e 37be 70a7 f1bc
00000060: 5588 293d 90ee f0bc 4a84 623d 5dbc 1dbe
00000070: 08b4 d8be a359 70bd 530b 813d 8768 0bbc
00000080: b13f 393c 9dfa a5bc 7fac 6bbd 3b49 063c
00000090: a06d 103e a95b fbbd 9088 23bc 4bfb 2bbe
000000a0: 5a9e b93b dd32 acbd 5ba7 f83c 9f05 6f3e
000000b0: e38c 423d 98b3 e13d e136 71bd 08ed edbc
000000c0: 1d4d bcbc 5ee1 283e f493 0fbd d12a 2dbc
000000d0: f8b8 10bd 0def 643d aadd 2fbd c887 633e
000000e0: 9bef acbd 6331 aa3d aa4e cc3d 9308 133c
000000f0: 717b 92bd 44d0 8abb e6d8 093e 0a20 923c
-0.044837452 0.040727172 -0.057038292 -0.06443927 -0.11484823 0.020395162 -0.079299726 0.24371505
-0.056489136 0.096836165 0.04367525 0.23081799 -0.062169388 0.02290779 -0.021045394 -0.053830475
0.29374614 0.049158458 -0.37421507 0.1716311 0.033963684 0.16781646 -0.1790705 -0.029498786
0.041389782 -0.02941063 0.055301942 -0.15403886 -0.42324853 -0.058679234 0.06300988 -0.008508808
0.011306689 -0.020261103 -0.057537552 0.00819617 0.14104319 -0.12273342 -0.0099812895 -0.1679508
0.005664629 -0.08408139 0.030353239 0.23341988 0.04749764 0.11020583 -0.058890227 -0.02904369
-0.02298599 0.16492221 -0.03505321 -0.01056929 -0.03533265 0.05589204 -0.042936005 0.22219765
-0.084441386 0.08310201 0.099759415 0.008974212 -0.07152451 -0.004236253 0.13461646 0.017837543

transformer.h.0.ln_2.weight f4 [64]
00000000: 7a31 7540 d1f3 e140 09e1 c040 15cd f140
00000010: dd15 d640 7c35 0c41 1620 3440 856b d140
00000020: b425 bb40 b732 c040 fc59 e640 974c 9e40
00000030: 77bd 1041 cb9c 0a41 94c6 0b41 af5f d740
00000040: b39e ba40 e13f c340 2ab0 cd40 1b7e 9f40
00000050: 411e 2e41 6e38 3640 5c2b 8140 e79c 1a41
00000060: c18f 0e41 cb11 8640 3f00 3240 6a2d 9440
00000070: d161 8d40 c280 e440 af9e f540 278a 5440
00000080: eb0e cf40 4ac0 0f41 7184 d540 9ec7 0241
00000090: 5685 cd40 66ee 9440 7f2e 0b41 e4dc f740
000000a0: 07a5 4040 9acc 8140 41e9 8d40 bc1c 1041
000000b0: 55a1 dd40 9a51 b740 c2af e640 c808 0041
000000c0: c945 6a40 4c3e b140 6f99 2041 16a8 8940
000000d0: 8b8b f240 325c f040 0c29 bb40 4bdf 1a41
000000e0: 0dc0 8440 c20f dc40 b319 2a40 409a b040
000000f0: d36c 8840 8b35 3d41 2947 ef40 471e 2241
3.8311448 7.0610127 6.02747 7.5562844 6.690169 8.763058 2.8144584 6.544375
5.8483524 6.006191 7.1984844 4.9468493 9.046256 8.66328 8.735981 6.73043
5.8318725 6.1015477 6.4277544 4.9841437 10.882386 2.8471942 4.036543 9.663306
8.910096 4.189672 2.781265 4.6305437 4.4181905 7.1407175 7.6756206 3.3209321
6.470571 8.984446 6.672417 8.173735 6.4225264 4.6541014 8.698852 7.745714
3.0100725 4.056226 4.4347234 9.007015 6.925944 5.728711 7.208955 8.002144
3.6605093 5.5388546 10.037459 4.3017683 7.579534 7.5112543 5.8487606 9.679515
4.1484437 6.8769236 2.6578186 5.5188293 4.263284 11.825572 7.4774365 10.132392

transformer.h.0.ln_2.bias f4 [64]
00000000: 3d6b 0940 2868 e0bf cf29 cb3f 69fc 3e40
00000010: 3200 9c40 4148 16bf c52c b13f 1d80 f3c0
00000020: 7c23 c5be c381 d3bf b51e 06c0 1a93 8dc0
00000030: 75a9 6340 803d 2bbf 8bac c13e d91a 4a3f
00000040: 6529 04c1 fbaa 85bf 9168 3741 a5f8 7fc0
00000050: 764c 203e e4a1 00c0 7a5c 4840 ce81 babe
00000060: 7cfc acbf 6806 183f 32e9 bdbd 160d d73f
00000070: 51c6 f640 6d46 2a40 3b9b d5bf a60c 3f3f
00000080: 450b 8bbf 4010 123e 0397 2340 18e5 a8bf
00000090: 03a2 88c0 e1d1 f43f 41e5 1f3f 544d 8e40
000000a0: 1066 983f c9bd 803f 2b5c e0bf b77a 95c0
000000b0: 180e 10c0 f402 cbbf f804 c53f 65a2 ae3f
000000c0: 7687 55be 7edc 98c0 780a a9be dcb4 adbb
000000d0: e029 2f3d 9c13 92bf c018 b53e 2ece 87c0
000000e0: 61c3 c13f 21d6 2dc0 9f8a f4bf a299 c13d
000000f0: 7fc1 a63f b7a2 273f 5e52 7ec0 97ba f6be
2.1471703 -1.7531786 1.5872134 2.984156 4.875024 -0.58704 1.3841788 -7.609389
-0.38503635 -1.6523975 -2.0956242 -4.4242067 3.5572178 -0.66890717 0.37826952 0.78947216
-8.260106 -1.0442804 11.463029 -3.999551 0.15654168 -2.009881 3.1306443 -0.36427158
-1.3514552 0.59384775 -0.09272994 1.6800869 7.7117085 2.6605484 -1.6687998 0.74628675
-1.0862814 0.14264011 2.556092 -1.3194914 -4.269777 1.912655 0.6245919 4.4469395
1.1906147 1.0057918 -1.7528127 -4.67123 -2.2508602 -1.5860276 1.5392141 1.3643309
-0.20852455 -4.7769156 -0.330158 -0.005301101 0.042764544 -1.1412234 0.35370445 -4.2439184
1.513775 -2.7161944 -1.9104804 0.09453131 1.30278 0.6548266 -3.9737773 -0.48189232

transformer.h.0.mlp.c_fc.weight f4 [256, 64]
00000000: 3fcc a13c c7cf 5bbd 5f2d 80bd f2cf 523d
00000010: 6780 11bd 4124 813d 30f1 30bc 5c74 6f3d
00000020: 773c 87bd 80e0 83bc b337 91bb b199 06be
00000030: 34a3 10bd 4145 0d3d 5f7a b1bc 0d1e 513d
00000040: 9084 2e38 d1b8 8fbd 0a94 8cbd fabc c2bc
00000050: 896f 6abd e17a b53c 3cb8 7ebd ba23 033e
00000060: 475a 843d 895b 8d3d 2642 8c3d 2049 b8bc
00000070: 5726 13bd a6a9 2dbd 105a f2bd fab8 573c
00000080: 74d1 8cbd 5a6c 07bb 9611 c93d 5f29 5dbd
00000090: 2b0d 4dbd 9a00 93bd 8338 9b3c de60 803d
000000a0: 68a1 9fbd e2bc ca3c 902b 76bd 34be 8dbc
000000b0: 3afa fdbb a27e 6cbd 6c53 34bd a224 f93c
000000c0: db94 453e f1cd f33d 1fb2 97bd b742 293c
000000d0: 3ce2 e33a f00b b93d 1ccd e4bd 0a16 383d
000000e0: 85c4 c23d 36f5 2dbd c6a2 823d 7372 1fbd
000000f0: 56f6 e7bc df34 70bd 13e3 933c 45af ae3d
00000100: e996 87bd 64b2 d7bb b2d9 f23b c475 393c
00000110: 332f edbc f81e 9d3d e48b 4cbd 62c7 99bd
00000120: 8ae0 2c3d d482 5b3c 0ce4 8fbd 915b e4bd
00000130: cc7e 533c ddab 06bc e6b6 453d 953d cabd
00000140: b54e 8f3d d032 20bd 6e61 953d 1da9 d13c
00000150: 0d8d b3ba 5f2f 4cbc a267 013c 828f 84bc
00000160: 39fd e6bc e9e7 fb3d 1ba3 d13c 1962 be3d
00000170: a2fa 59bd c7d6 e33d befe 763d 00ae ae3c
00000180: 309a d4bd fb23 aebc 339a cabc 2669 71bd
00000190: c8a5 febc 6cf1 113e 64a8 7c3d a8b6 443c
000001a0: 1488 4abd 523f f7bd 4677 843d f17f 7ebd
000001b0: 28c5 80b9 38bf 0fbd b6d9 303e 4380 46bd
000001c0: 8b81 2a3d 871b dcbd 6c27 08bc 38b1 693e
000001d0: 74ba ce3b 572f 433d 4e38 a7bd eb25 053d
000001e0: 556f 483d 2cff 91bb 1eb9 9cbd 225d 743d
000001f0: 712d 993d 7929 0dbb 7092 b4bc df3d e83c
00000200: 3a17 163d 1f69 65bd 6989 b4bc 37ca 403d
00000210: 1e2d 6e3c b5bd 8c3c df9e 39bd 02cb 2abe
00000220: 559c 6bbd 9b52 9e3d 19c9 033e 3cd0 afbc
00000230: 01da 05bd aaa1 f4bd 6c7f 793d 9daf f8bd
00000240: 07f4 8e3d 7995 03bd bcf6 4cbc 09c0 f3bd
00000250: 5380 a7bc b314 ac3c 5dc6 36bd 2d30 af3d
00000260: 0f1d 013e 3df3 96bd e3c2 963d 5268 b0bd
00000270: 66b8 3d3d e980 c9bd 8677 c03c c233 543d
00000280: 67cc 073e fdec 28bd 5a2d 03bc a11a afbc
00000290: fef5 b0bd fa25 883d 52b2 413d 734f bc3d
000002a0: e86f 0a3d 9d60 03be 6a15 4b3e 134c 0f3c
000002b0: 8e1f d93d d9e8 253c fb32 53bd 9587 94bd
000002c0: 50ac aebd 7c67 fd3d f97f 4abd 9239 92bd
000002d0: 3c58 40bd d7da 813d 9283 7bbc efda 4a3d
000002e0: 85d8 cc3a 36e0 8b3d e347 edbc 7080 3e3c
000002f0: bfb1 bebd 2a00 5e3d fac4 ab3d 2bb7 92bc
00000300: d06f bb3d 024b 99bd 7b60 debc f172 9dbc
00000310: d4d7 13be a10b 00be 2a1e 813d d636 17be
00000320: 3df1 883c c7b8 2ebd 3b39 be3d a3f9 5e3c
00000330: 003d eabb 8f7b 9d3d 6716 34bd fd93 81bd
00000340: 3b86 8cbc b217 e23c 056b ec3d e7bd 373d
00000350: 71dc 00bd 65f1 adbc 8349 ab3d 3003 bd3c
00000360: 3486 853d 186a b0bd f8ae cc3b 0760 54bb
00000370: 5d59 eebc 58d3 a3bc b7ca a33d 4841 10bd
00000380: 566c 6cbd 5cea 093d da18 b1bd 674f ea3a
00000390: 0be1 113d b6e4 993d 63e7 c7bc d3f4 89bd
000003a0: f925 c8bc 8c63 86bd 30ac 79bc 8edb 1cbc
000003b0: 37b3 a03d 85e7 39be 5ffa 413d c67d b93c
000003c0: 3d94 67bd dec1 25bc fd2f a1bd ddb3 143e
000003d0: 5574 9e3d c8ed 49bb 4cff 343c f20c 243d
000003e0: 654b e83d 4d4c d33c a879 8e3c 0b55 af3d
000003f0: dcd5 aebb b464 0dbe c2f9 c7bd 7e90 0dbd
0.019750712 -0.05366495 -0.06258654 0.051467843 -0.035522845 0.06305743 -0.010799691 0.05846058
-0.0660333 -0.01609826 -0.0044316887 -0.13144566 -0.035311893 0.034489874 -0.021664796 0.05105405
4.160829e-05 -0.07017673 -0.06864174 -0.023771752 -0.057235274 0.02215332 -0.06218742 0.12806597
0.064625315 0.069022246 0.06848554 -0.022495806 -0.035925236 -0.042398117 -0.11833584 0.01316666
-0.068758875 -0.0020663948 0.098178074 -0.053994533 -0.050061386 -0.07177849 0.018947845 0.06268476
-0.07794458 0.02474827 -0.06010014 -0.01730261 -0.0077507766 -0.057737954 -0.04402487 0.030412976
0.19295065 0.119045146 -0.07407021 0.010330847 0.0017386149 0.0903548 -0.11171934 0.044942893
0.095101394 -0.04247018 0.06378703 -0.038927507 -0.028315704 -0.05864417 0.018052613 0.08529524
-0.06620581 -0.006582545 0.007411205 0.011319581 -0.02895317 0.076719224 -0.049938098 -0.075087324
0.042206325 0.013397891 -0.07025918 -0.111502774 0.012908649 -0.008219686 0.04827013 -0.09875027
0.06997434 -0.03911096 0.07293974 0.025593335 -0.0013698653 -0.012462466 0.007898243 -0.016181711
-0.028196918 0.12300093 0.02559047 0.092960544 -0.053217538 0.1112495 0.060301535 0.021323204
-0.103809714 -0.021257391 -0.024731731 -0.058938168 -0.03108491 0.14252251 0.061684027 0.012006439
-0.04944618 -0.12072624 0.06468062 -0.062133733 -0.00024560955 -0.03509447 0.1727055 -0.048462164
0.041627448 -0.10747438 -0.00831018 0.2282151 0.006308848 0.04765257 -0.08165036 0.032506865
0.0489343 -0.0044554677 -0.07652496 0.05965913 0.074793704 -0.0021539612 -0.022042483 0.028349815
0.036643244 -0.056008454 -0.022038179 0.047067847 0.014537124 0.017180303 -0.045317527 -0.16679004
-0.057522137 0.077305995 0.12869681 -0.021461599 -0.032678608 -0.119448975 0.060912535 -0.121428706
0.06980138 -0.03212497 -0.012509998 -0.11901862 -0.020446932 0.021005964 -0.044622768 0.08554111
0.12608741 -0.07370613 0.073613904 -0.086136475 0.046318434 -0.09839041 0.023494493 0.051807173
0.13261567 -0.041241635 -0.008006418 -0.021375002 -0.08640669 0.066478685 0.0472892 0.09194841
0.03379813 -0.12829824 0.19832388 0.008746165 0.10601722 0.010126316 -0.05156229 -0.07252423
-0.0852896 0.12373254 -0.04943845 -0.07139887 -0.046959147 0.063405685 -0.015351193 0.049525198
0.0015628493 0.06829874 -0.028964942 0.011627302 -0.09311246 0.054199375 0.0838718 -0.017909607
0.09152186 -0.0748501 -0.027145615 -0.019219847 -0.144378 -0.12504436 0.063045815 -0.14767012
0.016716594 -0.042656686 0.092882596 0.013609323 -0.007148385 0.076895826 -0.043966677 -0.06327055
-0.01715385 0.02759919 0.1154385 0.04485884 -0.03146023 -0.02123327 0.083636306 0.023072809
0.06519738 -0.08613986 0.006246444 -0.003240587 -0.029095346 -0.019998237 0.07997649 -0.035218507
-0.057720505 0.03367077 -0.08647318 0.0017876447 0.03561501 0.07514326 -0.024402326 -0.0673615
-0.02443217 -0.06561956 -0.015238807 -0.00957383 0.078466825 -0.18154724 0.047357913 0.022642981
-0.056537855 -0.010117022 -0.07870481 0.14521737 0.07737032 -0.0030811895 0.011047196 0.040051408
0.11342505 0.025793219 0.017391995 0.085611425 -0.0053355526 -0.13807946 -0.097644344 -0.034561627

transformer.h.0.mlp.c_fc.bias f4 [256]
00000000: 8bab 44c0 8ebe 65c0 9512 95c0 aed3 8ec0
00000010: 5671 07c0 efa2 04c0 fadc 0bc0 1986 aebf
00000020: 7367 9dc0 036f 9cc0 25fe 7ac0 1d3e 11bf
00000030: 9782 3fc0 9006 20c0 1568 d3bf ac27 55c0
00000040: c643 1ec0 33f9 e3bf 3593 18c0 b6b3 31c0
00000050: c9c2 ffbd e2e0 99bf 588c 3cc0 75bf 50c0
00000060: 809c 1cc0 0532 42c0 f9e2 80c0 b224 02c0
00000070: b97f fdbe bd3e 8fc0 fac7 d8bf 7f0e 49c0
00000080: 3a92 20c0 b101 2bc0 c575 57c0 ce08 27c0
00000090: ce0c bdbf 72d4 21c0 9af2 45c0 41b3 67c0
000000a0: cd85 96c0 4293 3fc0 09f2 37c0 5b06 60be
000000b0: e777 a9bf abef 67c0 fb21 67c0 6f8d 21c0
000000c0: 0ca0 39c0 dadc 0cc0 63ec 85c0 18e2 60c0
000000d0: 8758 2ec0 ee2b 3fc0 3b49 edbf bd2f c6bf
000000e0: 9d5c 7ebf d779 7ac0 ffc0 dfbf 26ee 6cc0
000000f0: 6116 4dc0 f870 77c0 1f46 63c0 4445 43c0
00000100: ad6f 00c0 10ed 8bbf cf37 72c0 1321 55c0
00000110: c2e6 3fc0 507e 3ec0 c916 48c0 d389 25c0
00000120: 13fa 9cc0 543c 23c0 c170 73c0 c91a 52c0
00000130: 8f60 38c0 a485 51c0 3eaf 7dc0 ec8f 09c0
00000140: de87 19c0 99be 59c0 d233 2ec0 35eb 69c0
00000150: c401 a9c0 fd28 3cc0 9899 19c0 11ae 76c0
00000160: 29b4 41c0 0eed 41c0 cdb7 03c0 9b4a 21c0
00000170: 5fc8 59c0 c13f 77c0 202b e0bf f94c 3fc0
00000180: 58e5 c1bf 9d7c 4dc0 4f1e 1fc0 ca83 6dc0
00000190: adbe ebbf 29bd 23c0 2825 86bf d4aa 84c0
000001a0: 70d2 4cc0 965d 1dc0 5773 12c0 8594 2cc0
000001b0: cfb4 04c0 b4c0 80c0 abcd 10c0 244b 8ac0
000001c0: 69e2 07c0 1c23 cfbf 909f 2ac0 8c6e d0bf
000001d0: 006b 85bf 86c0 05c0 c935 4fc0 f25f 38c0
000001e0: 2fa0 72c0 5bd3 c5bf 209b 81c0 688c 5bc0
000001f0: 6a9a 75c0 cc37 28c0 65df 0fc0 43f6 33c0
00000200: e7ab 1cc0 27eb 44c0 8f9b 1dc0 9e8f 24c0
00000210: 6e51 3dc0 4c7b c0bf 41a3 48c0 856f 5bc0
00000220: 6bfc 9bbf 359c 3cc0 ae25 2bc0 5daf 8ac0
00000230: adb6 1cc0 1acf 1ec0 5db5 89bf a432 38c0
00000240: 23aa eebf 3d8e 21c0 a42a 00c0 3064 1dc0
00000250: 35fa 64c0 17e5 c9bf e84b 8cc0 be53 23c0
00000260: 8a10 2ec0 1951 b4bf 4fa2 15c0 8243 3fc0
00000270: 614f 83bf c371 64c0 cc40 89c0 22a6 f1bf
00000280: a36a 62c0 d4a8 c4bf 3825 0fc0 e464 2ec0
00000290: c724 96bf 0063 aec0 8159 52c0 b835 08c0
000002a0: 7e1f a9bf a0fa 8ec0 ba53 99c0 ff01 21c0
000002b0: 5e80 35c0 e901 58c0 b41c 78c0 5133 6dc0
000002c0: 5070 94c0 7a10 e6bf 192a efbf bf19 6bc0
000002d0: 7909 34c0 4466 9fc0 44a3 1ac0 0e96 0ac0
000002e0: 272a f2bf 2d78 30c0 72e7 22c0 08e0 06c0
000002f0: ed85 89c0 b5bf 87c0 5cf7 e5bf cb7c 38c0
00000300: 4c1a c3bf 9a18 1cc0 e4c0 8fc0 8804 26c0
00000310: 0328 c8bf 4019 a1bf a005 40c0 34c6 83c0
00000320: 2046 aec0 ca7d 32c0 da00 90c0 ef61 c6bf
00000330: fd27 6ebf 116c 8ac0 9524 2ec0 10b7 9fbf
00000340: e66b 8bc0 35ab 73c0 fa3d f3bf 7464 34c0
00000350: 0462 45c0 f200 3fc0 f3d3 94c0 2a6c 85c0
00000360: d19e 5dc0 5498 e5bf 6287 86c0 56ab 2ec0
00000370: b49b c5bf dba2 01c0 8df2 99c0 f640 09c0
00000380: d51a 26c0 a38f 8ec0 c805 edbf 7147 3ac0
00000390: 82ec 64c0 8dbc 7cc0 6cd5 7ec0 7c56 06c0
000003a0: fe84 47c0 dcee 8fbf ef12 f4bf 989b aebf
000003b0: a12d c0bf af1a 38c0 f0e5 9ebf e13f 9cc0
000003c0: 11d9 26c0 fc31 46c0 de93 3dc0 4fc0 c5bf
000003d0: 7e28 98c0 d4df 57c0 7f1b 6ac0 bbdf 30c0
000003e0: a14d 0fc0 add7 c1bf 8225 17c0 c54e 15c0
000003f0: 6377 18c0 adfd 7cc0 657e 08c0 fe35 11c0
-3.0729702 -3.5897555 -4.6585183 -4.46334 -2.1162925 -2.0724447 -2.1853623 -1.3634673
-4.918878 -4.888551 -3.9217618 -0.567354 -2.9923456 -2.5004005 -1.6516138 -3.3305464
-2.4728866 -1.7810425 -2.3839848 -2.7765937 -0.12488324 -1.2021754 -2.946066 -3.2616856
-2.447052 -3.034303 -4.0277066 -2.0334897 -0.49511507 -4.4764085 -1.6936028 -3.1415098
-2.508925 -2.6719782 -3.366563 -2.6099124 -1.4769533 -2.5285916 -3.0929322 -3.6203158
-4.703833 -2.993363 -2.8741477 -0.21877424 -1.3239716 -3.6240032 -3.611449 -2.5242574
-2.9003935 -2.2009797 -4.185106 -3.5137997 -2.7241533 -2.9870563 -1.8537973 -1.5483319
-0.99360067 -3.9136865 -1.7480773 -3.7020354 -3.204491 -3.86627 -3.5511549 -3.0511026
-2.0068161 -1.0931721 -3.7846563 -3.3301437 -2.9984593 -2.9764595 -3.1263907 -2.5865371
-4.9055266 -2.5505571 -3.803757 -3.2828848 -2.8808935 -3.2737818 -3.963821 -2.1494093
-2.3989177 -3.4022582 -2.7219129 -3.654981 -5.2814655 -2.9400017 -2.3999996 -3.8543742
-3.026621 -3.0300937 -2.0580933 -2.5201786 -3.4028547 -3.8632662 -1.7513161 -2.989073
-1.5148115 -3.2107308 -2.486225 -3.7111688 -1.8417565 -2.5584204 -1.0480089 -4.145853
-3.200344 -2.458837 -2.2882898 -2.696565 -2.0735357 -4.0235233 -2.262553 -4.3216724
-2.123194 -1.618259 -2.665989 -1.6283736 -1.0423279 -2.0898757 -3.2376578 -2.880856
-3.7910268 -1.5455126 -4.050186 -3.4304447 -3.8375497 -2.6284056 -2.24801 -2.8119056
-2.447992 -3.0768526 -2.4626195 -2.5712657 -2.958095 -1.5037627 -3.1349642 -3.4286816
-1.2186407 -2.9470341 -2.6741748 -4.3339067 -2.4486496 -2.4813905 -1.0758473 -2.8780909
-1.8645672 -2.5243065 -2.0026026 -2.45924 -3.5777714 -1.5773038 -4.384266 -2.5519862
-2.7197595 -1.4087249 -2.3380315 -2.9884953 -1.02586 -3.5694435 -4.28916 -1.8878825
-3.5377586 -1.5364022 -2.2366467 -2.7249079 -1.1729974 -5.449585 -3.286713 -2.1282787
-1.3212736 -4.468094 -4.7914705 -2.5157468 -2.83596 -3.3751166 -3.876752 -3.706257
-4.63871 -1.7973778 -1.8684722 -3.6734464 -2.8130782 -4.9812336 -2.416215 -2.1654086
-1.8919114 -2.757335 -2.5453763 -2.1074238 -4.2975984 -4.2421517 -1.7966113 -2.8826168
-1.52424 -2.4390016 -4.492296 -2.5940266 -1.5637211 -1.2585831 -3.0003433 -4.1179447
-5.44606 -2.7889276 -4.500104 -1.5498637 -0.9302977 -4.3256917 -2.7209828 -1.2477741
-4.356921 -3.8073246 -1.9003289 -2.8186312 -3.0841074 -2.9844327 -4.6508727 -4.1694536
-3.4628184 -1.7937112 -4.204026 -2.7292075 -1.5438142 -2.025565 -4.8108582 -2.14459
-2.5953877 -4.455034 -1.8517389 -2.9106104 -3.5769353 -3.9490082 -3.9817762 -2.0990286
-3.1174922 -1.1244769 -1.9068278 -1.3641233 -1.5013925 -2.8766286 -1.2413921 -4.8827977
-2.6069987 -3.0968008 -2.96215 -1.5449313 -4.754943 -3.3730364 -3.6579282 -2.7636554
-2.239113 -1.5143944 -2.3616643 -2.3329327 -2.3822868 -3.9529831 -2.1327145 -2.2689204
