grokking/runs/3/grok_opt3.pth (torch, 219039 bytes, 17 tensors)

transformer.wte.weight f4 [14, 64]
000000 c0 bf 51 bc ce 54 75 3b b9 35 ef bb 80 d3 17 38
       -0.012802064 0.003743458 -0.0073001054 3.619818e-05
000010 44 e0 a9 3c 96 fe 9e 3b 5d 6e 88 3c aa 31 fe bb
       0.020736821 0.0048521264 0.016654188 -0.0077573853
000020 11 ea 2e 3c ce 1b 56 3c b3 f7 eb 3b 3e c8 d0 ba
       0.010675923 0.013068153 0.007201159 -0.0015928817
000030 c2 f9 dd bb aa b5 19 bc 62 46 b4 3a ee 0e d1 3a
       -0.006774158 -0.009381691 0.0013753886 0.0015949884
000040 d2 ca d0 3b b8 e1 14 bc ac eb 93 ba 9b ce a6 3a
       0.0063718343 -0.009087019 -0.0011285446 0.0012726368
000050 b1 61 31 bc e3 71 a6 ba 88 96 a2 3c f2 e1 20 3c
       -0.010826514 -0.0012698736 0.01984717 0.009819495
000060 92 ef c7 bb 7a 25 14 3c a8 1c c9 3b b6 00 9d 3a
       -0.006101557 0.009042138 0.0061374493 0.0011978361
000070 63 b2 20 3c 6a 1b 7b ba 94 fc 04 bc 15 ba 3c 3c
       0.009808156 -0.0009578975 -0.00811686 0.011518975
000080 8c 4b 49 bb 5f 1e 10 3d 41 b9 20 ba eb dd cd bb
       -0.0030715195 0.035185214 -0.00061311206 -0.006282558
000090 e7 0d 01 bb 08 3d 6a b9 3f f9 94 bc b0 be d2 3b
       -0.0019692124 -0.00022338715 -0.018185256 0.006431423
0000a0 a3 0a b3 ba 00 89 14 3b e3 c1 cf 3a c0 65 1d ba
       -0.0013659786 0.0022664666 0.001585063 -0.00060042366
0000b0 5f b3 0b 3c 3e f6 14 bc 69 47 17 3a 90 ca b1 b8
       0.008526652 -0.009091912 0.0005770834 -8.477748e-05
0000c0 be e9 f8 ba 43 0f 54 3b 56 92 b2 bc 73 5d ec 3b
       -0.0018990559 0.003235773 -0.021798294 0.0072132885
0000d0 c8 6e 2f 3a c4 28 a0 3b 07 ec 53 3c 6c a1 c6 3b
       0.0006692228 0.004887672 0.012934691 0.0060617235
0000e0 5f f9 02 bc 10 25 8a 3a 9f 9d f0 ba f7 a1 aa 3a
       -0.007994025 0.001053961 -0.0018357522 0.001301824
0000f0 42 eb f5 b9 42 83 6e bb 58 74 ef bb 80 34 10 bc
       -0.00046905322 -0.0036394154 -0.0073075704 -0.0088015795
000100 d1 28 13 3c 25 09 e3 3b 0e 27 2b 3c a3 6d 0f 3b
       0.008981899 0.0069285803 0.010446323 0.0021885417
000110 98 e8 08 3c ba 32 6e bc 21 ed 87 bb 6b 38 95 3a
       0.008356236 -0.014538461 -0.004148141 0.0011384612
000120 03 cf 30 bc 8f 84 b9 3c 38 8c ba bb df bc 39 bc
       -0.010791543 0.022646217 -0.005692985 -0.011336534
000130 14 40 06 3d 2b 58 54 3b e0 23 73 bc 18 22 c1 bc
       0.032775953 0.0032401185 -0.014840096 -0.023575827
000140 e6 82 51 3c 9f 1e 76 bb f8 b1 ad bc c4 25 72 3b
       0.012787556 -0.0037554873 -0.021203026 0.003694878
000150 95 c0 e5 3b 8b 9c 5c bc 71 36 2b 3c 6e e4 15 b9
       0.007011483 -0.013465057 0.010449992 -0.00014294844
000160 a1 2c 18 3d a4 69 fe 39 97 bd 17 bc 97 01 1d 3c
       0.037151936 0.00048525364 -0.00926151 0.009582899
000170 9d 8e 0f bb 36 3a 6f 3c 49 9e fb 3c a0 72 e3 bc
       -0.0021905072 0.014601281 0.030715125 -0.027764618
000180 9d 34 a8 3b 59 09 71 bc e0 33 08 bc b5 91 84 3c
       0.005133225 -0.014711701 -0.008313149 0.01618276
000190 01 84 c2 3b 8b 96 ae 3a 49 a5 ff 3a e6 3b cf ba
       0.0059361462 0.0013320012 0.0019504215 -0.0015810698
0001a0 26 85 41 3b 6b 1d 5a 3c e6 1d 10 3d 3d e6 45 3d
       0.0029528826 0.013312678 0.035184763 0.048315275
0001b0 fc 33 03 bb c9 c4 c4 3b 8c 49 91 bc cb ea 9b bc
       -0.0020019999 0.006004904 -0.017735265 -0.019032856
0001c0 98 93 58 3d 88 02 37 bd c6 5c 9e 3b f4 a6 75 bc
       0.05287513 -0.04468015 0.004832837 -0.014993418
0001d0 fb 40 31 3c 96 85 ec 3b fe d9 31 bc ab 59 ca 3c
       0.010818715 0.007218073 -0.010855196 0.02470096
0001e0 4d 9d 8a 3c db ab aa bb 1d 08 48 bc ea 46 c9 3c
       0.01692071 -0.005208475 -0.012208966 0.024569947
0001f0 18 73 8c bc 28 0e 78 ba a0 d0 1f 3c fa 8a d1 b8
       -0.017144725 -0.00094625587 0.00975433 -9.991783e-05
000200 19 3d 16 bc 62 94 96 3c b5 61 ae bc af fc e0 bb
       -0.00916984 0.018381301 -0.021286825 -0.0068660597
000210 b9 fb fb bb e0 1a 2a bb 15 6a c4 ba b5 a1 16 bc
       -0.00768992 -0.002595596 -0.0014985228 -0.009193827
000220 70 17 29 bd b5 95 28 bc 04 b9 2e 3d 1f 1d 8d bb
       -0.041282117 -0.010289599 0.042656913 -0.00430645
000230 ef 24 86 bb 57 62 71 bc 16 1d 25 3b dd 70 61 3c
       -0.0040937583 -0.014732919 0.0025194339 0.013759819
000240 5d 9c a1 3c 7a 60 38 bc 0d 20 9f 3c 19 26 3d 3c
       0.01972788 -0.011253471 0.019424463 0.011544728
000250 82 af af bc f6 03 00 bc df b2 d0 bb 9f a7 a1 3b
       -0.021445993 -0.007813444 -0.0063689793 0.004933312
000260 41 c9 65 bc 68 f2 9a 3d 5b 2b 87 bd dc 6a 4f 3b
       -0.014025033 0.075657666 -0.06600066 0.0031649387
000270 60 95 2e 3c da f3 04 bc 64 d0 e2 bc 25 34 b2 bc
       0.010655731 -0.008114779 -0.027687259 -0.02175338
000280 48 8b 71 bb fc f9 67 bc 1c 10 10 bd b7 8d 8f bc
       -0.00368567 -0.014158722 -0.035171613 -0.01752363
000290 da a2 8b bb 69 c3 47 3c c7 ad f4 bb bb 41 88 bb
       -0.004261357 0.0121925855 -0.007467005 -0.0041582263
0002a0 38 b3 4b bb ab 6b 9d bd 3d 4f b9 bc 3a 0b 26 bc
       -0.0031082164 -0.07686552 -0.022620792 -0.010134513
0002b0 f8 5a d4 3b 54 dc 20 bd be ba fb 3b 86 1a a0 3c
       0.006480571 -0.03927262 0.0076821735 0.019543897
0002c0 c0 82 91 bb 46 67 3c ba 27 f0 00 bc 93 6f a3 bb
       -0.0044406354 -0.000718702 -0.007869757 -0.004987666
0002d0 0b 13 43 3d 62 db f9 bb f1 91 2a bd 76 52 a8 bc
       0.047625583 -0.0076250294 -0.041643087 -0.020547133
0002e0 a9 6f 09 bc e0 b3 35 bc 85 3e ac 3b 83 63 b0 bc
       -0.008388438 -0.011090249 0.0052564763 -0.021531826
0002f0 29 06 84 3a bd e0 89 bc 88 69 e0 bc 3b 71 b2 39
       0.0010072637 -0.016830796 -0.027394071 0.0003403517
000300 b3 12 80 bb 22 ac 83 bd 28 38 fd 3a ff 09 c2 ba
       -0.003908479 -0.06429316 0.0019319104 -0.0014804004
000310 e2 36 09 bb b0 49 ef bb 2d e0 b2 bb 69 e7 55 bb
       -0.0020937254 -0.0073024854 -0.0054588527 -0.0032639152
000320 8b 07 a6 bc dc 57 5d bb fb 03 a4 3c f6 61 a6 3b
       -0.020267269 -0.0033774292 0.02002143 0.005077596
000330 ff 37 17 bb 1c 3a 1b bc a0 6a 55 bc 63 32 7b 3c
       -0.0023074148 -0.009474304 -0.01302591 0.015331837
000340 5c f5 ad bc 2f 69 86 bb 4e 7f bb 3c aa d1 d8 3b
       -0.02123516 -0.0041018943 0.022887852 0.006616791
000350 fe 99 7f ba 9c c7 b4 bb c2 86 a4 bb 0f e9 d5 ba
       -0.00097504247 -0.0055169594 -0.005020947 -0.0016320067
000360 dc 1f f1 bb 82 3c f4 3b 30 3f 20 bd d1 70 bc bb
       -0.0073585343 0.007453502 -0.03912276 -0.0057507535
000370 17 d9 35 3b d5 19 de bb 83 b2 12 3c 3f 34 5f bb
       0.0027747804 -0.0067779818 0.008953693 -0.003405824
000380 87 76 4b 3b 6d 66 c8 bb 1c 4b aa bb 8d ce 43 3a
       0.003104599 -0.0061157257 -0.005196942 0.0007469438
000390 44 a1 95 3b 50 5b 5a 3d 36 7d 62 bb 68 62 7b ba
       0.0045663435 0.05330974 -0.0034559495 -0.0009589554
0003a0 16 f9 2c bc 27 ca 96 bb 29 1e 58 bc f2 3b 3c bc
       -0.010557434 -0.004601735 -0.0131907845 -0.011488901
0003b0 69 96 e0 ba 83 88 f1 ba d0 d8 f0 b7 da a6 a8 3c
       -0.001713467 -0.0018427524 -2.871119e-05 0.020587374
0003c0 68 ba ac b9 7e 15 1f 3b 0c e8 06 3c 57 4f b0 3c
       -0.0003294528 0.0024274285 0.008234035 0.021522207
0003d0 50 1e 5d 3a ee 2b f4 ba c5 20 34 bc e2 2d ff 3b
       0.0008434998 -0.0018628815 -0.010994141 0.007787452
0003e0 a8 a6 25 bb ad e2 a9 3a 25 b5 9f bc 43 ea a0 bb
       -0.0025276337 0.0012961231 -0.019495556 -0.0049107387
0003f0 49 df d0 3c 25 3a 89 bd f4 e1 e1 3c 14 56 06 bb
       0.025497096 -0.06700543 0.027573563 -0.0020498084

transformer.wpe.weight f4 [32, 64]
000000 7c 7b ed ba 7e bf 2c bc ac 45 44 bc e7 6d c1 3a
       -0.0018118466 -0.010543702 -0.011979502 0.0014757485
000010 9f 36 e6 3a 9f 8a 42 3b 6f 39 db bb 77 c1 12 3a
       0.0017563886 0.0029684675 -0.006690196 0.00055982865
000020 1e 5e ce bb 0b b5 9e 3b 84 47 bf bb 4b 78 39 bc
       -0.0062978407 0.0048433593 -0.0058373827 -0.011320184
000030 b8 93 fe 3b 38 93 2a b8 d7 e5 42 bc 22 9c 43 bc
       0.0077690743 -4.0668267e-05 -0.011895618 -0.01193908
000040 e0 88 65 bc 37 a6 bc bb 6c bd 9f bb 22 f2 53 bb
       -0.014009684 -0.005757119 -0.004874876 -0.0032340367
000050 04 d5 f1 bb 96 b9 5e b9 27 7d 75 3b 08 ca 66 3a
       -0.00738013 -0.00021240706 0.003745863 0.0008803909
000060 26 12 0f 3c 57 16 df bb 49 56 6b 3c 6b 36 16 bc
       0.008732354 -0.006808083 0.014363834 -0.009168248
000070 78 88 02 bc a6 c0 bd bb 3b 9b e9 39 4e 06 91 3b
       -0.007967107 -0.0057907877 0.0004455688 0.0044258004
000080 31 2f 1b bb 72 e1 05 bc ad cd 68 3c 9c 50 b0 3b
       -0.0023679251 -0.008171426 0.014209193 0.005380703
000090 1e b0 99 bb 08 e5 ca bb cd 9d 88 bb 7c da 4d 3c
       -0.0046901843 -0.0061918534 -0.004169202 0.012564298
0000a0 7a 55 40 bb c8 45 d3 3b 34 52 31 3b 4e 8a e9 ba
       -0.0029347823 0.0064475276 0.0027057054 -0.0017817707
0000b0 29 08 89 3a 7a 55 c8 3b b4 f1 08 bb 3e 65 f9 bb
       0.0010454702 0.006113705 -0.002089602 -0.007610946
0000c0 80 84 04 ba e1 2c 4e bb 31 5b be 3a ee 4b 6d bb
       -0.00050551444 -0.0031459855 0.0014523027 -0.0036208588
0000d0 03 72 2e bc a3 3c 8b 3d c0 02 51 bb 1a 6c 4d ba
       -0.0106473 0.06798675 -0.0031892508 -0.0007836238
0000e0 bd 10 48 ba 70 38 05 3c 76 0b 4c bc 27 2a 4f 3c
       -0.0007631889 0.0081311315 -0.012453904 0.012644327
0000f0 24 91 4b 3c 6c 22 4b bc 35 24 26 3b 3f 5c ed 3a
       0.012424741 -0.0123983435 0.002535117 0.0018109157
000100 94 b2 d8 38 f5 1e 33 3b a4 1d 62 3c 43 c5 e9 38
       0.000103329454 0.0027331684 0.013801012 0.00011147049
000110 f0 26 e3 b6 a5 b4 2b bc 19 8e 6f ba a0 98 c8 36
       -6.76966e-06 -0.010480081 -0.00091383007 5.9782324e-06
000120 44 c8 96 3a 7c b8 02 bb 02 a9 47 bc 04 37 0e 3c
       0.0011503776 -0.0019946387 -0.012186291 0.008680109
000130 3e 7e 88 bc b1 77 57 bb 3a 7b 8a bc c1 d0 2c 3c
       -0.01666176 -0.0032877738 -0.016904462 0.010547818
000140 e7 e8 c8 3b d8 44 8d bb ad f9 67 3b db ee 8c 3b
       0.0061312797 -0.0043111853 0.003539662 0.0043009347
000150 30 76 ad 3b ae 13 b1 38 60 98 8c 3b 8e f3 82 3a
       0.00529363 8.443683e-05 0.0042906255 0.0009990798
000160 19 64 d1 bc 18 00 f2 bb 63 e8 8a bc 04 6b b4 ba
       -0.025560426 -0.007385265 -0.016956514 -0.0013764803
000170 76 be 18 3c 35 e5 8e 3d 58 5e 04 bb 2f 95 6b bb
       0.009322753 0.069773115 -0.0020197835 -0.0035947075
000180 c6 e1 80 3b db 83 2e bc 00 cd 1a bc 82 51 6a bc
       0.0039331643 -0.010651554 -0.00944829 -0.01430166
000190 21 47 b7 ba b3 dc a0 3c c1 7c 69 bb 23 a4 15 bd
       -0.001398299 0.019636488 -0.0035627338 -0.036533486
0001a0 c3 db 99 ba f5 15 49 3c e5 d2 f6 ba 86 7e 90 ba
       -0.0011738468 0.012273301 -0.0018831162 -0.0011024035
0001b0 30 d7 fb 3a 4d 30 1c bc 80 f4 c2 bb 36 3f 0a 3c
       0.0019213911 -0.009533 -0.005949557 0.008437922
0001c0 eb 4b ec 3b 7e ed 42 bb ae 4b b0 bb 88 42 58 3c
       0.0072111986 -0.0029743607 -0.0053801155 0.013199456
0001d0 05 7d 12 3c 94 79 d6 bb ca 3e c1 39 a6 24 6a ba
       0.00894094 -0.006545255 0.0003685861 -0.00089318526
0001e0 1f 81 c1 bb 01 73 21 bb 5c 14 a9 bc a3 10 30 3c
       -0.005905285 -0.0024635198 -0.02063959 0.010746154
0001f0 98 64 90 bb f4 10 e9 3a 9a 2f 9f bb 85 1b 1c bb
       -0.004406523 0.0017781542 -0.0048579695 -0.0023820114
000200 24 08 66 3b 27 27 38 3c d7 2d 85 bb 75 98 3f bb
       0.0035100067 0.011239803 -0.0040643024 -0.0029235159
000210 47 a7 e0 3d 39 b0 21 bc cf a8 9e bb e3 0a 8f bb
       0.109694056 -0.009868675 -0.004841901 -0.0043653115
000220 2d 17 8d 3c 2c 9b 13 3c 22 31 c0 bc db 3e a4 bc
       0.017222965 0.009009164 -0.023460928 -0.020049503
000230 c0 f0 c5 3a 21 21 b7 ba b8 b1 8d bb 17 bf 24 bc
       0.0015101656 -0.0013971665 -0.0043241642 -0.010055325
000240 ee c2 73 3c de 42 e3 ba c6 c6 72 bc 57 af bb bb
       0.014878018 -0.0017338654 -0.014817899 -0.0057276892
000250 da 1f ee ba 5f 89 39 39 3c 7b 98 ba d4 54 9d bb
       -0.0018167451 0.0001769415 -0.0011633406 -0.004801372
000260 1e 59 36 3c 65 08 dd bb a3 bc 6a 3c f5 f3 0a 3c
       0.011129646 -0.0067453855 0.014327201 0.008481015
000270 fd 4a b6 ba 9b 0b 5f bb 6b d4 ce bb 8b dd b2 bb
       -0.0013907846 -0.0034034017 -0.0063119433 -0.005458539
000280 60 15 26 3b 0b 2d 09 bc f2 5c b6 bb 9a b2 30 3c
       0.002534233 -0.0083725555 -0.005565279 0.010784769
000290 da 1c 05 3b 3d fb 22 bc e3 26 b7 bb 08 c0 46 3b
       0.0020311386 -0.009947595 -0.0055893525 0.0030326862
0002a0 d0 cc 6f 3b 9f 2f 89 3c 27 c1 26 3c 54 5a 5a 3c
       0.0036590584 0.01674634 0.010177887 0.0133272
0002b0 4b 80 a1 bb da 06 69 bb 95 08 5d bb f6 08 4f bc
       -0.004928624 -0.0035557062 -0.003372704 -0.012636414
0002c0 c5 0b 3e ba 35 52 9c b8 e9 6a 22 bc f7 d7 0e bc
       -0.00072496786 -7.453972e-05 -0.009913185 -0.008718482
0002d0 4a 73 c3 ba 78 c7 7d bb 41 28 52 3c 18 90 be bb
       -0.0014911678 -0.003872363 0.01282698 -0.005815517
0002e0 95 12 16 ba 00 3c 90 3b 8e 17 c7 bb c3 0c 24 3c
       -0.0005724815 0.004401684 -0.006075806 0.010012808
0002f0 ed fa e4 bc 11 63 50 3a 84 87 1a bc 98 72 ab bb
       -0.027951682 0.00079493324 -0.0094317235 -0.0052321665
000300 cf 32 52 bb b9 db 09 3c 13 02 b7 bb 21 f1 be 3d
       -0.0032073741 0.008414202 -0.005584964 0.093233354
000310 8e ea be b9 30 f0 89 bc 15 94 7b 3b 35 2b a6 bb
       -0.0003641438 -0.016838163 0.0038387824 -0.0050710686
000320 eb 72 3c 3c 3f f9 fe 3b 03 7d 48 bc 2a 30 98 bc
       0.011502008 0.0077811773 -0.012236836 -0.018577654
000330 5a fc 8d 3b 58 41 cf 3a d7 95 53 3a 80 50 07 bc
       0.004333061 0.0015812321 0.0008071339 -0.008258939
000340 21 9c 12 3c d2 9d 01 ba dd 75 ec bb 95 f1 73 bb
       0.008948357 -0.00049444765 -0.007216199 -0.0037222852
000350 36 57 21 bc 3c 38 e4 bb 92 bc f4 3b b1 66 30 3a
       -0.009847453 -0.0069647115 0.0074687684 0.00067291694
000360 15 a8 2f 3c c1 e3 8f ba 4d 6f 08 3c 11 c7 f7 3b
       0.010721226 -0.001097791 0.008327317 0.0075615724
000370 5b e7 07 3b d3 59 a7 bb 93 9f a9 bb 06 96 d4 bb
       0.0020737264 -0.0051071434 -0.0051764934 -0.0064876107
000380 8d 6e 49 3b f4 d7 b2 bb 96 49 ab 3b 63 03 40 3c
       0.003073606 -0.0054578725 0.005227278 0.011719557
000390 45 31 19 bb b3 b1 22 bc b9 80 04 bc f0 ab 8d 3b
       -0.0023375314 -0.009930062 -0.0080873305 0.004323475
0003a0 6a 7b 05 3b 9f 69 5b 3c d4 7e c7 3b db 0e c9 3b
       0.002036775 0.013391881 0.006088117 0.006135804
0003b0 0b c3 74 3b 2a 08 9c bb f7 50 6f b9 13 59 c9 bb
       0.00373477 -0.0047617154 -0.00022822978 -0.0061446517
0003c0 4a 9d 6c 3b 51 e0 f1 ba f2 77 5b bc 0d b4 37 bc
       0.0036104494 -0.0018453692 -0.013395296 -0.011212361
0003d0 c7 a7 b3 3a 1d d8 8c bb ab 6b ba 3b 04 ec 2f ba
       0.0013706618 -0.0042982236 0.0056891046 -0.0006710889
0003e0 b5 f0 d3 39 88 7f 1e bc 1c 5e 12 bb 2f d1 cd 3a
       0.00040424397 -0.0096739605 -0.0022333926 0.00157026
0003f0 4c 34 b7 bc 36 a8 c0 ba 52 ba 20 3b 66 61 85 bb
       -0.022363804 -0.0014698568 0.0024525118 -0.0040704487

transformer.h.0.ln_1.weight f4 [64]
000000 10 8e c4 40 92 7b 53 40 a6 7e d4 3f a7 bc 05 41
       6.1423416 3.3044171 1.660115 8.358558
000010 8c 0d 0e 41 51 b3 d8 3f 2c ff ae 40 f8 15 fe 40
       8.878307 1.6929723 5.468649 7.9401817
000020 12 e5 13 3b b7 a6 08 40 dc 6c ca 3a 80 bf 17 40
       0.0022566956 2.1351755 0.001544382 2.3710632
000030 90 0f 0a 40 56 d3 3c 40 7e 22 10 40 72 c5 ce 3f
       2.1571999 2.950399 2.2521052 1.6154006
000040 f4 b5 07 40 4a 7f ce 40 c6 6d d2 3f db 47 1f 40
       2.1204805 6.453038 1.643975 2.4887607
000050 3f 30 e7 3f 6c 12 e8 40 b4 5e 07 40 73 d0 1d 40
       1.8061599 7.252249 2.1151552 2.4658477
000060 bc ad eb 3f d0 ad 35 40 ba 63 18 3b 97 6a 1f 40
       1.8412395 2.8387337 0.00232528 2.4908807
000070 ae 78 ce 3f d3 fc 10 41 1c 83 0d 40 a0 0f bb 3f
       1.6130579 9.061725 2.2111273 1.4614143
000080 51 e2 bb 40 5d d4 d5 40 16 e6 a4 3f 34 cc 25 40
       5.8713765 6.6821733 1.2882717 2.5905886
000090 a5 d8 6c 40 3b 45 0b 40 db c0 a5 40 69 62 12 40
       3.700723 2.1761005 5.179792 2.2872565
0000a0 1a 7a b6 40 e3 f7 87 3f ee e2 fa 3f 53 da 8b 3f
       5.702405 1.0622524 1.9600503 1.0926002
0000b0 a2 8b 26 40 3a 36 7a 40 a3 64 d6 b9 60 92 d2 3f
       2.6022725 3.9095597 -0.0004089224 1.645092
0000c0 d3 e9 8a 40 9f b9 5a 41 df 29 f9 3f 86 4c b7 3f
       4.341043 13.670318 1.9465903 1.4320228
0000d0 14 28 8e 40 e2 f9 2d 41 c0 08 0e 37 aa 4e ff 3f
       4.4423923 10.873507 8.465897e-06 1.9945881
0000e0 ea bd 2d 3f e4 47 d0 3f 0e 89 04 40 ae fe f1 3f
       0.6786791 1.6271939 2.0708652 1.8905847
0000f0 e8 da b1 3a 7f 5d 72 40 24 1f 13 40 a2 10 91 40
       0.0013569267 3.7869565 2.2987757 4.5332804

transformer.h.0.ln_1.bias f4 [64]
000000 8f ef 9d 3e aa 82 69 3f 91 50 e9 3c d6 4d c2 be
       0.3084683 0.91215 0.0284808 -0.3795001
000010 04 67 bc bd a6 44 12 bf f3 fd 54 be a4 c7 81 be
       -0.09199336 -0.57136 -0.20799999 -0.25347626
000020 f7 97 61 b9 e6 a2 42 be ae 35 6a 3b 58 2c af bf
       -0.00021514283 -0.19007453 0.0035737562 -1.3685408
000030 49 b9 5d 3f 18 c9 1c bf bb 1c 95 bf 02 e6 44 bf
       0.8661085 -0.61244345 -1.1649393 -0.76913464
000040 ae 08 80 3f 89 16 2b bd 18 de 06 bf e2 8b 09 bf
       1.0002649 -0.041769538 -0.5268264 -0.5372907
000050 a7 2f fb 3d be 9a 57 3f 44 6e 3a bf 55 08 3f bf
       0.12264948 0.8422049 -0.728245 -0.7462209
000060 7e 09 6c 3f 83 cd 01 bf 66 4d 28 bb 5d 67 8d 3f
       0.92201984 -0.5070421 -0.0025680899 1.1047169
000070 12 14 ea be a0 ea 48 bd 4a ca cc 3e c7 cc e4 be
       -0.45718437 -0.04905188 0.39998084 -0.44687483
000080 84 83 45 bd 0f 63 89 40 6e 1f 20 bb 1b 7d c5 3f
       -0.048221126 4.293342 -0.0024432796 1.5428804
000090 37 dd 1b 3f 8d c9 48 bf f6 60 a6 3f a4 95 e8 bc
       0.6088442 -0.7843254 1.299834 -0.028391667
0000a0 95 8b 8b bd d7 e4 25 3e 4f 0e 29 3f 1f 59 97 3e
       -0.068137325 0.16200577 0.6603746 0.29560181
0000b0 ab de 4b bf 11 e0 a9 3f 78 4a ac ba 84 15 34 bf
       -0.7963664 1.3271505 -0.0013144752 -0.7034533
0000c0 a2 f1 40 bd 9a a8 50 bf 21 b7 1c 3f 38 d0 dd 3d
       -0.04710544 -0.81507266 0.6121693 0.1083073
0000d0 e3 f7 bc be 40 b6 5e 3f 60 32 6f ba ed c7 70 3e
       -0.36907873 0.8699684 -0.0009124633 0.23513766
0000e0 55 37 4a 3e 0f f9 17 3d cc e1 07 bf 65 34 8b 3f
       0.1974767 0.037102755 -0.53078914 1.0875365
0000f0 77 c8 fd 39 27 fb 98 3f 8a 22 46 3e d8 48 8f be
       0.00048405278 1.1951646 0.19349113 -0.27985263

transformer.h.0.attn.c_attn.weight f4 [192, 64]
000000 62 3e bb ba 26 3d 6b ba 0f 20 e7 ba 30 0b 72 bc
       -0.0014285559 -0.00089736504 -0.0017633456 -0.014773175
000010 08 43 de 3b 9e 5b 5e bb b6 96 22 bb d6 f9 13 3c
       0.006782893 -0.003392912 -0.002480907 0.0090317335
000020 9b 0c 63 bc 52 b3 78 3b fd 65 3f bd 91 ff 95 bb
       -0.013857986 0.003794868 -0.046728123 -0.004577585
000030 cd b0 34 3b 79 1d 85 ba 51 82 52 bb 70 e9 6c bb
       0.0027571202 -0.0010155878 -0.0032121132 -0.0036149882
000040 6c 79 19 3b 2e 98 89 3a d2 ad 04 3a d1 53 79 3a
       0.002341832 0.0010497624 0.00050613016 0.0009511086
000050 8b 04 98 3b 0f 23 49 bc 2c e6 1e 3b 56 28 c8 bb
       0.0046392134 -0.012276425 0.002424608 -0.006108324
000060 1f 06 33 3b 0d 21 ac 39 bc 3c 1f 3d e9 22 c3 3b
       0.002731688 0.0003283102 0.03887628 0.0059550893
000070 8c 71 4e ba b2 67 61 3a ed 3c 6d ba 57 04 bf bb
       -0.0007875196 0.00085985207 -0.0009049911 -0.005829375
000080 20 44 ad 3a 8c c6 14 bc b6 30 ac 3a bb 89 37 3b
       0.0013219155 -0.00908054 0.0013137076 0.0028005678
000090 a4 ee 56 ba f6 57 fb 3a b7 92 b1 bb 62 17 d8 39
       -0.00081990124 0.0019175995 -0.005419101 0.00041216152
0000a0 24 db 77 3a 6c 01 16 3b 33 bb 45 3b bb bc 2f bc
       0.0009454957 0.002288903 0.0030171394 -0.010726149
0000b0 72 02 41 bc 4c b7 ed b9 ad ca 35 3b c1 bb 20 bb
       -0.011780368 -0.0004534073 0.0027739212 -0.0024525973
0000c0 d9 11 3b bb 54 c0 4d bb 92 e0 9f bb e0 8b a3 38
       -0.0028544574 -0.0031395154 -0.004879066 7.7984994e-05
0000d0 42 01 af 3a 44 c1 af 3a d4 05 40 bd 3e 44 92 3b
       0.0013351815 0.0013409038 -0.046880558 0.0044637015
0000e0 9a dc 32 3c ff 58 36 3a d4 13 4b bb 0a 89 82 3a
       0.010916853 0.00069560105 -0.003098716 0.0009959054
0000f0 1f 9e 3b 3c 9a cf 80 b9 56 60 b6 ba d2 b0 37 bb
       0.011451273 -0.00024568738 -0.0013914208 -0.0028028977
000100 e4 49 81 bb 25 be 26 bb 67 f2 9a bc d1 cd b3 3a
       -0.003945576 -0.0025442925 -0.018914415 0.0013717954
000110 57 6e 90 3b 2f 29 2e 3c f8 7b 8d bc a5 c8 13 3c
       0.004407685 0.010629936 -0.017271027 0.009020005
000120 17 94 78 3b 42 73 15 3c bc f3 d5 bb 94 3b 15 bc
       0.0037930065 0.009121718 -0.0065292995 -0.009108443
000130 cd e1 a0 3c d6 a1 f7 3b b4 ed 31 bb f3 6b 86 bc
       0.01963892 0.007557134 -0.0027149739 -0.016408896
000140 06 dd b1 bc d6 d4 8f 3b e8 f6 63 bc 3d 34 00 3b
       -0.021711838 0.0043893857 -0.0139138475 0.0019562386
000150 17 35 0f 3c 31 30 5f bb f8 4d 23 bc a7 5a 9e bb
       0.008740685 -0.0034055824 -0.00996732 -0.004832584
000160 6f 5d b9 3c 80 ab 8e bb b9 d6 c2 ba 35 5f 15 bc
       0.02262756 -0.0043539405 -0.0014865018 -0.009116937
000170 61 89 8b bc c8 3f c2 bc 9a e2 24 3c 64 8a 51 3c
       -0.01703328 -0.023712054 0.010063792 0.012789343
000180 34 c7 ad bb 6a 8c c2 bb d7 0a 6d 3c 9b 8b 58 3c
       -0.005303288 -0.005937149 0.014467916 0.013216878
000190 49 6e ef bb 3a 20 6e bc 2c 62 c6 ba f7 1d e9 3c
       -0.007306848 -0.014534051 -0.0015135459 0.028456671
0001a0 ce 62 1b 3b 71 40 25 bb 5b e4 1b 3c c2 f4 71 3b
       0.0023710015 -0.0025215412 0.009514893 0.0036919569
0001b0 5d 8f bb bb 6a 12 2d 3c fe d3 83 3b bf e5 4f bc
       -0.0057238773 0.010563472 0.004023074 -0.012689053
0001c0 9b 68 35 bc f8 0e 8f 3a 4c 82 d9 3b d3 fd 96 bc
       -0.011072303 0.0010914495 0.006637847 -0.01843158
0001d0 cf 7e 5d bc 5a a7 7e 3c f4 d7 31 bb 0b 63 18 3c
       -0.013519003 0.015542829 -0.0027136775 0.009300957
0001e0 05 0c 49 3b 86 98 9c b8 28 52 15 3b 16 59 a6 3b
       0.003067733 -7.4670694e-05 0.0022784565 0.005076538
0001f0 45 ba cc 3a eb e0 09 bc 87 17 cb 3b ef 2c d6 3b
       0.0015619477 -0.008415441 0.006197873 0.006536118
000200 d9 73 ca 3a b3 fd 15 3b 6f e1 3e 3b e8 0d 47 b9
       0.0015445902 0.0022886812 0.0029126068 -0.000189833
000210 86 cd 04 3a 26 4f 80 3b e3 f2 e9 3a d7 24 b7 3b
       0.0005066026 0.003915685 0.0017848875 0.0055891084
000220 44 28 a8 3c 3c 91 95 bb c1 c0 32 3c d8 ef 8d 3b
       0.020527013 -0.0045644324 0.010910214 0.00433157
000230 f3 51 e3 ba 61 52 97 bb b6 f2 4a b8 b0 12 80 3b
       -0.0017343148 -0.0046179746 -4.8386595e-05 0.0039084777
000240 88 77 03 3b 8b 47 86 38 45 0f 2e 3b dd 30 c5 3a
       0.002006026 6.402944e-05 0.0026559394 0.001504447
000250 6b fc ad b9 6f 3d 81 3c 7e 9a 83 bb 42 26 b7 3a
       -0.00033185197 0.015776364 -0.0040162196 0.0013973194
000260 74 07 94 bb e4 f7 61 3a 2f 98 e8 bc 88 ee 7b ba
       -0.00451749 0.00086200074 -0.02839288 -0.0009610434
000270 67 40 f2 ba f2 9f 04 ba cd c4 81 3a 59 28 77 3b
       -0.0018482328 -0.0005059234 0.000990057 0.0037713258
000280 fd 1d 4d bb 64 d4 48 39 02 94 f8 b9 5e 84 8f bb
       -0.0031298392 0.00019152608 -0.0004741252 -0.004379793
000290 32 8d bb 3a d8 c4 19 bb cd 6e 88 ba f6 32 07 bb
       0.0014309047 -0.0023463275 -0.0010408998 -0.002062974
0002a0 78 d2 0c bb b6 e7 1e bb fc 66 ce bb fb 6a 7a ba
       -0.0021487754 -0.0024246997 -0.006298898 -0.00095526845
0002b0 52 06 e8 3b d7 8f 13 3b 68 78 0f 3c 65 c3 ca 3a
       0.0070808316 0.0022516155 0.008756734 0.0015469609
0002c0 60 59 36 b9 99 be 09 bc 04 d8 95 3b 78 ba 98 3a
       -0.00017390167 -0.008407258 0.00457287 0.0011652252
0002d0 32 fc 34 39 fb 0d 56 ba 18 6d b7 3b f6 90 c9 bb
       0.00017260088 -0.00081655354 0.005597722 -0.006151314
0002e0 57 e4 d6 3b 15 86 f8 ba df d6 e2 3a c6 8e 88 ba
       0.006557982 -0.0018960858 0.0017306468 -0.0010418526
0002f0 2f 50 ff bc 90 ef 8c 3a 66 aa e5 ba 49 ca 99 ba
       -0.031166164 0.0010752548 -0.0017522096 -0.0011733259
000300 a1 6a 80 bb 1e f3 26 bb 01 c6 99 bc 26 19 af 3a
       -0.003918961 -0.00254745 -0.018771173 0.0013358935
000310 6d ce 8f 3b 38 56 2c 3c 58 58 8c bc d0 bc 14 3c
       0.0043886215 0.010518603 -0.01713197 0.0090782195
000320 4b bf 79 3b 15 04 13 3c 7d 08 d6 bb ec b3 15 bc
       0.0038108404 0.008973141 -0.0065317736 -0.009137135
000330 5d 9a a0 3c cf 02 f8 3b ee 35 2f bb 3e 9a 86 bc
       0.019604856 0.007568694 -0.0026735025 -0.01643097
000340 fc ff b1 bc 84 91 95 3b 4c 7f 66 bc 97 7e f3 3a
       -0.021728508 0.004564466 -0.014068436 0.0018577155
000350 bc c7 0d 3c 9a 7e 5f bb 9e 55 23 bc 1d 5a 9f bb
       0.008653577 -0.003410256 -0.009969143 -0.0048630373
000360 00 42 b9 3c cb 84 93 bb f7 0b c2 ba eb 38 14 bc
       0.022614479 -0.004501914 -0.0014804591 -0.009046773
000370 d3 42 8c bc 36 6b c1 bc b1 4e 26 3c 3f 34 52 3c
       -0.017121708 -0.023610692 0.010150597 0.012829839
000380 71 f3 ad bb d6 d9 c1 bb d6 ed 6d 3c 31 0c 59 3c
       -0.0053085615 -0.0059158606 0.014522037 0.013247536
000390 66 ac ee bb 65 3f 70 bc 10 ec c4 ba 7c 44 e8 3c
       -0.007283735 -0.014663552 -0.0015023965 0.028352968
0003a0 be 9c 17 3b a9 b6 1d bb a2 38 1c 3c ca 21 68 3b
       0.0023134197 -0.0024065173 0.009534987 0.003542053
0003b0 c7 49 ba bb a4 1f 2d 3c 7f 9c 83 3b e2 cc 51 bc
       -0.0056850645 0.010566626 0.0040164585 -0.0128051955
0003c0 91 8f 34 bc 5b 19 8e 3a 74 3d d8 3b ee 43 97 bc
       -0.011020557 0.0010841297 0.0065991227 -0.018465009
0003d0 c9 44 5f bc 91 c0 7e 3c c2 6e 32 bb b1 c3 17 3c
       -0.0136272395 0.015548841 -0.0027226661 0.009262965
0003e0 c0 45 49 3b 92 4c 67 b9 9d db 16 3b 4a 6c a4 3b
       0.003071174 -0.00022058401 0.0023019083 0.005017792
0003f0 49 0a cf 3a d1 9a 08 bc 8b 3f cf 3b 43 27 d6 3b
       0.0015795912 -0.008337692 0.0063247136 0.006535442

transformer.h.0.attn.c_attn.bias f4 [192]
000000 ac ad d7 ba c1 f6 af bf 17 3e f2 3a 01 2f b0 bf
       -0.0016454956 -1.3747178 0.0018481639 -1.3764344
000010 38 80 db 3e d7 ea 98 3d 39 45 e5 be b7 c4 bd 3e
       0.4287126 0.07466667 -0.44779375 0.37064144
000020 e3 4d b0 bf 42 06 a9 bb a6 eb 41 bf 32 61 7c 3b
       -1.3773769 -0.0051582167 -0.75750196 0.0038510081
000030 07 89 2a 3b bc 32 0c bb 8b 03 90 3f b2 c9 fa 3f
       0.0026021616 -0.0021392545 1.1251081 1.9592803
000040 8e 52 09 bb b2 94 9e be 68 ba 7f 3a 7e 10 7d ba
       -0.0020953747 -0.3097282 0.0009755255 -0.00096536416
000050 7f e7 af 3f a5 4c a4 3b 8e e4 1f bf 6a c1 14 ba
       1.3742522 0.0050140196 -0.6245812 -0.0005674573
000060 ec 17 20 3b 7e dc 28 3b cb d1 49 3e 62 5e c3 3b
       0.002442832 0.002576619 0.19708936 0.005962179
000070 b2 7f b5 3a 34 e9 b7 ba e2 4e 98 ba ce fd 0a 3f
       0.001384726 -0.0014031292 -0.0011620189 0.54293525
000080 72 8f 27 3e 8c cf 28 3e e3 f3 f8 3d 96 25 36 3b
       0.16363314 0.16485423 0.12155893 0.00277934
000090 0f 41 25 3b 0d 4e a1 3b e5 ae 1c 3e 1f 9f ac 40
       0.002521578 0.0049226345 0.15301092 5.394424
0000a0 a2 42 ea 3b 7d b4 20 38 3e c8 19 bb c8 4b 82 bb
       0.0071490565 3.8315065e-05 -0.00234653 -0.003976319
0000b0 e3 c5 1c 3e 98 70 2c bb 99 c2 27 3e 89 ff 21 3c
       0.15309863 -0.0026312228 0.16382827 0.0098875845
0000c0 3c 2c 3f 3a 35 91 b1 3b ee 60 41 bd fa 64 63 3b
       0.0007292663 0.0054189214 -0.04721158 0.0034697638
0000d0 01 e9 ab 3a 38 22 95 40 55 e5 86 b9 e4 17 19 bd
       0.0013115705 4.660427 -0.00025729337 -0.0373763
0000e0 ac b8 80 3a 71 df c3 3a 41 f3 f4 ba ea af 9b be
       0.0009820662 0.001494391 -0.0018688218 -0.3040765
0000f0 c7 8a f8 ba 00 fe b7 39 79 71 b7 3d 9e 69 17 3b
       -0.0018962257 0.00035093725 0.0895719 0.0023103724
000100 f2 65 24 40 d7 39 6c c2 4d 24 b3 3f 68 4c 69 c2
       2.5687222 -59.056484 1.3995453 -58.324615
000110 43 9b 62 42 63 52 84 41 46 20 23 c2 91 14 7b c0
       56.651623 16.540228 -40.781517 -3.9231303
000120 ad b9 65 c2 0f f2 12 40 2b d0 69 c2 3e 96 7c c1
       -57.431324 2.296024 -58.45329 -15.78668
000130 ae fb 17 be 2f 97 02 40 74 45 19 42 f6 49 a0 42
       -0.14842102 2.0404775 38.317825 80.144455
000140 ae 5a 2a c0 ab d9 82 c2 8f 66 15 c2 b1 6a 0e c1
       -2.6617846 -65.42513 -37.350155 -8.901048
000150 f9 17 55 42 a8 fa 80 bd 66 26 94 c2 98 fc 0c c1
       53.27341 -0.06297809 -74.075 -8.811668
000160 10 45 fa c1 cf 2b 1c 41 05 c2 0f 42 ec 5d 52 c1
       -31.283722 9.760695 35.939472 -13.14793
000170 4d de 0f 42 e5 6e 2d 3e 3a 85 db bf 22 d7 9d 41
       35.96709 0.16936834 -1.7150033 19.730045
000180 17 71 74 41 34 f7 8b 3f 26 a2 1f c2 c3 cd 19 c1
       15.27761 1.0934815 -39.908348 -9.612735
000190 fd 30 e6 c1 0c c9 34 41 f4 64 fc 41 6c 82 1a 42
       -28.77392 11.299084 31.549294 38.627365
0001a0 5f 20 f3 40 67 c9 7c 41 a0 1c 92 c1 08 51 80 41
       7.5977015 15.7991705 -18.263977 16.039566
0001b0 8d 5a bb 41 d1 bc 05 c1 ad ed 24 42 c4 00 e1 41
       23.419214 -8.358598 41.232105 28.125374
0001c0 a2 df 07 41 ac df 2c 41 cc bf 14 c2 ba cf e7 c1
       8.492098 10.804607 -37.1873 -28.976429
0001d0 1d 2a f1 40 0c c7 1b 42 ea 28 39 41 8c 8e 2c 41
       7.536391 38.94438 11.572489 10.7848015
0001e0 61 95 e0 41 22 a1 af 40 dd fb aa c1 c7 16 f8 bf
       28.072939 5.4884195 -21.37298 -1.9381951
0001f0 c6 f8 c7 bf dd a7 19 c1 b3 58 39 41 d0 bd 92 41
       -1.5622795 -9.603482 11.584155 18.342682
000200 e1 17 cb bd d8 fd 90 bb 56 73 fa bc df 2d 16 bc
       -0.09916664 -0.004424792 -0.030572575 -0.00916621
000210 6b 2a 83 3a d3 6f 8e 3d 99 05 9d bc 3d f1 93 3d
       0.0010007148 0.069549225 -0.019167708 0.07223747
000220 2e b0 d8 3d 01 36 da 3a 73 b6 b6 3a 2c 13 a2 bc
       0.105804786 0.0016648174 0.0013939872 -0.019784532
000230 e7 a8 cd ba 56 ff ba 3a e3 ca 1c 3a 22 07 87 39
       -0.0015690596 0.001426677 0.000598116 0.0002575452
000240 20 b1 40 b9 cc fa d6 b8 e1 eb 5e bb b0 d8 f3 3d
       -0.00018376531 -0.0001025103 -0.0034015107 0.11906564
000250 56 7c 64 bd 9a 37 b4 39 be b6 1b 3a 61 7f 6d 3d
       -0.05578264 0.00034373702 0.00059400115 0.057982806
000260 cb 3a 0e bb 8f cb 58 bd 89 2f c1 3d 69 b5 03 3d
       -0.0021702524 -0.052928504 0.09432895 0.032155428
000270 07 82 d9 b9 62 9c 9b 3d 83 d2 43 3d 08 62 fa 39
       -0.00041486343 0.07598187 0.04780818 0.00047756755
000280 57 4c bd 3a f8 e6 c5 bd f4 51 d5 ba c7 4c f0 bd
       0.0014442307 -0.096631944 -0.0016275034 -0.11733394
000290 1b 50 63 bd 50 a0 d8 b9 9c 88 89 ba 63 96 d1 3a
       -0.055496316 -0.00041318173 -0.0010492983 0.0015990253
0002a0 0c 0b 86 3c 98 ad 85 3c eb cb bc 3d 86 e6 3b 3a
       0.01636269 0.016318128 0.09218582 0.00071678346
0002b0 d8 94 19 3b 05 0b e8 b9 ca c8 51 3a 54 c0 a4 3a
       0.0023434665 -0.00044258698 0.0008002637 0.0012569525
0002c0 38 6e ad bd dd 12 2e 3b 4f 46 9f 3a 2a b3 6f 3d
       -0.08468288 0.0026561536 0.0012151691 0.058520474
0002d0 dc 86 ba ba 95 47 38 3d 9e 81 1d 3c 6b 54 ab 3d
       -0.0014230865 0.04499014 0.009613423 0.08365711
0002e0 2c 0e 2d 3d ac ee dd 3c 00 92 53 be 7b cd 0a 3d
       0.042249843 0.027091347 -0.20661163 0.033887368
0002f0 b6 f1 0b bd 9b 58 ad 3c fb 01 49 bd ab 5d be ba
       -0.03416606 0.021160414 -0.049074154 -0.0014523765

transformer.h.0.attn.c_proj.weight f4 [64, 64]
000000 ca 13 2e 3b 2d b4 80 bb 6c 6b 59 3c 59 72 e5 bc
       0.0026562088 -0.0039277286 0.01327024 -0.028008627
000010 56 c5 ae 3b d1 b4 08 3b 3e f9 47 bc 85 e1 08 bd
       0.005333583 0.0020859728 -0.01220542 -0.033418197
000020 00 36 cb bb 07 df 19 3c 47 4b ef 3b bf 4b f4 3c
       -0.0062015057 0.009391553 0.007302675 0.029821275
000030 e0 f9 29 3b 31 13 30 ba 03 88 ae ba 40 43 d5 36
       0.002593629 -0.0006716727 -0.0013315681 6.3557236e-06
000040 dd 90 8b 3c 56 3c bc 3a 21 df c0 3b 9f 6e fa 3b
       0.01703685 0.0014361243 0.005885974 0.0076425816
000050 45 c4 c5 3c f3 ce a7 3b 04 16 c8 bb 48 5c 14 bc
       0.02414144 0.005121106 -0.00610614 -0.009055205
000060 0c 75 d1 bb 1d 04 99 3c 97 98 ab ba fc 07 b0 39
       -0.006392127 0.01867872 -0.001309174 0.00033575285
000070 75 9d 56 ba 14 3d e9 38 ea a6 73 bc d7 2a 4d bb
       -0.0008186915 0.000111216825 -0.014871338 -0.0031306052
000080 81 2f 42 3b 10 38 42 3c 83 39 5a bc df d8 9b 3c
       0.0029630365 0.011854187 -0.013319376 0.01902431
000090 b6 99 05 3c 79 cb ec 3a af 25 6e 3b 6b 62 01 bb
       0.008154323 0.0018066011 0.003633838 -0.00197425
0000a0 33 1c 28 bc 0d d5 17 bc cb 1d 61 bc d1 2b 28 bb
       -0.0102606295 -0.009267104 -0.013740013 -0.0025660882
0000b0 0c db 13 3b d3 9b 28 bb ef 12 86 3b 00 52 49 3b
       0.0022560982 -0.0025727644 0.0040916125 0.0030719042
0000c0 3c 8e 93 3a 38 66 9d 3a a4 a0 d1 ba 32 7e 0d 3c
       0.0011257599 0.0012008613 -0.0015993309 0.008636044
0000d0 fa e9 29 3b 22 3f 01 bd 8c 55 fb 3a 3c 61 88 39
       0.0025926814 -0.03155435 0.0019175275 0.00026012387
0000e0 fc 72 b3 3b 78 2f 65 bc 0e 0b 34 bc 6e c3 38 3c
       0.0054763537 -0.013988368 -0.010988964 0.011277063
0000f0 69 33 b3 bc 89 50 6c 3c cc c8 cd bc de 79 eb bb
       -0.0218751 0.014423498 -0.025120161 -0.0071861586
000100 59 54 27 3c 0c 9c 02 bb 7e 31 df b9 46 0f 95 bc
       0.010212981 -0.0019929437 -0.0004257075 -0.01819576
000110 6a 6f 19 b9 6d c5 13 bd ad fb a5 bc d7 36 2c 3b
       -0.00014632722 -0.03607695 -0.02026161 0.0026277804
000120 8f 4b f8 3b 98 ce b9 3c f6 ba de ba 75 5c c7 3b
       0.0075773667 0.02268152 -0.0016992975 0.00608402
000130 ac 4a 83 bb 7f 34 3d 3a 1d be 81 ba b0 72 66 ba
       -0.0040067043 0.00072176004 -0.0009898577 -0.00087908935
000140 22 0a ca bc 44 ae 01 bb 43 aa c9 3a 7d 76 fc 3c
       -0.024663035 -0.0019787708 0.0015385825 0.030818218
000150 c1 cc 02 3b 1c 74 ad b9 4c 00 a0 3b e4 71 34 3c
       0.0019958469 -0.0003308364 0.004882848 0.011013482
000160 9e f4 83 3b 14 f4 40 ba a0 c5 c2 3b 0a d4 b3 3c
       0.0040269634 -0.0007360589 0.005943969 0.021951694
000170 0d d0 8a 3a ba 7e 2a 3d ca 39 16 3c d2 32 1f 3b
       0.0010590568 0.041624762 0.009169051 0.0024291766
000180 71 55 3a bb 40 9c 69 bc ab 27 c7 bc 14 c9 0e bc
       -0.0028432275 -0.014258444 -0.024310907 -0.008714933
000190 c8 b1 d9 bc 08 26 49 3b 23 de a3 3b 7c 46 c4 3a
       -0.02657403 0.0030692834 0.005000846 0.0014974619
0001a0 b5 54 64 3c 2a 09 7f bc c4 45 51 3b 8d 71 8a 3a
       0.013936211 -0.01556615 0.0031932453 0.0010562405
0001b0 b0 92 54 bb d4 92 cc 3a 6a fc fb ba 1d 39 0c 3b
       -0.0032436065 0.0015607723 -0.0019225006 0.0021396347
0001c0 8c 7d c4 3b 20 86 79 ba 68 52 28 bb a2 bd 4f 3c
       0.0059964117 -0.00095185824 -0.0025683884 0.012679489
0001d0 15 44 07 3a 99 78 2f bd aa 4a 75 bc 24 b3 5e bc
       0.00051599863 -0.04283962 -0.014971415 -0.013592515
0001e0 97 bf a7 bc fb 66 85 bc e0 99 ff 3a 4b 51 14 bc
       -0.0204771 -0.016284456 0.0019500814 -0.009052585
0001f0 99 e6 be 3c c6 4f 95 bc a3 2c a6 bc 0b 8e 27 3b
       0.023303317 -0.018226516 -0.020284956 0.0025566842
000200 97 50 1d bc 9c b6 07 3a ea 41 3b bb 1e 3f 59 bc
       -0.009601734 0.0005177052 -0.0028573223 -0.013259677
000210 a4 08 c3 3b 1d b5 27 bd 5a 44 83 3b c5 c1 ed bc
       0.005951958 -0.040944207 0.004005951 -0.02902306
000220 58 3c 9d bb bd c9 30 bc d1 a8 55 3b 69 a6 a5 bc
       -0.0047984533 -0.010790286 0.0032601843 -0.020220952
000230 b3 c2 b1 39 fc 5d 9b b9 da 03 7c bb 06 06 f2 bb
       0.00033905133 -0.00029633928 -0.0038454444 -0.007385972
000240 d1 c6 86 ba 94 6e ae 3a a6 85 af b9 a2 88 c5 3b
       -0.001028264 0.0013308101 -0.00033478177 0.006028251
000250 0d 38 89 bb 7b ec a3 3b b8 de 8e 3b 97 92 3a bc
       -0.00418759 0.005002556 0.0043600462 -0.011387489
000260 dc cc e0 3b 25 01 2e 3c c0 75 80 ba 76 72 cb bc
       0.0068603586 0.01062039 -0.0009800717 -0.024834853
000270 c5 0b 26 ba c3 21 88 3b 96 fa 14 bc fa ea 06 bb
       -0.0006334151 0.0041544153 -0.0090929475 -0.0020586834
000280 0b dc 8f 3b cc 8a 82 bb fc 9d 00 3d 23 0c ca 3c
       0.004390245 -0.003983831 0.031400666 0.02466399
000290 5d 6d eb bb e8 72 21 bb 9e 7e e5 bb 17 ec cb 3a
       -0.007184668 -0.002463514 -0.0070036193 0.0015558031
0002a0 00 01 77 3c c7 6a 2d 3c 0b 2b ab 3c 65 ab a5 3b
       0.015075922 0.01058454 0.020894548 0.005055832
0002b0 67 64 e9 39 c4 ec 92 3b cb bc 1a 3b 61 89 3f 3b
       0.0004451603 0.004483791 0.0023611065 0.0029226171
0002c0 c9 05 3a 3c f7 29 43 3b c6 fe ae ba f1 ab 0a 3d
       0.011353918 0.0029779652 -0.0013351075 0.033855382
0002d0 85 d5 2e bb af 59 d0 3c 35 ba 8a bc 2d 5f b0 3b
       -0.002667756 0.02543339 -0.016934494 0.0053824396
0002e0 ba 34 cc 3a 58 23 16 bc 4e 05 b9 bc 77 44 ce bc
       0.0015579679 -0.0091637 -0.022585537 -0.025179131
0002f0 d7 28 13 bc 8b 2a 26 3c 3e 6f 96 bc 3e 61 c2 b7
       -0.008981905 0.010141979 -0.018363591 -2.3171884e-05
000300 23 bb 05 bb 4f 71 7f bb 73 78 7c ba ad c7 3b 3a
       -0.0020405732 -0.003897745 -0.00096309854 0.0007163238
000310 ba 77 9e 3a b4 24 a8 3c 81 cc 5f ba 9d af 95 3b
       0.0012090125 0.020525314 -0.00085372484 0.004568054
000320 ba 3a 9d 3b 71 36 94 3c d7 ec 91 3b b3 08 cd bc
       0.0047982605 0.018092366 0.0044532823 -0.025028562
000330 6f fb 1d 3b d4 16 ac 3b 52 10 01 bb 67 e0 f7 3a
       0.0024106165 0.0052517448 -0.0019693566 0.0018911482
000340 03 41 6b bc 7a 06 c6 3a 0c b2 d6 bb 65 20 1a 3b
       -0.014358762 0.0015108131 -0.0065519866 0.0023517844
000350 22 08 13 3a 17 5f 1d 3b e8 a6 a6 ba 5c a5 43 bb
       0.0005608817 0.0024012977 -0.0012714537 -0.00298532
000360 e3 e8 bc ba 85 79 24 3c 75 02 2f bc 9a 69 f6 bb
       -0.0014412667 0.010038738 -0.010681738 -0.007519913
000370 aa 30 6e 3b 60 ee 22 3b e7 d5 31 bc 71 f6 8c 39
       0.0036344924 0.002486132 -0.010854221 0.00026886494
000380 3c 21 ce b7 14 61 7f 3b c8 2f f9 3b 49 a2 9a 3c
       -2.457259e-05 0.0038967775 0.007604573 0.018876212
000390 c0 8f c0 bb e7 fc 70 3a d4 fe b9 bb 34 3d 1c bb
       -0.0058765113 0.0009192959 -0.00567613 -0.002384019
0003a0 0d 3d 25 bc 5c 3f 4b 3a 35 db 71 bb 8b 31 df 3a
       -0.010085356 0.0007753277 -0.003690434 0.0017028315
0003b0 53 5f 9e 3b 6f 9d 67 bb ce 8d 49 3a b3 d4 15 ba
       0.004833141 -0.003534164 0.0007688672 -0.00057155936
0003c0 9d ab 1f bc 16 c5 98 3a 82 e2 1c 3a 41 e8 35 3c
       -0.009745506 0.0011655416 0.000598468 0.011102737
0003d0 50 78 7a 3a c8 24 c0 3b b1 a9 e2 3d 56 0d a4 bb
       0.0009554671 0.0058637597 0.11067522 -0.0050064726
0003e0 03 8a 87 bc 29 eb 79 bc 1b 54 90 3c 9d 99 43 3b
       -0.016545301 -0.01525382 0.01761823 0.00298462
0003f0 ee cb 15 bc d6 10 f1 3b e4 c3 17 3c 19 92 58 bb
       -0.009142859 0.0073567433 0.009263013 -0.0033046065

transformer.h.0.attn.c_proj.bias f4 [64]
000000 3b f0 27 3b d8 78 8a 3d ab dc 00 3d cc 35 e9 3a
       0.0025625366 0.0676133 0.031460445 0.0017792522
000010 60 da 18 bc 6d c4 24 bd 05 28 38 bc 4e c2 ce 3c
       -0.009329408 -0.04022639 -0.01124001 0.025239136
000020 94 cf 3d 3b d2 1f 9e bd fa bd 02 bb dc ca 0d 3d
       0.0028962838 -0.07720913 -0.001994966 0.03461729
000030 b4 24 07 3d c8 64 81 bc d9 08 d1 3c d7 f9 ab bb
       0.032993987 -0.015795127 0.025516914 -0.005248289
000040 b5 e7 f1 bb a9 18 b5 bc 2c 6c 47 bc 22 f8 bc bb
       -0.007382358 -0.022106485 -0.012171786 -0.0057668844
000050 43 4a d1 3c b7 13 09 bc 07 ed 3f 3c 2c e1 49 3c
       0.025548106 -0.008366517 0.011714227 0.012321752
000060 2a 20 32 3d 48 3d 93 3c 41 48 91 3c cd a9 85 3b
       0.043487705 0.017973557 0.017734649 0.0040790797
000070 f3 c4 c9 bc a1 87 ce bc f2 40 01 3c 20 40 0c 3b
       -0.024630046 -0.025211157 0.007889019 0.0021400526
000080 11 10 d1 3b 94 d8 97 3c e9 66 f6 3c 1f 40 a8 3c
       0.006380089 0.01853589 0.030078368 0.020538388
000090 d8 50 bc bc 22 6d 61 bc f3 25 8e 3c 11 19 1b 3d
       -0.022987768 -0.013758929 0.01735208 0.037865702
0000a0 89 22 33 3d a4 01 b0 3c 64 ae 21 3c a5 0d 0b 3d
       0.043734107 0.021485157 0.009868238 0.03394856
0000b0 02 02 c4 bc c7 28 0c bd 7e cb ec 3b 11 e6 ed bc
       -0.023926739 -0.034218576 0.0072264066 -0.029040368
0000c0 5e b8 94 bb 54 64 f0 ba 50 12 04 bc c2 aa 01 3c
       -0.00453858 -0.0018340447 -0.008061007 0.007914247
0000d0 7b 0b ba bc ce 42 31 bd 12 52 b6 3c eb cc 63 3c
       -0.022710552 -0.0432766 0.022255931 0.013903837
0000e0 38 af 50 bd eb f7 e1 3b 3b 8d 82 bc 46 4f e2 bc
       -0.05094835 0.006896009 -0.015936485 -0.027625691
0000f0 6e 0f 19 bc c2 13 87 3c 97 44 e9 3c b3 03 53 bc
       -0.009342058 0.016488913 0.028475089 -0.0128793

transformer.h.0.ln_2.weight f4 [64]
000000 df bd 24 41 59 30 48 41 a9 c5 29 41 3a 40 57 41
       10.296355 12.511804 10.610757 13.45318
000010 d6 c0 8c 41 51 66 57 41 c8 f3 21 41 43 5d 90 41
       17.594158 13.46248 10.122017 18.045538
000020 b8 b3 8e 40 8f 35 23 41 7e 28 56 40 58 a6 e7 40
       4.4594383 10.200576 3.3462214 7.2390556
000030 b3 89 4b 41 cb 66 1f 41 58 3e cc 40 71 40 e4 40
       12.721118 9.962596 6.3826103 7.1328664
000040 d1 02 3b 41 e1 ab 81 41 7b 3f 62 41 91 75 17 41
       11.688188 16.208925 14.140498 9.466203
000050 68 2c 16 41 83 c6 6f 41 82 ca 61 41 9b e4 57 41
       9.385841 14.985965 14.11194 13.493312
000060 c3 32 2d 41 56 ea ff 40 1d b4 5a 40 e4 4e 70 41
       10.824893 7.9973555 3.4172432 15.01926
000070 bb 07 4a 41 fc 70 cb 40 db fd 8e 41 9e d7 5c 41
       12.626887 6.357542 17.873953 13.802641
000080 fe 23 67 41 5d 36 3e 41 ef 1c c7 40 7a 45 32 41
       14.446287 11.888272 6.222282 11.141962
000090 82 60 05 41 4e 6f e1 40 7d d2 32 41 9d c3 24 41
       8.3360615 7.044837 11.176389 10.297757
0000a0 50 a5 56 41 e3 dd 3c 40 b0 af 60 41 3b e2 57 41
       13.4153595 2.951043 14.042892 13.492732
0000b0 eb 1a 6b 41 5c 8c 5b 41 87 a3 51 41 66 f2 6f 41
       14.694072 13.721767 13.102424 14.996679
0000c0 c6 9f 97 41 e4 b7 89 41 6c bc 1f 41 c8 c1 05 41
       18.953014 17.21479 9.983501 8.35981
0000d0 43 10 79 41 75 76 ae 41 96 16 b4 40 22 e0 39 41
       15.56647 21.80784 5.627757 11.61722
0000e0 19 98 20 41 47 79 fa 40 0e e6 01 41 af 5a d3 40
       10.037133 7.8273044 8.118666 6.60482
0000f0 a2 9b 2d 41 61 ba 32 41 54 d8 72 41 2c 06 35 41
       10.850496 11.170503 15.1778145 11.314007

transformer.h.0.ln_2.bias f4 [64]
000000 07 39 bd 3e 60 2e 7a c1 65 87 c8 c0 cd 3f 96 bf
       0.3695757 -15.636322 -6.2665277 -1.173822
000010 89 62 77 40 92 1b 55 41 b5 08 32 40 d8 fa 15 c1
       3.865389 13.319231 2.7817814 -9.373741
000020 09 fb c9 be 7a 36 88 41 db b7 2b 3f e0 6f bd c0
       -0.39449337 17.0266 0.67077416 -5.9199066
000030 37 96 ca c0 9a c0 4a 40 fb 32 04 c0 bf 83 56 3f
       -6.330837 3.1680055 -2.0656116 0.8379478
000040 96 68 84 40 1e 50 07 41 32 4a 46 40 87 ce d1 3f
       4.137767 8.45706 3.0982785 1.6391152
000050 84 83 5d c0 47 95 8e 40 17 07 95 c0 73 b9 8c c0
       -3.461152 4.4557223 -4.6571155 -4.397638
000060 26 d3 e1 c0 00 97 06 c0 70 35 8e bf 01 78 14 40
       -7.057025 -2.1029663 -1.1110058 2.3198245
000070 bb 6d cc 40 27 12 be 3d 75 b9 a4 bf a4 fc e6 3e
       6.388395 0.09280806 -1.2869097 0.45114625
000080 b1 06 de be d1 d1 71 3f 1f 85 85 c0 81 e0 3a c0
       -0.4336448 0.9446078 -4.1725 -2.9199526
000090 33 1c b5 40 43 2b 7c 3f ef 5e 2e c0 40 c7 bd c0
       5.6596923 0.9850351 -2.7245443 -5.9305725
0000a0 64 89 31 c1 26 86 f7 bf d1 a6 e8 bf 0e e1 f1 c0
       -11.096043 -1.9337814 -1.8175908 -7.5587225
0000b0 e4 ed ef 40 eb ea 29 41 81 43 6c bf 01 09 0c 41
       7.4977894 10.619853 -0.922905 8.752198
0000c0 22 1a 9d 40 d0 75 fd 3f a6 58 67 40 31 cb 3d c0
       4.90944 1.9801579 3.6147857 -2.9655268
0000d0 e9 c7 f8 40 f1 06 bc 40 4d 69 38 c0 3e c9 2b c0
       7.774403 5.8758473 -2.881427 -2.6841578
0000e0 ab d4 42 41 e7 3d c7 bf a3 dd ad 40 c0 a9 3e 40
       12.176921 -1.5565766 5.4333053 2.9791107
0000f0 96 ec 11 40 b6 63 91 bf ad f0 10 c1 91 cf 3b 40
       2.280065 -1.1358554 -9.058759 2.9345438

transformer.h.0.mlp.c_fc.weight f4 [256, 64]
000000 27 31 ac bb d0 da dd 3c b6 f4 98 3c 0c 41 0a bc
       -0.005254883 0.027081877 0.018671375 -0.00843836
000010 0c 54 9d 3c 80 d1 c2 ba 9b 83 01 bc f8 d0 6a 3d
       0.019205116 -0.0014863461 -0.007904912 0.057328194
000020 52 f3 17 3b 3d f8 00 3b 08 8b 37 3c 66 77 4c 3c
       0.0023185802 0.0019679212 0.011202581 0.012479639
000030 99 ee 84 bc c0 93 69 3c fd ac 9d 3b 87 35 cb bb
       -0.016227053 0.014256418 0.0048118816 -0.0062014493
000040 30 9d 28 3d f5 b3 a4 bc 81 60 21 bc 16 8c a4 ba
       0.04116553 -0.020105341 -0.0098496685 -0.0012553956
000050 8f 4d a8 bc 5d fe 4a 3c f1 51 f3 3b d3 cf 08 bd
       -0.020544795 0.0123897465 0.0074255397 -0.03340132
000060 b7 f1 eb b9 8f f1 87 39 93 be b4 3c d1 79 1f 3c
       -0.00045002784 0.00025929182 0.02206353 0.009733633
000070 7c c7 de bc dd f5 03 3d 84 e1 f4 bc 30 7f d5 bc
       -0.027194731 0.032216895 -0.02989269 -0.026061624
000080 12 ca 79 3c d3 8f 91 3b 00 50 ae bb 7f 29 3a 3c
       0.015245931 0.004442194 -0.0053195953 0.0113624325
000090 8e 6f b2 3c 16 7c 11 bd 4a e9 c4 bb ba 20 c3 bc
       0.021781709 -0.03551873 -0.0060092555 -0.023819316
0000a0 d8 b7 ab bb 70 c3 50 3a 76 83 de bc 4e 58 30 3c
       -0.0052404217 0.0007963693 -0.027162295 0.010763241
0000b0 c4 49 e5 bb 7b d4 20 3d 23 d1 9b bc 1c 8f 4a 3b
       -0.006997319 0.039265137 -0.019020623 0.0030908054
0000c0 c2 81 72 bc 5f d3 d5 3c 58 7f 50 bc 26 29 62 bc
       -0.0148014445 0.026101766 -0.012725674 -0.013803756
0000d0 73 b2 89 bc 04 3b af b9 f4 c2 0b 3d b0 f4 86 bb
       -0.016808724 -0.0003342257 0.03412147 -0.0041185245
0000e0 39 f1 91 bb e7 26 5b 3b 8c f1 e2 bc bd 67 06 bd
       -0.004453805 0.0033439936 -0.02770307 -0.032813776
0000f0 01 96 7f 3c 7b a3 93 bc 59 79 2a 3d 7d 8e b1 bb
       0.015599729 -0.01802229 0.041619632 -0.0054185973
000100 30 ca bb 3c ff fe 31 3d 73 a8 19 3c 85 d5 11 3d
       0.022923559 0.043456074 0.00937854 0.03560402
000110 e1 aa b6 bb f2 f4 ba bc 02 0a f5 bb ac 65 ff 3c
       -0.0055745696 -0.022821877 -0.0074779997 0.03117641
000120 9f ae 8b 3c 9e 52 92 3c 3e 43 ef 3b ea 77 25 bd
       0.01705104 0.01786166 0.007301717 -0.040397562
000130 6c 5a 08 bd 70 65 95 3b ba e4 30 3d 79 6f cc bb
       -0.033289358 0.0045592114 0.04318688 -0.0062388745
000140 0d 58 8f bc 57 a2 f5 bc 3a 79 49 bc c5 51 3b bd
       -0.01749804 -0.029984636 -0.012296969 -0.04573228
000150 8d 56 30 3c cb 83 21 b8 0a c5 fe 3c fa 5f f7 3c
       0.010762823 -3.8508133e-05 0.031099815 0.030197132
000160 cf 40 05 3d 49 ea 11 bc c7 a9 55 bc d3 87 19 bd
       0.03253251 -0.008905956 -0.013040966 -0.037483048
000170 74 7e 3e bc dd dc 5f 3c d9 84 12 3a 72 01 17 bd
       -0.011626828 0.013663498 0.0005589254 -0.036866613
000180 a0 3d c8 bc b1 d3 e0 bc 0e 80 ce bc b7 71 ad 3c
       -0.024443448 -0.027444692 -0.025207546 0.021172388
000190 c1 9d 07 ba 18 4b 51 bd ac 11 89 3b 86 cc a5 3c
       -0.00051733485 -0.051097006 0.004183015 0.020239126
0001a0 45 4c 9d bc a2 3c 7e bc 53 16 e5 3b e7 b7 42 bb
       -0.019201407 -0.015517386 0.0069911866 -0.0029711665
0001b0 54 73 07 3b b7 cc 5b 3c 0d fc 64 bc a8 23 0f bc
       0.0020668106 0.013415507 -0.013976109 -0.008736528
0001c0 9d 8d cb 3c 4a c6 a5 bc 72 10 9e 3c 08 cb 91 bc
       0.0248478 -0.020236153 0.019294951 -0.017797008
0001d0 74 cc 69 3c 1e 58 d7 3c f8 bd 23 bc fb 3d 06 bd
       0.014269937 0.026287135 -0.009994023 -0.032773953
0001e0 c4 9a af ba 86 a7 f4 3c 64 53 99 3a b6 f7 ed 3b
       -0.0013397564 0.029865038 0.0011697826 0.0072621955
0001f0 7b 18 f7 3c 2a 08 06 3d 44 53 50 3c 14 97 4f 3d
       0.03016304 0.03272263 0.012715165 0.05068119
000200 50 fc 82 bc 81 b7 8b 3c 1d 00 d0 3c 2d dd 2a bc
       -0.015989453 0.017055275 0.025390679 -0.010428709
000210 96 06 a5 bc 02 a1 12 b9 08 52 63 3b 05 0f 7b bb
       -0.020144742 -0.00013983625 0.0034686346 -0.0038308513
000220 0d 71 11 bd 93 b6 4a bd c2 1a 5e bc 5e c6 ff 3c
       -0.035508204 -0.049490523 -0.013556184 0.031222519
000230 15 6d 6a bc e9 88 f7 bb 29 a0 5d bb dc 36 39 bc
       -0.014308234 -0.0075541628 -0.0033817387 -0.011304583
000240 48 67 6e ba 9f bc 06 3c 13 6e 26 3c 48 32 de 3a
       -0.00090943696 0.008223682 0.01015808 0.0016952241
000250 f4 7d 05 3d 6a af 86 3c 97 0d 8a bc a6 e3 76 bc
       0.03259082 0.016441066 -0.016852183 -0.015068924
000260 aa 62 1f 3c 5b 80 45 3c b4 4f de bc 9e 71 0c 3b
       0.009728113 0.012054528 -0.027137615 0.0021430026
000270 84 1c 04 bd ae 80 39 3c 68 5a 0f 3d 74 2a bc 3b
       -0.032253757 0.011322184 0.034998327 0.0057423655
000280 34 5f a4 3c bd c6 2a bc bb d1 90 bb 4d 3a 20 ba
       0.020064928 -0.010423359 -0.004419533 -0.0006112203
000290 91 40 b0 3a bc 80 3a ba f8 0e a4 bb e5 96 2b ba
       0.0013446977 -0.000711452 -0.005006667 -0.00065456174
0002a0 59 2d 0d 3c 69 64 e6 bc aa 64 f7 3c fc e1 cd bb
       0.008616769 -0.028124051 0.030199368 -0.006283043
0002b0 f7 6e f7 bc 24 6b 06 bd 7b 2b 13 bc b7 54 95 3c
       -0.03020428 -0.03281702 -0.0089825345 0.018228872
0002c0 86 13 b9 bc ad 1b f5 bc de a0 89 3c 58 17 4c 3c
       -0.022592317 -0.029920423 0.01680034 0.012456737
0002d0 c5 17 37 3d 4e f7 62 3c 86 ec bc bb 76 60 24 ba
       0.044700403 0.013852907 -0.0057655005 -0.00062704773
0002e0 ca db a6 bc 64 d2 af ba 7e b7 0e 3d 90 85 df 3b
       -0.020368475 -0.0013414142 0.03484296 0.006821342
0002f0 45 79 32 3c 86 58 be ba 6f 95 d7 3b ed e3 6e bb
       0.010893171 -0.0014522232 0.006579093 -0.0036451772
000300 7e db 85 3c ad f6 b8 3c 21 ff bf 3c 6c 16 b9 bc
       0.016340014 0.022578562 0.023437085 -0.0225937
000310 1a 41 a9 bc ee 99 04 3d 36 88 f1 ba 40 85 cc bc
       -0.020660926 0.03237336 -0.0018427435 -0.024965882
000320 a6 b6 92 3c 6c 55 a8 3b 70 c6 f0 b9 f2 e5 0d bc
       0.01790936 0.005137136 -0.00045924215 -0.00866078
000330 85 9e 38 bc 87 52 4b bc ec 7e 32 bc df bf 64 3c
       -0.011268263 -0.012409813 -0.010894518 0.013961761
000340 b5 5a 52 3b b4 f4 cd bb 78 a2 27 3c 6f 28 02 3d
       0.0032097523 -0.0062852744 0.010231607 0.03177684
000350 0d aa 6b 3c 98 f9 03 3c 59 89 04 3d 86 fc 60 3c
       0.014383805 0.008055113 0.032357547 0.013732081
000360 57 fd fe bc a6 5f af bc 97 00 7a bc 0d 21 1d 3c
       -0.031126661 -0.021407913 -0.01525893 0.009590399
000370 14 07 96 bc fd 06 db 3c 2e ef f6 3b c2 4e bc bb
       -0.018313922 0.02673673 0.0075358367 -0.0057466934
000380 12 aa 6e 3c 1a ee 19 bb 21 36 b3 bc e0 9b 3b bc
       0.014566915 -0.0023487867 -0.021876397 -0.011450738
000390 3a 3e fb 3b 9d 43 5c b9 e9 39 65 3c 3a 3b 5c bd
       0.00766733 -0.00021006023 0.013990858 -0.05376742
0003a0 ea a2 a9 3c 17 24 35 bc 03 ab de bb d0 07 5b ba
       0.020707566 -0.011055968 -0.0067952885 -0.0008355351
0003b0 53 71 ed bc c8 f9 13 3d 63 4d 05 bd f7 d6 1d 3a
       -0.028984701 0.03612688 -0.032544505 0.0006021107
0003c0 85 79 a4 3a 95 9f 1e 3c a8 57 8d bc 5c 5d 1e 3d
       0.0012548423 0.009681602 -0.017253712 0.038663253
0003d0 1c fb ee bb 48 5e 11 bd 2b 5d 22 3c 95 4a ea bc
       -0.007293118 -0.035490304 0.009909908 -0.028600017
0003e0 f8 c6 b1 b9 63 e5 30 bc 67 e9 fe 3c cc 90 c5 bc
       -0.00033908314 -0.010796878 0.031117154 -0.024116896
0003f0 a8 4d a4 bc 59 d5 24 ba e5 f8 d1 3c b2 fd dc 3b
       -0.02005656 -0.0006287895 0.025631377 0.00674411
