grokking/runs/4/grok_opt3.pth (torch, 219039 bytes, 17 tensors)

transformer.wte.weight f4 [14, 64]
0.004096624 0.0109034525 0.008689236 -0.017940681 0.019489337 0.0034161485 0.0030229304 0.0031098872
0.0023924208 0.001283215 0.0025295198 -0.00258492 0.003055898 0.0024416978 0.007438698 0.0033547068
0.0002783042 0.00408185 0.0034037232 0.0024278956 -0.018281195 0.0030325656 0.003116683 -0.02045566
0.016599998 0.0025849014 0.0078845965 0.0027779643 -0.0045068613 0.01834187 0.014907126 0.017725307
-0.0018802563 -0.014544891 0.0047617764 0.002488416 0.00050982187 -0.0039209197 0.0028881396 0.00298721
-0.007829827 0.0030350632 0.0029187773 0.0020249232 -0.018600198 0.009869175 -0.0028167942 -0.0043104324
6.71515e-05 0.005712564 0.0031862736 -0.00275268 0.0019414994 -0.015407647 -0.0104750665 0.0030766807
-0.00084039656 -0.10288699 0.0030712301 -0.020153273 0.0012513407 0.0021092764 0.002838636 -0.00063465675
-0.01110412 0.052305244 0.03496522 0.009425098 -0.02105877 0.0048760376 0.0076679406 0.0101488
0.00015679229 0.013800457 0.011068757 0.010061674 0.008047996 0.020666061 0.009898186 0.038376044
0.0009199763 0.021320058 0.009820697 0.0030841264 0.0117086815 0.008305686 0.009407897 0.015037408
0.008887455 0.02337078 0.021751862 0.00033567968 -0.024376804 0.0022766334 0.008777955 0.0036651376
-0.012836747 0.00067901437 0.0059695235 0.010185109 -0.012952477 0.016134525 0.009210128 0.00971571
-0.035787106 0.009692189 0.010862558 -0.0051770424 0.008402141 0.020789772 0.008295601 -0.04040818
0.039228536 -0.010504454 -0.0032946784 0.012438891 0.012797489 -0.08891693 0.008709921 -0.013452445
-0.060722996 -0.00024930053 -0.0010210304 0.014235912 0.00044609734 0.022804912 0.012469982 0.038021397
-0.075438865 -0.012424912 0.015341539 0.010344834 0.0041398504 -0.0056465333 -0.0043428726 -0.006359871
-0.017209973 0.0071389955 0.062186755 0.008146377 -0.0028926597 -0.003610889 -0.025444338 -0.010838197
-0.0063468865 0.029817415 -0.016762022 -0.012264413 0.015033711 -0.0033053565 -0.0069806385 0.013053396
-0.008581119 0.004718015 0.01607376 -0.003721629 -0.019163126 -0.014527673 -0.016971134 -0.018634645
-0.057134453 -0.027943188 -0.019091848 -0.007616555 -0.0030954804 -0.02326773 -0.0064282166 -0.006798504
-0.036471095 -0.0070640384 -0.0011067686 0.015286273 0.0014505308 0.03822789 0.00069051195 0.04556896
0.0011462165 -0.026385918 0.03820555 0.0057566212 0.016919397 0.019936826 -0.00057445565 0.01816624
-3.842167e-05 0.004864925 0.017921949 0.013961426 -0.02049845 0.018032292 0.04207286 -0.00017769737
0.022799365 -0.007671053 -0.001503356 0.009262525 0.005040737 -0.0030690136 -0.0047438666 -0.0024486564
0.011076386 -0.06370302 0.0030103442 -0.007865055 -0.0022764641 -0.0075643887 0.019703658 0.003324365
0.0022343663 -0.0012941872 -0.01835286 0.028266372 0.009328698 -0.0035582313 -0.0042444826 0.0013597858
-0.007927932 -0.031965785 0.015847782 -0.0041532842 0.0023901518 -0.0074088834 0.0032953697 -0.0051776
-0.011856548 0.010372576 -0.016466713 -0.0019599043 -0.025111813 0.016554583 -0.003193958 -0.0028083792
0.033691674 -0.003613849 -0.00044216606 -0.02169838 0.009681342 -0.035857875 -0.0014539377 -0.0022881827
-0.013561624 0.009342301 -0.045709614 0.006349391 0.01557348 0.0049373084 0.005946418 0.037711024
0.015188462 0.0061532175 0.019581232 0.0047725416 -0.033297714 0.03913452 -0.0022398839 -0.012181133
00000000: f93c 863b 65a4 323c 4c5d 0e3c 56f8 92bc
00000010: 1aa8 9f3c 76e1 5f3b 5b1c 463b 40cf 4b3b
00000020: 29ca 1c3b 8d31 a83a 4dc6 253b c367 29bb
00000030: 7645 483b e404 203b 52c0 f33b a4da 5b3b
00000040: 5be9 9139 0ac1 853b 0011 5f3b 541d 1f3b
00000050: 72c2 95bc 02be 463b 4441 4c3b a192 a7bc
00000060: b8fc 873c 7367 293b 652e 013c 820e 363b
00000070: 4bae 93bb b041 963c 053d 743c aa34 913c
00000080: ef72 f6ba b24d 6ebc ad08 9c3b b114 233b
00000090: 91a5 053a 0f7b 80bb f146 3d3b 11c5 433b
000000a0: ad48 00bc e9e7 463b f548 3f3b 93b4 043b
000000b0: 715f 98bc 52b2 213c f799 38bb 873e 8dbb
000000c0: b0d3 8c38 7630 bb3b cdd0 503b 4f66 34bb
000000d0: e979 fe3a 5b70 7cbc 9d9f 2bbc 23a2 493b
000000e0: 0f4e 5cba 6ab6 d2bd b146 493b 7a18 a5bc
000000f0: 0704 a43a c93b 0a3b 6908 3a3b 185f 26ba
00000100: 0eee 35bc 063e 563d b137 0f3d ba6b 1a3c
00000110: 7183 acbc 2bc7 9f3b 5943 fb3b 2747 263c
00000120: 9c68 2439 501b 623c bb59 353c b8d9 243c
00000130: bedb 033c df4b a93c 002c 223c 3330 1d3d
00000140: 902a 713a 67a7 ae3c fde6 203c 0e1f 4a3b
00000150: c5d5 3f3c 9214 083c 9423 1a3c 765f 763c
00000160: b09c 113c 1474 bf3c f630 b23c 2afe af39
00000170: ddb1 c7bc 9233 153b 69d1 0f3c ce32 703b
00000180: 3851 52bc e2ff 313a fe9b c33b 72df 263c
00000190: a036 54bc 8d2c 843c 14e6 163c a42e 1f3c
000001a0: 8095 12bd fdcb 1e3c dff8 313c 2ea4 a9bb
000001b0: 22a9 093c 504f aa3c 46ea 073c 0c83 25bd
000001c0: 1aae 203d e01a 2cbc 88eb 57bb 7ecc 4b3c
000001d0: 8fac 513c 141a b6bd 0eb4 0e3c a567 5cbc
000001e0: adb8 78bd 8db4 82b9 18d4 85ba be3d 693c
000001f0: 2ce2 e939 5ed1 ba3c e54e 4c3c 53bc 1b3d
00000200: b17f 9abd dc91 4bbc 145b 7b3c 617d 293c
00000210: 95a7 873b 8e06 b9bb a84e 8ebb 7766 d0bb
00000220: eefb 8cbc 3cee e93b 8ab7 7e3d 6278 053c
00000230: c792 3dbb aaa4 6cbb a570 d0bc b192 31bc
00000240: 8bf9 cfbb a743 f43c 8250 89bc adf0 48bc
00000250: f44f 763c ae9e 58bb d7bd e4bb e9dd 553c
00000260: d297 0cbc 9499 9a3b 1ead 833c 93e6 73bb
00000270: fdfb 9cbc 7a05 6ebc 0c07 8bbc afa7 98bc
00000280: d105 6abd 1de9 e4bc 8266 9cbc 4b94 f9bb
00000290: 8bdd 4abb f79b bebc caa3 d2bb fcc5 debb
000002a0: b762 15bd 7379 e7bb fe10 91ba 4773 7a3c
000002b0: bd1f be3a d994 1c3d 7903 353a 85a6 3a3d
000002c0: a53c 963a 4827 d8bc 6c7d 1c3d 0aa2 bc3b
000002d0: 8c9a 8a3c 8e52 a33c 1197 16ba 5ed1 943c
000002e0: f426 21b8 f369 9f3b 0dd1 923c 77be 643c
000002f0: 5eec a7bc 75b8 933c 9754 2c3d 4654 3ab9
00000300: bcc5 ba3c 755d fbbb 420c c5ba d8c1 173c
00000310: c42c a53b 8121 49bb 7072 9bbb a379 20bb
00000320: bb79 353c bb76 82bd 3249 453b 6fdc 00bc
00000330: bb30 15bb b1de f7bb 9169 a13c 97dd 593b
00000340: 726e 123b b7a1 a9ba bd58 96bc e18e e73c
00000350: 65d7 183c 3731 69bb 4d15 8bbb d73a b23a
00000360: 28e4 01bc 8eee 02bd 35d3 813c 4618 88bb
00000370: 18a4 1c3b 38c6 f2bb 21f7 573b dba8 a9bb
00000380: f741 42bc bdf1 293c 33e5 86bc bd71 00bb
00000390: 4ab7 cdbc 7a9d 873c b951 51bb c90c 38bb
000003a0: 4800 0a3d 53d6 6cbb 86d2 e7b9 cdc0 b1bc
000003b0: 7e9e 1e3c b5df 12bd 0e92 beba 56f5 15bb
000003c0: 9331 5ebc 7310 193c 013a 3bbd 8d0e d03b
000003d0: e927 7f3c 25c9 a13b 2bda c23b e076 1a3d
000003e0: 07d9 783c eea0 c93b d268 a03c fb62 9c3b
000003f0: 2f63 08bd 854b 203d 04cb 12bb 6093 47bc

transformer.wpe.weight f4 [32, 64]
-0.0026205957 -0.011068269 0.0003838827 -0.022533434 -0.014192566 0.0036225817 0.0036114496 0.0035275584
0.0048501967 -0.00050339085 -0.0062659862 0.0029212576 0.0051046666 0.002388153 0.008321108 -0.012690572
0.0044087498 -0.0002333182 0.0043978947 0.0081841275 -0.023494394 0.0065406365 0.0038546533 -0.026039265
0.031370524 0.014309973 -0.02182219 -0.0010122998 0.034661587 0.021107262 0.008632154 0.025191227
-0.009909959 -0.036867127 -0.0032111406 0.0036907254 0.011666811 0.017639568 0.0038710516 0.0044799303
0.0033840744 0.0033655479 0.0068152975 0.0033085488 -0.033543926 -0.015360276 0.00036545985 -0.003969062
0.002208039 0.009027408 0.004196622 0.0061900946 -0.0059578433 0.001814412 -0.004838661 0.010482652
0.010205964 -0.015010987 0.010151756 -0.04023507 0.002398798 4.6082107e-05 0.0063388757 0.003024728
0.029733641 -0.0020657023 0.004403585 0.03827806 0.062725276 -0.01009518 -0.010525306 -0.011029507
-0.015515107 0.0025372775 -0.0041449727 0.007918975 -0.008796588 -0.0016927609 -0.013749382 -0.008115892
-0.0037868626 -7.79024e-05 -0.012092028 0.009634119 0.035654195 -0.0062330626 -0.011370556 0.042375036
-0.03309455 -0.01366375 0.011363492 -0.015087926 0.012095428 -0.029467918 -0.020589892 -0.03187947
0.004625679 0.037924208 -0.029800214 -0.012850628 -0.0035606888 0.001203415 -0.010336769 -0.013122995
0.009772922 -0.011153442 -0.016258502 -0.011573465 0.042997874 0.0010721901 -0.0037106709 -0.00698088
-0.07664025 -0.01916368 9.750025e-05 0.013477287 0.0087905135 -0.0009530312 0.014746152 -0.0015655028
-0.0049095578 0.0034026424 -0.028589265 0.042067416 -0.0056028734 0.0013521181 -0.046024352 -0.07895516
-0.012899578 -0.0016692149 -0.00013493787 0.012736174 0.0065806797 -0.0036719919 -0.001954828 -0.005350399
-0.0029433186 -0.0042146123 0.0048733456 -0.010874742 -0.0032024994 -0.007861289 -0.015009614 0.0009314973
-0.0034437398 0.03194079 -0.015948374 -0.009006072 0.011124487 -0.002029671 -0.0015334857 0.016691329
-0.026560282 -0.009228715 -0.024361502 -0.013492735 -0.0071361726 -0.02747768 -0.017945752 -0.029402006
-0.010240672 0.010348215 0.00071521173 -0.010022205 -0.031069608 0.015760303 -0.005076888 -0.0046628015
0.017643087 -0.0045609972 -0.0032525654 -0.007309247 0.015138218 -0.02509709 -0.000968524 -0.011578098
-0.012025049 -0.015696274 -0.004828352 4.8919243e-05 -0.00091677223 0.0004075867 0.0035428382 -0.012246617
-0.02444494 0.019149737 -0.013159675 0.020195888 -0.011041445 -0.0029233508 -0.014849113 -0.012045165
0.0038292094 0.016337171 0.008222975 -0.032915343 0.012680563 0.006489725 0.005715139 0.009069956
0.005473523 0.0009537537 0.0007797457 -0.0018554437 0.007440108 0.01252196 0.008496418 -0.0050758924
0.0053009926 -0.016428653 0.004770592 0.017732736 -0.029369418 0.006179472 0.00617412 -0.03752355
0.037982136 0.014579892 0.008051404 0.01874638 -0.00021736162 0.03599923 0.029054357 0.04157562
0.003551484 -0.026380548 0.012302535 0.015024537 0.018201105 0.0026857564 0.009261851 0.0098413965
-0.0016487021 0.008397552 0.008172041 0.008574063 -0.032750525 0.013878161 0.020850414 0.0020448556
0.008316894 0.012451052 0.004720248 -0.0037388832 0.0028082333 -0.016860895 -0.012421536 0.016149076
0.0101169385 -0.1089505 0.01203268 -0.041094232 0.0038473464 0.0076361685 0.012773783 0.0076147066
00000000: 4dbe 2bbb af57 35bc dd43 c939 0998 b8bc
00000010: f087 68bc d668 6d3b 12ae 6c3b 9c2e 673b
00000020: 66ee 9e3b fdf5 03ba e752 cdbb 9272 3f3b
00000030: 0c45 a73b 8f82 1c3b 4255 083c 1eec 4fbc
00000040: 4677 903b e1a6 74b9 371c 903b b816 063c
00000050: 5177 c0bc d652 d63b 5a9e 7c3b 4c50 d5bc
00000060: 617e 003d 6174 6a3c 73c4 b2bc 25af 84ba
00000070: 4ff9 0d3d 23e9 ac3c e16d 0d3c d55d ce3c
00000080: 615d 22bc fc01 17bd 0072 52bb 19e0 713b
00000090: 2726 3f3c db80 903c 78b1 7d3b 61cc 923b
000000a0: 59c7 5d3b 8690 5c3b dc52 df3b 3dd4 583b
000000b0: 5b65 09bd aba9 7bbc 319b bf39 e80e 82bb
000000c0: bfb4 103b b2e7 133c d183 893b 47d6 ca3b
000000d0: 033a c3bb 90d1 ed3a a18d 9ebb 6ebf 2b3c
000000e0: ea36 273c a5f0 75bc 8d53 263c 87cd 24bd
000000f0: 2735 1d3b 4948 4138 58b6 cf3b 843a 463b
00000100: f793 f33c bc60 07bb f34b 903b 74c9 1c3d
00000110: 1c76 803d 4166 25bc 5572 2cbc 1bb5 34bc
00000120: 1333 7ebc 7448 263b 8dd2 87bb 97be 013c
00000130: 901f 10bc a1df ddba 1745 61bc 85f8 04bc
00000140: 032d 78bb 885f a3b8 a41d 46bc 6dd8 1d3c
00000150: 220a 123d b83e ccbb 924b 3abc 7291 2d3d
00000160: 278e 07bd ecdd 5fbc f12d 3a3c 5933 77bc
00000170: e72b 463c b466 f1bc 22ac a8bc 0c94 02bd
00000180: 0293 973b 6a56 1b3d 941f f4bc 718b 52bc
00000190: 725a 69bb e8bb 9d3a 8d5b 29bc d501 57bc
000001a0: 9b1e 203c edbc 36bc 8d30 85bc a19e 3dbc
000001b0: 8a1e 303d bb88 8c3a ba2e 73bb debf e4bb
000001c0: 90f5 9cbd 26fd 9cbc 0c79 cc38 d7cf 5c3c
000001d0: 1606 103c d7d4 79ba d899 713c 8f31 cdba
000001e0: 5be0 a0bb defe 5e3b 0934 eabc e24e 2c3d
000001f0: 4f98 b7bb 8e39 b13a 0884 3cbd 3eb3 a1bd
00000200: c058 53bc 8fc9 daba 1c7e 0db9 63ab 503c
00000210: bea2 d73b cda5 70bb 921c 00bb 6652 afbb
00000220: b1e4 40bb bb1a 8abb 96b0 9f3b f92b 32bc
00000230: 06e1 51bb a3cc 00bc e2ea 75bc ba2f 743a
00000240: 5eb0 61bb 59d4 023d 2aa6 82bc 348e 13bc
00000250: 7b43 363c 3b04 05bb 3eff c8ba 41bc 883c
00000260: f394 d9bc 0934 17bc c691 c7bc a210 5dbc
00000270: 8ed6 e9bb df18 e1bc f802 93bc 7adc f0bc
00000280: 7ec8 27bc 8f8b 293c 0c7d 3b3a 2d34 24bc
00000290: b185 febc c01b 813c 065c a6bb 6aca 98bb
000002a0: 3c88 903c 6b74 95bb fe28 55bb 6882 efbb
000002b0: 4a06 783c 6a98 cdbc 8ce4 7dba 10b2 3dbc
000002c0: b604 45bc 7995 80bc 2737 9ebb a32e 4d38
000002d0: 8b53 70ba 5cb1 d539 f62e 683b 09a6 48bc
000002e0: c140 c8bc e9df 9c3c ad9b 57bc d971 a53c
000002f0: 2de7 34bc b095 3fbb b249 73bc 1559 45bc
00000300: 79f3 7a3b 88d5 853c a8b9 063c 3dd2 06bd
00000310: 23c2 4f3c c2a7 d43b 1046 bb3b 279a 143c
00000320: 3d5b b33b 5405 7a3a d967 4c3a 5c32 f3ba
00000330: 26cc f33b e828 4d3c 8f34 0b3c ac53 a6bb
00000340: f3b3 ad3b 6295 86bc a052 9c3b 3e44 913c
00000350: 2298 f0bc 2b7d ca3b 4650 ca3b 4bb2 19bd
00000360: 2893 1b3d 80e0 6e3c 09ea 033c 0292 993c
00000370: 91eb 63b9 ee73 133d 6703 ee3c 334b 2a3d
00000380: 04c0 683b 051c d8bc 9290 493c 7a29 763c
00000390: 7c1a 953c 8403 303b 05bf 173c cf3d 213c
000003a0: 4319 d8ba e395 093c 06e4 053c 3a7a 0c3c
000003b0: 6a25 06bd 3a61 633c 7dce aa3c fc02 063b
000003c0: 9543 083c 7fff 4b3c 4fac 9a3b 0d08 75bb
000003d0: 560a 383b dc1f 8abc b383 4bbc 114b 843c
000003e0: 84c1 253c 7121 dfbd b824 453c 6d52 28bd
000003f0: c323 7c3b d338 fa3b 2149 513c ca84 f93b

transformer.h.0.ln_1.weight f4 [64]
1.2096803 1.5173268 0.6380524 0.6880172 3.3317966 -0.0007985112 -0.0016533022 -0.005148568
0.00023859662 1.0343016 1.5478884 0.8641806 0.00043921755 0.37923962 0.5445452 1.6471267
0.10352535 2.0079198 0.85002077 0.63558483 0.5773953 -0.00031356266 0.0050860415 0.78881544
0.5421389 1.0121531 1.6641896 0.31955922 4.191292 0.49581313 0.4203257 0.5726137
1.6671206 0.81955 1.4719425 -0.0007139634 1.2266275 1.4790545 -0.003210149 0.0012578015
1.451899 -0.00022360358 7.039005e-05 0.27092943 0.69064397 1.7284977 -0.0015177325 2.908503
0.9466445 0.56554735 1.0436126 2.038133 0.5347422 2.5933547 0.4940931 0.81382257
1.8525596 5.002378 0.32213897 0.89729285 0.88566357 1.1477782 1.0756845 0.9491004
00000000: ced6 9a3f c437 c23f 6757 233f e521 303f
00000010: 283c 5540 2e53 51ba 9eb3 d8ba 52b5 a8bb
00000020: cb2f 7a39 ff63 843f 3521 c63f f13a 5d3f
00000030: c846 e639 b22b c23e 5067 0b3f 0cd5 d23f
00000040: 1905 d43d c281 0040 f69a 593f b0b5 223f
00000050: 2ed0 133f ab65 a4b9 cfa8 a63b cfef 493f
00000060: 9dc9 0a3f 3c8e 813f 2a04 d53f 449d a33e
00000070: 101f 8640 38db fd3e ee34 d73e d096 123f
00000080: 3564 d53f 07ce 513f 9d68 bc3f 4629 3bba
00000090: 2102 9d3f a851 bd3f 5d61 52bb d1dc a43a
000000a0: d4d7 b93f 2177 6ab9 5f9e 9338 43b7 8a3e
000000b0: 0bce 303f 6a3f dd3f a7ee c6ba ea24 3a40
000000c0: 4b57 723f b6c7 103f 1995 853f c570 0240
000000d0: dde4 083f 86f9 2540 c5f9 fc3e ad56 503f
000000e0: ac20 ed3f 7b13 a040 66ef a43e fcb4 653f
000000f0: d9ba 623f 65ea 923f 08b0 893f 3ef8 723f

transformer.h.0.ln_1.bias f4 [64]
-0.13828972 0.42909992 0.20425405 -0.7169533 -0.04556224 0.00013167845 8.6036176e-05 -0.00015628955
-0.0006503178 0.010110983 -0.11672826 -0.34553254 -0.00037444502 0.0016443526 0.15519686 0.24329297
0.0023327137 0.19966885 0.09720328 0.030962657 -0.5702825 0.00019792124 0.00113593 -0.8378341
0.4322999 0.10876789 -0.16918644 0.12836352 -0.03442196 0.39190966 0.26304385 0.49700072
0.11542177 -0.75671107 0.38160318 0.0007131299 0.0069410456 -0.038867418 -3.697122e-05 -0.0018651815
-0.01800171 0.00025017656 0.00034662453 0.017900888 -0.6953361 0.14531489 -0.00012028242 0.14128776
0.2724054 0.119758174 -0.29964066 -0.006275485 -0.0963526 -0.6230086 -0.2788723 -0.012424939
-0.2687494 -0.3922021 0.06180877 -0.9692133 -0.050111752 -0.2467124 -0.004557767 0.29652599
00000000: d29b 0dbe fcb2 db3e f927 513e 408a 37bf
00000010: 799f 3abd 2a13 0a39 526e b438 a8e1 23b9
00000020: 177a 2aba 89a8 253c 3a0f efbd a4e9 b0be
00000030: 2951 c4b9 5187 d73a edeb 1e3e cb21 793e
00000040: 71e0 183b fe75 4c3e 8312 c73d 66a5 fd3c
00000050: 09fe 11bf 1489 4f39 7ce3 943a 4c7c 56bf
00000060: 6a56 dd3e b3c1 de3d 363f 2dbe ba71 033e
00000070: 0bfe 0cbd 62a8 c83e afad 863e e176 fe3e
00000080: 4062 ec3d d1b7 41bf 7e61 c33e 56f1 3a3a
00000090: b671 e33b 7133 1fbd 8c11 1bb8 1b79 f4ba
000000a0: 5278 93bc 212a 8339 28bb b539 e2a4 923c
000000b0: 8c01 32bf 6dcd 143e 2240 fcb8 bdad 103e
000000c0: b878 8b3e c643 f53d 806a 99be 95a2 cdbb
000000d0: 8354 c5bd 7e7d 1fbf 5ac8 8ebe f991 4bbc
000000e0: 8599 89be b7ce c8be 312b 7d3d 5d1e 78bf
000000f0: fb41 4dbd 2da2 7cbe 5259 95bb 41d2 973e

transformer.h.0.attn.c_attn.weight f4 [192, 64]
-0.00042941174 0.0008918813 -0.007586038 0.0013603184 0.00400617 -0.0037493138 -0.00095384207 0.00085956097
-0.011133039 -0.001747903 -0.0004133326 0.0031887556 0.010251821 0.02134764 -8.328719e-06 0.00077025103
-0.0019400914 -0.0011378333 0.0013424709 -0.0016018357 -0.00079032796 0.0021844702 -0.004058156 0.0020914723
-0.0015888757 -0.0018369064 -0.0022965472 0.007898698 0.0002436694 -0.0020208873 0.0010369563 -5.958802e-05
0.0034443915 0.0013433457 -0.0032109239 0.00072674634 0.0019237491 -0.0015943897 0.0061238683 0.00768119
-0.00047525056 -0.0022948268 -0.00395146 -0.0043105595 3.1542128e-05 -0.0027725373 0.0041424176 -0.002619604
-0.00081288913 0.0016425014 0.010636463 -0.00096687186 -0.0040009627 -0.0046228534 0.005626047 -0.00831818
-0.009256744 0.005067876 -0.0057245274 0.0023020657 0.0069187465 -0.00147931 -0.0016093765 -0.0024129986
-0.0021799451 0.020057177 0.0004708947 0.015438456 0.018113198 0.0012921408 0.0009911839 0.0025990477
-0.0038374322 0.020804519 0.0005565659 0.009581238 0.006139892 0.021656914 -0.032259986 0.009607677
0.014345752 0.0121107595 0.010662599 -0.0115212295 0.016170789 -0.006186492 2.6159541e-06 0.018566517
-0.020314226 0.0059949467 0.017655063 -0.000626685 -0.012948133 -0.015586391 -0.01126399 -0.01845349
0.016139088 0.016783841 -0.006938129 0.0038959663 0.006824213 -0.041099135 -0.0026541427 -0.0015569065
-0.017394105 0.007760305 0.0018975254 0.010282583 0.017331345 0.035803236 -0.003219048 0.002960045
-0.009533788 -0.03399744 0.0067205136 0.0057864413 0.00021127886 -0.021303507 0.021718891 -0.024548529
-0.031132426 0.012500601 -0.036185373 0.02020887 0.013551731 -0.011650886 -0.014440983 -0.010326999
0.009194752 -0.015666189 -0.012062372 -0.012633604 -0.014786344 0.0059607336 -0.0014852751 0.004926709
0.004490427 -0.0056336354 -0.0007017687 -0.02266035 0.0051084612 -0.029460058 0.014571209 -0.016620763
-0.01474421 -0.022382332 -0.0072445623 -0.0003044979 -0.014618908 0.004496535 -0.009729999 -0.015032083
0.015999423 -0.013330829 -0.04929874 0.012717632 0.017286284 0.013760139 0.011138279 0.016035669
-0.015053333 -0.012635553 0.01476525 0.0050070323 -0.003733467 0.042436704 0.008718832 -0.0016741651
0.032809783 -0.002210952 0.0056687947 0.012604496 -0.015855104 -0.02420233 -0.0036464501 0.001633203
0.0152532905 0.045014318 -0.0035075375 0.006193225 -0.01083112 0.012520973 -0.012127586 0.0015828543
0.029290533 -0.009085853 0.026377603 -0.01645969 0.014681352 -0.012341582 0.009603338 0.01643386
0.00011901148 -0.0021477514 0.0078063365 -0.0027372276 -0.005415585 0.0037195692 0.0009381113 -0.00083490537
0.011298152 0.0014771149 -5.5145487e-05 -0.0034405016 -0.010247746 -0.021546563 0.0012944306 -0.0018037496
0.0016018901 0.0010557321 -0.00097310427 0.0023590089 -0.0005754676 -0.0018383639 0.004004784 -0.0035521819
0.0030687584 0.0025381525 0.0011689094 -0.0075775334 0.0010000843 0.0033666433 0.00019473063 0.0014547292
-0.0038181727 -0.0027584773 0.0036863508 -0.0006447961 -0.0011434872 0.002970625 -0.0060820244 -0.007640997
0.00038178987 0.0022575962 0.003946235 0.004807138 -0.001435111 0.0019144845 -0.004223421 0.0025233482
0.0017450306 -0.0006056492 -0.010485832 0.0007199928 0.003236885 0.004791812 -0.0069510825 0.009407373
0.010265997 -0.0062554693 0.007096358 -0.003809697 -0.006887912 0.0011610948 0.002526525 0.0033497664
00000000: ab22 e1b9 24cd 693a 4d94 f8bb b64c b23a
00000010: 3146 833b 0cb7 75bb 420b 7aba 2954 613a
00000020: 5a67 36bc e419 e5ba 90b4 d8b9 71fa 503b
00000030: 41f7 273c 3fe1 ae3c 93bb 0bb7 acea 493a
00000040: aa4a feba 5a23 95ba d9f5 af3a b0f4 d1ba
00000050: 032e 4fba 5429 0f3b 48fa 84bb 1511 093b
00000060: d241 d0ba 5ac4 f0ba ab81 16bb 8a69 013c
00000070: 8281 7f39 dd70 04bb 7bea 873a 26ee 79b8
00000080: 4dbb 613b 3413 b03a 5d6e 52bb 1f83 3e3a
00000090: 4f26 fc3a d7fa d0ba bbaa c83b 7eb2 fb3b
000000a0: 0d2b f9b9 ce64 16bb 407b 81bb 983f 8dbb
000000b0: 1a4c 0438 75b3 35bb 1ebd 873b aaad 2bbb
000000c0: 1118 55ba 3449 d73a 8f44 2e3c ac75 7dba
000000d0: 821a 83bb 4e7b 97bb b45a b83b fa48 08bc
000000e0: 99a9 17bc 6d10 a63b d194 bbbb 41de 163b
000000f0: a7b6 e23b 68e5 c1ba b7f1 d2ba 6623 1ebb
00000100: 69dd 0ebb f34e a43c 6be2 f639 94f1 7c3c
00000110: 2162 943c 0d5d a93a 9dea 813a c954 2a3b
00000120: 6e7d 7bbb 3d6e aa3c 81e6 113a a0fa 1c3c
00000130: 2631 c93b d769 b13c 0c23 04bd 8569 1d3c
00000140: 720a 6b3c 356c 463c 2eb2 2e3c 8ac3 3cbc
00000150: 9a78 843c 0eb8 cabb c08d 2f36 cf18 983c
00000160: 056a a6bc 4271 c43b 5aa1 903c 1e48 24ba
00000170: 6824 54bc 105e 7fbc 998c 38bc c62b 97bc
00000180: 1f36 843c 447e 893c 3f59 e3bb 7853 7f3b
00000190: a69d df3b 9157 28bd 20f1 2dbb 1d11 ccba
000001a0: 157e 8ebc 284a fe3b 63b6 f83a 4778 283c
000001b0: 77fa 8d3c 6aa6 123d aaf6 52bb 50fd 413b
000001c0: 9b33 1cbc e640 0bbd c137 dc3b 309c bd3b
000001d0: bd8a 5d39 b184 aebc d1eb b13c ff19 c9bc
000001e0: 6e09 ffbc 52cf 4c3c 1d37 14bd 128d a53c
000001f0: 1408 5e3c 5ce3 3ebc df99 6cbc 9332 29bc
00000200: 96a5 163c 6156 80bc 41a1 45bc 2dfd 4ebc
00000210: 6c42 72bc 4252 c33b 90ad c2ba 3b70 a13b
00000220: 6f24 933b 5c9a b8bb e6f6 37ba 33a2 b9bc
00000230: e164 a73b 3856 f1bc 15bc 6e3c 4428 88bc
00000240: b391 71bc 275b b7bc cb63 edbb 04a5 9fb9
00000250: 2584 6fbc ab57 933b 936a 1fbc 2049 76bc
00000260: 3911 833c 8d69 5abc 7aed 49bd 9d5d 503c
00000270: f79b 8d3c 3572 613c 547d 363c 3c5d 833c
00000280: 41a2 76bc 5a05 4fbc f2e9 713c 0812 a43b
00000290: 2fad 74bb 1cd2 2d3d 6fd9 0e3c a96f dbba
000002a0: 8d63 063d 9fe5 10bb 4cc1 b93b 1783 4e3c
000002b0: 90e2 81bc f743 c6bc 48f9 6ebb 3311 d63a
000002c0: f0e8 793c ef60 383d b7de 65bb 89f0 ca3b
000002d0: 0375 31bc c424 4d3c c8b2 46bc c777 cf3a
000002e0: b3f2 ef3c d4dc 14bc d815 d83c 79d6 86bc
000002f0: 0e8a 703c 5934 4abc 5257 1d3c 4da0 863c
00000300: cd95 f938 4ac1 0cbb 4ccc ff3b 0f63 33bb
00000310: 3875 b1bb 04c4 733b 95eb 753a 8ddd 5aba
00000320: e21b 393c c09b c13a 044c 67b8 0a7a 61bb
00000330: 29e6 27bc 6b82 b0bc e2a9 a93a cb6b ecba
00000340: 83f6 d13a 7e60 8a3a ec17 7fba 9a99 1a3b
00000350: fada 16ba 42f5 f0ba 903a 833b b9cb 68bb
00000360: 391d 493b 2257 263b 1736 993a f54c f8bb
00000370: 4315 833a e7a2 5c3b 9b30 4c39 9dac be3a
00000380: 4f3a 7abb 92c7 34bb b496 713b 8907 29ba
00000390: 10e1 95ba d1ae 423b b84b c7bb 5461 fabb
000003a0: f82a c839 2ef4 133b 6b4f 813b 3285 9d3b
000003b0: 561a bcba 71ef fa3a a064 8abb c25e 253b
000003c0: 83b9 e43a 6ec4 1eba c4cc 2bbc e6bd 3c3a
000003d0: eb21 543b a204 9d3b e8c5 e3bb 6221 1a3c
000003e0: b632 283c aefa ccbb 9188 e83b 1cac 79bb
000003f0: feb3 e1bb e02f 983a 0e94 253b c187 5b3b

transformer.h.0.attn.c_attn.bias f4 [192]
-1.32785 0.45568094 -0.46757883 1.3455441 0.12175961 1.6264981 1.6685398 1.5657167
-0.21565607 0.010194961 -0.4311527 0.42505547 1.4908468 -0.0022101847 -0.5550768 1.5297805
-0.34739894 0.02594231 -0.48983428 0.116717875 -1.7489412 0.88832885 0.9445653 -0.022304015
0.39511546 -0.3051391 -0.4674176 -0.11511277 -0.43844306 -0.011348221 0.52889854 -0.54129833
-1.3421366 -0.962621 0.8334974 -0.11926046 -0.9688246 1.4589019 1.1551381 -0.5968033
-1.1389394 -1.1061507 -0.78244066 0.84376365 1.2767876 1.0706015 0.965222 1.5406568
1.3386425 1.0046425 0.81169885 -1.3954707 -1.3455833 1.1281635 1.1128837 -1.1047504
1.3931868 1.152139 1.0115685 -0.92018145 0.576908 -0.19467244 -1.2075934 0.27130783
-2.658129 0.25402912 -0.78328115 2.653422 0.14556758 2.958557 2.8420508 2.7969155
-0.12248026 0.40261227 -0.70551735 0.3609422 2.7275667 -0.32964075 -0.9161196 2.7316291
-0.4868499 0.48015234 -0.68368137 0.62783784 -3.0846765 1.7543309 1.8439093 0.06766522
0.455009 -0.24080297 -0.84630036 -0.14176343 -0.35377043 -0.30608025 0.68776214 -0.76130503
-1.8250641 -1.8935194 1.1865884 -1.1415241 -1.4290478 1.3351223 1.5451275 -1.469678
-0.93969357 -1.6410284 -0.97959447 1.477422 1.7329016 1.7493275 1.7502512 1.3167621
1.8454351 0.8869126 1.4482304 -1.5931754 -0.9027356 1.6681843 1.6836028 -1.7678885
1.161743 1.3657882 1.6684344 -1.7543014 1.5216541 0.5649006 -1.8539698 0.072285965
0.0042351843 0.027272731 0.030213179 0.12137962 0.058548328 0.061565727 0.05889335 -0.0027087308
-0.005221893 0.12185545 -0.027149627 0.011002058 -0.0031453348 -0.0016138734 0.03510213 -0.0008869144
-0.0017066095 -0.0018749638 -0.017369553 -0.0016151706 0.059521396 -0.030735893 -0.002476973 -8.964154e-05
-0.014199486 -0.0011899563 0.02450236 0.0805777 0.08460141 0.014995804 -0.08295219 0.00027276704
-0.003576275 0.15823188 0.16509162 -0.0009008664 -0.0026673866 0.072635904 -0.017986324 0.008867431
-0.008794029 -0.0010926338 -0.0011695497 -1.7298484e-05 -0.00023008534 0.004467391 0.016922468 0.0018551189
-0.0009949139 0.060490713 0.003169909 -0.011651612 0.16515684 0.00054617674 -0.014025309 0.0011769739
-0.27698952 -0.019065028 0.020532124 0.056168534 -0.0010690361 -0.19736697 0.0031663554 0.0028410824
00000000: fdf6 a9bf 034f e93e 7e66 efbe ca3a ac3f
00000010: 1a5d f93d 1731 d03f b692 d53f 6869 c83f
00000020: f2d4 5cbe c408 273c 0cc0 dcbe dfa0 d93e
00000030: 11d4 be3f bfd8 10bb 8319 0ebf d9cf c33f
00000040: 46de b1be f884 d43c 8fcb fabe c809 ef3d
00000050: 4edd dfbf 8569 633f 08cf 713f e9b6 b6bc
00000060: 934c ca3e 313b 9cbe 5c51 efbe 3ec0 ebbd
00000070: 9c7b e0be e4ed 39bc e565 073f 8792 0abf
00000080: 22cb abbf 546e 76bf 1660 553f d43e f4bd
00000090: e404 78bf 4cbd ba3f 91db 933f 1ac8 18bf
000000a0: c4c8 91bf 5996 8dbf 084e 48bf e500 583f
000000b0: c76d a33f 7809 893f ca18 773f 3e34 c53f
000000c0: a358 ab3f 2098 803f 7fcb 4f3f c99e b2bf
000000d0: 133c acbf a967 903f f972 8e3f 7668 8dbf
000000e0: f253 b23f 4a79 933f 147b 813f 0391 6bbf
000000f0: 3eb0 133f 3658 47be 6c92 9abf dce8 8a3e
00000100: c91e 2ac0 1b10 823e 1d85 48bf abd1 2940
00000110: ab0f 153e ff58 3d40 29e4 3540 aa00 3340
00000120: eed6 fabd 3223 ce3e c99c 34bf 6bcd b83e
00000130: 7490 2e40 acc6 a8be d086 6abf 03d3 2e40
00000140: 6444 f9be 87d6 f53e be05 2fbf fbb9 203f
00000150: 576b 45c0 ea8d e03f 3805 ec3f 1094 8a3d
00000160: f1f6 e83e 0e95 76be 24a7 58bf 6f2a 11be
00000170: 6621 b5be 8db6 9cbe 2e11 303f e3e4 42bf
00000180: b39b e9bf d85e f2bf 21e2 973f 761d 92bf
00000190: 0aeb b6bf 4ae5 aa3f bdc6 c53f 691e bcbf
000001a0: c28f 70bf 380d d2bf b4c6 7abf 2a1c bd3f
000001b0: b8cf dd3f f7e9 df3f 3b08 e03f a98b a83f
000001c0: 3837 ec3f b40c 633f 9d5f b93f 2ced cbbf
000001d0: ae19 67bf 1087 d53f 4c80 d73f 2c4a e2bf
000001e0: ffb3 943f 26d2 ae3f 428f d53f f38c e0bf
000001f0: 90c5 c23f 539d 103f e24e edbf aa0a 943d
00000200: 4dc7 8a3b 106b df3c a181 f73c e195 f83d
00000210: 5fd0 6f3d 582c 7c3d 273a 713d f684 31bb
00000220: 6a1c abbb 5a8f f93d e568 debc fa41 343c
00000230: f621 4ebb 9b88 d3ba 40c7 0f3d d17f 68ba
00000240: 50b0 dfba 58c1 f5ba 984a 8ebc 22b4 d3ba
00000250: b5cc 733d d7c9 fbbc b654 22bb effd bbb8
00000260: f6a4 68bc 4ff8 9bba 2cb9 c83c ec05 a53d
00000270: 8143 ad3d f6b0 753c d6e2 a9bd 2c02 8f39
00000280: f05f 6abb 8a07 223e c70d 293e 1f28 6cba
00000290: 52cf 2ebb 22c2 943d 0e58 93bc b448 113c
000002a0: d514 10bc b536 8fba 934b 99ba 361c 91b7
000002b0: 1043 71b9 3163 923b fda0 8a3c 7627 f33a
000002c0: c567 82ba 1cc5 773d 3fbe 4f3b 67e6 3ebc
000002d0: e01e 293e 4d2d 0f3a 69ca 65bc b144 9a3a
000002e0: 92d1 8dbe 432e 9cbc fc32 a83c fa10 663d
000002f0: e61e 8cba 911a 4abe a182 4f3b 7431 3a3b

transformer.h.0.attn.c_proj.weight f4 [64, 64]
0.0065126778 -0.0061982963 0.025921827 0.017168794 0.043580685 0.0169507 0.02606007 -0.006421456
0.0096173 0.017197784 -0.004137764 -0.00053696736 0.0051540844 0.0075243246 0.04646321 0.0013549052
0.004263615 -0.010474594 -0.016437674 0.008541955 -0.006778363 -0.025089627 0.007008903 -0.0010820759
-0.028216649 -0.0054848464 -0.010117516 0.041527186 -0.011583963 0.03908078 0.011863108 -0.0036787132
0.0064023025 -0.046562012 0.005831983 -0.0028214103 -0.0012491934 -0.00071170623 0.002461715 -0.0046070907
-0.0014928683 0.0030557683 0.009325549 -0.0058861226 -0.0020675971 -0.0034047836 -0.0016030221 -0.002263398
0.00018129691 0.0074229157 0.004317009 -0.0121856555 0.0058338726 0.0034593814 -0.009658313 0.007934579
0.0028901051 0.022319887 -0.02854714 0.008573475 -0.0033488185 -0.028934842 0.0061704624 -0.0022631008
-0.0019115267 0.012225487 -0.0058953264 -0.012814234 0.0073313345 -0.0212263 -0.0023775955 0.004698831
0.045598537 -0.012718853 0.03269717 0.0011235634 -0.009333009 -0.007990186 -0.007891386 0.0037731659
-0.003931448 0.0056607835 0.0069319666 -0.009522742 0.0046454715 0.018224852 -0.003174583 0.001055689
-0.03980486 -0.003475449 -0.016607834 0.0034181133 0.056550756 0.026696851 -0.05738852 -0.0051827803
0.00319048 0.0039099036 -0.010953242 0.004119267 0.011415132 -0.022322224 0.00085933175 -0.008649881
-0.0009024776 0.0025873252 -0.004883137 0.0050596283 0.0057181884 0.0023861118 0.005946686 -0.00010319686
-0.007558715 -0.0013200552 0.0015846968 -0.012016156 -0.010953554 -0.0045646736 -0.0012819972 -0.008066193
-0.0016127932 -0.013867863 0.0003155737 -0.015020865 0.004719095 0.0047997427 -0.0066889883 0.007960883
-0.00027497165 -0.0016653037 0.0006037266 0.051573392 0.0014499853 0.02223241 0.022204408 -0.006448189
0.006796038 0.051547524 -0.00061129814 0.0015331077 -0.0028472685 0.0010826275 0.0018392132 -0.0016899094
-0.0036628658 -0.0013741754 -0.012685314 -0.0029541696 0.019842733 -0.019224111 -0.001935769 0.0038718826
-0.0016817239 0.00021015192 0.0034629295 0.004658601 -0.003463197 -0.017436832 0.0041639796 0.0016826602
-0.0041131773 -0.009767133 0.06941749 0.0017940059 0.001890876 -0.007360872 0.001410883 0.0029668654
-0.001956204 0.0039686323 -0.00035599104 0.0023991372 -8.103316e-05 0.000778186 -0.00029002174 -0.0021939513
0.0021096426 0.005752872 0.00077889126 -0.014232032 0.06942147 -0.0005564188 -0.0010406731 -0.0041745165
-0.01981875 0.011979081 0.006183987 0.006858503 -0.0022397565 0.002913485 -0.0055418634 -0.0009489213
-0.0004999068 -0.025586816 0.024909435 0.0014975801 0.009223414 0.015884222 -0.018273417 -0.0011405973
-0.0398443 0.0014796879 -0.05815003 0.0070200358 -0.007804801 -0.0053304476 0.021140385 -0.0010723618
-0.0016519623 0.0037755703 -0.016876416 -0.0036948824 -0.02404166 -0.0029210667 -0.009708615 0.0025204348
0.02632394 0.0048306216 -0.0012181724 -0.009817894 0.0020476575 -0.0076463977 -0.002175467 0.0030937137
0.002965768 -0.01107187 -0.0034106597 -0.00074211124 0.0014805337 0.017679263 0.0034532086 -0.0008914923
-0.005867248 0.0033902866 0.009030569 0.0069934684 -0.006323977 0.0026626205 0.0014233723 -0.0007633696
-0.0006250772 -0.013446042 0.005971746 0.045482565 -0.003406685 0.008585219 -0.004452813 3.8998405e-05
-0.0065612537 0.03613085 -0.022770587 0.053282335 -0.0036527875 -0.028383145 0.0016851013 0.0029010987
00000000: 4d68 d53b 141b cbbb 035a d43c 92a5 8c3c
00000010: a981 323d 32dc 8a3c ee7b d53c 146b d2bb
00000020: e191 1d3c 5ee2 8c3c 1596 87bb 45c3 0cba
00000030: 98e3 a83b 9c8e f63b 3550 3e3d 1397 b13a
00000040: cbb5 8b3b a29d 2bbc 4da8 86bc 8ef3 0b3c
00000050: 081d debb c388 cdbc f1aa e53b 71d4 8dba
00000060: 9a26 e7bc 3aba b3bb f0c3 25bc 6918 2a3d
00000070: aaca 3dbc 2b13 203d 7b5d 423c 9116 71bb
00000080: 68ca d13b cfb7 3ebd 381a bf3b 69e7 38bb
00000090: fabb a3ba cc91 3aba b954 213b 14f7 96bb
000000a0: 59ac c3ba 4943 483b 30ca 183c 60e0 c0bb
000000b0: 8680 07bb ca22 5fbb 7f1c d2ba 8455 14bb
000000c0: 851a 3e39 ee3b f33b b275 8d3b 58a6 47bc
000000d0: 122a bf3b cab6 623b e73d 1ebc 0900 023c
000000e0: eb67 3d3b 32d8 b63c b1db e9bc c377 0c3c
000000f0: da77 5bbb c308 edbc 9731 ca3b 8850 14bb
00000100: 318c faba 694d 483c 952d c1bb cbf2 51bc
00000110: b13b f03b c7e2 adbc 6fd1 1bbb a7f8 993b
00000120: 88c5 3a3d bc62 50bc 78ed 053d 8844 933a
00000130: 7ae9 18bc 45e9 02bc df4a 01bc 3847 773b
00000140: 60d3 80bb 187e b93b 8d25 e33b 4605 1cbc
00000150: 0a39 983b 494c 953c aa0c 50bb 0b5f 8a3a
00000160: 6c0a 23bd 5cc4 63bb 270d 88bc 6d02 603b
00000170: c4a1 673d 5bb3 da3c 3a10 6bbd 50d4 a9bb
00000180: 5f17 513b a61e 803b 3a75 33bc ebfa 863b
00000190: 8906 3b3c 19dd b6bc c744 613a 3bb8 0dbc
000001a0: 3f94 6cba 1d90 293b b902 a0bb 3dcb a53b
000001b0: a45f bb3b 5060 1c3b 6bdc c23b 646b d8b8
000001c0: 19af f7bb b405 adba 9ab5 cf3a 69df 44bc
000001d0: 8976 33bc 4293 95bb b008 a8ba 1128 04bc
000001e0: 5c64 d3ba 0936 63bc 9673 a539 131a 76bc
000001f0: a3a2 9a3b 2947 9d3b 4d2f dbbb 5d6e 023c
00000200: 122a 90b9 5246 daba 6843 1e3a 9f3e 533d
00000210: 6f0d be3a be20 b63c 05e6 b53c 544b d3bb
00000220: 4cb1 de3b 7f23 533d 863f 20ba 8ff2 c83a
00000230: 3d99 3abb f3e6 8d3a c111 f13a f37f ddba
00000240: b10c 70bb ad1d b4ba 10d6 4fbc be9a 41bb
00000250: 3a8d a23c e27b 9dbc a1b9 fdba 69bf 7d3b
00000260: 4a6d dcba 3a5c 5c39 51f2 623b 2da7 983b
00000270: cef6 62bb b0d7 8ebc fe71 883b b58c dc3a
00000280: d5c7 86bb 5306 20bc c22a 8e3d d924 eb3a
00000290: 45d7 f73a 7833 f1bb 61ed b83a be6f 423b
000002a0: a833 00bb 4d0b 823b 4fa4 bab9 d83a 1d3b
000002b0: 59f0 a9b8 2eff 4b3a 0f0e 98b9 65c8 0fbb
000002c0: ee41 0a3b 9782 bc3b 822e 4c3a 782d 69bc
000002d0: d82c 8e3d a2dc 11ba 3267 88ba 62ca 88bb
000002e0: ee5a a2bc e843 443c 0ba3 ca3b 4bbd e03b
000002f0: e1c8 12bb 2bf0 3e3b 8598 b5bb 08c1 78ba
00000300: 2d0c 03ba 719b d1bc df0e cc3c 734a c43a
00000310: cd1d 173c a11f 823c 22b2 95bc 1880 95ba
00000320: c733 23bd 16f2 c13a ba2e 6ebd 5408 e63b
00000330: 6bbf ffbb 09ab aebb 9a2e ad3c 7e8e 8cba
00000340: a886 d8ba 8f6f 773b 6940 8abc d725 72bb
00000350: 04f3 c4bc 5e6f 3fbb e210 1fbc e12d 253b
00000360: 4ea5 d73c 314a 9e3b 15ab 9fba 3bdb 20bc
00000370: fe31 063b a28e fabb 4892 0ebb e7bf 4a3b
00000380: 555d 423b ca66 35bc 6085 5fbb 3e8a 42ba
00000390: 780e c23a 1ad4 903c 3a4f 623b 09b3 69ba
000003a0: 0b42 c0bb 922f 5e3b f4f4 133c 7729 e53b
000003b0: 5d39 cfbb 5c7f 2e3b 7390 ba3a de1c 48ba
000003c0: 39dc 23ba ca4c 5cbc a3ae c33b ed4b 3a3d
000003d0: b142 5fbb 05a9 0c3c e7e8 91bb 3892 2338
000003e0: c9ff d6bb f1fd 133d 6289 babc 943e 5a3d
000003f0: 9b63 6fbb c583 e8bc 9ede dc3a 5c20 3e3b

transformer.h.0.attn.c_proj.bias f4 [64]
-0.0011090245 0.001408948 -0.0350095 0.012099053 0.03279865 0.012277017 0.0042024013 0.004684717
0.01827354 -0.009082704 0.013694228 -0.012279535 0.0023507404 -0.015739525 -0.00045278945 0.016338255
0.006387002 0.018960994 0.0049495506 -0.0070140427 0.011798063 0.0034152989 0.002675846 0.02728157
-0.018027766 -0.015044098 0.0076956437 0.003681242 -0.013436772 -0.003581483 0.0036900116 -0.01300515
0.010966347 0.03222786 0.018478304 0.004850719 0.0011615778 -0.0151260095 0.004970394 0.0025248607
-0.022531856 0.0056673097 0.004594107 0.0068680868 0.019678451 0.014994653 0.017736224 0.006944084
0.010373693 -0.0031924746 -0.00035083678 0.0024989843 0.016004108 -0.0102894595 -0.01600561 -0.0012981687
0.0019412393 0.03584118 -0.002843819 0.024585051 0.003733671 -0.0011922101 0.0115400795 0.026358454
00000000: b05c 91ba 73ac b83a 1f66 0fbd 1b3b 463c
00000010: e157 063d 8b25 493c 4cb4 893b 4182 993b
00000020: 64b2 953c 9fcf 14bc c15d 603c 1a30 49bc
00000030: e10e 1a3b 2df0 80bc 5f64 edb9 ced7 853c
00000040: 0e4a d13b 1654 9b3c d72f a23b 0ed6 e5bb
00000050: aa4c 413c 35d3 5f3b 3f5d 2f3b 997d df3c
00000060: f7ae 93bc 857b 76bc bd2b fc3b fe40 713b
00000070: e825 5cbc 50b7 6abb 1fd4 713b 8d13 55bc
00000080: 31ac 333c 5c01 043d d05f 973c c8f2 9e3b
00000090: 1540 983a 15d3 77bc b0de a23b 2278 253b
000000a0: ba94 b8bc d7b4 b93b 2a8a 963b b00d e13b
000000b0: b434 a13c 22ac 753c 8f4b 913c 338b e33b
000000c0: 6cf6 293c d638 51bb 84f0 b7b9 00c6 233b
000000d0: 0c1b 833c 1f95 28bc 321e 83bc 5027 aaba
000000e0: 2f71 fe3a 33ce 123d 5e5f 3abb 9766 c93c
000000f0: 9bb0 743b ef43 9cba 9a12 3d3c afed d73c

transformer.h.0.ln_2.weight f4 [64]
4.7075543 4.479663 7.6268015 3.1470013 6.2582684 0.54930544 -0.008637864 0.003228648
5.7235165 7.2840133 5.299741 6.0395513 -0.00023937409 7.0238557 5.2747173 6.157915
0.0062060454 5.741129 6.4782605 4.993404 0.001508383 0.0036319552 -0.005400985 2.4239535
0.85591507 4.7540774 5.345091 2.5843213 5.707319 2.4838037 4.6160645 2.4282787
6.252909 0.93253833 5.1703315 0.18512002 5.3632236 5.7448177 -0.0062281867 0.004211409
6.8879557 -0.0024504473 1.5088199 5.1931787 0.5282769 7.5406103 3.7768805 6.793603
2.2126732 3.5450532 5.882483 7.141642 4.9968915 7.962895 7.246289 6.3956575
5.204804 9.322251 5.9097447 1.3867513 6.125922 7.588439 4.2773542 0.8935428
00000000: 49a4 9640 6659 8f40 c20e f440 7868 4940
00000010: bc43 c840 489f 0c3f d485 0dbc ba97 533b
00000020: 0c27 b740 a316 e940 7a97 a940 0144 c140
00000030: 7e00 7bb9 6dc3 e040 7cca a840 a40d c540
00000040: 155c cb3b 54b7 b740 e94d cf40 f7c9 9f40
00000050: efb4 c53a 1906 6e3b bffa b0bb 0e22 1b40
00000060: 401d 5b3f 6721 9840 fc0a ab40 8565 2540
00000070: 5ba2 b640 a4f6 1e40 cdb6 9340 eb68 1b40
00000080: d517 c840 d5ba 6e3f 5b73 a540 1a90 3d3e
00000090: 879f ab40 8cd5 b740 d115 ccbb dcff 893b
000000a0: 226a dc40 af97 20bb 0321 c13f 852e a640
000000b0: 283d 073f ae4c f140 69b8 7140 3265 d940
000000c0: 709c 0d40 27e2 6240 4d3d bc40 5588 e440
000000d0: 89e6 9f40 09d0 fe40 99e1 e740 3aa9 cc40
000000e0: c18d a640 f127 1541 a11c bd40 1181 b13f
000000f0: 8e07 c440 7ed4 f240 16e0 8840 39bf 643f

transformer.h.0.ln_2.bias f4 [64]
-0.19316518 0.70310605 -0.7124289 -0.13594732 1.3115599 -0.24757546 -0.0030207022 -0.0035266709
1.5179098 1.1500008 0.7797541 -0.025318298 -0.0017249803 -1.104595 0.4165297 -0.63838255
0.00079107046 0.80212843 1.1509806 0.9011603 0.0023632904 -0.0024985138 -0.0016471717 -0.8023096
0.019645255 0.28894544 -0.43281454 0.5655659 0.049724583 0.63989925 1.0042881 0.147429
0.52225864 -0.17223535 0.65220016 -0.02447023 1.0308527 -0.040292345 -0.0027886464 -0.0009646878
0.24403018 0.00023229713 0.12863824 -0.89550906 -0.07193521 -0.89476776 -1.019739 1.6184354
0.030104155 0.9410181 -0.619098 -1.509256 -0.86337143 -0.8508607 -1.678064 1.0261148
0.26345304 1.0075572 1.130013 0.015647454 1.0299591 -1.3454494 -0.61237764 -0.031506833
00000000: 18cd 45be c2fe 333f be61 36bf c635 0bbe
00000010: 32e1 a73f 6c84 7dbe f9f6 45bb b81f 67bb
00000020: de4a c23f 3a33 933f f79d 473f 5268 cfbc
00000030: bc18 e2ba 5e63 8dbf 6143 d53e 0a6d 23bf
00000040: d75f 4f3a 4a58 4d3f 5553 933f 71b2 663f
00000050: 6fe1 1a3b 1bbe 23bb e9e5 d7ba 2964 4dbf
00000060: 16ef a03c a8f0 933e de99 ddbe edc8 103f
00000070: 01ac 4b3d 70d0 233f 838c 803f a1f7 163e
00000080: beb2 053f 775e 30be 97f6 263f cb75 c8bc
00000090: fbf2 833f 9609 25bd b9c1 36bb 1ae3 7cba
000000a0: 0ce3 793e c994 7339 beb9 033e 1540 65bf
000000b0: c452 93bd 800f 65bf cf86 82bf e428 cf3f
000000c0: fd9c f63c 90e6 703f 357d 1ebf 4d2f c1bf
000000d0: e905 5dbf 02d2 59bf cdca d6bf bb57 833f
000000e0: 51e3 863e a2f7 803f 44a4 903f 172f 803c
000000f0: b3d5 833f b037 acbf c8c4 1cbf 4f0d 01bd

transformer.h.0.mlp.c_fc.weight f4 [256, 64]
0.060859457 -0.021953672 0.04926154 0.025626888 -0.029830176 0.0008128816 0.0030028278 -0.0021012814
-0.00285005 -0.024332583 -0.028154477 -0.036082916 0.0045994297 0.00059206656 0.015085134 -0.018546838
0.004920838 -0.013234104 -0.030991968 0.01910638 0.0036598665 -0.007035797 -0.01262186 0.0068215127
0.00025085892 -0.014088538 0.003816942 -0.009349935 0.005792737 0.007955496 0.0077141603 -0.02853506
0.0042983782 -0.0024303547 0.006954089 -0.0012511206 0.013715879 -0.0076406393 -0.014787818 -0.0002552275
-0.0041941092 -0.007859458 0.003752383 0.0296238 0.022181243 0.013794264 0.011604828 -0.030170096
0.0090080835 -0.04754307 -0.0056499257 -0.011821204 0.02603421 0.000984447 -0.02747674 -0.0033396063
0.00032690633 0.0043837028 -0.027341785 0.00849074 5.173464e-05 0.04722923 -0.015182271 -0.008093961
0.027047252 0.01174869 0.056882225 0.038780957 0.028442407 -0.02377359 -0.009265688 -0.0016159428
-0.0045991694 -0.030144092 0.009067438 0.00399731 -0.0038976686 -0.010393654 0.017333971 -0.020130623
0.00390396 -0.027888946 -0.0037596899 -0.019432196 0.0040418888 0.012108515 0.0074008373 0.0035056858
-0.005083914 -0.034894053 -0.041185703 0.009155132 0.005001182 0.0022046908 0.017083552 -0.03382771
0.013153175 0.029518848 0.023067508 -0.004357021 -0.016169952 -0.01928669 0.0058617042 -0.013466926
0.06403042 -0.011050439 -0.010013173 -0.0314824 0.030088723 0.01843185 -0.018330522 0.017043155
-0.053014502 0.017474938 -0.020769449 0.007140273 0.024566539 -0.01930678 -0.018351564 -0.018358322
-0.0032344444 0.004560346 0.011907572 0.0012619774 0.032313097 -0.0072372165 -0.029432764 -0.0071148537
0.019533277 0.010949763 -0.013662263 0.010582544 -0.006446966 0.0033311667 -0.0019496921 0.0045323092
-0.033298198 0.013363849 0.012385122 -0.015091094 0.013662445 0.031754676 -0.00078588567 2.583523e-05
-0.0045827157 0.023194512 -0.003629161 0.00075516885 0.013724535 -0.0059442474 0.0313863 -0.0054118806
-0.028011985 -0.024911169 -0.00027832057 -0.0050984276 -0.016675187 -0.008017301 -0.0012600418 0.008016272
0.0003132293 0.022439245 0.031947237 0.023852957 0.008627885 -0.0057679354 0.007373144 -0.0031920013
0.041381415 0.008972095 -0.015438149 -0.011086662 0.018320931 0.01020546 -0.008375728 -0.028702486
-0.008233335 -0.019886704 0.009655818 0.0020119064 -0.0036752478 0.026051318 0.009678828 -0.016140865
-0.006251983 -0.025821958 -0.021062955 0.019220557 -0.0017760674 0.012243291 -0.019609556 -0.016940786
-0.008015385 -0.008196003 0.02822671 0.0025421411 -0.024285967 0.032920342 0.007651062 0.0010471563
0.005077085 -0.0016708282 -0.030157603 -0.004725367 -0.010140862 0.046509232 0.032428663 0.024589254
0.008513761 -0.011166063 -0.0013826372 -0.04697488 0.0066191885 -0.0030408583 0.008169942 0.0068487534
-0.009853262 0.0017532828 -0.02645253 -0.012957893 0.020885136 -0.011295939 -0.026449395 0.0055701784
0.018623838 0.008389379 -0.001581898 0.01297441 0.004564506 -0.045100536 0.0033008591 0.011176998
-7.7613324e-05 -0.0038432046 0.001418963 0.03357045 -0.0004989594 -0.009482948 0.004439427 0.033656508
0.015396648 -0.028377136 -0.032109972 -0.0021509358 0.013715246 -0.015381543 0.010758752 -0.017631385
-0.033268362 0.005620664 -0.044740435 0.015909223 -0.022129765 0.040429935 -0.027365137 0.021652618
00000000: c447 793d 30d8 b3bc 78c6 493d 7bef d13c
00000010: 6a5e f4bc 9017 553a 17cb 443b a7b5 09bb
00000020: e8c7 3abb 2055 c7bc 38a4 e6bc aecb 13bd
00000030: d0b6 963b ea34 1b3a a327 773c 8aef 97bc
00000040: fb3e a13b dbd3 58bc dee2 fdbc fc84 9c3c
00000050: 5fda 6f3b 8b8c e6bb ebcb 4ebc ff86 df3b
00000060: b785 8339 9cd3 66bc a925 7a3b 7830 19bc
00000070: 00d1 bd3b c557 023c 11c7 fc3b 5cc2 e9bc
00000080: 69d9 8c3b 9646 1fbb 20df e33b a4fc a3ba
00000090: 91b8 603c 545e fabb 9b48 72bc 0ed0 85b9
000000a0: bd6e 89bb f5c4 00bc 8aea 753b 9dad f23c
000000b0: 70b5 b53c 5601 623c 2d22 3e3c 4727 f7bc
000000c0: a496 133c 86bc 42bd 0323 b9bb b9ad 41bc
000000d0: b245 d53c 8f08 813a e616 e1bc 4cdd 5abb
000000e0: a064 ab39 2aa5 8f3b e1fb dfbc bf1c 0b3c
000000f0: a6fd 5838 7073 413d 0fbf 78bc 889c 04bc
00000100: 3392 dd3c 947d 403c 56fd 683d c8d8 1e3d
00000110: 0d00 e93c d5c0 c2bc 1dcf 17bc 0bce d3ba
00000120: a1b4 96bb bef0 f6bc 978f 143c defb 823b
00000130: 0770 7fbb 254a 2abc f9ff 8d3c fae8 a4bc
00000140: 95d9 7f3b 5c77 e4bc 2165 76bb 4530 9fbc
00000150: d271 843b cb62 463c b982 f23b a6bf 653b
00000160: f696 a6bb 11ed 0ebd 57b2 28bd 68ff 153c
00000170: f5e0 a33b 937c 103b cef2 8b3c ed8e 0abd
00000180: 6a80 573c 83d1 f13c 12f8 bc3c 57c5 8ebb
00000190: d976 84bc 1fff 9dbc 8a13 c03b 62a4 5cbc
000001a0: 6122 833d e70c 35bc 4b0e 24bc b0f3 00bd
000001b0: a07c f63c 64fe 963c e429 96bc 169e 8b3c
000001c0: bc25 59bd 9a27 8f3c b124 aabc f4f8 e93b
000001d0: c43f c93c 4129 9ebc 0556 96bc 3164 96bc
000001e0: f9f8 53bb f46e 953b fa17 433c ef68 a53a
000001f0: bd5a 043d 2c26 edbb fb1c f1bc b823 e9bb
00000200: 4004 a03c a266 333c afd7 5fbc 6862 2d3c
00000210: 1241 d3bb b44f 5a3b d08c ffba c483 943b
00000220: b163 08bd 0cf4 5a3c f7ea 4a3c a340 77bc
00000230: 73d8 5f3c 3111 023d e503 4eba bcb8 d837
00000240: 9b2a 96bb 6b02 be3c 38d7 6dbb 86f6 453a
00000250: dfdc 603c f6c7 c2bb ec8e 003d 2556 b1bb
00000260: 6479 e5bc 8212 ccbc 8eeb 91b9 b610 a7bb
00000270: 679a 88bc ff5a 03bc fd27 a5ba af56 033c
00000280: ed38 a439 82d2 b73c 1bdb 023d 4767 c33c
00000290: f95b 0d3c f300 bdbb 6a9a f13b e530 51bb
000002a0: 8f7f 293d b2ff 123c 4af0 7cbc d5a4 35bc
000002b0: c715 963c cd34 273c 593a 09bc 7a21 ebbc
000002c0: 1ce5 06bc 71e9 a2bc 7033 1e3c 30da 033b
000002d0: 6ddc 70bb 9369 d53c f293 1e3c d939 84bc
000002e0: 6fdd ccbb 9288 d3bc 388c acbc 6e74 9d3c
000002f0: efca e8ba 1698 483c 38a4 a0bc 67c7 8abc
00000300: f652 03bc 8748 06bc b43b e73c 0d9a 263b
00000310: 5df3 c6bc 7bd7 063d c3b5 fa3b bc40 893a
00000320: ad5d a63b b1ff daba 140d f7bc 40d7 9abb
00000330: dc25 26bc 7780 3e3d ebd3 043d 676f c93c
00000340: 4d7d 0b3c ddf1 36bc 9b39 b5ba bb68 40bd
00000350: c7e5 d83b 2349 47bb 38db 053c 826b e03b
00000360: 946f 21bc 69ce e53a fab2 d8bc 584d 54bc
00000370: 4e17 ab3c 9a12 39bc 67ac d8bc 0b86 b63b
00000380: 0591 983c 9b73 093c b057 cfba 9f92 543c
00000390: da91 953b 57bb 38bd 3a53 583b ba1f 373c
000003a0: 56c4 a2b8 46de 7bbb 7ffc b93a 2b81 093d
000003b0: 99cc 02ba 5e5e 1bbc 9d78 913b 68db 093d
000003c0: 3942 7c3c 2b77 e8bc bf85 03bd b7f6 0cbb
000003d0: e9b5 603c de02 7cbc 7a45 303c b26f 90bc
000003e0: 6844 08bd 8c2d b83b bf41 37bd 0f54 823c
000003f0: 7b49 b5bc dc99 253d da2c e0bc d560 b13c
