grokking/runs/4/grok_opt2.pth (torch, 219039 bytes, 17 tensors)

transformer.wte.weight f4 [14, 64]
00000000: 53a4 133d c3f5 f13b b951 94bc 60cb 4b3c
00000010: bdf7 64bc f2b2 323c f825 b7ba 9778 53ba
00000020: 2be6 15bc 07ef 28bc a77f cc3b 9409 22bd
00000030: 2b60 a9be e3ae 5bbb ac7b d1bc 4bb8 61ba
00000040: f65e 95bc d569 0cbb 2831 613b 540c ccbc
00000050: f231 053a 6c1c 7fbc 1abf 6b3c deab 1abb
00000060: 53ee a9bc 0372 51bc 6886 95bc cacf c03a
00000070: 925b be3a f085 9abb 4795 ae3b e0f5 d0bb
00000080: 0c03 943b 6d84 15bd 3853 4fb9 92fe d53b
00000090: 43e5 7e3c ab51 bebc 69c5 b43c ef3a 05bd
000000a0: 5641 00bc 498d be3c b287 f63c 006e cbbc
000000b0: 89d1 3c3c ecb7 62bc 69e0 be3c ea00 02bd
000000c0: 1733 8b3b 5a9b 3ebc bde2 90bc fc22 6bbc
000000d0: d8a2 d9bc 272a edb9 0b55 50bb aa19 a0bc
000000e0: c8c0 b93b 0151 f1bb e920 19bc a28a 0cbc
000000f0: 9895 57bb 42a5 c6b9 046e b6bc 0c03 dabc
00000100: 5353 3ebc 705c 4fbd 1ad0 013d 9d72 90bc
00000110: 5110 90bc 3716 3c3b 226b c53b bff7 4eba
00000120: 3bea 9e3c 6529 b73b 6ab2 d63a fe03 b7bd
00000130: a024 2a3c e641 b3bb 548e 7d3c 2315 a2bb
00000140: 340f 96bd 405e c03d 0af6 2b3c c7cb dc3a
00000150: edcd c93b 657c 133c 3f03 30bc 3675 393b
00000160: cb54 0abb 3ca0 b53c c08a af3c 334b 7d3d
00000170: 572d 263d cfa7 8fbc 002a 9abc 87fd e9bd
00000180: 02d2 07bc 680a 9b3c 911c 323b a191 9ebb
00000190: 29bc 9ebc 681e a8bd 4e91 aebb f8b8 f03b
000001a0: eec6 a93b 6fb6 683c 2c50 063e 4a00 53bd
000001b0: c5ae d73d 2349 26bb 3445 14bd c51e 53bd
000001c0: a369 3abb 0757 a0bc 0955 093b 8472 af3d
000001d0: c049 68bc 6dc5 eebb c145 97bb 4c10 46be
000001e0: dea5 01ba 2066 233d 47e9 30b9 ea69 c2bc
000001f0: 48c9 53bc deb0 76bc d64a b83d cf10 d63c
00000200: bd6c c8bc c1f0 2a3e e91f 4b3c 9c65 02bd
00000210: 5727 473c a12d 603c 31be c23c ebfe f7bb
00000220: caf7 e63b ae27 893c d7ef 8ebb c70a bfbd
00000230: 350f 053c e85c 06bc 4422 9b3c 8d45 293b
00000240: c27d cabd 2ac9 343d fc0a 353b dd2d 173d
00000250: 118e ccba dfef 2abb cb18 4a3a f47f a63c
00000260: 4119 4a3c 61de 473d 23cc 653c 20fa da3c
00000270: 2c87 00be 04c7 06bd 6f2c 68bd 7976 c4bd
00000280: df22 3ebc 3e2f 9dbd 08fe 983d 9a15 57bc
00000290: dad4 823d 4084 e03c 2426 843c 14d8 e63c
000002a0: 7d22 b73b f6d7 ba3b 01e1 d13c 4a17 85bd
000002b0: 9151 48bd 181b 09bc 77d5 1cbd a383 4e3d
000002c0: be2b 953c 856a 13bc ea90 923b 702d c03d
000002d0: 17b8 10bc 09e9 abbc 73c7 90bb 1208 22bc
000002e0: afca 933d 7991 713d 82fa f93c ada2 10bd
000002f0: 7679 acbc 58d8 a83c 21f0 23be f33b 1e3d
00000300: 5e36 9abb 8699 c6bd 0ec5 783c 6a80 9bbc
00000310: c94d 54bc 081b 0cbc 82a8 e23c f096 7dbb
00000320: 8da7 5b3a 8c58 c53b 5c21 94bb 590e 1fbe
00000330: 6310 a03b f355 253c 0e02 4e3b 515c 68bc
00000340: c1df b5bd c5d7 d33c 8256 8f3c fea7 a33b
00000350: fb67 783b 5dfa 64bc d2bf 3abc b318 253c
00000360: 91c6 16bc 369f 373c df08 323c 678d 9a3d
00000370: 7c9d f63c f73d 78bb 795d 5abc 0f64 ea3d
00000380: e0ca 80bb 8596 ce3d 90fc 6dbb 6618 203c
00000390: 82a5 99bc 86ea 9c3d 90c8 86bb 0c74 8cbc
000003a0: ea7f 203c d005 363c ebd2 793d d4d9 90bd
000003b0: 51bc f7bd 5c86 833b c9af 3ebc 54ff 98bd
000003c0: 8c35 ca3b 5033 60bc 5e2e 99bc 51d9 ffbc
000003d0: 857f d9bb 8e20 97bc a809 8dba d9e7 c23d
000003e0: 62e2 343d 90cc 8fbc ef96 14bc 42b1 08bd
000003f0: 241d 4c3c b385 85bc 3845 2c3d 1eda 533c
0.036045384 0.0073840334 -0.018105375 0.012438625 -0.013975081 0.010906922 -0.0013973108 -0.00080669805
-0.009149115 -0.010310895 0.0062408033 -0.039559916 -0.33081183 -0.0033520989 -0.025571667 -0.00086105306
-0.018233757 -0.0021425385 0.0034361575 -0.024908222 0.000508099 -0.015570741 0.014388824 -0.0023600976
-0.020743525 -0.01278353 -0.018252566 0.0014710363 0.001452314 -0.0047156736 0.005327854 -0.006376967
0.004516965 -0.036503244 -0.0001977206 0.0065305913 0.01555759 -0.023232302 0.022066789 -0.032526907
-0.007828077 0.02326073 0.030094001 -0.024832726 0.011524566 -0.013837796 0.023300366 -0.031739153
0.0042480337 -0.011633718 -0.017686242 -0.014351603 -0.026566908 -0.00045235569 -0.003178897 -0.019543488
0.0056687333 -0.0073643927 -0.009346225 -0.0085779745 -0.0032895561 -0.0003788863 -0.022269256 -0.026612781
-0.011616546 -0.050625265 0.0316926 -0.017632777 -0.017585905 0.0028699765 0.006024734 -0.00078951934
0.0193988 0.0055896514 0.0016380076 -0.08936308 0.010384709 -0.005470502 0.015475828 -0.0049463673
-0.073271185 0.09392977 0.010495672 0.0016845398 0.0061585815 0.009001826 -0.010742961 0.0028298623
-0.002110767 0.022171132 0.021428466 0.061839294 0.040570583 -0.017536072 -0.018818855 -0.1142531
-0.008289816 0.01892586 0.0027177671 -0.0048391377 -0.019376831 -0.082089245 -0.0053273803 0.0073462687
0.005181185 0.014203652 0.1311652 -0.051513948 0.105313815 -0.0025373183 -0.03619881 -0.051543016
-0.0028444312 -0.019572748 0.0020955226 0.08566764 -0.01417774 -0.0072867186 -0.0046164696 -0.19342154
-0.00049456756 0.039892316 -0.0001687157 -0.023732144 -0.012926407 -0.015056817 0.08998649 0.026131062
-0.024465913 0.16693403 0.012397745 -0.031835184 0.012155375 0.013682754 0.023772331 -0.0075682304
0.0070485817 0.016742554 -0.004362087 -0.093282275 0.008121301 -0.0082008615 0.018937238 0.002582881
-0.09887268 0.044137157 0.0027624955 0.036908973 -0.0015606304 -0.0026082916 0.0007709383 0.020324685
0.012335123 0.04879606 0.014025721 0.026730597 -0.12551564 -0.03290464 -0.056683 -0.09592909
-0.011604994 -0.07675026 0.074703276 -0.013127709 0.063882545 0.027406812 0.016131468 0.028179206
0.005588828 0.005702014 0.025619986 -0.06498583 -0.048905913 -0.008368276 -0.038289513 0.050418507
0.018209334 -0.008997564 0.0044728415 0.093836665 -0.008832953 -0.020985143 -0.0044183074 -0.009889619
0.07216393 0.058976624 0.03051496 -0.03531139 -0.02105401 0.020610973 -0.1600957 0.03863139
-0.004706188 -0.09697251 0.0151837 -0.018982131 -0.012957999 -0.008551367 0.027668241 -0.0038694702
0.0008379154 0.0060225185 -0.0045205783 -0.15532817 0.004884766 0.010091293 0.003143433 -0.014182166
-0.08880568 0.025859723 0.017497305 0.0049943915 0.0037903774 -0.013975707 -0.011398273 0.0100766895
-0.009202615 0.011207392 0.010866373 0.075465016 0.030104391 -0.003787873 -0.01332795 0.11444866
-0.0039304346 0.10087303 -0.003631387 0.009771442 -0.018755678 0.07661919 -0.0041132644 -0.01714518
0.009796122 0.011109784 0.060992163 -0.070727974 -0.120964654 0.0040138196 -0.01163859 -0.07470575
0.006170934 -0.013684109 -0.018698867 -0.031231554 -0.006637516 -0.01844814 -0.0010760324 0.09516878
0.044161208 -0.017553598 -0.0090691885 -0.03337217 0.01245812 -0.016299104 0.0420582 0.012930421

transformer.wpe.weight f4 [32, 64]
00000000: da87 043b ad1a 8d3a 0f14 233c bc1e 76bc
00000010: 511c f63c 5282 4c3c 27a7 c3bc 37f5 3b3c
00000020: dce5 6dbc 763a 813b 12e8 af3b b73c 233d
00000030: b17f 89bd 6ae6 353d 9031 aebc 1e81 4a3c
00000040: 01dd caba be02 eabb aa83 44bc c427 bebc
00000050: baa3 73bc 0c2c 853c 436c e3bd 2462 60bc
00000060: 0827 943b f140 b9bb 1cd6 86bb 6289 3dbc
00000070: 4cbb 9c3b 867e bf3c b227 453d c4a1 243b
00000080: 59fc 503c 9263 403c b3c1 403c 8891 2f3c
00000090: 397e 393c ee8f 993c 2107 273d 4207 c83b
000000a0: d0ac e639 1b92 73ba 755d 913b bfcc 023d
000000b0: 203b a53c 71b6 a83b f0d1 97bc 7044 2bbb
000000c0: cd06 e2ba c8ee a43c 4ae6 a53b d46f 463b
000000d0: a36d 2f3b 2838 293c b231 143c 360c cc3c
000000e0: d0ea 093d e3d1 843b c9e3 c4bc 4c11 8d3b
000000f0: 78ce 2c3b c2b6 30bd 7ea3 673c 6e75 14bd
00000100: 6c7b 533e 2179 d13c 7e55 84bc 3abf 0dbc
00000110: 2ecc 5dbd 3f07 12bd 7238 aa3c 4ea7 40bd
00000120: 9ab3 203d ad7c e83b f5c0 9abc 53a1 5dbd
00000130: 3180 503c 0b3d 1b3d a237 713d 12d4 6abd
00000140: 8935 1dbd 9af7 403d 0da0 dd3c 62d8 463d
00000150: e5fa 403d cb86 ebbd 0e74 283c 1e6d 2a3c
00000160: 00bb 17bc b3fd dc3c ed2a 8a3c 0e27 1b3d
00000170: fc26 88bc 5ffe 29bd 85fc aabd 600b ed3c
00000180: 85ee d7bc a049 d53a 5eac 07bd 6e5c a43d
00000190: eaf4 72bc 40ad e8bb 6e8a 8abc 5e12 6a3b
000001a0: a34d 24bb 004d b2bc 827d cdbc d0d6 1bbd
000001b0: 2e2c 9bbc 1639 953c 6e02 7d3c 122e a4bc
000001c0: c036 b03b a0cf ddbc 518a 1bbb ca96 9c3b
000001d0: ed58 bdba 79a8 80bc 3d9c 10bc a7c8 52bc
000001e0: 6751 28bd f5bd 1a3c 8bb5 d33c 3b63 f7bd
000001f0: a20b 963d b33a fbba 6519 453c b948 b23d
00000200: ffa5 ad3b b82d 7abc 9471 b73a b801 d13b
00000210: 50c5 bcbc 75de 2abd b11a 0d3a 4389 203b
00000220: 245d 3e3c fbf8 fbbb f8d0 0fbd 450d b83c
00000230: cc98 8abe 0d7c fabb 499e 4a3c fede 8ebc
00000240: 80af c23c efef 403a 38df 91bc ed21 bd3c
00000250: 4a5c eaba f4a0 453c 618f 2a3d 9029 1ebb
00000260: 9f18 df39 fe6d a63b adf3 5e3c ff40 a2bc
00000270: 73d5 b13b 541f a9bc d346 0dbd 7702 9cbb
00000280: c350 06bd 625e 9cba bff6 c0bc c300 bebc
00000290: 4419 7fbc 34af a53c e548 f03c f3f2 313b
000002a0: 0d41 36b9 ed91 29bd d1e2 d8bc 71ee 47bb
000002b0: bb25 9a3b f2f7 26bd d6ff 993a a2e1 093c
000002c0: e02f 0fbd 630b 6cbc 098b 3bbb 270a ba3a
000002d0: 27d0 7a3b 07e4 b3bc 0038 57bc 7548 1a3a
000002e0: dd01 8bbb da06 b03b cd78 a23c dbd9 d63c
000002f0: bc82 01bd 64cd 1a3d 29d0 e83b bddd a53c
00000300: decc c03c 4f9c e5bc eb1d 3dbc fdde 913c
00000310: 227c adbb e50a 35bd dd7a 41bc 60f8 b6bb
00000320: 1964 193c 0ad9 f9bc 38f0 5abd 81a7 c43c
00000330: bd08 8abe 53b2 263b ec21 a4ba 3e37 003c
00000340: 7aa1 0d3d c74b e63a 68b4 5abd 99d2 f9bb
00000350: 8a46 32bc cf1f 54bb cdca 9e3c d64e 15bd
00000360: cb20 083c 6954 cfbc ae00 223b b1eb bfb9
00000370: a4b6 ad3b 3006 64bc 2a46 c33b faaf 1f3c
00000380: c1b1 0cbd 30fb 213c e288 c3bc 1e90 6eba
00000390: a27e bdbc 870d b33c 5406 3e3c 5729 8d3c
000003a0: f4eb 37bc 87dc bdbd c3cc 36bd bf98 193d
000003b0: 3d1c 9c3c 090b debc 4f5d 693b 5e89 b93c
000003c0: 3aff 63bd 5901 c1bb 3916 b33b 150f f63b
000003d0: 7e42 443d 8e11 cbbc 624d f2bc 8af4 2ebb
000003e0: e2b7 9f3c c7d7 f6ba 9aca 903b f127 1b3c
000003f0: 6355 a4bc 808d 573c 672b 0d3c 179f 3bbb
0.0020222575 0.0010765396 0.009953513 -0.015021976 0.0300428 0.012482243 -0.023883415 0.011472038
-0.014520135 0.0039437367 0.005368241 0.039852824 -0.06713808 0.044409193 -0.021263868 0.0123598855
-0.0015477241 -0.00714144 -0.011994282 -0.023212321 -0.014870578 0.016256355 -0.11104634 -0.013695274
0.0045212545 -0.0056534936 -0.0041148793 -0.011568399 0.0047830697 0.02337576 0.04813356 0.0025120834
0.012755477 0.011742489 0.0117649315 0.01071585 0.011321598 0.018745389 0.040778283 0.006104381
0.00043997774 -0.0009291486 0.00443619 0.031933542 0.020169795 0.005148702 -0.018532723 -0.0026133321
-0.0017244458 0.020133391 0.005062853 0.0030279057 0.002676823 0.01032833 0.009045051 0.024908166
0.0336712 0.0040533408 -0.024034398 0.0043050405 0.0026368182 -0.04314304 0.014138101 -0.036244802
0.2065255 0.025570454 -0.016154047 -0.008651549 -0.0541498 -0.03565144 0.020778868 -0.047034554
0.03923378 0.0070949406 -0.018890837 -0.05410893 0.012725876 0.037900012 0.058890946 -0.057331152
-0.038381133 0.04711113 0.027053857 0.048546202 0.04711427 -0.11500319 0.010281576 0.010401992
-0.009260893 0.026976442 0.016866172 0.037879042 -0.016620152 -0.041502353 -0.083489455 0.028936088
-0.026358852 0.0016272552 -0.033123367 0.08025442 -0.0148289 -0.007100731 -0.016911712 0.0035716514
-0.002507069 -0.021765232 -0.02508426 -0.038046658 -0.018941965 0.018215697 0.015442474 -0.0200415
0.0053776205 -0.027076542 -0.0023733566 0.0047787176 -0.0014446058 -0.015705334 -0.008826313 -0.012865222
-0.041093256 0.009444703 0.025843402 -0.120794736 0.073264375 -0.0019167274 0.01202998 0.08705277
0.0052993293 -0.015269689 0.0013995641 0.0063783787 -0.023043305 -0.041716058 0.00053827005 0.0024495877
0.011618886 -0.007689593 -0.035111398 0.022467265 -0.270697 -0.0076441825 0.01236684 -0.017440315
0.023765326 0.00073599716 -0.017806634 0.023087466 -0.0017880287 0.0120623 0.041640643 -0.002413366
0.0004255222 0.00507903 0.0136079015 -0.019806383 0.0054270565 -0.020644821 -0.03449137 -0.004761036
-0.032791864 -0.0011929984 -0.023555158 -0.023193723 -0.015569989 0.020225145 0.029331634 0.0027152866
-0.00017381106 -0.04139893 -0.026475342 -0.0030507112 0.004704205 -0.040763803 0.0011749219 0.008415611
-0.034957767 -0.014407012 -0.0028616807 0.00141937 0.003827104 -0.021959318 -0.01313591 0.0005885431
-0.0042421655 0.0053719105 0.019832993 0.026226928 -0.03161882 0.037793532 0.0071048927 0.020247335
0.023535188 -0.028028635 -0.0115427775 0.017806524 -0.005294339 -0.044199843 -0.011809078 -0.005583808
0.009362244 -0.030499 -0.053451747 0.024005653 -0.26959792 0.002543588 -0.0012522317 0.007825671
0.034577824 0.0017570191 -0.053394705 -0.007623982 -0.010881076 -0.0032367592 0.019383812 -0.036452137
0.0083086 -0.025308805 0.0024719643 -0.00036605963 0.0053013135 -0.013917491 0.005959292 0.009746546
-0.034349207 0.009886548 -0.023868982 -0.00091004546 -0.023131672 0.021857036 0.011598188 0.017231626
-0.011225689 -0.09270578 -0.04462887 0.037499186 0.019056434 -0.027104871 0.0035608595 0.02264851
-0.055663325 -0.005890053 0.0054652956 0.007509122 0.047914974 -0.024788644 -0.029577915 -0.002669605
0.019496862 -0.0018832617 0.0044186832 0.009469972 -0.020060247 0.013156295 0.008616305 -0.002862876

transformer.h.0.ln_1.weight f4 [64]
00000000: 83a8 983f a069 683f 60e1 133f 285d 683f
00000010: e7ea 183f 9709 2b3e 6f87 5f3f b550 913f
00000020: e4b1 f33e 09aa b83e 0368 593d ee11 483f
00000030: 43bc 2c40 7432 9f3f d80f 923e 05b9 af3e
00000040: 1081 133f d9c7 dd3e 56a2 3c3e d194 a23e
00000050: d9b5 143f 5ebd 5c3f 6692 f13f a529 053e
00000060: 4a92 443d 6f0b 873e 37b3 0d3e d982 b33e
00000070: f18d 623f 457e 413e 8d11 b13e 4890 143f
00000080: eefb e33d 439c 353f 9421 283f 410b 433f
00000090: 628d 953f 51f8 033f c262 f63f d0ea fe3e
000000a0: b8f2 953d 0b8f 9e3c 3442 0d3f a8df 953e
000000b0: f776 4f3f a9c0 963f db26 8c3f c361 b83e
000000c0: a2aa ce3d ee3a 8d3e a02c a83a 3fbe 0b3f
000000d0: 801c 3b3d 2927 863d 7e78 3e3b 6e78 6f3f
000000e0: 9ab2 343f 05a4 fd3e 05e7 353f 6048 383f
000000f0: 8a7e 813f 024f 683f 10bf 943f 1dcc b13e
1.1926426 0.9078617 0.5776577 0.90767145 0.5973343 0.16702877 0.8731603 1.1352755
0.47596657 0.36067227 0.05307771 0.7815236 2.6989906 1.2437272 0.28527713 0.34320846
0.5761881 0.43316534 0.18421301 0.31754163 0.5808998 0.8622645 1.8872802 0.13004167
0.047991075 0.2637591 0.13837896 0.35060766 0.88497835 0.18895824 0.34583703 0.58032656
0.11132036 0.7094156 0.65676236 0.7618905 1.1683772 0.51550776 1.9248888 0.49788523
0.073216856 0.019355318 0.5517914 0.292722 0.810409 1.1777545 1.0949358 0.36012086
0.100911394 0.27584022 0.0012830682 0.5458717 0.045681477 0.06550438 0.0029063518 0.93543136
0.70585024 0.495392 0.7105563 0.71985435 1.0116742 0.90745556 1.1620808 0.3472604

transformer.h.0.ln_1.bias f4 [64]
00000000: 7351 9fbc f1e9 2fbe 932c 18be 8439 473e
00000010: 1751 033e 22de 593d 2056 eebd c0a1 bfbd
00000020: 26f8 cabd e2db a7bd 54df 073c d5a4 643e
00000030: c28a c5bd ed3e 253e 1b3c 59be d901 543e
00000040: e638 5b3e 80ba 3dbe 8fc7 9fbd 8079 61be
00000050: 6a71 21be 0252 0a3d a33b 58be 785f 12bd
00000060: 03e3 34bb c787 ebbd c7b7 30bd b776 c93c
00000070: e30a 103d 8571 ae3d 6d2f 943e 5542 8c3d
00000080: db5c 203d 296b bbbd 1a26 0b3e ffbb 89bc
00000090: e9f5 93bd 3b18 c4bd 9d5a a4bd f0c4 e53c
000000a0: 509b 10bc ff46 2038 164c 1c3d 5fda 3b3e
000000b0: 3a49 293c 46a8 9abc 0f26 34bd 20e5 d83d
000000c0: 31d6 6b3b 6adf f43d 6ffe 8aba e65e 1fbc
000000d0: 3889 8d3b 5913 a13c 4f6d 8aba f6ff ff3b
000000e0: db30 1c3e e6ce 98bd c236 12be dba0 0b3e
000000f0: 8712 a9bd df52 1abe 5a46 763b 64e1 a6be
-0.019448018 -0.17179085 -0.14860754 0.19455534 0.12823902 0.053190358 -0.11637521 -0.09357023
-0.09910612 -0.08196236 0.008292992 0.22328503 -0.096456066 0.16137286 -0.21214335 0.2070383
0.21408424 -0.18528175 -0.07801735 -0.22019005 -0.1576592 0.033769615 -0.211165 -0.035735577
-0.002760113 -0.11500507 -0.043144014 0.02459274 0.035166632 0.08517746 0.28942433 0.06848589
0.039151054 -0.091512986 0.13588753 -0.016813276 -0.07224638 -0.09574934 -0.080250956 0.028048009
-0.008826092 3.8213093e-05 0.0381585 0.1834502 0.0103324 -0.018879067 -0.043981608 0.10590577
0.0035985822 0.11956675 -0.0010604392 -0.009727215 0.0043193363 0.019662546 -0.0010561141 0.0078124953
0.15253012 -0.07461338 -0.14278701 0.1363558 -0.08255487 -0.15070675 0.0037578554 -0.32593834

transformer.h.0.attn.c_attn.weight f4 [192, 64]
00000000: 2834 98bb 93c6 ddbc 2427 263d 21c6 afbc
00000010: 5e24 973c 677f 20b9 5b56 913d 039c 83bc
00000020: 3d78 35bd 4e5a 2a3c b0f6 29bd 3c6f 09bd
00000030: 6b7d 36bc 8919 163c eefd 0f3c 01bb ad3c
00000040: d315 cebd 6959 8b3d de05 d53c 0e1d 6c3c
00000050: 554b 4d3a 7170 00bd 4efc 393b d501 49bc
00000060: 7410 f6bd 77ae afbc 87a4 bf3c 61a0 053d
00000070: ffec 0c3d d61f 073c d6dc 0abb 4be4 413c
00000080: 83f1 6abc a67b fd3c 921c ee3b 982b e03c
00000090: 8e63 193d f103 c63d 68ba 6bbc 4c9e 30bc
000000a0: 05bc 15bd 3657 0fbd 2f3d 563d d49e 2ebc
000000b0: d0ba c8bc d598 c8bb d989 4a3c ba48 55bd
000000c0: 4b15 23bb ecf6 14bc e326 bb3a f3a1 65bd
000000d0: dd7e 193d a3e4 493d 493b 90ba b19b af3c
000000e0: 330b f83c 040b bcbd b386 273d e64f a3bd
000000f0: 1fa8 86bc 4ed0 bdbb d568 04bd 437e 263c
00000100: dd25 7ebc 6dea e33c ab86 223c 7f7a 7ebb
00000110: 00e6 7ebb 7363 82bc 66c7 c2bc 91a9 5d3a
00000120: b525 8a3c d57e b3bc 4dcb a23c fb23 afbc
00000130: a855 013c 6853 25b9 c3f8 d63b 1280 50ba
00000140: 850e 9bbc 58c1 093d 8070 8d3c 43dd d33a
00000150: 0c20 69bc 9007 af3c 4442 8f3b fc26 cc3c
00000160: 520b 67bc 85ce 4fbc f817 903b 2e5f 1a3b
00000170: b948 cfbc 3f0c afbc 7a88 7cbb 3bc0 943c
00000180: 003c 42b8 24b2 04bc 4db5 f13c fe39 eeba
00000190: b780 813b 2322 563c c5d3 a93b c6b5 9e3c
000001a0: 7cc2 12bc 6d0e ccbb 1f1e 663c 13e6 d4bb
000001b0: a6a5 18bc 53c7 e93c 28fa 023a 04cb bcbc
000001c0: 3795 04bd aa56 16bb 5b97 3d3d f001 09bc
000001d0: a249 6e3c 9156 c8bb 38d9 43bc 00a5 52bb
000001e0: 6757 f83a ba1f 1c3c c4d5 45bc ad03 42bc
000001f0: fad8 413c b666 1b3c 67cc 813c 9372 073b
00000200: fde7 09bd c3ae a03a cd3a edba c6b6 e33b
00000210: 5ab6 213b 693a 09bc a0fa 5cbb b973 913a
00000220: 40be ceba 9ccb c33c 273d 203d dfad 673b
00000230: 68f8 9c3b 631b 793c 6e2d 1a3b eb82 7ebb
00000240: 912c b03b 9fb5 19bb a8cc c73b 96b5 b9bb
00000250: 0a76 f53b 68c3 073c 6be5 d5bb 0e2a 073c
00000260: 4136 f7bc 7aa9 6dbc 031b 43bc c5f0 e8ba
00000270: b7c0 8ebc e764 51bb f1e8 97ba 19b1 323c
00000280: c360 cd3b b37f 90bc 5a64 f33b f638 9c3a
00000290: 9e0b 373c a255 b8bb b0f0 263c 4219 6a3b
000002a0: c8bb a5bb d70e 7d3c 7586 1a3c 1102 0c3c
000002b0: d63c 09bc ddd8 a13c a356 9f3a 16f2 733a
000002c0: 0564 17bc 37d5 64bb 6621 b7bc 2eca 8cbb
000002d0: 2007 053b bd46 b33c a393 213c 4c86 9cbb
000002e0: 13a2 b33b 491c 5cbc c49e b8ba 42e3 edbb
000002f0: f129 553c 3ed8 6fbc 419b 84bb 285c 02bb
00000300: 4a2c 013d 9bb5 5abb 524f 91bd d19c 233d
00000310: 41d0 4cbd 8b0f 13bc 5bc8 4b3c 14e7 28bc
00000320: 9713 143d 1061 82bd aba9 ccbc b6dd 18bd
00000330: ff89 273d 172b 58bd be4d 323d 56eb d5bc
00000340: 8a49 143d 9adb d13c 4492 da3c 1c0f 833d
00000350: f073 8c3d 09c8 06bd ab30 803d d696 bcbb
00000360: 614d 44bd 19de dabb 941c 653c b4ce 053d
00000370: 2919 493a a1e9 28bd 4070 49bd 327f 853c
00000380: af12 fdbc d320 8ebd f0b2 12bd d9ce a9bc
00000390: db03 2d3d 27fc 3ebd 92e7 4ebc 3236 08bd
000003a0: ccf0 de3b 4436 fabc c497 ec3c 5c85 3abd
000003b0: bb89 0a3d 8f58 1e3b b5b8 3d3d 0dca de3b
000003c0: b80a 9ebd a005 09bd d7ff cbba c2fd 09bc
000003d0: 5a0b b03b db19 1d3d dcb1 a5b9 ddd1 58bd
000003e0: 3f9a 643a fa4e 49bc 5286 213c 2daa 273c
000003f0: 0d42 2b3c 7931 4f3d 66db c5bc d94a 5d3d
-0.0046448894 -0.027072227 0.04056467 -0.02145678 0.018449958 -0.0001530625 0.07096549 -0.016065603
-0.04430412 0.010397507 -0.041495025 -0.033553347 -0.0111383 0.0091613615 0.008788569 0.021207334
-0.100627564 0.06804163 0.026003774 0.014411224 0.0007831355 -0.031357232 0.0028379145 -0.012268503
-0.12014857 -0.021445496 0.023393882 0.032623652 0.034405705 0.008247336 -0.0021188757 0.011834214
-0.014339807 0.03094275 0.0072665894 0.027364537 0.03744846 0.096687205 -0.014387704 -0.010779928
-0.036556263 -0.03499528 0.052304443 -0.010657985 -0.024503142 -0.0061217346 0.012361967 -0.05207131
-0.0024884518 -0.009092074 0.0014278557 -0.05606265 0.037474502 0.04929031 -0.0011003996 0.021436544
0.030278778 -0.091817886 0.040899944 -0.07974224 -0.016437588 -0.005792654 -0.032326538 0.010161939
-0.015511957 0.027821744 0.009919803 -0.0038830338 -0.0038894415 -0.015916562 -0.023776721 0.00084557483
0.016863683 -0.021911064 0.019872332 -0.021379462 0.007893957 -0.00015766697 0.0065604164 -0.0007953654
-0.018927822 0.033631653 0.017265558 0.0016163964 -0.014228832 0.02136591 0.004371913 0.024920933
-0.01410182 -0.012683515 0.0043973885 0.0023555267 -0.025303232 -0.021368144 -0.0038533495 0.018158069
-4.6309084e-05 -0.008099113 0.029505396 -0.0018175242 0.0039521116 0.013069662 0.0051827156 0.019373786
-0.0089575015 -0.0062273056 0.014045267 -0.0064971535 -0.009316837 0.028537428 0.00049963826 -0.023046024
-0.032368865 -0.002293984 0.046286922 -0.008362278 0.014543923 -0.006113835 -0.011953644 -0.0032141805
0.0018946946 0.009529049 -0.0120748915 -0.011841697 0.011831516 0.009484937 0.015844537 0.0020667657
-0.033668507 0.0012259114 -0.0018099189 0.0069492785 0.002467534 -0.0083757425 -0.003371872 0.001109711
-0.0015773252 0.0239008 0.03912082 0.0035351438 0.0047903545 0.015204283 0.0023525613 -0.0038835357
0.0053764065 -0.0023454202 0.006097395 -0.0056673987 0.007490878 0.008286335 -0.006527593 0.008249773
-0.030177237 -0.014505738 -0.011908296 -0.001777195 -0.017425878 -0.0031951012 -0.0011589808 0.010906481
0.0062676384 -0.017639017 0.0074277343 0.0011918831 0.011172203 -0.0056254426 0.01018922 0.0035720621
-0.0050577857 0.015445433 0.009431471 0.008545415 -0.008376321 0.019756729 0.0012156557 0.0009305788
-0.009240155 -0.0034917125 -0.022354793 -0.0042965626 0.0020298436 0.021884317 0.0098618595 -0.0047767516
0.0054819672 -0.013434478 -0.0014085402 -0.0072597573 0.013010488 -0.0146389585 -0.004046828 -0.0019891355
0.031536378 -0.0033372405 -0.07095207 0.039944474 -0.050003294 -0.008975874 0.012437905 -0.010309
0.036151495 -0.063661695 -0.024983248 -0.037320815 0.040903088 -0.05277547 0.043531172 -0.026113193
0.036202945 0.02561741 0.026681073 0.06399366 0.06858051 -0.032905612 0.06259283 -0.0057552857
-0.047925357 -0.006679308 0.013983864 0.03266783 0.00076712907 -0.04123843 -0.049179316 0.016296003
-0.030892698 -0.069398545 -0.03581518 -0.020728515 0.042240005 -0.04662719 -0.012628453 -0.03325481
0.0068036076 -0.030543454 0.028880961 -0.045537338 0.033822756 0.0024161672 0.04631873 0.0067989887
-0.07716888 -0.03345263 -0.0015563917 -0.008422317 0.005372447 0.038354736 -0.00031603768 -0.052934516
0.0008720494 -0.012286896 0.009858685 0.010233444 0.010452759 0.05058429 -0.024152469 0.05402646

transformer.h.0.attn.c_attn.bias f4 [192]
00000000: d7d2 63be 9bd0 183d f07f 89bd 55a3 06bf
00000010: 9b26 aa3d bef3 b23d ce45 20bf c84a 173f
00000020: 6b42 4e3d 4e93 0dbd 08e8 a3be 44c7 3dbf
00000030: c8ef c2bb 80fd e03e 95c0 bb3e 0c19 333f
00000040: 13d4 193c 123c 38bd 3080 4cbf 3419 e03c
00000050: 5c75 433f 45d5 fb3b 8e88 873d ed33 c5be
00000060: dfa6 873e 756b 053f 5255 943d c012 bbbc
00000070: 3d75 04bf 53c7 fabb e184 cf3e 5c97 94bc
00000080: c37c d8be be42 ffbe 8415 053f 882a d7be
00000090: 12f9 e3be c780 26bf 523c eabe dddc 69bf
000000a0: 4615 25bf c415 13bf cddc 89be 1c88 e23e
000000b0: 2a5e 54be 65e4 9dbe 8de5 08bf 8fdc bfbe
000000c0: e777 b4be 63d8 d6be 9b82 04bf d953 433f
000000d0: ae49 513f ab5a 0fbf 70f5 ec3e 2352 57bf
000000e0: da1c 9e3e c362 163f 8bd7 29bf a610 13bf
000000f0: ce08 903e 7f62 f43e d1fd e4be c412 80be
00000100: 44dd 3abe 01f8 673d 4f88 a6bd e0c3 8abe
00000110: 5831 e13d ca9f 583d 42d6 c6be 5c7d e03e
00000120: 6c43 743d 42f8 14bd f259 94bd 0d3d f5be
00000130: e52e 4bbd 6764 2e3e 989e fe3c d279 d13e
00000140: 21d2 6fbc fda6 33bd fced e9be 827e 263d
00000150: e82b ff3e 6708 fcbc 016b 4a3d f33d f4bd
00000160: 3e36 603d 68a4 a03e 1891 503d 8474 3bbc
00000170: f541 8bbe 90f6 9c3c 65ee 983e e1e0 4ebc
00000180: a58e 39be 7c1d 95be 91f9 4e3f 19d7 c5be
00000190: bae8 95be 03f5 2fbf e47d e3be f493 8dbf
000001a0: 3baf 79bf 49c0 58bf f5bc dcbe 349d c33e
000001b0: b3eb 9ebc fa6c 08bf 7040 0abf 0659 82be
000001c0: 7c11 f2be e59a 19bf 316d 2bbf 8d18 493f
000001d0: 8dd0 8b3f 5ea7 f3be a041 ca3e b45a 7dbf
000001e0: 8338 a83e e524 3a3f 9985 58bf 9de9 3cbf
000001f0: 2715 c23e b780 243f 43aa a3be 13b2 88be
00000200: 09cf 603c 3ef8 d0bd 54b4 9d3c 7d56 c53d
00000210: 562f 5b3d fd21 c0bc cd87 4a3d 43b0 2fbd
00000220: 11d9 89bc 10db 92bc 43f1 09bc 03a3 9d3a
00000230: 526f d63c 4685 923d 1e24 073e 38ad 2b3c
00000240: 0ae0 3d3c 7646 0abc 5ed5 4fbc 040f a93c
00000250: afa2 203c 6832 3f3d d5f7 dcbc 79b8 73ba
00000260: 0a40 92bd 72c7 013e 313b 51bd b959 bdb9
00000270: 559b da3c 5e5c 9cbb 2052 433c 5202 963d
00000280: 8eba c9bc 96bb 0c3d 1683 8cbc 485c a8bc
00000290: fc2c ddbb 3a14 48be a29c 113a f7c9 9e3b
000002a0: 8682 ab3d bcb5 b9bd 104d 7ebb 6be3 5d3c
000002b0: e6a0 793d 2bd2 283c a684 55be 3367 a93c
000002c0: 628d 8c3c 28f3 9f3d cf2e 9fbd 4000 06bb
000002d0: 37ee a93b 1ed7 9c3c 71e7 4c3d 5913 5bbb
000002e0: 0e15 493d 865f 95bb 571d 5dbd 7831 29bd
000002f0: 0c28 33bc 03df e4ba 9199 413b 4190 0cbd
-0.22248398 0.037308317 -0.06713855 -0.52592975 0.08308145 0.087378964 -0.62606514 0.5909848
0.05035631 -0.03456431 -0.32012963 -0.7413218 -0.0059489943 0.43943405 0.36670366 0.69960093
0.009388941 -0.044979163 -0.798831 0.027355768 0.7635095 0.007685336 0.066178426 -0.3851618
0.264945 0.5211709 0.07242836 -0.02283609 -0.5174139 -0.007653156 0.40531066 -0.01813858
-0.42282686 -0.49855608 0.51985955 -0.42024636 -0.44525963 -0.6504025 -0.45749146 -0.91352636
-0.64485586 -0.57455087 -0.2692627 0.44244468 -0.20739046 -0.30838314 -0.53475267 -0.3747296
-0.35247728 -0.41961965 -0.5176179 0.76299816 0.8175305 -0.55997723 0.46281004 -0.84109706
0.30881387 0.5874445 -0.6634452 -0.5744728 0.28131717 0.47731397 -0.44724897 -0.25014317
-0.18248469 0.056633 -0.081314676 -0.27102566 0.1099574 0.05288676 -0.3883534 0.43845642
0.05963461 -0.03636957 -0.07243718 -0.4789814 -0.04960527 0.17030488 0.031081483 0.40913254
-0.014637501 -0.043860424 -0.4568938 0.04064799 0.49838185 -0.030765725 0.049418453 -0.119258784
0.05473923 0.31375432 0.050919622 -0.011441354 -0.2719876 0.019160539 0.2986938 -0.0126268575
-0.18120821 -0.29124057 0.8084956 -0.3864067 -0.2927912 -0.68733233 -0.44431984 -1.1060777
-0.97533005 -0.84668404 -0.43112913 0.38205874 -0.0193995 -0.53291285 -0.54004574 -0.25458544
-0.47278965 -0.60001975 -0.6696349 0.78553087 1.092302 -0.4758863 0.39503193 -0.98966527
0.32855615 0.72712547 -0.84578854 -0.73793966 0.37906763 0.64258903 -0.31965837 -0.2669836
0.013721236 -0.102035984 0.019251026 0.09635637 0.05351194 -0.023453707 0.049445916 -0.042892706
-0.016827138 -0.017926723 -0.008419338 0.0012026731 0.026176129 0.07154326 0.13197371 0.01047831
0.01158906 -0.008439651 -0.012685148 0.020637043 0.009804412 0.04667893 -0.026973644 -0.0009297203
-0.07141121 0.12673739 -0.05108184 -0.00036115738 0.026685396 -0.004771753 0.011921436 0.07324661
-0.024625089 0.034358583 -0.01715235 -0.020551816 -0.0067497473 -0.19538966 0.0005554651 0.0048458534
0.08374505 -0.09067866 -0.0038803257 0.01354299 0.06094446 0.010304014 -0.20851383 0.020679092
0.01715726 0.0781005 -0.077726 -0.0020446926 0.005185868 0.019145545 0.050025407 -0.003342828
0.049092345 -0.0045585064 -0.05398306 -0.041306943 -0.010934841 -0.0017461482 0.0029540996 -0.03431726

transformer.h.0.attn.c_proj.weight f4 [64, 64]
00000000: f4e6 693d b20f c93c 5591 27bc 5ce7 cebb
00000010: 6837 8b3d cb57 be3c 69a5 243d ce6d 87bc
00000020: 79af cd3a 3c86 293d 89a8 0cbc e7d7 ddbb
00000030: 7138 93bc b9a5 95bc a05a e2bc 6ba6 063d
00000040: 2492 1abc 5c34 a739 5a40 9bbc 5eb4 c93a
00000050: d3d1 b23b 4099 f2bc 6c67 a1ba f628 5ebb
00000060: a2d9 43bd 3733 2abd 9581 453d 88a0 86bb
00000070: 7421 1bbc bcf9 3dbc 71e0 75bb 3cdd 3d3d
00000080: 8cf5 bfbb 8a5a 23bd e9d9 e83b 7dbc 233a
00000090: 7f44 2fba 7cc9 843c 903d 7bbb 9605 023b
000000a0: 823a 38bd a5fc 15bd 7ebd 4b3a df98 88bc
000000b0: 965e e83c d205 aa3c bbe2 a63c be2d 05bc
000000c0: 764c c03b cdcb db3b d151 783c e55b 433c
000000d0: 07b4 10bc aef2 da3b 0719 69bb ffde f73c
000000e0: 7b40 253c 2550 a63c ea67 de3c ce54 c83c
000000f0: 9fd9 1a3c 3472 8abb f728 27bc 06e8 ba3c
00000100: 608a 713c a4e8 963c 8213 31bc c14e 323d
00000110: bc5e 673b f364 823c eb5e deba d0d8 473d
00000120: 5e96 a1ba ba6e db3b e836 563c 441e 903b
00000130: 7f30 103c 4192 00bd 8883 2abd e007 f83c
00000140: 95b9 05bc 860d 8fbb d465 903b bed0 683d
00000150: 58bf aebb 1d43 ed3c e83b b03c 3e4e 1a3c
00000160: b719 a63b 555b ccbc 60b4 afbd 620c f33b
00000170: c9ce 2d3d 5ff5 e23c bd8b 4cbc a1ae 1dbc
00000180: b3de 39ba fdfb bb3a de3d 55bc a915 6abb
00000190: 2e80 82bc c386 9e3c c7de 93bb 63c7 383b
000001a0: 6560 88bc 1a75 e03a cfc8 49ba 08a2 a0bb
000001b0: ce14 c2bc e2c1 bcbb d062 123d 7bb1 143c
000001c0: b8dd e2bb de80 873c 71a5 d53c 67e4 513c
000001d0: dc2d 6fbb 8378 24bd 1b8f de3b 3650 cd3b
000001e0: 4a3a 0abd a02d 42bc 3f15 8abc 90f0 7cbb
000001f0: 883a 79bb a36e b2bb e0ab 9d3b bcd9 1e3c
00000200: d474 c7bc 5462 c4bc 722e f33b eb33 28bb
00000210: 174b b4bc e316 203d 0682 22bb de4d 89bc
00000220: 6109 993b 77c7 30bc 77f7 5c39 07e2 3dbb
00000230: a493 84bd 4da5 c03b 2eec 313c 5f91 85bc
00000240: be71 2e3b eb66 073c b62c 313a c053 debb
00000250: a93a d7bb a954 98bb 5b0d d8bb 6cfc ad3c
00000260: 66d4 9c3b 1844 b93b 5675 2e3b b9c6 04bc
00000270: 00a0 83bb cbeb 01bc d6ee 1e3c 8862 563b
00000280: efbb 1e3d 57ec b33b 4f29 6ebc ea9d 09bc
00000290: aa04 f6bb 8781 d63b 19d4 da3b 0026 fd3b
000002a0: b38a fd3c 897d a23d a70b 653b 2e47 1dbb
000002b0: 3b25 8fbc 2585 653c ea6f cdbc 122a b83b
000002c0: 6ffc 4e3b 1e5e 5a3a 3674 26bd 79bf 2a3b
000002d0: 575b 733b ab1b 583c cd93 5bbb 21a6 85bc
000002e0: 8ee5 293b 8598 9abb 0c47 85bc 776b e3bc
000002f0: aa90 823b 2db3 1cbc c54d 96bc 5936 a4bb
00000300: 3ea1 e53b c54e 0c3c c5b7 7fbc 9cac 61bd
00000310: edf0 cbbc 5258 7c3d e0f9 78bc 82f1 73bd
00000320: 71f3 d338 4cfc f9bb f860 b0bc a175 11bc
00000330: 552c a4bc 237e 083d 62a2 623a 5c53 d13c
00000340: 89f8 b9ba 6821 9a3c 4189 5a3d 067e d13b
00000350: b6d5 ee3b 7ad0 813d a10d ffbc 7473 303c
00000360: fa15 383d 3b94 c63c 0832 7d3c 7ff7 46bc
00000370: aeca a5bd d119 0dbc 06a4 f33b 1865 42bd
00000380: 1731 9abb e48d 8fbd 154a 50bc f4db 503b
00000390: 6ce8 9ebc f805 2abd cca3 fe3b fcc5 74bc
000003a0: 782c b6bc b78b 5bbd 2a28 c3ba 2c6b 153a
000003b0: c2d8 ebbc b72f 8a39 b1a4 f2bc bba4 d43b
000003c0: 71e2 5c3c 46f8 0ebc 30e2 6d3d ffb5 ea3a
000003d0: 3234 123b 9558 e83b 10b1 9dbc 711b 3dbb
000003e0: 7124 3dbd 5033 1a3d 5ab5 03bd 3500 19bd
000003f0: b351 87bc a36e 133c 24bd c23b a486 13bb
0.05710502 0.024543617 -0.010227521 -0.0063142013 0.06797677 0.023235222 0.04019681 -0.016531851
0.0015692554 0.04138778 -0.008585104 -0.0067701223 -0.01797125 -0.0182675 -0.027631104 0.032873552
-0.009434257 0.00031891733 -0.018951584 0.0015388837 0.005457142 -0.02961409 -0.0012314147 -0.0033898926
-0.047814973 -0.04155275 0.048219282 -0.0041084923 -0.009468425 -0.011595186 -0.003751781 0.046353564
-0.005858129 -0.039881267 0.007106055 0.00062460435 -0.0006685927 0.016209356 -0.0038336255 0.0019839755
-0.044977672 -0.036617894 0.0007772072 -0.016674457 0.028365415 0.020754728 0.020371785 -0.008128582
0.00586849 0.0067076446 0.015156225 0.011923765 -0.008831984 0.0066817617 -0.0035567896 0.0302577
0.010086174 0.020301888 0.02714916 0.0244545 0.009451299 -0.00422504 -0.010202638 0.022815716
0.014742464 0.018421479 -0.010807874 0.043532137 0.0035304269 0.015917277 -0.0016965544 0.048790753
-0.0012328138 0.0066965492 0.013074614 0.004398139 0.008800625 -0.03138948 -0.041629344 0.030277193
-0.008161922 -0.004365626 0.00440667 0.056839697 -0.0053328685 0.028962666 0.02151294 0.009418068
0.0050689834 -0.024945894 -0.08579326 0.0074172476 0.042433534 0.027704893 -0.012484488 -0.009624154
-0.0007090375 0.0014342066 -0.013015239 -0.0035718477 -0.015930261 0.019351369 -0.004512641 0.0028195016
-0.016647527 0.0017124743 -0.00076974643 -0.004902128 -0.023691561 -0.0057604173 0.035738766 0.009075518
-0.0069234036 0.01654094 0.026079865 0.012810803 -0.003649584 -0.04015399 0.006791962 0.0062656654
-0.033746995 -0.011851698 -0.016855834 -0.0038595535 -0.0038029272 -0.005445318 0.004811749 0.009695467
-0.0243477 -0.023972668 0.007421308 -0.002566571 -0.022008462 0.039084326 -0.0024796738 -0.016760763
0.0046703075 -0.010789744 0.00021073023 -0.0028973834 -0.06473473 0.0058790804 0.010859532 -0.01630467
0.0026618089 0.008264284 0.00067586766 -0.006784886 -0.006568272 -0.004648764 -0.006593389 0.021238528
0.004786062 0.0056538694 0.002662023 -0.00810402 -0.004016876 -0.007929753 0.009700498 0.0032712538
0.038753446 0.0054908204 -0.014536216 -0.008399466 -0.00750788 0.0065462026 0.006678116 0.007725477
0.030949926 0.079341 0.0034949572 -0.0023998725 -0.017473808 0.014008795 -0.025077779 0.0056202495
0.0031583568 0.00083300646 -0.04063817 0.0026054068 0.00371333 0.01319019 -0.0033504844 -0.016314568
0.0025924179 -0.004717889 -0.01626923 -0.027761204 0.0039845305 -0.009564203 -0.01834763 -0.0050113616
0.007007747 0.008563702 -0.015607779 -0.055096254 -0.024895156 0.061607666 -0.015196294 -0.05955649
0.000101066085 -0.007628953 -0.021530613 -0.008878143 -0.02004067 0.03332342 0.0008645413 0.025552444
-0.0014188449 0.018814757 0.05335355 0.006393197 0.00728866 0.06338592 -0.031134428 0.010769714
0.044942833 0.024240604 0.015453823 -0.012143969 -0.08095299 -0.008612112 0.0074353246 -0.04745969
-0.004705559 -0.07009485 -0.012712975 0.0031869384 -0.019397937 -0.0415096 0.007770991 -0.014939781
-0.022238001 -0.05360004 -0.0014889289 0.0005699869 -0.028789882 0.00026356961 -0.029619547 0.006489364
0.013481722 -0.008726185 0.058077037 0.0017907022 0.0022308943 0.007090638 -0.019249469 -0.0028855468
-0.04617733 0.03764659 -0.032155372 -0.037353713 -0.01651845 0.008998546 0.0059429575 -0.0022510672

transformer.h.0.attn.c_proj.bias f4 [64]
00000000: df81 a43c c337 de3a 178e 82bd 74c5 ce3c
00000010: e462 bc3c 9b04 f4bc 5aba 20bd 243c 03be
00000020: 9b72 c2bc 0b4d ebbc 5965 babc 81cf 31bc
00000030: e073 ad3c 09a4 e6bc 36d4 7dba 9ddb 8e3d
00000040: 0c32 453d f546 26bd 5fa4 7cbc 62c8 133d
00000050: 78f3 9fbb 9239 49bd 38fe 4c3d 788f 63bb
00000060: af67 afbc ce39 ac3b 9b67 e63b d3df eebc
00000070: 67af 293d 84e7 7c3a adab ffbb 97cc e33b
00000080: 1bca b53b 916b 1c3d d293 49bd b9f1 8bbb
00000090: 0f07 f33c 2345 633d 3684 da3c 46ff 203d
000000a0: f397 b9bc 0033 37bd d35e 873c c000 9b3c
000000b0: 5dc7 fdbc 4668 7b3d 4c30 cc3c c5c7 483d
000000c0: 052a 83bd 1920 41bc 684b 99bc 872e 8e3c
000000d0: c527 cb3b 9ce9 973c 0ee0 1dbc 17e1 f6bc
000000e0: 8edc f1bc 9fbb cabc a7b2 933c 946c 803c
000000f0: 8f9b 2a3c f163 313d c6b6 d53b 271b 73bb
0.020081459 0.0016953874 -0.06374758 0.025240637 0.022996373 -0.029787352 -0.03924022 -0.1281591
-0.023736289 -0.02872326 -0.022753404 -0.010852695 0.021173418 -0.02815439 -0.0009682806 0.06975482
0.04814343 -0.040595014 -0.0154200485 0.03607977 -0.0048813187 -0.04912717 0.05004713 -0.0034722965
-0.021411745 0.0052559143 0.0070313937 -0.029159462 0.041427042 0.00096475356 -0.007802448 0.0069518792
0.0055477745 0.03818852 -0.049213238 -0.004270759 0.029666452 0.055485856 0.026674371 0.039305948
-0.022655463 -0.04472637 0.016524708 0.018921256 -0.030978853 0.06137874 0.024925373 0.04901864
-0.06404499 -0.011787438 -0.018712714 0.01735617 0.0061998093 0.01854401 -0.009635938 -0.030136628
-0.029524114 -0.024747668 0.018029524 0.015676774 0.010413065 0.043308202 0.0065220324 -0.0037095041

transformer.h.0.ln_2.weight f4 [64]
00000000: cd21 0c40 96e5 4240 b334 1440 695d 2e40
00000010: 5f09 2340 68a4 2140 01d0 4540 dd95 4940
00000020: 4727 3a40 2665 0c40 acb2 0f40 0b09 1b40
00000030: c893 0740 7248 e13f 7750 f23f e6dc 3640
00000040: 7efe 2f40 2525 1340 1cb8 1d40 99c6 0f40
00000050: 7ba6 dc3f e9c9 2d40 81df 3940 8dc8 bb3f
00000060: 4d41 2640 df54 0c40 68cd 0240 7ad9 3640
00000070: 102d 3a40 72d8 c93f 1d92 0140 d889 2040
00000080: c7a0 da3f a8c5 5040 dfad 2840 29ee 0140
00000090: 82b8 5c40 22a7 3d40 0e9f 1840 6915 2c40
000000a0: 49b1 0b40 7576 2e40 281d 4740 6767 0a40
000000b0: 44c9 3e40 b14f 2740 50de 1d40 ea66 2640
000000c0: ee57 3d40 5db6 823f 2b4a f03f c93a 2a40
000000d0: b41f c73f 5638 1b40 f79b fc3f 3ba0 3840
000000e0: 0c63 4140 fe2d 1440 c3a0 2f40 d3d1 d13f
000000f0: 75f6 1840 140a 2240 1130 5940 c580 f13f
2.189563 3.0452628 2.3157165 2.7244513 2.547447 2.5256596 3.0908206 3.149772
2.9086473 2.1936736 2.2452803 2.422427 2.1183949 1.7600234 1.8930806 2.8572326
2.749908 2.2991421 2.4643621 2.2464964 1.7238306 2.7154486 2.9042666 1.4670578
2.5977356 2.1926801 2.043787 2.8570237 2.9090004 1.5769179 2.024543 2.5084133
1.7080315 3.262064 2.6356122 2.0301611 3.4487615 2.963326 2.384708 2.6888068
2.1826956 2.72598 3.1111546 2.1625612 2.9810343 2.614239 2.4666939 2.6000314
2.9584918 1.0211903 1.8772634 2.659838 1.555655 2.4253135 1.9735097 2.8847797
3.0216703 2.3153071 2.744187 1.6392158 2.3900425 2.5318651 3.3935587 1.8867422

transformer.h.0.ln_2.bias f4 [64]
00000000: b0c0 e93e a7d5 ca3e 92f8 dfbe 2d10 b43e
00000010: 1422 2f3f 9bcb b8be 62c6 06bf a085 f0be
00000020: 3dd5 ccbe d576 cfbe 907c 293e c41a 98be
00000030: 8e3d 9fbe 5f0f db3e 2bd9 043e 0eac 273f
00000040: 259f acbc 1097 9fbd e3c3 3fbf 7ffc de3e
00000050: 4228 d03d 6c02 fabe 6a06 47bf 251f 5f3e
00000060: 248c 1bbf 5aae 913e b6d5 babc efad 46bf
00000070: ee7f 143f 5537 d93e ad0e 50bd 37f9 d53e
00000080: 221a 8dbe d0a0 063f 2fa3 4abf 94e7 0a3f
00000090: d392 173f 9efd 3f3f 2246 e43e 3cda 663e
000000a0: 2f43 09bf 56ce 20bf 61ba a33e 30e5 9d3d
000000b0: a918 673e eaed 033f 2a76 51bd 9be5 3a3f
000000c0: 29ee 17bf 1582 533e e28b e5bd a868 133f
000000d0: 085e e33e 3edc 0f3f f67a 92be 8ca2 92be
000000e0: 6254 09bf 3a1e e7be 79e8 a5be fe64 96bd
000000f0: 6c43 d23d ede6 babe bd25 6b3e e408 a8be
0.4565482 0.3961613 -0.43744332 0.3516859 0.68411374 -0.3609284 -0.5264646 -0.46976948
-0.40006438 -0.4052035 0.16551423 -0.2970792 -0.3110165 0.42785165 0.12973468 0.6549691
-0.02107198 -0.07792485 -0.74908274 0.43552014 0.101639286 -0.48829973 -0.7774416 0.21789224
-0.6076071 0.28453332 -0.022806983 -0.7760915 0.58007705 0.42425027 -0.050795246 0.41791698
-0.27559 0.5258913 -0.7915525 0.5425961 0.5920841 0.74996364 0.44584757 0.22544187
-0.5361814 -0.62814844 0.31978133 0.0770973 0.22568001 0.51534903 -0.05113808 0.730066
-0.5934778 0.20655091 -0.11208321 0.5758157 0.44407678 0.5619544 -0.28609437 -0.28639638
-0.5364438 -0.4514025 -0.32403925 -0.073434815 0.10266766 -0.36504307 0.22963615 -0.32819283

transformer.h.0.mlp.c_fc.weight f4 [256, 64]
00000000: 0bf2 89bc 0633 b33c f29f 323d 024f 173d
00000010: aa89 8cbc 2c8c fd3d 71f4 203d 48ab 593d
00000020: b945 75bd 4b96 633c 4617 edbc e05a d2bc
00000030: e874 6c3d e5f4 a5bb 8ff4 af3c 0637 84bb
00000040: e271 47bb bca9 2bbc 3e1a a4bc 35e2 063d
00000050: 447f 023d dc27 d63b de0a 2a3d 54e2 443c
00000060: 463a f93b 7e83 343c 51d0 063c af4e 983d
00000070: c129 7b3b 5e5e 00be 5012 b3bd 3ff1 bdbd
00000080: f39c c53c 2ead 58bb fc22 bbbc 7c31 6ebc
00000090: 96b3 d23c b550 d7bd 01ad eabd 9515 9d3c
000000a0: b4d9 313b 7fa6 713b 05e2 4abc e664 1ebd
000000b0: b487 933d 75e2 0abc f0d8 31bd 5ad0 ba3c
000000c0: 65dd 823a 3a70 b8bc 46c8 be3c 500b 323c
000000d0: f843 35bd 25b7 07bc e471 58bc 8070 84bc
000000e0: 149f 1d3d 0fa8 963c dcf1 69bd b851 9fbc
000000f0: f7b8 4bbd 7ebf 453b f5af 80bc df9a 893c
00000100: 445d c73a d625 83bd 10b5 253b 2863 013d
00000110: 948e 903c 4884 ed3d 9809 5dba 4121 06bc
00000120: 5ef2 a03c bc95 ae3d 4371 48bd f7c2 673d
00000130: 3d48 9a3d 71f3 28bd 2c1d fbbc 64db cfbc
00000140: 50a9 843d 2c03 d8bc c236 bfbb 5b6f aebd
00000150: 1439 553d 1539 f23c bb3d 853c 3a5a ccbc
00000160: 9abb 7b3d c973 cebc 4646 0bbd 51c0 66bc
00000170: 78cb fb3c a1a7 6d3d 9d4f 28bd 2fef 19bd
00000180: be31 403d db1b 8fbb 7c22 e4bc 070b 41bd
00000190: de9d b4bd 8ba0 98bd f16f 44bc 9f45 a8bc
000001a0: de51 5bbd 3368 1d3d 17f6 c43c 26fd 203d
000001b0: 8ab4 cd3c d71a 8cbc 7cba 1bbc c7cd a0bb
000001c0: 8cb3 963c 2345 00bd a9b4 c2bc 7a1b 80bb
000001d0: 1a6e 0abc f2fa a5bd f3a2 aa3c 3a56 28bc
000001e0: 517b 1fbc 6a6f 11bd e005 093e 7d32 ac3d
000001f0: 449a d03b 0f04 b2bd d91e 223d 426b 443c
00000200: 56eb 373c 842f 99bb c796 a03d 87cf a4bd
00000210: 153e 4cbd 1f35 823c 3849 01ba 6da6 b3bc
00000220: a38e 303c a6cb e23c e581 c23b 00f6 3f3c
00000230: 70aa 3239 63ee b3bb 324e 093d 3338 c2bd
00000240: 96f2 363d 9fee 1f3d 9036 503c 367f 713c
00000250: 34d4 5dbd 98f5 983d a817 813d fa60 63bd
00000260: 5d71 7e3d a331 4c3d 25df 773d 2464 26bb
00000270: b6d5 35bc 3e96 513d 6298 b3bd a972 0ebd
00000280: 896c a0bc 9248 aebd 12b2 623c f2b8 f4ba
00000290: 5424 87bd 2947 383c 9aff 8dbc cfed 0e3c
000002a0: 63f9 1c3d 8342 b93c fd4f 92bd 6b60 2abd
000002b0: 758b 18bc 35cd 23bb 4281 a33c d671 e5bd
000002c0: dc4d 123c e9b6 bcbb ec97 e2bc 2bf3 46bc
000002d0: 461a ddbd a42c c1bd 42e8 e33d 5d7c 4fbc
000002e0: 977a bf3d 3f0e cf3a bddc 563d 2f63 5ebd
000002f0: b052 4e3d a4dd 8a3d a474 7ebd 92ed bb3d
00000300: 71bc c53c 11f5 babd 852f 203b b093 563d
00000310: 4b87 92bc 9f89 a63b acab 353d 330e 76bc
00000320: 7cf1 213d 8a00 fcbb e31c 233c cfaf b1bb
00000330: 079a 413c c7ca 1abd 67ff 853b ed9a 7ebd
00000340: 161a 75bd f2da 423d 35f8 7a3d 5351 9dbd
00000350: 54b2 4cbc 0fdb dab9 28c8 ff3c 0a65 17bc
00000360: 81a9 68bc cbfa a6bc e8eb 0abc c09f 01bc
00000370: 246e 5c3c c333 303c e67b 103d ab16 97bc
00000380: 7dab 813c db7f 923c d9fd 1139 c130 a53c
00000390: 769d 3ebc 94bf 4cbd a9d0 9e3c 88eb eb3c
000003a0: e71e 1cbc cd9d 5c3d 4918 143d 16e7 8bbc
000003b0: 8cc4 243c be31 7dbd cdd6 903c 43f6 8abc
000003c0: 0dd6 a43d f562 5bbd a2d0 7b3c 4d46 033d
000003d0: 1e8d 573c 774e b2bc 9386 ecbc cc11 3cbd
000003e0: 065b 913c eac2 5fbc 0e93 9b3c 3a4f b9ba
000003f0: 7612 e73b 2a0b a1bd 090e 7d3d ad18 103d
-0.016839048 0.021874916 0.043609567 0.036940582 -0.017155487 0.12380251 0.039295617 0.053141862
-0.059880946 0.013890813 -0.028941762 -0.025678098 0.057728678 -0.005064594 0.02147892 -0.0040348796
-0.003043287 -0.01047748 -0.020032045 0.03293057 0.03185965 0.0065355133 0.04151427 0.012016851
0.0076058237 0.011017678 0.008228377 0.07436883 0.0038324448 -0.12535998 -0.08743727 -0.0927453
0.02412269 -0.0033062208 -0.02284383 -0.014538165 0.025720399 -0.105134405 -0.11458779 0.01917533
0.0027137818 0.003687292 -0.012382989 -0.038670443 0.07203618 -0.008476843 -0.04341978 0.022804428
0.0009984194 -0.022514451 0.023288857 0.010866955 -0.044254273 -0.008283411 -0.013210747 -0.016166925
0.038481787 0.018390683 -0.05711542 -0.019448146 -0.049736943 0.0030173953 -0.015708903 0.016797481
0.001521029 -0.06403701 0.0025284924 0.031588703 0.017646112 0.11597496 -0.00084319105 -0.008186639
0.01964682 0.08524653 -0.04893614 0.056582417 0.075333096 -0.04124779 -0.030653559 -0.025373168
0.06477606 -0.0263687 -0.005835385 -0.08517333 0.052056387 0.029568234 0.016264787 -0.024945367
0.061458208 -0.025201695 -0.034002565 -0.014083938 0.03073667 0.05802119 -0.04109155 -0.03758162
0.046922438 -0.0043673343 -0.027848475 -0.047129657 -0.08819173 -0.07452496 -0.01198958 -0.02054101
-0.05354487 0.03842945 0.024043126 0.03930392 0.025110502 -0.017102642 -0.009504911 -0.004907343
0.018396161 -0.031315934 -0.023767786 -0.0039095255 -0.008449102 -0.08104505 0.020829653 -0.010274464
-0.009733991 -0.035506643 0.13381147 0.084080674 0.006366046 -0.0869218 0.0395802 0.011988463
0.011225542 -0.0046748538 0.078412585 -0.08047395 -0.049863894 0.01589447 -0.000493187 -0.021929944
0.010776195 0.027684998 0.005935895 0.011716366 0.00017038896 -0.0054910644 0.03352184 -0.094833754
0.04466494 0.039045926 0.012708321 0.014739802 -0.05415745 0.07468718 0.0630334 -0.055512406
0.06211983 0.049852025 0.06051554 -0.0025389278 -0.011098316 0.051168673 -0.08769299 -0.034777317
-0.019583004 -0.085099354 0.013836401 -0.0018670841 -0.06598726 0.011247435 -0.017333794 0.00872369
0.03832377 0.022614723 -0.07144163 -0.041595858 -0.009310593 -0.002499414 0.019959096 -0.11203353
0.008929696 -0.0057591093 -0.027660333 -0.012142937 -0.10796027 -0.09432343 0.11128284 -0.012663928
0.09349554 0.0015797092 0.052456606 -0.054293808 0.050371826 0.06780556 -0.062122956 0.09176172
0.024137707 -0.09128774 0.0024442386 0.05238694 -0.017886778 0.0050823237 0.044353172 -0.015018034
0.039536938 -0.007690494 0.009955618 -0.0054225693 0.011816508 -0.03779104 0.004089284 -0.062159467
-0.05983933 0.047572084 0.061271865 -0.07681527 -0.012493689 -0.00041743412 0.031223372 -0.009240398
-0.014200569 -0.02038326 -0.008479096 -0.0079116225 0.013453994 0.010754528 0.03527441 -0.018443426
0.015828842 0.017883232 0.00013922843 0.02016485 -0.011634221 -0.04998739 0.019386606 0.028798833
-0.009528852 0.053861428 0.036155973 -0.017077964 0.010056626 -0.061815016 0.01768055 -0.01696313
0.080486394 -0.05356117 0.015369566 0.032049466 0.013156204 -0.02176593 -0.028872764 -0.04591541
0.017743599 -0.013657311 0.01899102 -0.0014137991 0.0070517613 -0.078634575 0.061780963 0.035179783
